<?xml version="1.0" ?>
<net name="person-reidentification-retail-0277" version="10">
	<layers>
		<layer id="0" name="data_mul_2232022324238731919" type="Const" version="opset1">
			<data element_type="f16" offset="0" shape="1,256,1" size="512"/>
			<output>
				<port id="0" precision="FP16">
					<dim>1</dim>
					<dim>256</dim>
					<dim>1</dim>
				</port>
			</output>
		</layer>
		<layer id="1" name="108181082228505" type="Const" version="opset1">
			<data element_type="f16" offset="512" shape="" size="2"/>
			<output>
				<port id="0" precision="FP16"/>
			</output>
		</layer>
		<layer id="2" name="108191082329852" type="Const" version="opset1">
			<data element_type="f16" offset="514" shape="" size="2"/>
			<output>
				<port id="0" precision="FP16"/>
			</output>
		</layer>
		<layer id="3" name="108201082433740" type="Const" version="opset1">
			<data element_type="f16" offset="512" shape="" size="2"/>
			<output>
				<port id="0" precision="FP16"/>
			</output>
		</layer>
		<layer id="4" name="108211082533035" type="Const" version="opset1">
			<data element_type="f16" offset="514" shape="" size="2"/>
			<output>
				<port id="0" precision="FP16"/>
			</output>
		</layer>
		<layer id="5" name="108081081230785" type="Const" version="opset1">
			<data element_type="f16" offset="516" shape="" size="2"/>
			<output>
				<port id="0" precision="FP16"/>
			</output>
		</layer>
		<layer id="6" name="108091081330002" type="Const" version="opset1">
			<data element_type="f16" offset="518" shape="" size="2"/>
			<output>
				<port id="0" precision="FP16"/>
			</output>
		</layer>
		<layer id="7" name="108101081430152" type="Const" version="opset1">
			<data element_type="f16" offset="516" shape="" size="2"/>
			<output>
				<port id="0" precision="FP16"/>
			</output>
		</layer>
		<layer id="8" name="108111081532864" type="Const" version="opset1">
			<data element_type="f16" offset="518" shape="" size="2"/>
			<output>
				<port id="0" precision="FP16"/>
			</output>
		</layer>
		<layer id="9" name="6127613129318" type="Const" version="opset1">
			<data element_type="f16" offset="520" shape="1,512,1,1" size="1024"/>
			<output>
				<port id="0" precision="FP16">
					<dim>1</dim>
					<dim>512</dim>
					<dim>1</dim>
					<dim>1</dim>
				</port>
			</output>
		</layer>
		<layer id="10" name="6128613230791" type="Const" version="opset1">
			<data element_type="f16" offset="1544" shape="1,512,1,1" size="1024"/>
			<output>
				<port id="0" precision="FP16">
					<dim>1</dim>
					<dim>512</dim>
					<dim>1</dim>
					<dim>1</dim>
				</port>
			</output>
		</layer>
		<layer id="11" name="6129613333323" type="Const" version="opset1">
			<data element_type="f16" offset="520" shape="1,512,1,1" size="1024"/>
			<output>
				<port id="0" precision="FP16">
					<dim>1</dim>
					<dim>512</dim>
					<dim>1</dim>
					<dim>1</dim>
				</port>
			</output>
		</layer>
		<layer id="12" name="6130613430752" type="Const" version="opset1">
			<data element_type="f16" offset="1544" shape="1,512,1,1" size="1024"/>
			<output>
				<port id="0" precision="FP16">
					<dim>1</dim>
					<dim>512</dim>
					<dim>1</dim>
					<dim>1</dim>
				</port>
			</output>
		</layer>
		<layer id="13" name="4497450132858" type="Const" version="opset1">
			<data element_type="f16" offset="2568" shape="" size="2"/>
			<output>
				<port id="0" precision="FP16"/>
			</output>
		</layer>
		<layer id="14" name="4498450232669" type="Const" version="opset1">
			<data element_type="f16" offset="2570" shape="" size="2"/>
			<output>
				<port id="0" precision="FP16"/>
			</output>
		</layer>
		<layer id="15" name="4499450333218" type="Const" version="opset1">
			<data element_type="f16" offset="2568" shape="" size="2"/>
			<output>
				<port id="0" precision="FP16"/>
			</output>
		</layer>
		<layer id="16" name="4500450429012" type="Const" version="opset1">
			<data element_type="f16" offset="2570" shape="" size="2"/>
			<output>
				<port id="0" precision="FP16"/>
			</output>
		</layer>
		<layer id="17" name="5947595130602" type="Const" version="opset1">
			<data element_type="f16" offset="2572" shape="" size="2"/>
			<output>
				<port id="0" precision="FP16"/>
			</output>
		</layer>
		<layer id="18" name="5948595231871" type="Const" version="opset1">
			<data element_type="f16" offset="2574" shape="" size="2"/>
			<output>
				<port id="0" precision="FP16"/>
			</output>
		</layer>
		<layer id="19" name="5949595333629" type="Const" version="opset1">
			<data element_type="f16" offset="2572" shape="" size="2"/>
			<output>
				<port id="0" precision="FP16"/>
			</output>
		</layer>
		<layer id="20" name="5950595428784" type="Const" version="opset1">
			<data element_type="f16" offset="2574" shape="" size="2"/>
			<output>
				<port id="0" precision="FP16"/>
			</output>
		</layer>
		<layer id="21" name="7497750130233" type="Const" version="opset1">
			<data element_type="f16" offset="2568" shape="" size="2"/>
			<output>
				<port id="0" precision="FP16"/>
			</output>
		</layer>
		<layer id="22" name="7498750233752" type="Const" version="opset1">
			<data element_type="f16" offset="2576" shape="" size="2"/>
			<output>
				<port id="0" precision="FP16"/>
			</output>
		</layer>
		<layer id="23" name="7499750329015" type="Const" version="opset1">
			<data element_type="f16" offset="2568" shape="" size="2"/>
			<output>
				<port id="0" precision="FP16"/>
			</output>
		</layer>
		<layer id="24" name="7500750429588" type="Const" version="opset1">
			<data element_type="f16" offset="2576" shape="" size="2"/>
			<output>
				<port id="0" precision="FP16"/>
			</output>
		</layer>
		<layer id="25" name="6207621131490" type="Const" version="opset1">
			<data element_type="f16" offset="2568" shape="" size="2"/>
			<output>
				<port id="0" precision="FP16"/>
			</output>
		</layer>
		<layer id="26" name="6208621229489" type="Const" version="opset1">
			<data element_type="f16" offset="2578" shape="" size="2"/>
			<output>
				<port id="0" precision="FP16"/>
			</output>
		</layer>
		<layer id="27" name="6209621328940" type="Const" version="opset1">
			<data element_type="f16" offset="2568" shape="" size="2"/>
			<output>
				<port id="0" precision="FP16"/>
			</output>
		</layer>
		<layer id="28" name="6210621433482" type="Const" version="opset1">
			<data element_type="f16" offset="2578" shape="" size="2"/>
			<output>
				<port id="0" precision="FP16"/>
			</output>
		</layer>
		<layer id="29" name="6997700131295" type="Const" version="opset1">
			<data element_type="f16" offset="2568" shape="" size="2"/>
			<output>
				<port id="0" precision="FP16"/>
			</output>
		</layer>
		<layer id="30" name="6998700228679" type="Const" version="opset1">
			<data element_type="f16" offset="2580" shape="" size="2"/>
			<output>
				<port id="0" precision="FP16"/>
			</output>
		</layer>
		<layer id="31" name="6999700331154" type="Const" version="opset1">
			<data element_type="f16" offset="2568" shape="" size="2"/>
			<output>
				<port id="0" precision="FP16"/>
			</output>
		</layer>
		<layer id="32" name="7000700429705" type="Const" version="opset1">
			<data element_type="f16" offset="2580" shape="" size="2"/>
			<output>
				<port id="0" precision="FP16"/>
			</output>
		</layer>
		<layer id="33" name="6667667131961" type="Const" version="opset1">
			<data element_type="f16" offset="2568" shape="" size="2"/>
			<output>
				<port id="0" precision="FP16"/>
			</output>
		</layer>
		<layer id="34" name="6668667228532" type="Const" version="opset1">
			<data element_type="f16" offset="2582" shape="" size="2"/>
			<output>
				<port id="0" precision="FP16"/>
			</output>
		</layer>
		<layer id="35" name="6669667330665" type="Const" version="opset1">
			<data element_type="f16" offset="2568" shape="" size="2"/>
			<output>
				<port id="0" precision="FP16"/>
			</output>
		</layer>
		<layer id="36" name="6670667432762" type="Const" version="opset1">
			<data element_type="f16" offset="2582" shape="" size="2"/>
			<output>
				<port id="0" precision="FP16"/>
			</output>
		</layer>
		<layer id="37" name="6327633130554" type="Const" version="opset1">
			<data element_type="f16" offset="2568" shape="" size="2"/>
			<output>
				<port id="0" precision="FP16"/>
			</output>
		</layer>
		<layer id="38" name="6328633228817" type="Const" version="opset1">
			<data element_type="f16" offset="2584" shape="" size="2"/>
			<output>
				<port id="0" precision="FP16"/>
			</output>
		</layer>
		<layer id="39" name="6329633332165" type="Const" version="opset1">
			<data element_type="f16" offset="2568" shape="" size="2"/>
			<output>
				<port id="0" precision="FP16"/>
			</output>
		</layer>
		<layer id="40" name="6330633431313" type="Const" version="opset1">
			<data element_type="f16" offset="2584" shape="" size="2"/>
			<output>
				<port id="0" precision="FP16"/>
			</output>
		</layer>
		<layer id="41" name="1069/Unsqueeze218730131" type="Const" version="opset1">
			<data element_type="f16" offset="2586" shape="1,128,1,1" size="256"/>
			<output>
				<port id="0" names="1069" precision="FP16">
					<dim>1</dim>
					<dim>128</dim>
					<dim>1</dim>
					<dim>1</dim>
				</port>
			</output>
		</layer>
		<layer id="42" name="107381074232534" type="Const" version="opset1">
			<data element_type="f16" offset="2842" shape="" size="2"/>
			<output>
				<port id="0" precision="FP16"/>
			</output>
		</layer>
		<layer id="43" name="107391074331925" type="Const" version="opset1">
			<data element_type="f16" offset="2844" shape="" size="2"/>
			<output>
				<port id="0" precision="FP16"/>
			</output>
		</layer>
		<layer id="44" name="107401074432819" type="Const" version="opset1">
			<data element_type="f16" offset="2842" shape="" size="2"/>
			<output>
				<port id="0" precision="FP16"/>
			</output>
		</layer>
		<layer id="45" name="107411074532552" type="Const" version="opset1">
			<data element_type="f16" offset="2844" shape="" size="2"/>
			<output>
				<port id="0" precision="FP16"/>
			</output>
		</layer>
		<layer id="46" name="1066/Range_input_port_0/value217331277" type="Const" version="opset1">
			<data element_type="i64" offset="2846" shape="" size="8"/>
			<output>
				<port id="0" precision="I64"/>
			</output>
		</layer>
		<layer id="47" name="1062217130989" type="Const" version="opset1">
			<data element_type="i64" offset="2854" shape="3" size="24"/>
			<output>
				<port id="0" names="1062" precision="I64">
					<dim>3</dim>
				</port>
			</output>
		</layer>
		<layer id="48" name="107281073230983" type="Const" version="opset1">
			<data element_type="f16" offset="2568" shape="" size="2"/>
			<output>
				<port id="0" precision="FP16"/>
			</output>
		</layer>
		<layer id="49" name="107291073328997" type="Const" version="opset1">
			<data element_type="f16" offset="2878" shape="" size="2"/>
			<output>
				<port id="0" precision="FP16"/>
			</output>
		</layer>
		<layer id="50" name="107301073430440" type="Const" version="opset1">
			<data element_type="f16" offset="2568" shape="" size="2"/>
			<output>
				<port id="0" precision="FP16"/>
			</output>
		</layer>
		<layer id="51" name="107311073533788" type="Const" version="opset1">
			<data element_type="f16" offset="2878" shape="" size="2"/>
			<output>
				<port id="0" precision="FP16"/>
			</output>
		</layer>
		<layer id="52" name="6817682128385" type="Const" version="opset1">
			<data element_type="f16" offset="2568" shape="" size="2"/>
			<output>
				<port id="0" precision="FP16"/>
			</output>
		</layer>
		<layer id="53" name="6818682230278" type="Const" version="opset1">
			<data element_type="f16" offset="2880" shape="" size="2"/>
			<output>
				<port id="0" precision="FP16"/>
			</output>
		</layer>
		<layer id="54" name="6819682330362" type="Const" version="opset1">
			<data element_type="f16" offset="2568" shape="" size="2"/>
			<output>
				<port id="0" precision="FP16"/>
			</output>
		</layer>
		<layer id="55" name="6820682432357" type="Const" version="opset1">
			<data element_type="f16" offset="2880" shape="" size="2"/>
			<output>
				<port id="0" precision="FP16"/>
			</output>
		</layer>
		<layer id="56" name="4237424128454" type="Const" version="opset1">
			<data element_type="f16" offset="2882" shape="1,128,1,1" size="256"/>
			<output>
				<port id="0" precision="FP16">
					<dim>1</dim>
					<dim>128</dim>
					<dim>1</dim>
					<dim>1</dim>
				</port>
			</output>
		</layer>
		<layer id="57" name="4238424230368" type="Const" version="opset1">
			<data element_type="f16" offset="3138" shape="1,128,1,1" size="256"/>
			<output>
				<port id="0" precision="FP16">
					<dim>1</dim>
					<dim>128</dim>
					<dim>1</dim>
					<dim>1</dim>
				</port>
			</output>
		</layer>
		<layer id="58" name="4239424331172" type="Const" version="opset1">
			<data element_type="f16" offset="2882" shape="1,128,1,1" size="256"/>
			<output>
				<port id="0" precision="FP16">
					<dim>1</dim>
					<dim>128</dim>
					<dim>1</dim>
					<dim>1</dim>
				</port>
			</output>
		</layer>
		<layer id="59" name="4240424433650" type="Const" version="opset1">
			<data element_type="f16" offset="3138" shape="1,128,1,1" size="256"/>
			<output>
				<port id="0" precision="FP16">
					<dim>1</dim>
					<dim>128</dim>
					<dim>1</dim>
					<dim>1</dim>
				</port>
			</output>
		</layer>
		<layer id="60" name="3072307430515" type="Const" version="opset1">
			<data element_type="f16" offset="3394" shape="1,128,1,1" size="256"/>
			<output>
				<port id="0" precision="FP16">
					<dim>1</dim>
					<dim>128</dim>
					<dim>1</dim>
					<dim>1</dim>
				</port>
			</output>
		</layer>
		<layer id="61" name="4727473130824" type="Const" version="opset1">
			<data element_type="f16" offset="2568" shape="" size="2"/>
			<output>
				<port id="0" precision="FP16"/>
			</output>
		</layer>
		<layer id="62" name="4728473231841" type="Const" version="opset1">
			<data element_type="f16" offset="3650" shape="" size="2"/>
			<output>
				<port id="0" precision="FP16"/>
			</output>
		</layer>
		<layer id="63" name="4729473333344" type="Const" version="opset1">
			<data element_type="f16" offset="2568" shape="" size="2"/>
			<output>
				<port id="0" precision="FP16"/>
			</output>
		</layer>
		<layer id="64" name="4730473428877" type="Const" version="opset1">
			<data element_type="f16" offset="3650" shape="" size="2"/>
			<output>
				<port id="0" precision="FP16"/>
			</output>
		</layer>
		<layer id="65" name="6567657129441" type="Const" version="opset1">
			<data element_type="f16" offset="2568" shape="" size="2"/>
			<output>
				<port id="0" precision="FP16"/>
			</output>
		</layer>
		<layer id="66" name="6568657230812" type="Const" version="opset1">
			<data element_type="f16" offset="3652" shape="" size="2"/>
			<output>
				<port id="0" precision="FP16"/>
			</output>
		</layer>
		<layer id="67" name="6569657332129" type="Const" version="opset1">
			<data element_type="f16" offset="2568" shape="" size="2"/>
			<output>
				<port id="0" precision="FP16"/>
			</output>
		</layer>
		<layer id="68" name="6570657433326" type="Const" version="opset1">
			<data element_type="f16" offset="3652" shape="" size="2"/>
			<output>
				<port id="0" precision="FP16"/>
			</output>
		</layer>
		<layer id="69" name="7417742129336" type="Const" version="opset1">
			<data element_type="f16" offset="3654" shape="" size="2"/>
			<output>
				<port id="0" precision="FP16"/>
			</output>
		</layer>
		<layer id="70" name="7418742233419" type="Const" version="opset1">
			<data element_type="f16" offset="3656" shape="" size="2"/>
			<output>
				<port id="0" precision="FP16"/>
			</output>
		</layer>
		<layer id="71" name="7419742333161" type="Const" version="opset1">
			<data element_type="f16" offset="3654" shape="" size="2"/>
			<output>
				<port id="0" precision="FP16"/>
			</output>
		</layer>
		<layer id="72" name="7420742428976" type="Const" version="opset1">
			<data element_type="f16" offset="3656" shape="" size="2"/>
			<output>
				<port id="0" precision="FP16"/>
			</output>
		</layer>
		<layer id="73" name="5617562133230" type="Const" version="opset1">
			<data element_type="f16" offset="2568" shape="" size="2"/>
			<output>
				<port id="0" precision="FP16"/>
			</output>
		</layer>
		<layer id="74" name="5618562229192" type="Const" version="opset1">
			<data element_type="f16" offset="3658" shape="" size="2"/>
			<output>
				<port id="0" precision="FP16"/>
			</output>
		</layer>
		<layer id="75" name="5619562328904" type="Const" version="opset1">
			<data element_type="f16" offset="2568" shape="" size="2"/>
			<output>
				<port id="0" precision="FP16"/>
			</output>
		</layer>
		<layer id="76" name="5620562429294" type="Const" version="opset1">
			<data element_type="f16" offset="3658" shape="" size="2"/>
			<output>
				<port id="0" precision="FP16"/>
			</output>
		</layer>
		<layer id="77" name="6167617132987" type="Const" version="opset1">
			<data element_type="f16" offset="2568" shape="" size="2"/>
			<output>
				<port id="0" precision="FP16"/>
			</output>
		</layer>
		<layer id="78" name="6168617230539" type="Const" version="opset1">
			<data element_type="f16" offset="3660" shape="" size="2"/>
			<output>
				<port id="0" precision="FP16"/>
			</output>
		</layer>
		<layer id="79" name="6169617329732" type="Const" version="opset1">
			<data element_type="f16" offset="2568" shape="" size="2"/>
			<output>
				<port id="0" precision="FP16"/>
			</output>
		</layer>
		<layer id="80" name="6170617431379" type="Const" version="opset1">
			<data element_type="f16" offset="3660" shape="" size="2"/>
			<output>
				<port id="0" precision="FP16"/>
			</output>
		</layer>
		<layer id="81" name="4457446130179" type="Const" version="opset1">
			<data element_type="f16" offset="2568" shape="" size="2"/>
			<output>
				<port id="0" precision="FP16"/>
			</output>
		</layer>
		<layer id="82" name="4458446229546" type="Const" version="opset1">
			<data element_type="f16" offset="3662" shape="" size="2"/>
			<output>
				<port id="0" precision="FP16"/>
			</output>
		</layer>
		<layer id="83" name="4459446331514" type="Const" version="opset1">
			<data element_type="f16" offset="2568" shape="" size="2"/>
			<output>
				<port id="0" precision="FP16"/>
			</output>
		</layer>
		<layer id="84" name="4460446432630" type="Const" version="opset1">
			<data element_type="f16" offset="3662" shape="" size="2"/>
			<output>
				<port id="0" precision="FP16"/>
			</output>
		</layer>
		<layer id="85" name="5007501130950" type="Const" version="opset1">
			<data element_type="f16" offset="2568" shape="" size="2"/>
			<output>
				<port id="0" precision="FP16"/>
			</output>
		</layer>
		<layer id="86" name="5008501230047" type="Const" version="opset1">
			<data element_type="f16" offset="3664" shape="" size="2"/>
			<output>
				<port id="0" precision="FP16"/>
			</output>
		</layer>
		<layer id="87" name="5009501330632" type="Const" version="opset1">
			<data element_type="f16" offset="2568" shape="" size="2"/>
			<output>
				<port id="0" precision="FP16"/>
			</output>
		</layer>
		<layer id="88" name="5010501432135" type="Const" version="opset1">
			<data element_type="f16" offset="3664" shape="" size="2"/>
			<output>
				<port id="0" precision="FP16"/>
			</output>
		</layer>
		<layer id="89" name="5757576131631" type="Const" version="opset1">
			<data element_type="f16" offset="2568" shape="" size="2"/>
			<output>
				<port id="0" precision="FP16"/>
			</output>
		</layer>
		<layer id="90" name="5758576228517" type="Const" version="opset1">
			<data element_type="f16" offset="3666" shape="" size="2"/>
			<output>
				<port id="0" precision="FP16"/>
			</output>
		</layer>
		<layer id="91" name="5759576332936" type="Const" version="opset1">
			<data element_type="f16" offset="2568" shape="" size="2"/>
			<output>
				<port id="0" precision="FP16"/>
			</output>
		</layer>
		<layer id="92" name="5760576429405" type="Const" version="opset1">
			<data element_type="f16" offset="3666" shape="" size="2"/>
			<output>
				<port id="0" precision="FP16"/>
			</output>
		</layer>
		<layer id="93" name="6587659132153" type="Const" version="opset1">
			<data element_type="f16" offset="2568" shape="" size="2"/>
			<output>
				<port id="0" precision="FP16"/>
			</output>
		</layer>
		<layer id="94" name="6588659232996" type="Const" version="opset1">
			<data element_type="f16" offset="3668" shape="" size="2"/>
			<output>
				<port id="0" precision="FP16"/>
			</output>
		</layer>
		<layer id="95" name="6589659332561" type="Const" version="opset1">
			<data element_type="f16" offset="2568" shape="" size="2"/>
			<output>
				<port id="0" precision="FP16"/>
			</output>
		</layer>
		<layer id="96" name="6590659432546" type="Const" version="opset1">
			<data element_type="f16" offset="3668" shape="" size="2"/>
			<output>
				<port id="0" precision="FP16"/>
			</output>
		</layer>
		<layer id="97" name="4317432128292" type="Const" version="opset1">
			<data element_type="f16" offset="3670" shape="1,128,1,1" size="256"/>
			<output>
				<port id="0" precision="FP16">
					<dim>1</dim>
					<dim>128</dim>
					<dim>1</dim>
					<dim>1</dim>
				</port>
			</output>
		</layer>
		<layer id="98" name="4318432228901" type="Const" version="opset1">
			<data element_type="f16" offset="3926" shape="1,128,1,1" size="256"/>
			<output>
				<port id="0" precision="FP16">
					<dim>1</dim>
					<dim>128</dim>
					<dim>1</dim>
					<dim>1</dim>
				</port>
			</output>
		</layer>
		<layer id="99" name="4319432332855" type="Const" version="opset1">
			<data element_type="f16" offset="3670" shape="1,128,1,1" size="256"/>
			<output>
				<port id="0" precision="FP16">
					<dim>1</dim>
					<dim>128</dim>
					<dim>1</dim>
					<dim>1</dim>
				</port>
			</output>
		</layer>
		<layer id="100" name="4320432431496" type="Const" version="opset1">
			<data element_type="f16" offset="3926" shape="1,128,1,1" size="256"/>
			<output>
				<port id="0" precision="FP16">
					<dim>1</dim>
					<dim>128</dim>
					<dim>1</dim>
					<dim>1</dim>
				</port>
			</output>
		</layer>
		<layer id="101" name="3032303432909" type="Const" version="opset1">
			<data element_type="f16" offset="3394" shape="1,128,1,1" size="256"/>
			<output>
				<port id="0" precision="FP16">
					<dim>1</dim>
					<dim>128</dim>
					<dim>1</dim>
					<dim>1</dim>
				</port>
			</output>
		</layer>
		<layer id="102" name="5127513133716" type="Const" version="opset1">
			<data element_type="f16" offset="2568" shape="" size="2"/>
			<output>
				<port id="0" precision="FP16"/>
			</output>
		</layer>
		<layer id="103" name="5128513228655" type="Const" version="opset1">
			<data element_type="f16" offset="4182" shape="" size="2"/>
			<output>
				<port id="0" precision="FP16"/>
			</output>
		</layer>
		<layer id="104" name="5129513332483" type="Const" version="opset1">
			<data element_type="f16" offset="2568" shape="" size="2"/>
			<output>
				<port id="0" precision="FP16"/>
			</output>
		</layer>
		<layer id="105" name="5130513429360" type="Const" version="opset1">
			<data element_type="f16" offset="4182" shape="" size="2"/>
			<output>
				<port id="0" precision="FP16"/>
			</output>
		</layer>
		<layer id="106" name="7877788129660" type="Const" version="opset1">
			<data element_type="f16" offset="2568" shape="" size="2"/>
			<output>
				<port id="0" precision="FP16"/>
			</output>
		</layer>
		<layer id="107" name="7878788231394" type="Const" version="opset1">
			<data element_type="f16" offset="4184" shape="" size="2"/>
			<output>
				<port id="0" precision="FP16"/>
			</output>
		</layer>
		<layer id="108" name="7879788328745" type="Const" version="opset1">
			<data element_type="f16" offset="2568" shape="" size="2"/>
			<output>
				<port id="0" precision="FP16"/>
			</output>
		</layer>
		<layer id="109" name="7880788431304" type="Const" version="opset1">
			<data element_type="f16" offset="4184" shape="" size="2"/>
			<output>
				<port id="0" precision="FP16"/>
			</output>
		</layer>
		<layer id="110" name="5467547128418" type="Const" version="opset1">
			<data element_type="f16" offset="2568" shape="" size="2"/>
			<output>
				<port id="0" precision="FP16"/>
			</output>
		</layer>
		<layer id="111" name="5468547231703" type="Const" version="opset1">
			<data element_type="f16" offset="4186" shape="" size="2"/>
			<output>
				<port id="0" precision="FP16"/>
			</output>
		</layer>
		<layer id="112" name="5469547331151" type="Const" version="opset1">
			<data element_type="f16" offset="2568" shape="" size="2"/>
			<output>
				<port id="0" precision="FP16"/>
			</output>
		</layer>
		<layer id="113" name="5470547429153" type="Const" version="opset1">
			<data element_type="f16" offset="4186" shape="" size="2"/>
			<output>
				<port id="0" precision="FP16"/>
			</output>
		</layer>
		<layer id="114" name="7907791131850" type="Const" version="opset1">
			<data element_type="f16" offset="2568" shape="" size="2"/>
			<output>
				<port id="0" precision="FP16"/>
			</output>
		</layer>
		<layer id="115" name="7908791232852" type="Const" version="opset1">
			<data element_type="f16" offset="4188" shape="" size="2"/>
			<output>
				<port id="0" precision="FP16"/>
			</output>
		</layer>
		<layer id="116" name="7909791332183" type="Const" version="opset1">
			<data element_type="f16" offset="2568" shape="" size="2"/>
			<output>
				<port id="0" precision="FP16"/>
			</output>
		</layer>
		<layer id="117" name="7910791430734" type="Const" version="opset1">
			<data element_type="f16" offset="4188" shape="" size="2"/>
			<output>
				<port id="0" precision="FP16"/>
			</output>
		</layer>
		<layer id="118" name="7557756132408" type="Const" version="opset1">
			<data element_type="f16" offset="4190" shape="" size="2"/>
			<output>
				<port id="0" precision="FP16"/>
			</output>
		</layer>
		<layer id="119" name="7558756231193" type="Const" version="opset1">
			<data element_type="f16" offset="4192" shape="" size="2"/>
			<output>
				<port id="0" precision="FP16"/>
			</output>
		</layer>
		<layer id="120" name="7559756331205" type="Const" version="opset1">
			<data element_type="f16" offset="4190" shape="" size="2"/>
			<output>
				<port id="0" precision="FP16"/>
			</output>
		</layer>
		<layer id="121" name="7560756430062" type="Const" version="opset1">
			<data element_type="f16" offset="4192" shape="" size="2"/>
			<output>
				<port id="0" precision="FP16"/>
			</output>
		</layer>
		<layer id="122" name="4567457130341" type="Const" version="opset1">
			<data element_type="f16" offset="2568" shape="" size="2"/>
			<output>
				<port id="0" precision="FP16"/>
			</output>
		</layer>
		<layer id="123" name="4568457228925" type="Const" version="opset1">
			<data element_type="f16" offset="4194" shape="" size="2"/>
			<output>
				<port id="0" precision="FP16"/>
			</output>
		</layer>
		<layer id="124" name="4569457330026" type="Const" version="opset1">
			<data element_type="f16" offset="2568" shape="" size="2"/>
			<output>
				<port id="0" precision="FP16"/>
			</output>
		</layer>
		<layer id="125" name="4570457431694" type="Const" version="opset1">
			<data element_type="f16" offset="4194" shape="" size="2"/>
			<output>
				<port id="0" precision="FP16"/>
			</output>
		</layer>
		<layer id="126" name="7087709128361" type="Const" version="opset1">
			<data element_type="f16" offset="2568" shape="" size="2"/>
			<output>
				<port id="0" precision="FP16"/>
			</output>
		</layer>
		<layer id="127" name="7088709232801" type="Const" version="opset1">
			<data element_type="f16" offset="4196" shape="" size="2"/>
			<output>
				<port id="0" precision="FP16"/>
			</output>
		</layer>
		<layer id="128" name="7089709329738" type="Const" version="opset1">
			<data element_type="f16" offset="2568" shape="" size="2"/>
			<output>
				<port id="0" precision="FP16"/>
			</output>
		</layer>
		<layer id="129" name="7090709432963" type="Const" version="opset1">
			<data element_type="f16" offset="4196" shape="" size="2"/>
			<output>
				<port id="0" precision="FP16"/>
			</output>
		</layer>
		<layer id="130" name="6947695128793" type="Const" version="opset1">
			<data element_type="f16" offset="2568" shape="" size="2"/>
			<output>
				<port id="0" precision="FP16"/>
			</output>
		</layer>
		<layer id="131" name="6948695232915" type="Const" version="opset1">
			<data element_type="f16" offset="4198" shape="" size="2"/>
			<output>
				<port id="0" precision="FP16"/>
			</output>
		</layer>
		<layer id="132" name="6949695329270" type="Const" version="opset1">
			<data element_type="f16" offset="2568" shape="" size="2"/>
			<output>
				<port id="0" precision="FP16"/>
			</output>
		</layer>
		<layer id="133" name="6950695433773" type="Const" version="opset1">
			<data element_type="f16" offset="4198" shape="" size="2"/>
			<output>
				<port id="0" precision="FP16"/>
			</output>
		</layer>
		<layer id="134" name="4887489133416" type="Const" version="opset1">
			<data element_type="f16" offset="2568" shape="" size="2"/>
			<output>
				<port id="0" precision="FP16"/>
			</output>
		</layer>
		<layer id="135" name="4888489229768" type="Const" version="opset1">
			<data element_type="f16" offset="4200" shape="" size="2"/>
			<output>
				<port id="0" precision="FP16"/>
			</output>
		</layer>
		<layer id="136" name="4889489330473" type="Const" version="opset1">
			<data element_type="f16" offset="2568" shape="" size="2"/>
			<output>
				<port id="0" precision="FP16"/>
			</output>
		</layer>
		<layer id="137" name="4890489433608" type="Const" version="opset1">
			<data element_type="f16" offset="4200" shape="" size="2"/>
			<output>
				<port id="0" precision="FP16"/>
			</output>
		</layer>
		<layer id="138" name="4177418129759" type="Const" version="opset1">
			<data element_type="f16" offset="2568" shape="" size="2"/>
			<output>
				<port id="0" precision="FP16"/>
			</output>
		</layer>
		<layer id="139" name="4178418232360" type="Const" version="opset1">
			<data element_type="f16" offset="4202" shape="" size="2"/>
			<output>
				<port id="0" precision="FP16"/>
			</output>
		</layer>
		<layer id="140" name="4179418332657" type="Const" version="opset1">
			<data element_type="f16" offset="2568" shape="" size="2"/>
			<output>
				<port id="0" precision="FP16"/>
			</output>
		</layer>
		<layer id="141" name="4180418431487" type="Const" version="opset1">
			<data element_type="f16" offset="4202" shape="" size="2"/>
			<output>
				<port id="0" precision="FP16"/>
			</output>
		</layer>
		<layer id="142" name="882/Unsqueeze181332042" type="Const" version="opset1">
			<data element_type="f16" offset="4204" shape="1,96,1,1" size="192"/>
			<output>
				<port id="0" names="882" precision="FP16">
					<dim>1</dim>
					<dim>96</dim>
					<dim>1</dim>
					<dim>1</dim>
				</port>
			</output>
		</layer>
		<layer id="143" name="109381094229579" type="Const" version="opset1">
			<data element_type="f16" offset="4396" shape="" size="2"/>
			<output>
				<port id="0" precision="FP16"/>
			</output>
		</layer>
		<layer id="144" name="109391094333584" type="Const" version="opset1">
			<data element_type="f16" offset="4398" shape="" size="2"/>
			<output>
				<port id="0" precision="FP16"/>
			</output>
		</layer>
		<layer id="145" name="109401094432456" type="Const" version="opset1">
			<data element_type="f16" offset="4396" shape="" size="2"/>
			<output>
				<port id="0" precision="FP16"/>
			</output>
		</layer>
		<layer id="146" name="109411094529417" type="Const" version="opset1">
			<data element_type="f16" offset="4398" shape="" size="2"/>
			<output>
				<port id="0" precision="FP16"/>
			</output>
		</layer>
		<layer id="147" name="879/Range_input_port_0/value179932051" type="Const" version="opset1">
			<data element_type="i64" offset="2846" shape="" size="8"/>
			<output>
				<port id="0" precision="I64"/>
			</output>
		</layer>
		<layer id="148" name="875179731043" type="Const" version="opset1">
			<data element_type="i64" offset="2854" shape="3" size="24"/>
			<output>
				<port id="0" names="875" precision="I64">
					<dim>3</dim>
				</port>
			</output>
		</layer>
		<layer id="149" name="109281093230500" type="Const" version="opset1">
			<data element_type="f16" offset="2568" shape="" size="2"/>
			<output>
				<port id="0" precision="FP16"/>
			</output>
		</layer>
		<layer id="150" name="109291093331502" type="Const" version="opset1">
			<data element_type="f16" offset="4400" shape="" size="2"/>
			<output>
				<port id="0" precision="FP16"/>
			</output>
		</layer>
		<layer id="151" name="109301093430299" type="Const" version="opset1">
			<data element_type="f16" offset="2568" shape="" size="2"/>
			<output>
				<port id="0" precision="FP16"/>
			</output>
		</layer>
		<layer id="152" name="109311093532702" type="Const" version="opset1">
			<data element_type="f16" offset="4400" shape="" size="2"/>
			<output>
				<port id="0" precision="FP16"/>
			</output>
		</layer>
		<layer id="153" name="7317732130269" type="Const" version="opset1">
			<data element_type="f16" offset="2568" shape="" size="2"/>
			<output>
				<port id="0" precision="FP16"/>
			</output>
		</layer>
		<layer id="154" name="7318732231445" type="Const" version="opset1">
			<data element_type="f16" offset="4402" shape="" size="2"/>
			<output>
				<port id="0" precision="FP16"/>
			</output>
		</layer>
		<layer id="155" name="7319732328898" type="Const" version="opset1">
			<data element_type="f16" offset="2568" shape="" size="2"/>
			<output>
				<port id="0" precision="FP16"/>
			</output>
		</layer>
		<layer id="156" name="7320732430305" type="Const" version="opset1">
			<data element_type="f16" offset="4402" shape="" size="2"/>
			<output>
				<port id="0" precision="FP16"/>
			</output>
		</layer>
		<layer id="157" name="6267627133122" type="Const" version="opset1">
			<data element_type="f16" offset="4404" shape="1,96,1,1" size="192"/>
			<output>
				<port id="0" precision="FP16">
					<dim>1</dim>
					<dim>96</dim>
					<dim>1</dim>
					<dim>1</dim>
				</port>
			</output>
		</layer>
		<layer id="158" name="6268627232294" type="Const" version="opset1">
			<data element_type="f16" offset="4596" shape="1,96,1,1" size="192"/>
			<output>
				<port id="0" precision="FP16">
					<dim>1</dim>
					<dim>96</dim>
					<dim>1</dim>
					<dim>1</dim>
				</port>
			</output>
		</layer>
		<layer id="159" name="6269627330029" type="Const" version="opset1">
			<data element_type="f16" offset="4404" shape="1,96,1,1" size="192"/>
			<output>
				<port id="0" precision="FP16">
					<dim>1</dim>
					<dim>96</dim>
					<dim>1</dim>
					<dim>1</dim>
				</port>
			</output>
		</layer>
		<layer id="160" name="6270627428541" type="Const" version="opset1">
			<data element_type="f16" offset="4596" shape="1,96,1,1" size="192"/>
			<output>
				<port id="0" precision="FP16">
					<dim>1</dim>
					<dim>96</dim>
					<dim>1</dim>
					<dim>1</dim>
				</port>
			</output>
		</layer>
		<layer id="161" name="2992299431055" type="Const" version="opset1">
			<data element_type="f16" offset="4788" shape="1,96,1,1" size="192"/>
			<output>
				<port id="0" precision="FP16">
					<dim>1</dim>
					<dim>96</dim>
					<dim>1</dim>
					<dim>1</dim>
				</port>
			</output>
		</layer>
		<layer id="162" name="7977798129144" type="Const" version="opset1">
			<data element_type="f16" offset="2568" shape="" size="2"/>
			<output>
				<port id="0" precision="FP16"/>
			</output>
		</layer>
		<layer id="163" name="7978798231208" type="Const" version="opset1">
			<data element_type="f16" offset="4980" shape="" size="2"/>
			<output>
				<port id="0" precision="FP16"/>
			</output>
		</layer>
		<layer id="164" name="7979798331955" type="Const" version="opset1">
			<data element_type="f16" offset="2568" shape="" size="2"/>
			<output>
				<port id="0" precision="FP16"/>
			</output>
		</layer>
		<layer id="165" name="7980798429921" type="Const" version="opset1">
			<data element_type="f16" offset="4980" shape="" size="2"/>
			<output>
				<port id="0" precision="FP16"/>
			</output>
		</layer>
		<layer id="166" name="4337434130086" type="Const" version="opset1">
			<data element_type="f16" offset="2568" shape="" size="2"/>
			<output>
				<port id="0" precision="FP16"/>
			</output>
		</layer>
		<layer id="167" name="4338434229573" type="Const" version="opset1">
			<data element_type="f16" offset="4982" shape="" size="2"/>
			<output>
				<port id="0" precision="FP16"/>
			</output>
		</layer>
		<layer id="168" name="4339434331529" type="Const" version="opset1">
			<data element_type="f16" offset="2568" shape="" size="2"/>
			<output>
				<port id="0" precision="FP16"/>
			</output>
		</layer>
		<layer id="169" name="4340434430659" type="Const" version="opset1">
			<data element_type="f16" offset="4982" shape="" size="2"/>
			<output>
				<port id="0" precision="FP16"/>
			</output>
		</layer>
		<layer id="170" name="6847685133734" type="Const" version="opset1">
			<data element_type="f16" offset="4984" shape="" size="2"/>
			<output>
				<port id="0" precision="FP16"/>
			</output>
		</layer>
		<layer id="171" name="6848685230356" type="Const" version="opset1">
			<data element_type="f16" offset="4986" shape="" size="2"/>
			<output>
				<port id="0" precision="FP16"/>
			</output>
		</layer>
		<layer id="172" name="6849685332606" type="Const" version="opset1">
			<data element_type="f16" offset="4984" shape="" size="2"/>
			<output>
				<port id="0" precision="FP16"/>
			</output>
		</layer>
		<layer id="173" name="6850685432690" type="Const" version="opset1">
			<data element_type="f16" offset="4986" shape="" size="2"/>
			<output>
				<port id="0" precision="FP16"/>
			</output>
		</layer>
		<layer id="174" name="6867687133446" type="Const" version="opset1">
			<data element_type="f16" offset="2568" shape="" size="2"/>
			<output>
				<port id="0" precision="FP16"/>
			</output>
		</layer>
		<layer id="175" name="6868687230980" type="Const" version="opset1">
			<data element_type="f16" offset="4988" shape="" size="2"/>
			<output>
				<port id="0" precision="FP16"/>
			</output>
		</layer>
		<layer id="176" name="6869687329792" type="Const" version="opset1">
			<data element_type="f16" offset="2568" shape="" size="2"/>
			<output>
				<port id="0" precision="FP16"/>
			</output>
		</layer>
		<layer id="177" name="6870687430626" type="Const" version="opset1">
			<data element_type="f16" offset="4988" shape="" size="2"/>
			<output>
				<port id="0" precision="FP16"/>
			</output>
		</layer>
		<layer id="178" name="7997800128796" type="Const" version="opset1">
			<data element_type="f16" offset="2568" shape="" size="2"/>
			<output>
				<port id="0" precision="FP16"/>
			</output>
		</layer>
		<layer id="179" name="7998800232582" type="Const" version="opset1">
			<data element_type="f16" offset="4990" shape="" size="2"/>
			<output>
				<port id="0" precision="FP16"/>
			</output>
		</layer>
		<layer id="180" name="7999800333329" type="Const" version="opset1">
			<data element_type="f16" offset="2568" shape="" size="2"/>
			<output>
				<port id="0" precision="FP16"/>
			</output>
		</layer>
		<layer id="181" name="8000800428304" type="Const" version="opset1">
			<data element_type="f16" offset="4990" shape="" size="2"/>
			<output>
				<port id="0" precision="FP16"/>
			</output>
		</layer>
		<layer id="182" name="8377838131085" type="Const" version="opset1">
			<data element_type="f16" offset="2568" shape="" size="2"/>
			<output>
				<port id="0" precision="FP16"/>
			</output>
		</layer>
		<layer id="183" name="8378838229036" type="Const" version="opset1">
			<data element_type="f16" offset="4992" shape="" size="2"/>
			<output>
				<port id="0" precision="FP16"/>
			</output>
		</layer>
		<layer id="184" name="8379838330035" type="Const" version="opset1">
			<data element_type="f16" offset="2568" shape="" size="2"/>
			<output>
				<port id="0" precision="FP16"/>
			</output>
		</layer>
		<layer id="185" name="8380838430530" type="Const" version="opset1">
			<data element_type="f16" offset="4992" shape="" size="2"/>
			<output>
				<port id="0" precision="FP16"/>
			</output>
		</layer>
		<layer id="186" name="5257526131388" type="Const" version="opset1">
			<data element_type="f16" offset="2568" shape="" size="2"/>
			<output>
				<port id="0" precision="FP16"/>
			</output>
		</layer>
		<layer id="187" name="5258526230251" type="Const" version="opset1">
			<data element_type="f16" offset="4994" shape="" size="2"/>
			<output>
				<port id="0" precision="FP16"/>
			</output>
		</layer>
		<layer id="188" name="5259526330419" type="Const" version="opset1">
			<data element_type="f16" offset="2568" shape="" size="2"/>
			<output>
				<port id="0" precision="FP16"/>
			</output>
		</layer>
		<layer id="189" name="5260526428457" type="Const" version="opset1">
			<data element_type="f16" offset="4994" shape="" size="2"/>
			<output>
				<port id="0" precision="FP16"/>
			</output>
		</layer>
		<layer id="190" name="4917492130110" type="Const" version="opset1">
			<data element_type="f16" offset="2568" shape="" size="2"/>
			<output>
				<port id="0" precision="FP16"/>
			</output>
		</layer>
		<layer id="191" name="4918492232489" type="Const" version="opset1">
			<data element_type="f16" offset="4996" shape="" size="2"/>
			<output>
				<port id="0" precision="FP16"/>
			</output>
		</layer>
		<layer id="192" name="4919492330923" type="Const" version="opset1">
			<data element_type="f16" offset="2568" shape="" size="2"/>
			<output>
				<port id="0" precision="FP16"/>
			</output>
		</layer>
		<layer id="193" name="4920492431115" type="Const" version="opset1">
			<data element_type="f16" offset="4996" shape="" size="2"/>
			<output>
				<port id="0" precision="FP16"/>
			</output>
		</layer>
		<layer id="194" name="7387739131958" type="Const" version="opset1">
			<data element_type="f16" offset="2568" shape="" size="2"/>
			<output>
				<port id="0" precision="FP16"/>
			</output>
		</layer>
		<layer id="195" name="7388739229714" type="Const" version="opset1">
			<data element_type="f16" offset="4998" shape="" size="2"/>
			<output>
				<port id="0" precision="FP16"/>
			</output>
		</layer>
		<layer id="196" name="7389739333587" type="Const" version="opset1">
			<data element_type="f16" offset="2568" shape="" size="2"/>
			<output>
				<port id="0" precision="FP16"/>
			</output>
		</layer>
		<layer id="197" name="7390739429765" type="Const" version="opset1">
			<data element_type="f16" offset="4998" shape="" size="2"/>
			<output>
				<port id="0" precision="FP16"/>
			</output>
		</layer>
		<layer id="198" name="5887589130872" type="Const" version="opset1">
			<data element_type="f16" offset="5000" shape="1,96,1,1" size="192"/>
			<output>
				<port id="0" precision="FP16">
					<dim>1</dim>
					<dim>96</dim>
					<dim>1</dim>
					<dim>1</dim>
				</port>
			</output>
		</layer>
		<layer id="199" name="5888589230404" type="Const" version="opset1">
			<data element_type="f16" offset="5192" shape="1,96,1,1" size="192"/>
			<output>
				<port id="0" precision="FP16">
					<dim>1</dim>
					<dim>96</dim>
					<dim>1</dim>
					<dim>1</dim>
				</port>
			</output>
		</layer>
		<layer id="200" name="5889589328469" type="Const" version="opset1">
			<data element_type="f16" offset="5000" shape="1,96,1,1" size="192"/>
			<output>
				<port id="0" precision="FP16">
					<dim>1</dim>
					<dim>96</dim>
					<dim>1</dim>
					<dim>1</dim>
				</port>
			</output>
		</layer>
		<layer id="201" name="5890589431391" type="Const" version="opset1">
			<data element_type="f16" offset="5192" shape="1,96,1,1" size="192"/>
			<output>
				<port id="0" precision="FP16">
					<dim>1</dim>
					<dim>96</dim>
					<dim>1</dim>
					<dim>1</dim>
				</port>
			</output>
		</layer>
		<layer id="202" name="2952295429432" type="Const" version="opset1">
			<data element_type="f16" offset="4788" shape="1,96,1,1" size="192"/>
			<output>
				<port id="0" precision="FP16">
					<dim>1</dim>
					<dim>96</dim>
					<dim>1</dim>
					<dim>1</dim>
				</port>
			</output>
		</layer>
		<layer id="203" name="6477648133761" type="Const" version="opset1">
			<data element_type="f16" offset="2568" shape="" size="2"/>
			<output>
				<port id="0" precision="FP16"/>
			</output>
		</layer>
		<layer id="204" name="6478648228991" type="Const" version="opset1">
			<data element_type="f16" offset="5384" shape="" size="2"/>
			<output>
				<port id="0" precision="FP16"/>
			</output>
		</layer>
		<layer id="205" name="6479648329396" type="Const" version="opset1">
			<data element_type="f16" offset="2568" shape="" size="2"/>
			<output>
				<port id="0" precision="FP16"/>
			</output>
		</layer>
		<layer id="206" name="6480648433521" type="Const" version="opset1">
			<data element_type="f16" offset="5384" shape="" size="2"/>
			<output>
				<port id="0" precision="FP16"/>
			</output>
		</layer>
		<layer id="207" name="7817782132891" type="Const" version="opset1">
			<data element_type="f16" offset="2568" shape="" size="2"/>
			<output>
				<port id="0" precision="FP16"/>
			</output>
		</layer>
		<layer id="208" name="7818782229624" type="Const" version="opset1">
			<data element_type="f16" offset="5386" shape="" size="2"/>
			<output>
				<port id="0" precision="FP16"/>
			</output>
		</layer>
		<layer id="209" name="7819782329639" type="Const" version="opset1">
			<data element_type="f16" offset="2568" shape="" size="2"/>
			<output>
				<port id="0" precision="FP16"/>
			</output>
		</layer>
		<layer id="210" name="7820782432921" type="Const" version="opset1">
			<data element_type="f16" offset="5386" shape="" size="2"/>
			<output>
				<port id="0" precision="FP16"/>
			</output>
		</layer>
		<layer id="211" name="7777778131844" type="Const" version="opset1">
			<data element_type="f16" offset="2568" shape="" size="2"/>
			<output>
				<port id="0" precision="FP16"/>
			</output>
		</layer>
		<layer id="212" name="7778778232333" type="Const" version="opset1">
			<data element_type="f16" offset="5388" shape="" size="2"/>
			<output>
				<port id="0" precision="FP16"/>
			</output>
		</layer>
		<layer id="213" name="7779778333149" type="Const" version="opset1">
			<data element_type="f16" offset="2568" shape="" size="2"/>
			<output>
				<port id="0" precision="FP16"/>
			</output>
		</layer>
		<layer id="214" name="7780778429813" type="Const" version="opset1">
			<data element_type="f16" offset="5388" shape="" size="2"/>
			<output>
				<port id="0" precision="FP16"/>
			</output>
		</layer>
		<layer id="215" name="5857586132834" type="Const" version="opset1">
			<data element_type="f16" offset="2568" shape="" size="2"/>
			<output>
				<port id="0" precision="FP16"/>
			</output>
		</layer>
		<layer id="216" name="5858586231316" type="Const" version="opset1">
			<data element_type="f16" offset="5390" shape="" size="2"/>
			<output>
				<port id="0" precision="FP16"/>
			</output>
		</layer>
		<layer id="217" name="5859586329240" type="Const" version="opset1">
			<data element_type="f16" offset="2568" shape="" size="2"/>
			<output>
				<port id="0" precision="FP16"/>
			</output>
		</layer>
		<layer id="218" name="5860586431571" type="Const" version="opset1">
			<data element_type="f16" offset="5390" shape="" size="2"/>
			<output>
				<port id="0" precision="FP16"/>
			</output>
		</layer>
		<layer id="219" name="4667467129891" type="Const" version="opset1">
			<data element_type="f16" offset="5392" shape="" size="2"/>
			<output>
				<port id="0" precision="FP16"/>
			</output>
		</layer>
		<layer id="220" name="4668467231319" type="Const" version="opset1">
			<data element_type="f16" offset="5394" shape="" size="2"/>
			<output>
				<port id="0" precision="FP16"/>
			</output>
		</layer>
		<layer id="221" name="4669467330410" type="Const" version="opset1">
			<data element_type="f16" offset="5392" shape="" size="2"/>
			<output>
				<port id="0" precision="FP16"/>
			</output>
		</layer>
		<layer id="222" name="4670467429510" type="Const" version="opset1">
			<data element_type="f16" offset="5394" shape="" size="2"/>
			<output>
				<port id="0" precision="FP16"/>
			</output>
		</layer>
		<layer id="223" name="5517552130164" type="Const" version="opset1">
			<data element_type="f16" offset="2568" shape="" size="2"/>
			<output>
				<port id="0" precision="FP16"/>
			</output>
		</layer>
		<layer id="224" name="5518552233539" type="Const" version="opset1">
			<data element_type="f16" offset="5396" shape="" size="2"/>
			<output>
				<port id="0" precision="FP16"/>
			</output>
		</layer>
		<layer id="225" name="5519552330077" type="Const" version="opset1">
			<data element_type="f16" offset="2568" shape="" size="2"/>
			<output>
				<port id="0" precision="FP16"/>
			</output>
		</layer>
		<layer id="226" name="5520552428769" type="Const" version="opset1">
			<data element_type="f16" offset="5396" shape="" size="2"/>
			<output>
				<port id="0" precision="FP16"/>
			</output>
		</layer>
		<layer id="227" name="8277828131574" type="Const" version="opset1">
			<data element_type="f16" offset="2568" shape="" size="2"/>
			<output>
				<port id="0" precision="FP16"/>
			</output>
		</layer>
		<layer id="228" name="8278828231433" type="Const" version="opset1">
			<data element_type="f16" offset="5398" shape="" size="2"/>
			<output>
				<port id="0" precision="FP16"/>
			</output>
		</layer>
		<layer id="229" name="8279828332837" type="Const" version="opset1">
			<data element_type="f16" offset="2568" shape="" size="2"/>
			<output>
				<port id="0" precision="FP16"/>
			</output>
		</layer>
		<layer id="230" name="8280828432990" type="Const" version="opset1">
			<data element_type="f16" offset="5398" shape="" size="2"/>
			<output>
				<port id="0" precision="FP16"/>
			</output>
		</layer>
		<layer id="231" name="8157816129165" type="Const" version="opset1">
			<data element_type="f16" offset="2568" shape="" size="2"/>
			<output>
				<port id="0" precision="FP16"/>
			</output>
		</layer>
		<layer id="232" name="8158816228379" type="Const" version="opset1">
			<data element_type="f16" offset="5400" shape="" size="2"/>
			<output>
				<port id="0" precision="FP16"/>
			</output>
		</layer>
		<layer id="233" name="8159816331220" type="Const" version="opset1">
			<data element_type="f16" offset="2568" shape="" size="2"/>
			<output>
				<port id="0" precision="FP16"/>
			</output>
		</layer>
		<layer id="234" name="8160816433392" type="Const" version="opset1">
			<data element_type="f16" offset="5400" shape="" size="2"/>
			<output>
				<port id="0" precision="FP16"/>
			</output>
		</layer>
		<layer id="235" name="5767577130794" type="Const" version="opset1">
			<data element_type="f16" offset="2568" shape="" size="2"/>
			<output>
				<port id="0" precision="FP16"/>
			</output>
		</layer>
		<layer id="236" name="5768577232258" type="Const" version="opset1">
			<data element_type="f16" offset="5402" shape="" size="2"/>
			<output>
				<port id="0" precision="FP16"/>
			</output>
		</layer>
		<layer id="237" name="5769577333626" type="Const" version="opset1">
			<data element_type="f16" offset="2568" shape="" size="2"/>
			<output>
				<port id="0" precision="FP16"/>
			</output>
		</layer>
		<layer id="238" name="5770577429642" type="Const" version="opset1">
			<data element_type="f16" offset="5402" shape="" size="2"/>
			<output>
				<port id="0" precision="FP16"/>
			</output>
		</layer>
		<layer id="239" name="4757476131166" type="Const" version="opset1">
			<data element_type="f16" offset="2568" shape="" size="2"/>
			<output>
				<port id="0" precision="FP16"/>
			</output>
		</layer>
		<layer id="240" name="4758476229582" type="Const" version="opset1">
			<data element_type="f16" offset="5404" shape="" size="2"/>
			<output>
				<port id="0" precision="FP16"/>
			</output>
		</layer>
		<layer id="241" name="4759476331607" type="Const" version="opset1">
			<data element_type="f16" offset="2568" shape="" size="2"/>
			<output>
				<port id="0" precision="FP16"/>
			</output>
		</layer>
		<layer id="242" name="4760476433500" type="Const" version="opset1">
			<data element_type="f16" offset="5404" shape="" size="2"/>
			<output>
				<port id="0" precision="FP16"/>
			</output>
		</layer>
		<layer id="243" name="695/Unsqueeze143931688" type="Const" version="opset1">
			<data element_type="f16" offset="5406" shape="1,64,1,1" size="128"/>
			<output>
				<port id="0" names="695" precision="FP16">
					<dim>1</dim>
					<dim>64</dim>
					<dim>1</dim>
					<dim>1</dim>
				</port>
			</output>
		</layer>
		<layer id="244" name="108581086229687" type="Const" version="opset1">
			<data element_type="f16" offset="5534" shape="" size="2"/>
			<output>
				<port id="0" precision="FP16"/>
			</output>
		</layer>
		<layer id="245" name="108591086329630" type="Const" version="opset1">
			<data element_type="f16" offset="5536" shape="" size="2"/>
			<output>
				<port id="0" precision="FP16"/>
			</output>
		</layer>
		<layer id="246" name="108601086428724" type="Const" version="opset1">
			<data element_type="f16" offset="5534" shape="" size="2"/>
			<output>
				<port id="0" precision="FP16"/>
			</output>
		</layer>
		<layer id="247" name="108611086531382" type="Const" version="opset1">
			<data element_type="f16" offset="5536" shape="" size="2"/>
			<output>
				<port id="0" precision="FP16"/>
			</output>
		</layer>
		<layer id="248" name="692/Range_input_port_0/value142528625" type="Const" version="opset1">
			<data element_type="i64" offset="2846" shape="" size="8"/>
			<output>
				<port id="0" precision="I64"/>
			</output>
		</layer>
		<layer id="249" name="688142330827" type="Const" version="opset1">
			<data element_type="i64" offset="2854" shape="3" size="24"/>
			<output>
				<port id="0" names="688" precision="I64">
					<dim>3</dim>
				</port>
			</output>
		</layer>
		<layer id="250" name="108481085233767" type="Const" version="opset1">
			<data element_type="f16" offset="2568" shape="" size="2"/>
			<output>
				<port id="0" precision="FP16"/>
			</output>
		</layer>
		<layer id="251" name="108491085333509" type="Const" version="opset1">
			<data element_type="f16" offset="5538" shape="" size="2"/>
			<output>
				<port id="0" precision="FP16"/>
			</output>
		</layer>
		<layer id="252" name="108501085429690" type="Const" version="opset1">
			<data element_type="f16" offset="2568" shape="" size="2"/>
			<output>
				<port id="0" precision="FP16"/>
			</output>
		</layer>
		<layer id="253" name="108511085531046" type="Const" version="opset1">
			<data element_type="f16" offset="5538" shape="" size="2"/>
			<output>
				<port id="0" precision="FP16"/>
			</output>
		</layer>
		<layer id="254" name="7537754129324" type="Const" version="opset1">
			<data element_type="f16" offset="2568" shape="" size="2"/>
			<output>
				<port id="0" precision="FP16"/>
			</output>
		</layer>
		<layer id="255" name="7538754228721" type="Const" version="opset1">
			<data element_type="f16" offset="5540" shape="" size="2"/>
			<output>
				<port id="0" precision="FP16"/>
			</output>
		</layer>
		<layer id="256" name="7539754330731" type="Const" version="opset1">
			<data element_type="f16" offset="2568" shape="" size="2"/>
			<output>
				<port id="0" precision="FP16"/>
			</output>
		</layer>
		<layer id="257" name="7540754429699" type="Const" version="opset1">
			<data element_type="f16" offset="5540" shape="" size="2"/>
			<output>
				<port id="0" precision="FP16"/>
			</output>
		</layer>
		<layer id="258" name="5107511129678" type="Const" version="opset1">
			<data element_type="f16" offset="5542" shape="1,64,1,1" size="128"/>
			<output>
				<port id="0" precision="FP16">
					<dim>1</dim>
					<dim>64</dim>
					<dim>1</dim>
					<dim>1</dim>
				</port>
			</output>
		</layer>
		<layer id="259" name="5108511233524" type="Const" version="opset1">
			<data element_type="f16" offset="5670" shape="1,64,1,1" size="128"/>
			<output>
				<port id="0" precision="FP16">
					<dim>1</dim>
					<dim>64</dim>
					<dim>1</dim>
					<dim>1</dim>
				</port>
			</output>
		</layer>
		<layer id="260" name="5109511330134" type="Const" version="opset1">
			<data element_type="f16" offset="5542" shape="1,64,1,1" size="128"/>
			<output>
				<port id="0" precision="FP16">
					<dim>1</dim>
					<dim>64</dim>
					<dim>1</dim>
					<dim>1</dim>
				</port>
			</output>
		</layer>
		<layer id="261" name="5110511430740" type="Const" version="opset1">
			<data element_type="f16" offset="5670" shape="1,64,1,1" size="128"/>
			<output>
				<port id="0" precision="FP16">
					<dim>1</dim>
					<dim>64</dim>
					<dim>1</dim>
					<dim>1</dim>
				</port>
			</output>
		</layer>
		<layer id="262" name="2912291429108" type="Const" version="opset1">
			<data element_type="f16" offset="5798" shape="1,64,1,1" size="128"/>
			<output>
				<port id="0" precision="FP16">
					<dim>1</dim>
					<dim>64</dim>
					<dim>1</dim>
					<dim>1</dim>
				</port>
			</output>
		</layer>
		<layer id="263" name="5717572132624" type="Const" version="opset1">
			<data element_type="f16" offset="2568" shape="" size="2"/>
			<output>
				<port id="0" precision="FP16"/>
			</output>
		</layer>
		<layer id="264" name="5718572231997" type="Const" version="opset1">
			<data element_type="f16" offset="5926" shape="" size="2"/>
			<output>
				<port id="0" precision="FP16"/>
			</output>
		</layer>
		<layer id="265" name="5719572330146" type="Const" version="opset1">
			<data element_type="f16" offset="2568" shape="" size="2"/>
			<output>
				<port id="0" precision="FP16"/>
			</output>
		</layer>
		<layer id="266" name="5720572432288" type="Const" version="opset1">
			<data element_type="f16" offset="5926" shape="" size="2"/>
			<output>
				<port id="0" precision="FP16"/>
			</output>
		</layer>
		<layer id="267" name="7397740129909" type="Const" version="opset1">
			<data element_type="f16" offset="2568" shape="" size="2"/>
			<output>
				<port id="0" precision="FP16"/>
			</output>
		</layer>
		<layer id="268" name="7398740232492" type="Const" version="opset1">
			<data element_type="f16" offset="5928" shape="" size="2"/>
			<output>
				<port id="0" precision="FP16"/>
			</output>
		</layer>
		<layer id="269" name="7399740330620" type="Const" version="opset1">
			<data element_type="f16" offset="2568" shape="" size="2"/>
			<output>
				<port id="0" precision="FP16"/>
			</output>
		</layer>
		<layer id="270" name="7400740431712" type="Const" version="opset1">
			<data element_type="f16" offset="5928" shape="" size="2"/>
			<output>
				<port id="0" precision="FP16"/>
			</output>
		</layer>
		<layer id="271" name="6967697131340" type="Const" version="opset1">
			<data element_type="f16" offset="5930" shape="" size="2"/>
			<output>
				<port id="0" precision="FP16"/>
			</output>
		</layer>
		<layer id="272" name="6968697230878" type="Const" version="opset1">
			<data element_type="f16" offset="5932" shape="" size="2"/>
			<output>
				<port id="0" precision="FP16"/>
			</output>
		</layer>
		<layer id="273" name="6969697331895" type="Const" version="opset1">
			<data element_type="f16" offset="5930" shape="" size="2"/>
			<output>
				<port id="0" precision="FP16"/>
			</output>
		</layer>
		<layer id="274" name="6970697429063" type="Const" version="opset1">
			<data element_type="f16" offset="5932" shape="" size="2"/>
			<output>
				<port id="0" precision="FP16"/>
			</output>
		</layer>
		<layer id="275" name="8047805133191" type="Const" version="opset1">
			<data element_type="f16" offset="2568" shape="" size="2"/>
			<output>
				<port id="0" precision="FP16"/>
			</output>
		</layer>
		<layer id="276" name="8048805232894" type="Const" version="opset1">
			<data element_type="f16" offset="5934" shape="" size="2"/>
			<output>
				<port id="0" precision="FP16"/>
			</output>
		</layer>
		<layer id="277" name="8049805328652" type="Const" version="opset1">
			<data element_type="f16" offset="2568" shape="" size="2"/>
			<output>
				<port id="0" precision="FP16"/>
			</output>
		</layer>
		<layer id="278" name="8050805428754" type="Const" version="opset1">
			<data element_type="f16" offset="5934" shape="" size="2"/>
			<output>
				<port id="0" precision="FP16"/>
			</output>
		</layer>
		<layer id="279" name="7787779128880" type="Const" version="opset1">
			<data element_type="f16" offset="2568" shape="" size="2"/>
			<output>
				<port id="0" precision="FP16"/>
			</output>
		</layer>
		<layer id="280" name="7788779230188" type="Const" version="opset1">
			<data element_type="f16" offset="5936" shape="" size="2"/>
			<output>
				<port id="0" precision="FP16"/>
			</output>
		</layer>
		<layer id="281" name="7789779331724" type="Const" version="opset1">
			<data element_type="f16" offset="2568" shape="" size="2"/>
			<output>
				<port id="0" precision="FP16"/>
			</output>
		</layer>
		<layer id="282" name="7790779433263" type="Const" version="opset1">
			<data element_type="f16" offset="5936" shape="" size="2"/>
			<output>
				<port id="0" precision="FP16"/>
			</output>
		</layer>
		<layer id="283" name="7857786129042" type="Const" version="opset1">
			<data element_type="f16" offset="2568" shape="" size="2"/>
			<output>
				<port id="0" precision="FP16"/>
			</output>
		</layer>
		<layer id="284" name="7858786228409" type="Const" version="opset1">
			<data element_type="f16" offset="5938" shape="" size="2"/>
			<output>
				<port id="0" precision="FP16"/>
			</output>
		</layer>
		<layer id="285" name="7859786329414" type="Const" version="opset1">
			<data element_type="f16" offset="2568" shape="" size="2"/>
			<output>
				<port id="0" precision="FP16"/>
			</output>
		</layer>
		<layer id="286" name="7860786432252" type="Const" version="opset1">
			<data element_type="f16" offset="5938" shape="" size="2"/>
			<output>
				<port id="0" precision="FP16"/>
			</output>
		</layer>
		<layer id="287" name="7597760128394" type="Const" version="opset1">
			<data element_type="f16" offset="2568" shape="" size="2"/>
			<output>
				<port id="0" precision="FP16"/>
			</output>
		</layer>
		<layer id="288" name="7598760229762" type="Const" version="opset1">
			<data element_type="f16" offset="5940" shape="" size="2"/>
			<output>
				<port id="0" precision="FP16"/>
			</output>
		</layer>
		<layer id="289" name="7599760332441" type="Const" version="opset1">
			<data element_type="f16" offset="2568" shape="" size="2"/>
			<output>
				<port id="0" precision="FP16"/>
			</output>
		</layer>
		<layer id="290" name="7600760431916" type="Const" version="opset1">
			<data element_type="f16" offset="5940" shape="" size="2"/>
			<output>
				<port id="0" precision="FP16"/>
			</output>
		</layer>
		<layer id="291" name="4867487133017" type="Const" version="opset1">
			<data element_type="f16" offset="2568" shape="" size="2"/>
			<output>
				<port id="0" precision="FP16"/>
			</output>
		</layer>
		<layer id="292" name="4868487232882" type="Const" version="opset1">
			<data element_type="f16" offset="5942" shape="" size="2"/>
			<output>
				<port id="0" precision="FP16"/>
			</output>
		</layer>
		<layer id="293" name="4869487332291" type="Const" version="opset1">
			<data element_type="f16" offset="2568" shape="" size="2"/>
			<output>
				<port id="0" precision="FP16"/>
			</output>
		</layer>
		<layer id="294" name="4870487431460" type="Const" version="opset1">
			<data element_type="f16" offset="5942" shape="" size="2"/>
			<output>
				<port id="0" precision="FP16"/>
			</output>
		</layer>
		<layer id="295" name="5637564133131" type="Const" version="opset1">
			<data element_type="f16" offset="2568" shape="" size="2"/>
			<output>
				<port id="0" precision="FP16"/>
			</output>
		</layer>
		<layer id="296" name="5638564232054" type="Const" version="opset1">
			<data element_type="f16" offset="5944" shape="" size="2"/>
			<output>
				<port id="0" precision="FP16"/>
			</output>
		</layer>
		<layer id="297" name="5639564330917" type="Const" version="opset1">
			<data element_type="f16" offset="2568" shape="" size="2"/>
			<output>
				<port id="0" precision="FP16"/>
			</output>
		</layer>
		<layer id="298" name="5640564431070" type="Const" version="opset1">
			<data element_type="f16" offset="5944" shape="" size="2"/>
			<output>
				<port id="0" precision="FP16"/>
			</output>
		</layer>
		<layer id="299" name="5307531132951" type="Const" version="opset1">
			<data element_type="f16" offset="5946" shape="1,64,1,1" size="128"/>
			<output>
				<port id="0" precision="FP16">
					<dim>1</dim>
					<dim>64</dim>
					<dim>1</dim>
					<dim>1</dim>
				</port>
			</output>
		</layer>
		<layer id="300" name="5308531228691" type="Const" version="opset1">
			<data element_type="f16" offset="6074" shape="1,64,1,1" size="128"/>
			<output>
				<port id="0" precision="FP16">
					<dim>1</dim>
					<dim>64</dim>
					<dim>1</dim>
					<dim>1</dim>
				</port>
			</output>
		</layer>
		<layer id="301" name="5309531332765" type="Const" version="opset1">
			<data element_type="f16" offset="5946" shape="1,64,1,1" size="128"/>
			<output>
				<port id="0" precision="FP16">
					<dim>1</dim>
					<dim>64</dim>
					<dim>1</dim>
					<dim>1</dim>
				</port>
			</output>
		</layer>
		<layer id="302" name="5310531432390" type="Const" version="opset1">
			<data element_type="f16" offset="6074" shape="1,64,1,1" size="128"/>
			<output>
				<port id="0" precision="FP16">
					<dim>1</dim>
					<dim>64</dim>
					<dim>1</dim>
					<dim>1</dim>
				</port>
			</output>
		</layer>
		<layer id="303" name="2872287431604" type="Const" version="opset1">
			<data element_type="f16" offset="5798" shape="1,64,1,1" size="128"/>
			<output>
				<port id="0" precision="FP16">
					<dim>1</dim>
					<dim>64</dim>
					<dim>1</dim>
					<dim>1</dim>
				</port>
			</output>
		</layer>
		<layer id="304" name="6437644128298" type="Const" version="opset1">
			<data element_type="f16" offset="2568" shape="" size="2"/>
			<output>
				<port id="0" precision="FP16"/>
			</output>
		</layer>
		<layer id="305" name="6438644229549" type="Const" version="opset1">
			<data element_type="f16" offset="6202" shape="" size="2"/>
			<output>
				<port id="0" precision="FP16"/>
			</output>
		</layer>
		<layer id="306" name="6439644329453" type="Const" version="opset1">
			<data element_type="f16" offset="2568" shape="" size="2"/>
			<output>
				<port id="0" precision="FP16"/>
			</output>
		</layer>
		<layer id="307" name="6440644428388" type="Const" version="opset1">
			<data element_type="f16" offset="6202" shape="" size="2"/>
			<output>
				<port id="0" precision="FP16"/>
			</output>
		</layer>
		<layer id="308" name="108281083230254" type="Const" version="opset1">
			<data element_type="f16" offset="2568" shape="" size="2"/>
			<output>
				<port id="0" precision="FP16"/>
			</output>
		</layer>
		<layer id="309" name="108291083332006" type="Const" version="opset1">
			<data element_type="f16" offset="6204" shape="" size="2"/>
			<output>
				<port id="0" precision="FP16"/>
			</output>
		</layer>
		<layer id="310" name="108301083432477" type="Const" version="opset1">
			<data element_type="f16" offset="2568" shape="" size="2"/>
			<output>
				<port id="0" precision="FP16"/>
			</output>
		</layer>
		<layer id="311" name="108311083528520" type="Const" version="opset1">
			<data element_type="f16" offset="6204" shape="" size="2"/>
			<output>
				<port id="0" precision="FP16"/>
			</output>
		</layer>
		<layer id="312" name="565/Range_input_port_0/value122532471" type="Const" version="opset1">
			<data element_type="i64" offset="2846" shape="" size="8"/>
			<output>
				<port id="0" precision="I64"/>
			</output>
		</layer>
		<layer id="313" name="2868287030902" type="Const" version="opset1">
			<data element_type="f16" offset="5798" shape="1,64,1,1" size="128"/>
			<output>
				<port id="0" precision="FP16">
					<dim>1</dim>
					<dim>64</dim>
					<dim>1</dim>
					<dim>1</dim>
				</port>
			</output>
		</layer>
		<layer id="314" name="8437844133515" type="Const" version="opset1">
			<data element_type="f16" offset="6206" shape="" size="2"/>
			<output>
				<port id="0" precision="FP16"/>
			</output>
		</layer>
		<layer id="315" name="8438844229882" type="Const" version="opset1">
			<data element_type="f16" offset="6208" shape="" size="2"/>
			<output>
				<port id="0" precision="FP16"/>
			</output>
		</layer>
		<layer id="316" name="8439844331991" type="Const" version="opset1">
			<data element_type="f16" offset="6206" shape="" size="2"/>
			<output>
				<port id="0" precision="FP16"/>
			</output>
		</layer>
		<layer id="317" name="8440844433293" type="Const" version="opset1">
			<data element_type="f16" offset="6208" shape="" size="2"/>
			<output>
				<port id="0" precision="FP16"/>
			</output>
		</layer>
		<layer id="318" name="563/Range_input_port_0/value121128412" type="Const" version="opset1">
			<data element_type="i64" offset="2846" shape="" size="8"/>
			<output>
				<port id="0" precision="I64"/>
			</output>
		</layer>
		<layer id="319" name="data" type="Parameter" version="opset1">
			<data element_type="f16" shape="1,3,256,128"/>
			<output>
				<port id="0" names="data" precision="FP16">
					<dim>1</dim>
					<dim>3</dim>
					<dim>256</dim>
					<dim>128</dim>
				</port>
			</output>
		</layer>
		<layer id="320" name="563/Rank/shape_of" type="ShapeOf" version="opset3">
			<data output_type="i64"/>
			<input>
				<port id="0">
					<dim>1</dim>
					<dim>3</dim>
					<dim>256</dim>
					<dim>128</dim>
				</port>
			</input>
			<output>
				<port id="1" precision="I64">
					<dim>4</dim>
				</port>
			</output>
		</layer>
		<layer id="321" name="563/Rank/rank_of" type="ShapeOf" version="opset3">
			<data output_type="i64"/>
			<input>
				<port id="0">
					<dim>4</dim>
				</port>
			</input>
			<output>
				<port id="1" precision="I64">
					<dim>1</dim>
				</port>
			</output>
		</layer>
		<layer id="322" name="563/Rank/0d_rank_of/value121428349" type="Const" version="opset1">
			<data element_type="i64" offset="6210" shape="1" size="8"/>
			<output>
				<port id="0" precision="I64">
					<dim>1</dim>
				</port>
			</output>
		</layer>
		<layer id="323" name="563/Rank" type="Squeeze" version="opset1">
			<input>
				<port id="0">
					<dim>1</dim>
				</port>
				<port id="1">
					<dim>1</dim>
				</port>
			</input>
			<output>
				<port id="2" precision="I64"/>
			</output>
		</layer>
		<layer id="324" name="563/Range_input_port_2/value121628448" type="Const" version="opset1">
			<data element_type="i64" offset="6218" shape="" size="8"/>
			<output>
				<port id="0" precision="I64"/>
			</output>
		</layer>
		<layer id="325" name="563/Range" type="Range" version="opset4">
			<data output_type="i64"/>
			<input>
				<port id="0"/>
				<port id="1"/>
				<port id="2"/>
			</input>
			<output>
				<port id="3" precision="I64">
					<dim>2</dim>
				</port>
			</output>
		</layer>
		<layer id="326" name="4877488129543" type="Const" version="opset1">
			<data element_type="f16" offset="6226" shape="" size="2"/>
			<output>
				<port id="0" precision="FP16"/>
			</output>
		</layer>
		<layer id="327" name="4878488231937" type="Const" version="opset1">
			<data element_type="f16" offset="6228" shape="" size="2"/>
			<output>
				<port id="0" precision="FP16"/>
			</output>
		</layer>
		<layer id="328" name="4879488330257" type="Const" version="opset1">
			<data element_type="f16" offset="6226" shape="" size="2"/>
			<output>
				<port id="0" precision="FP16"/>
			</output>
		</layer>
		<layer id="329" name="4880488432912" type="Const" version="opset1">
			<data element_type="f16" offset="6228" shape="" size="2"/>
			<output>
				<port id="0" precision="FP16"/>
			</output>
		</layer>
		<layer id="330" name="data/reverse_input_channels3963439638/Split_input_port_1/value3966844638120228463" type="Const" version="opset1">
			<data element_type="i64" offset="6218" shape="" size="8"/>
			<output>
				<port id="0" precision="I64"/>
			</output>
		</layer>
		<layer id="331" name="data/reverse_input_channels3963439638/Split" type="Split" version="opset1">
			<data num_splits="3"/>
			<input>
				<port id="0">
					<dim>1</dim>
					<dim>3</dim>
					<dim>256</dim>
					<dim>128</dim>
				</port>
				<port id="1"/>
			</input>
			<output>
				<port id="2" precision="FP16">
					<dim>1</dim>
					<dim>1</dim>
					<dim>256</dim>
					<dim>128</dim>
				</port>
				<port id="3" precision="FP16">
					<dim>1</dim>
					<dim>1</dim>
					<dim>256</dim>
					<dim>128</dim>
				</port>
				<port id="4" precision="FP16">
					<dim>1</dim>
					<dim>1</dim>
					<dim>256</dim>
					<dim>128</dim>
				</port>
			</output>
		</layer>
		<layer id="332" name="data/reverse_input_channels3963439638/Concat" type="Concat" version="opset1">
			<data axis="1"/>
			<input>
				<port id="0">
					<dim>1</dim>
					<dim>1</dim>
					<dim>256</dim>
					<dim>128</dim>
				</port>
				<port id="1">
					<dim>1</dim>
					<dim>1</dim>
					<dim>256</dim>
					<dim>128</dim>
				</port>
				<port id="2">
					<dim>1</dim>
					<dim>1</dim>
					<dim>256</dim>
					<dim>128</dim>
				</port>
			</input>
			<output>
				<port id="3" precision="FP16">
					<dim>1</dim>
					<dim>3</dim>
					<dim>256</dim>
					<dim>128</dim>
				</port>
			</output>
		</layer>
		<layer id="333" name="data_mul_21692120731400" type="Const" version="opset1">
			<data element_type="f16" offset="6230" shape="1,3,1,1" size="6"/>
			<output>
				<port id="0" precision="FP16">
					<dim>1</dim>
					<dim>3</dim>
					<dim>1</dim>
					<dim>1</dim>
				</port>
			</output>
		</layer>
		<layer id="334" name="data/scale/Fused_Mul_" type="Multiply" version="opset1">
			<data auto_broadcast="numpy"/>
			<input>
				<port id="0">
					<dim>1</dim>
					<dim>3</dim>
					<dim>256</dim>
					<dim>128</dim>
				</port>
				<port id="1">
					<dim>1</dim>
					<dim>3</dim>
					<dim>1</dim>
					<dim>1</dim>
				</port>
			</input>
			<output>
				<port id="2" precision="FP16">
					<dim>1</dim>
					<dim>3</dim>
					<dim>256</dim>
					<dim>128</dim>
				</port>
			</output>
		</layer>
		<layer id="335" name="data_add_21694120928604" type="Const" version="opset1">
			<data element_type="f16" offset="6236" shape="1,3,1,1" size="6"/>
			<output>
				<port id="0" precision="FP16">
					<dim>1</dim>
					<dim>3</dim>
					<dim>1</dim>
					<dim>1</dim>
				</port>
			</output>
		</layer>
		<layer id="336" name="data/mean/Fused_Add_" type="Add" version="opset1">
			<data auto_broadcast="numpy"/>
			<input>
				<port id="0">
					<dim>1</dim>
					<dim>3</dim>
					<dim>256</dim>
					<dim>128</dim>
				</port>
				<port id="1">
					<dim>1</dim>
					<dim>3</dim>
					<dim>1</dim>
					<dim>1</dim>
				</port>
			</input>
			<output>
				<port id="2" precision="FP16">
					<dim>1</dim>
					<dim>3</dim>
					<dim>256</dim>
					<dim>128</dim>
				</port>
			</output>
		</layer>
		<layer id="337" name="563/Ins_Norm/MVN_/fq_input_0" type="FakeQuantize" version="opset1">
			<data auto_broadcast="numpy" levels="256"/>
			<input>
				<port id="0">
					<dim>1</dim>
					<dim>3</dim>
					<dim>256</dim>
					<dim>128</dim>
				</port>
				<port id="1"/>
				<port id="2"/>
				<port id="3"/>
				<port id="4"/>
			</input>
			<output>
				<port id="5" precision="FP16">
					<dim>1</dim>
					<dim>3</dim>
					<dim>256</dim>
					<dim>128</dim>
				</port>
			</output>
		</layer>
		<layer id="338" name="563/Ins_Norm/MVN_" type="MVN" version="opset6">
			<data eps="9.999999747378752e-06" eps_mode="INSIDE_SQRT" normalize_variance="true"/>
			<input>
				<port id="0">
					<dim>1</dim>
					<dim>3</dim>
					<dim>256</dim>
					<dim>128</dim>
				</port>
				<port id="1">
					<dim>2</dim>
				</port>
			</input>
			<output>
				<port id="2" precision="FP16">
					<dim>1</dim>
					<dim>3</dim>
					<dim>256</dim>
					<dim>128</dim>
				</port>
			</output>
		</layer>
		<layer id="339" name="in_first.weight121931769" type="Const" version="opset1">
			<data element_type="f16" offset="6242" shape="1,3,1,1" size="6"/>
			<output>
				<port id="0" names="in_first.weight" precision="FP16">
					<dim>1</dim>
					<dim>3</dim>
					<dim>1</dim>
					<dim>1</dim>
				</port>
			</output>
		</layer>
		<layer id="340" name="563/Ins_Norm/mul_" type="Multiply" version="opset1">
			<data auto_broadcast="numpy"/>
			<input>
				<port id="0">
					<dim>1</dim>
					<dim>3</dim>
					<dim>256</dim>
					<dim>128</dim>
				</port>
				<port id="1">
					<dim>1</dim>
					<dim>3</dim>
					<dim>1</dim>
					<dim>1</dim>
				</port>
			</input>
			<output>
				<port id="2" precision="FP16">
					<dim>1</dim>
					<dim>3</dim>
					<dim>256</dim>
					<dim>128</dim>
				</port>
			</output>
		</layer>
		<layer id="341" name="in_first.bias122129465" type="Const" version="opset1">
			<data element_type="f16" offset="6248" shape="1,3,1,1" size="6"/>
			<output>
				<port id="0" names="in_first.bias" precision="FP16">
					<dim>1</dim>
					<dim>3</dim>
					<dim>1</dim>
					<dim>1</dim>
				</port>
			</output>
		</layer>
		<layer id="342" name="563" type="Add" version="opset1">
			<data auto_broadcast="numpy"/>
			<input>
				<port id="0">
					<dim>1</dim>
					<dim>3</dim>
					<dim>256</dim>
					<dim>128</dim>
				</port>
				<port id="1">
					<dim>1</dim>
					<dim>3</dim>
					<dim>1</dim>
					<dim>1</dim>
				</port>
			</input>
			<output>
				<port id="2" names="563" precision="FP16">
					<dim>1</dim>
					<dim>3</dim>
					<dim>256</dim>
					<dim>128</dim>
				</port>
			</output>
		</layer>
		<layer id="343" name="564/fq_input_0" type="FakeQuantize" version="opset1">
			<data auto_broadcast="numpy" levels="256"/>
			<input>
				<port id="0">
					<dim>1</dim>
					<dim>3</dim>
					<dim>256</dim>
					<dim>128</dim>
				</port>
				<port id="1"/>
				<port id="2"/>
				<port id="3"/>
				<port id="4"/>
			</input>
			<output>
				<port id="5" precision="FP16">
					<dim>1</dim>
					<dim>3</dim>
					<dim>256</dim>
					<dim>128</dim>
				</port>
			</output>
		</layer>
		<layer id="344" name="conv1.conv.weight122315321/quantized2047529726" type="Const" version="opset1">
			<data element_type="i8" offset="6254" shape="64,3,7,7" size="9408"/>
			<output>
				<port id="0" precision="I8">
					<dim>64</dim>
					<dim>3</dim>
					<dim>7</dim>
					<dim>7</dim>
				</port>
			</output>
		</layer>
		<layer id="345" name="conv1.conv.weight122315321/quantized/to_f16" type="Convert" version="opset1">
			<data destination_type="f16"/>
			<input>
				<port id="0">
					<dim>64</dim>
					<dim>3</dim>
					<dim>7</dim>
					<dim>7</dim>
				</port>
			</input>
			<output>
				<port id="1" precision="FP16">
					<dim>64</dim>
					<dim>3</dim>
					<dim>7</dim>
					<dim>7</dim>
				</port>
			</output>
		</layer>
		<layer id="346" name="564/fq_weights_1/zero_point2048833473" type="Const" version="opset1">
			<data element_type="f16" offset="15662" shape="64,1,1,1" size="128"/>
			<output>
				<port id="0" precision="FP16">
					<dim>64</dim>
					<dim>1</dim>
					<dim>1</dim>
					<dim>1</dim>
				</port>
			</output>
		</layer>
		<layer id="347" name="564/fq_weights_1/minus_zp" type="Subtract" version="opset1">
			<data auto_broadcast="numpy"/>
			<input>
				<port id="0">
					<dim>64</dim>
					<dim>3</dim>
					<dim>7</dim>
					<dim>7</dim>
				</port>
				<port id="1">
					<dim>64</dim>
					<dim>1</dim>
					<dim>1</dim>
					<dim>1</dim>
				</port>
			</input>
			<output>
				<port id="2" precision="FP16">
					<dim>64</dim>
					<dim>3</dim>
					<dim>7</dim>
					<dim>7</dim>
				</port>
			</output>
		</layer>
		<layer id="348" name="564/fq_weights_1/scale2048333047" type="Const" version="opset1">
			<data element_type="f16" offset="15790" shape="64,1,1,1" size="128"/>
			<output>
				<port id="0" precision="FP16">
					<dim>64</dim>
					<dim>1</dim>
					<dim>1</dim>
					<dim>1</dim>
				</port>
			</output>
		</layer>
		<layer id="349" name="564/fq_weights_1/mulpiply_by_scale" type="Multiply" version="opset1">
			<data auto_broadcast="numpy"/>
			<input>
				<port id="0">
					<dim>64</dim>
					<dim>3</dim>
					<dim>7</dim>
					<dim>7</dim>
				</port>
				<port id="1">
					<dim>64</dim>
					<dim>1</dim>
					<dim>1</dim>
					<dim>1</dim>
				</port>
			</input>
			<output>
				<port id="2" precision="FP16">
					<dim>64</dim>
					<dim>3</dim>
					<dim>7</dim>
					<dim>7</dim>
				</port>
			</output>
		</layer>
		<layer id="350" name="564" type="Convolution" version="opset1">
			<data auto_pad="explicit" dilations="1,1" pads_begin="3,3" pads_end="3,3" strides="2,2"/>
			<input>
				<port id="0">
					<dim>1</dim>
					<dim>3</dim>
					<dim>256</dim>
					<dim>128</dim>
				</port>
				<port id="1">
					<dim>64</dim>
					<dim>3</dim>
					<dim>7</dim>
					<dim>7</dim>
				</port>
			</input>
			<output>
				<port id="2" names="564" precision="FP16">
					<dim>1</dim>
					<dim>64</dim>
					<dim>128</dim>
					<dim>64</dim>
				</port>
			</output>
		</layer>
		<layer id="351" name="564/add_" type="Add" version="opset1">
			<data auto_broadcast="numpy"/>
			<input>
				<port id="0">
					<dim>1</dim>
					<dim>64</dim>
					<dim>128</dim>
					<dim>64</dim>
				</port>
				<port id="1">
					<dim>1</dim>
					<dim>64</dim>
					<dim>1</dim>
					<dim>1</dim>
				</port>
			</input>
			<output>
				<port id="2" precision="FP16">
					<dim>1</dim>
					<dim>64</dim>
					<dim>128</dim>
					<dim>64</dim>
				</port>
			</output>
		</layer>
		<layer id="352" name="565/Rank/shape_of" type="ShapeOf" version="opset3">
			<data output_type="i64"/>
			<input>
				<port id="0">
					<dim>1</dim>
					<dim>64</dim>
					<dim>128</dim>
					<dim>64</dim>
				</port>
			</input>
			<output>
				<port id="1" precision="I64">
					<dim>4</dim>
				</port>
			</output>
		</layer>
		<layer id="353" name="565/Rank/rank_of" type="ShapeOf" version="opset3">
			<data output_type="i64"/>
			<input>
				<port id="0">
					<dim>4</dim>
				</port>
			</input>
			<output>
				<port id="1" precision="I64">
					<dim>1</dim>
				</port>
			</output>
		</layer>
		<layer id="354" name="565/Rank/0d_rank_of/value122832555" type="Const" version="opset1">
			<data element_type="i64" offset="6210" shape="1" size="8"/>
			<output>
				<port id="0" precision="I64">
					<dim>1</dim>
				</port>
			</output>
		</layer>
		<layer id="355" name="565/Rank" type="Squeeze" version="opset1">
			<input>
				<port id="0">
					<dim>1</dim>
				</port>
				<port id="1">
					<dim>1</dim>
				</port>
			</input>
			<output>
				<port id="2" precision="I64"/>
			</output>
		</layer>
		<layer id="356" name="565/Range_input_port_2/value123030779" type="Const" version="opset1">
			<data element_type="i64" offset="6218" shape="" size="8"/>
			<output>
				<port id="0" precision="I64"/>
			</output>
		</layer>
		<layer id="357" name="565/Range" type="Range" version="opset4">
			<data output_type="i64"/>
			<input>
				<port id="0"/>
				<port id="1"/>
				<port id="2"/>
			</input>
			<output>
				<port id="3" precision="I64">
					<dim>2</dim>
				</port>
			</output>
		</layer>
		<layer id="358" name="7107711133185" type="Const" version="opset1">
			<data element_type="f16" offset="15918" shape="" size="2"/>
			<output>
				<port id="0" precision="FP16"/>
			</output>
		</layer>
		<layer id="359" name="7108711229237" type="Const" version="opset1">
			<data element_type="f16" offset="15920" shape="" size="2"/>
			<output>
				<port id="0" precision="FP16"/>
			</output>
		</layer>
		<layer id="360" name="7109711332900" type="Const" version="opset1">
			<data element_type="f16" offset="15918" shape="" size="2"/>
			<output>
				<port id="0" precision="FP16"/>
			</output>
		</layer>
		<layer id="361" name="7110711428391" type="Const" version="opset1">
			<data element_type="f16" offset="15920" shape="" size="2"/>
			<output>
				<port id="0" precision="FP16"/>
			</output>
		</layer>
		<layer id="362" name="565/Ins_Norm/MVN_/fq_input_0" type="FakeQuantize" version="opset1">
			<data auto_broadcast="numpy" levels="256"/>
			<input>
				<port id="0">
					<dim>1</dim>
					<dim>64</dim>
					<dim>128</dim>
					<dim>64</dim>
				</port>
				<port id="1"/>
				<port id="2"/>
				<port id="3"/>
				<port id="4"/>
			</input>
			<output>
				<port id="5" precision="FP16">
					<dim>1</dim>
					<dim>64</dim>
					<dim>128</dim>
					<dim>64</dim>
				</port>
			</output>
		</layer>
		<layer id="363" name="565/Ins_Norm/MVN_" type="MVN" version="opset6">
			<data eps="9.999999747378752e-06" eps_mode="INSIDE_SQRT" normalize_variance="true"/>
			<input>
				<port id="0">
					<dim>1</dim>
					<dim>64</dim>
					<dim>128</dim>
					<dim>64</dim>
				</port>
				<port id="1">
					<dim>2</dim>
				</port>
			</input>
			<output>
				<port id="2" precision="FP16">
					<dim>1</dim>
					<dim>64</dim>
					<dim>128</dim>
					<dim>64</dim>
				</port>
			</output>
		</layer>
		<layer id="364" name="conv1.bn.weight123331439" type="Const" version="opset1">
			<data element_type="f16" offset="15922" shape="1,64,1,1" size="128"/>
			<output>
				<port id="0" names="conv1.bn.weight" precision="FP16">
					<dim>1</dim>
					<dim>64</dim>
					<dim>1</dim>
					<dim>1</dim>
				</port>
			</output>
		</layer>
		<layer id="365" name="565/Ins_Norm/mul_" type="Multiply" version="opset1">
			<data auto_broadcast="numpy"/>
			<input>
				<port id="0">
					<dim>1</dim>
					<dim>64</dim>
					<dim>128</dim>
					<dim>64</dim>
				</port>
				<port id="1">
					<dim>1</dim>
					<dim>64</dim>
					<dim>1</dim>
					<dim>1</dim>
				</port>
			</input>
			<output>
				<port id="2" precision="FP16">
					<dim>1</dim>
					<dim>64</dim>
					<dim>128</dim>
					<dim>64</dim>
				</port>
			</output>
		</layer>
		<layer id="366" name="conv1.bn.bias123531082" type="Const" version="opset1">
			<data element_type="f16" offset="16050" shape="1,64,1,1" size="128"/>
			<output>
				<port id="0" names="conv1.bn.bias" precision="FP16">
					<dim>1</dim>
					<dim>64</dim>
					<dim>1</dim>
					<dim>1</dim>
				</port>
			</output>
		</layer>
		<layer id="367" name="565" type="Add" version="opset1">
			<data auto_broadcast="numpy"/>
			<input>
				<port id="0">
					<dim>1</dim>
					<dim>64</dim>
					<dim>128</dim>
					<dim>64</dim>
				</port>
				<port id="1">
					<dim>1</dim>
					<dim>64</dim>
					<dim>1</dim>
					<dim>1</dim>
				</port>
			</input>
			<output>
				<port id="2" names="565" precision="FP16">
					<dim>1</dim>
					<dim>64</dim>
					<dim>128</dim>
					<dim>64</dim>
				</port>
			</output>
		</layer>
		<layer id="368" name="566" type="ReLU" version="opset1">
			<input>
				<port id="0">
					<dim>1</dim>
					<dim>64</dim>
					<dim>128</dim>
					<dim>64</dim>
				</port>
			</input>
			<output>
				<port id="1" names="566" precision="FP16">
					<dim>1</dim>
					<dim>64</dim>
					<dim>128</dim>
					<dim>64</dim>
				</port>
			</output>
		</layer>
		<layer id="369" name="567/fq_input_0" type="FakeQuantize" version="opset1">
			<data auto_broadcast="numpy" levels="256"/>
			<input>
				<port id="0">
					<dim>1</dim>
					<dim>64</dim>
					<dim>128</dim>
					<dim>64</dim>
				</port>
				<port id="1"/>
				<port id="2"/>
				<port id="3"/>
				<port id="4"/>
			</input>
			<output>
				<port id="5" precision="FP16">
					<dim>1</dim>
					<dim>64</dim>
					<dim>128</dim>
					<dim>64</dim>
				</port>
			</output>
		</layer>
		<layer id="370" name="567" type="MaxPool" version="opset1">
			<data auto_pad="explicit" kernel="3,3" pads_begin="1,1" pads_end="1,1" rounding_type="floor" strides="2,2"/>
			<input>
				<port id="0">
					<dim>1</dim>
					<dim>64</dim>
					<dim>128</dim>
					<dim>64</dim>
				</port>
			</input>
			<output>
				<port id="1" names="567" precision="FP16">
					<dim>1</dim>
					<dim>64</dim>
					<dim>64</dim>
					<dim>32</dim>
				</port>
			</output>
		</layer>
		<layer id="371" name="569/mean/Fused_Mul__copy123915327/quantized2057128592" type="Const" version="opset1">
			<data element_type="i8" offset="16178" shape="64,64,1,1" size="4096"/>
			<output>
				<port id="0" precision="I8">
					<dim>64</dim>
					<dim>64</dim>
					<dim>1</dim>
					<dim>1</dim>
				</port>
			</output>
		</layer>
		<layer id="372" name="569/mean/Fused_Mul__copy123915327/quantized/to_f16" type="Convert" version="opset1">
			<data destination_type="f16"/>
			<input>
				<port id="0">
					<dim>64</dim>
					<dim>64</dim>
					<dim>1</dim>
					<dim>1</dim>
				</port>
			</input>
			<output>
				<port id="1" precision="FP16">
					<dim>64</dim>
					<dim>64</dim>
					<dim>1</dim>
					<dim>1</dim>
				</port>
			</output>
		</layer>
		<layer id="373" name="568/fq_weights_1/zero_point2058432591" type="Const" version="opset1">
			<data element_type="f16" offset="20274" shape="64,1,1,1" size="128"/>
			<output>
				<port id="0" precision="FP16">
					<dim>64</dim>
					<dim>1</dim>
					<dim>1</dim>
					<dim>1</dim>
				</port>
			</output>
		</layer>
		<layer id="374" name="568/fq_weights_1/minus_zp" type="Subtract" version="opset1">
			<data auto_broadcast="numpy"/>
			<input>
				<port id="0">
					<dim>64</dim>
					<dim>64</dim>
					<dim>1</dim>
					<dim>1</dim>
				</port>
				<port id="1">
					<dim>64</dim>
					<dim>1</dim>
					<dim>1</dim>
					<dim>1</dim>
				</port>
			</input>
			<output>
				<port id="2" precision="FP16">
					<dim>64</dim>
					<dim>64</dim>
					<dim>1</dim>
					<dim>1</dim>
				</port>
			</output>
		</layer>
		<layer id="375" name="568/fq_weights_1/scale2057931121" type="Const" version="opset1">
			<data element_type="f16" offset="20402" shape="64,1,1,1" size="128"/>
			<output>
				<port id="0" precision="FP16">
					<dim>64</dim>
					<dim>1</dim>
					<dim>1</dim>
					<dim>1</dim>
				</port>
			</output>
		</layer>
		<layer id="376" name="568/fq_weights_1/mulpiply_by_scale" type="Multiply" version="opset1">
			<data auto_broadcast="numpy"/>
			<input>
				<port id="0">
					<dim>64</dim>
					<dim>64</dim>
					<dim>1</dim>
					<dim>1</dim>
				</port>
				<port id="1">
					<dim>64</dim>
					<dim>1</dim>
					<dim>1</dim>
					<dim>1</dim>
				</port>
			</input>
			<output>
				<port id="2" precision="FP16">
					<dim>64</dim>
					<dim>64</dim>
					<dim>1</dim>
					<dim>1</dim>
				</port>
			</output>
		</layer>
		<layer id="377" name="568" type="Convolution" version="opset1">
			<data auto_pad="explicit" dilations="1,1" pads_begin="0,0" pads_end="0,0" strides="1,1"/>
			<input>
				<port id="0">
					<dim>1</dim>
					<dim>64</dim>
					<dim>64</dim>
					<dim>32</dim>
				</port>
				<port id="1">
					<dim>64</dim>
					<dim>64</dim>
					<dim>1</dim>
					<dim>1</dim>
				</port>
			</input>
			<output>
				<port id="2" precision="FP16">
					<dim>1</dim>
					<dim>64</dim>
					<dim>64</dim>
					<dim>32</dim>
				</port>
			</output>
		</layer>
		<layer id="378" name="data_add_2170521710124132906" type="Const" version="opset1">
			<data element_type="f16" offset="20530" shape="1,64,1,1" size="128"/>
			<output>
				<port id="0" precision="FP16">
					<dim>1</dim>
					<dim>64</dim>
					<dim>1</dim>
					<dim>1</dim>
				</port>
			</output>
		</layer>
		<layer id="379" name="569/variance/Fused_Add_" type="Add" version="opset1">
			<data auto_broadcast="numpy"/>
			<input>
				<port id="0">
					<dim>1</dim>
					<dim>64</dim>
					<dim>64</dim>
					<dim>32</dim>
				</port>
				<port id="1">
					<dim>1</dim>
					<dim>64</dim>
					<dim>1</dim>
					<dim>1</dim>
				</port>
			</input>
			<output>
				<port id="2" names="569" precision="FP16">
					<dim>1</dim>
					<dim>64</dim>
					<dim>64</dim>
					<dim>32</dim>
				</port>
			</output>
		</layer>
		<layer id="380" name="570" type="ReLU" version="opset1">
			<input>
				<port id="0">
					<dim>1</dim>
					<dim>64</dim>
					<dim>64</dim>
					<dim>32</dim>
				</port>
			</input>
			<output>
				<port id="1" names="570" precision="FP16">
					<dim>1</dim>
					<dim>64</dim>
					<dim>64</dim>
					<dim>32</dim>
				</port>
			</output>
		</layer>
		<layer id="381" name="571/fq_input_0" type="FakeQuantize" version="opset1">
			<data auto_broadcast="numpy" levels="256"/>
			<input>
				<port id="0">
					<dim>1</dim>
					<dim>64</dim>
					<dim>64</dim>
					<dim>32</dim>
				</port>
				<port id="1"/>
				<port id="2"/>
				<port id="3"/>
				<port id="4"/>
			</input>
			<output>
				<port id="5" precision="FP16">
					<dim>1</dim>
					<dim>64</dim>
					<dim>64</dim>
					<dim>32</dim>
				</port>
			</output>
		</layer>
		<layer id="382" name="conv2.0.conv2a.conv1.weight124415329/quantized1925133143" type="Const" version="opset1">
			<data element_type="i8" offset="20658" shape="64,64,1,1" size="4096"/>
			<output>
				<port id="0" precision="I8">
					<dim>64</dim>
					<dim>64</dim>
					<dim>1</dim>
					<dim>1</dim>
				</port>
			</output>
		</layer>
		<layer id="383" name="conv2.0.conv2a.conv1.weight124415329/quantized/to_f16" type="Convert" version="opset1">
			<data destination_type="f16"/>
			<input>
				<port id="0">
					<dim>64</dim>
					<dim>64</dim>
					<dim>1</dim>
					<dim>1</dim>
				</port>
			</input>
			<output>
				<port id="1" precision="FP16">
					<dim>64</dim>
					<dim>64</dim>
					<dim>1</dim>
					<dim>1</dim>
				</port>
			</output>
		</layer>
		<layer id="384" name="571/fq_weights_1/zero_point1926432147" type="Const" version="opset1">
			<data element_type="f16" offset="24754" shape="64,1,1,1" size="128"/>
			<output>
				<port id="0" precision="FP16">
					<dim>64</dim>
					<dim>1</dim>
					<dim>1</dim>
					<dim>1</dim>
				</port>
			</output>
		</layer>
		<layer id="385" name="571/fq_weights_1/minus_zp" type="Subtract" version="opset1">
			<data auto_broadcast="numpy"/>
			<input>
				<port id="0">
					<dim>64</dim>
					<dim>64</dim>
					<dim>1</dim>
					<dim>1</dim>
				</port>
				<port id="1">
					<dim>64</dim>
					<dim>1</dim>
					<dim>1</dim>
					<dim>1</dim>
				</port>
			</input>
			<output>
				<port id="2" precision="FP16">
					<dim>64</dim>
					<dim>64</dim>
					<dim>1</dim>
					<dim>1</dim>
				</port>
			</output>
		</layer>
		<layer id="386" name="571/fq_weights_1/scale1925930371" type="Const" version="opset1">
			<data element_type="f16" offset="24882" shape="64,1,1,1" size="128"/>
			<output>
				<port id="0" precision="FP16">
					<dim>64</dim>
					<dim>1</dim>
					<dim>1</dim>
					<dim>1</dim>
				</port>
			</output>
		</layer>
		<layer id="387" name="571/fq_weights_1/mulpiply_by_scale" type="Multiply" version="opset1">
			<data auto_broadcast="numpy"/>
			<input>
				<port id="0">
					<dim>64</dim>
					<dim>64</dim>
					<dim>1</dim>
					<dim>1</dim>
				</port>
				<port id="1">
					<dim>64</dim>
					<dim>1</dim>
					<dim>1</dim>
					<dim>1</dim>
				</port>
			</input>
			<output>
				<port id="2" precision="FP16">
					<dim>64</dim>
					<dim>64</dim>
					<dim>1</dim>
					<dim>1</dim>
				</port>
			</output>
		</layer>
		<layer id="388" name="571" type="Convolution" version="opset1">
			<data auto_pad="explicit" dilations="1,1" pads_begin="0,0" pads_end="0,0" strides="1,1"/>
			<input>
				<port id="0">
					<dim>1</dim>
					<dim>64</dim>
					<dim>64</dim>
					<dim>32</dim>
				</port>
				<port id="1">
					<dim>64</dim>
					<dim>64</dim>
					<dim>1</dim>
					<dim>1</dim>
				</port>
			</input>
			<output>
				<port id="2" names="571" precision="FP16">
					<dim>1</dim>
					<dim>64</dim>
					<dim>64</dim>
					<dim>32</dim>
				</port>
			</output>
		</layer>
		<layer id="389" name="571/add_" type="Add" version="opset1">
			<data auto_broadcast="numpy"/>
			<input>
				<port id="0">
					<dim>1</dim>
					<dim>64</dim>
					<dim>64</dim>
					<dim>32</dim>
				</port>
				<port id="1">
					<dim>1</dim>
					<dim>64</dim>
					<dim>1</dim>
					<dim>1</dim>
				</port>
			</input>
			<output>
				<port id="2" precision="FP16">
					<dim>1</dim>
					<dim>64</dim>
					<dim>64</dim>
					<dim>32</dim>
				</port>
			</output>
		</layer>
		<layer id="390" name="572/fq_input_0" type="FakeQuantize" version="opset1">
			<data auto_broadcast="numpy" levels="256"/>
			<input>
				<port id="0">
					<dim>1</dim>
					<dim>64</dim>
					<dim>64</dim>
					<dim>32</dim>
				</port>
				<port id="1">
					<dim>1</dim>
					<dim>64</dim>
					<dim>1</dim>
					<dim>1</dim>
				</port>
				<port id="2">
					<dim>1</dim>
					<dim>64</dim>
					<dim>1</dim>
					<dim>1</dim>
				</port>
				<port id="3">
					<dim>1</dim>
					<dim>64</dim>
					<dim>1</dim>
					<dim>1</dim>
				</port>
				<port id="4">
					<dim>1</dim>
					<dim>64</dim>
					<dim>1</dim>
					<dim>1</dim>
				</port>
			</input>
			<output>
				<port id="5" precision="FP16">
					<dim>1</dim>
					<dim>64</dim>
					<dim>64</dim>
					<dim>32</dim>
				</port>
			</output>
		</layer>
		<layer id="391" name="24372/value2437428439" type="Const" version="opset1">
			<data element_type="i64" offset="25010" shape="5" size="40"/>
			<output>
				<port id="0" precision="I64">
					<dim>5</dim>
				</port>
			</output>
		</layer>
		<layer id="392" name="573/mean/Fused_Mul__copy124615330/quantized1865130545" type="Const" version="opset1">
			<data element_type="i8" offset="25050" shape="64,1,3,3" size="576"/>
			<output>
				<port id="0" precision="I8">
					<dim>64</dim>
					<dim>1</dim>
					<dim>3</dim>
					<dim>3</dim>
				</port>
			</output>
		</layer>
		<layer id="393" name="573/mean/Fused_Mul__copy124615330/quantized/to_f16" type="Convert" version="opset1">
			<data destination_type="f16"/>
			<input>
				<port id="0">
					<dim>64</dim>
					<dim>1</dim>
					<dim>3</dim>
					<dim>3</dim>
				</port>
			</input>
			<output>
				<port id="1" precision="FP16">
					<dim>64</dim>
					<dim>1</dim>
					<dim>3</dim>
					<dim>3</dim>
				</port>
			</output>
		</layer>
		<layer id="394" name="572/fq_weights_1/zero_point1866432588" type="Const" version="opset1">
			<data element_type="f16" offset="25626" shape="64,1,1,1" size="128"/>
			<output>
				<port id="0" precision="FP16">
					<dim>64</dim>
					<dim>1</dim>
					<dim>1</dim>
					<dim>1</dim>
				</port>
			</output>
		</layer>
		<layer id="395" name="572/fq_weights_1/minus_zp" type="Subtract" version="opset1">
			<data auto_broadcast="numpy"/>
			<input>
				<port id="0">
					<dim>64</dim>
					<dim>1</dim>
					<dim>3</dim>
					<dim>3</dim>
				</port>
				<port id="1">
					<dim>64</dim>
					<dim>1</dim>
					<dim>1</dim>
					<dim>1</dim>
				</port>
			</input>
			<output>
				<port id="2" precision="FP16">
					<dim>64</dim>
					<dim>1</dim>
					<dim>3</dim>
					<dim>3</dim>
				</port>
			</output>
		</layer>
		<layer id="396" name="572/fq_weights_1/scale1865928706" type="Const" version="opset1">
			<data element_type="f16" offset="25754" shape="64,1,1,1" size="128"/>
			<output>
				<port id="0" precision="FP16">
					<dim>64</dim>
					<dim>1</dim>
					<dim>1</dim>
					<dim>1</dim>
				</port>
			</output>
		</layer>
		<layer id="397" name="572/fq_weights_1/mulpiply_by_scale" type="Multiply" version="opset1">
			<data auto_broadcast="numpy"/>
			<input>
				<port id="0">
					<dim>64</dim>
					<dim>1</dim>
					<dim>3</dim>
					<dim>3</dim>
				</port>
				<port id="1">
					<dim>64</dim>
					<dim>1</dim>
					<dim>1</dim>
					<dim>1</dim>
				</port>
			</input>
			<output>
				<port id="2" precision="FP16">
					<dim>64</dim>
					<dim>1</dim>
					<dim>3</dim>
					<dim>3</dim>
				</port>
			</output>
		</layer>
		<layer id="398" name="24372" type="Reshape" version="opset1">
			<data special_zero="true"/>
			<input>
				<port id="0">
					<dim>64</dim>
					<dim>1</dim>
					<dim>3</dim>
					<dim>3</dim>
				</port>
				<port id="1">
					<dim>5</dim>
				</port>
			</input>
			<output>
				<port id="2" precision="FP16">
					<dim>64</dim>
					<dim>1</dim>
					<dim>1</dim>
					<dim>3</dim>
					<dim>3</dim>
				</port>
			</output>
		</layer>
		<layer id="399" name="572" type="GroupConvolution" version="opset1">
			<data auto_pad="explicit" dilations="1,1" pads_begin="1,1" pads_end="1,1" strides="1,1"/>
			<input>
				<port id="0">
					<dim>1</dim>
					<dim>64</dim>
					<dim>64</dim>
					<dim>32</dim>
				</port>
				<port id="1">
					<dim>64</dim>
					<dim>1</dim>
					<dim>1</dim>
					<dim>3</dim>
					<dim>3</dim>
				</port>
			</input>
			<output>
				<port id="2" precision="FP16">
					<dim>1</dim>
					<dim>64</dim>
					<dim>64</dim>
					<dim>32</dim>
				</port>
			</output>
		</layer>
		<layer id="400" name="data_add_2178521790124832270" type="Const" version="opset1">
			<data element_type="f16" offset="25882" shape="1,64,1,1" size="128"/>
			<output>
				<port id="0" precision="FP16">
					<dim>1</dim>
					<dim>64</dim>
					<dim>1</dim>
					<dim>1</dim>
				</port>
			</output>
		</layer>
		<layer id="401" name="573/variance/Fused_Add_" type="Add" version="opset1">
			<data auto_broadcast="numpy"/>
			<input>
				<port id="0">
					<dim>1</dim>
					<dim>64</dim>
					<dim>64</dim>
					<dim>32</dim>
				</port>
				<port id="1">
					<dim>1</dim>
					<dim>64</dim>
					<dim>1</dim>
					<dim>1</dim>
				</port>
			</input>
			<output>
				<port id="2" names="573" precision="FP16">
					<dim>1</dim>
					<dim>64</dim>
					<dim>64</dim>
					<dim>32</dim>
				</port>
			</output>
		</layer>
		<layer id="402" name="574" type="ReLU" version="opset1">
			<input>
				<port id="0">
					<dim>1</dim>
					<dim>64</dim>
					<dim>64</dim>
					<dim>32</dim>
				</port>
			</input>
			<output>
				<port id="1" names="574" precision="FP16">
					<dim>1</dim>
					<dim>64</dim>
					<dim>64</dim>
					<dim>32</dim>
				</port>
			</output>
		</layer>
		<layer id="403" name="611/reduce/fq_input_0" type="FakeQuantize" version="opset1">
			<data auto_broadcast="numpy" levels="256"/>
			<input>
				<port id="0">
					<dim>1</dim>
					<dim>64</dim>
					<dim>64</dim>
					<dim>32</dim>
				</port>
				<port id="1"/>
				<port id="2"/>
				<port id="3"/>
				<port id="4"/>
			</input>
			<output>
				<port id="5" precision="FP16">
					<dim>1</dim>
					<dim>64</dim>
					<dim>64</dim>
					<dim>32</dim>
				</port>
			</output>
		</layer>
		<layer id="404" name="1324125131250" type="Const" version="opset1">
			<data element_type="i64" offset="2846" shape="" size="8"/>
			<output>
				<port id="0" precision="I64"/>
			</output>
		</layer>
		<layer id="405" name="611/input_rank/shape_of" type="ShapeOf" version="opset3">
			<data output_type="i64"/>
			<input>
				<port id="0">
					<dim>1</dim>
					<dim>64</dim>
					<dim>64</dim>
					<dim>32</dim>
				</port>
			</input>
			<output>
				<port id="1" precision="I64">
					<dim>4</dim>
				</port>
			</output>
		</layer>
		<layer id="406" name="611/input_rank/rank_of" type="ShapeOf" version="opset3">
			<data output_type="i64"/>
			<input>
				<port id="0">
					<dim>4</dim>
				</port>
			</input>
			<output>
				<port id="1" precision="I64">
					<dim>1</dim>
				</port>
			</output>
		</layer>
		<layer id="407" name="611/input_rank/0d_rank_of/value125433101" type="Const" version="opset1">
			<data element_type="i64" offset="6210" shape="1" size="8"/>
			<output>
				<port id="0" precision="I64">
					<dim>1</dim>
				</port>
			</output>
		</layer>
		<layer id="408" name="611/input_rank" type="Squeeze" version="opset1">
			<input>
				<port id="0">
					<dim>1</dim>
				</port>
				<port id="1">
					<dim>1</dim>
				</port>
			</input>
			<output>
				<port id="2" precision="I64"/>
			</output>
		</layer>
		<layer id="409" name="1326125631559" type="Const" version="opset1">
			<data element_type="i64" offset="6218" shape="" size="8"/>
			<output>
				<port id="0" precision="I64"/>
			</output>
		</layer>
		<layer id="410" name="611/global_pooling_reduce_axis" type="Range" version="opset4">
			<data output_type="i64"/>
			<input>
				<port id="0"/>
				<port id="1"/>
				<port id="2"/>
			</input>
			<output>
				<port id="3" precision="I64">
					<dim>2</dim>
				</port>
			</output>
		</layer>
		<layer id="411" name="611/reduce" type="ReduceMean" version="opset1">
			<data keep_dims="true"/>
			<input>
				<port id="0">
					<dim>1</dim>
					<dim>64</dim>
					<dim>64</dim>
					<dim>32</dim>
				</port>
				<port id="1">
					<dim>2</dim>
				</port>
			</input>
			<output>
				<port id="2" names="611" precision="FP16">
					<dim>1</dim>
					<dim>64</dim>
					<dim>1</dim>
					<dim>1</dim>
				</port>
			</output>
		</layer>
		<layer id="412" name="conv2.0.gate.fc1.weight44266125929534" type="Const" version="opset1">
			<data element_type="f16" offset="26010" shape="4,64,1,1" size="512"/>
			<output>
				<port id="0" names="conv2.0.gate.fc1.weight" precision="FP16">
					<dim>4</dim>
					<dim>64</dim>
					<dim>1</dim>
					<dim>1</dim>
				</port>
			</output>
		</layer>
		<layer id="413" name="612/WithoutBiases" type="Convolution" version="opset1">
			<data auto_pad="explicit" dilations="1,1" pads_begin="0,0" pads_end="0,0" strides="1,1"/>
			<input>
				<port id="0">
					<dim>1</dim>
					<dim>64</dim>
					<dim>1</dim>
					<dim>1</dim>
				</port>
				<port id="1">
					<dim>4</dim>
					<dim>64</dim>
					<dim>1</dim>
					<dim>1</dim>
				</port>
			</input>
			<output>
				<port id="2" precision="FP16">
					<dim>1</dim>
					<dim>4</dim>
					<dim>1</dim>
					<dim>1</dim>
				</port>
			</output>
		</layer>
		<layer id="414" name="612/Dims12884126129522" type="Const" version="opset1">
			<data element_type="f16" offset="26522" shape="1,4,1,1" size="8"/>
			<output>
				<port id="0" precision="FP16">
					<dim>1</dim>
					<dim>4</dim>
					<dim>1</dim>
					<dim>1</dim>
				</port>
			</output>
		</layer>
		<layer id="415" name="612" type="Add" version="opset1">
			<data auto_broadcast="numpy"/>
			<input>
				<port id="0">
					<dim>1</dim>
					<dim>4</dim>
					<dim>1</dim>
					<dim>1</dim>
				</port>
				<port id="1">
					<dim>1</dim>
					<dim>4</dim>
					<dim>1</dim>
					<dim>1</dim>
				</port>
			</input>
			<output>
				<port id="2" names="612" precision="FP16">
					<dim>1</dim>
					<dim>4</dim>
					<dim>1</dim>
					<dim>1</dim>
				</port>
			</output>
		</layer>
		<layer id="416" name="613" type="ReLU" version="opset1">
			<input>
				<port id="0">
					<dim>1</dim>
					<dim>4</dim>
					<dim>1</dim>
					<dim>1</dim>
				</port>
			</input>
			<output>
				<port id="1" names="613" precision="FP16">
					<dim>1</dim>
					<dim>4</dim>
					<dim>1</dim>
					<dim>1</dim>
				</port>
			</output>
		</layer>
		<layer id="417" name="conv2.0.gate.fc2.weight126431868" type="Const" version="opset1">
			<data element_type="f16" offset="26530" shape="64,4,1,1" size="512"/>
			<output>
				<port id="0" names="conv2.0.gate.fc2.weight" precision="FP16">
					<dim>64</dim>
					<dim>4</dim>
					<dim>1</dim>
					<dim>1</dim>
				</port>
			</output>
		</layer>
		<layer id="418" name="614/WithoutBiases" type="Convolution" version="opset1">
			<data auto_pad="explicit" dilations="1,1" pads_begin="0,0" pads_end="0,0" strides="1,1"/>
			<input>
				<port id="0">
					<dim>1</dim>
					<dim>4</dim>
					<dim>1</dim>
					<dim>1</dim>
				</port>
				<port id="1">
					<dim>64</dim>
					<dim>4</dim>
					<dim>1</dim>
					<dim>1</dim>
				</port>
			</input>
			<output>
				<port id="2" precision="FP16">
					<dim>1</dim>
					<dim>64</dim>
					<dim>1</dim>
					<dim>1</dim>
				</port>
			</output>
		</layer>
		<layer id="419" name="614/Dims12974126629030" type="Const" version="opset1">
			<data element_type="f16" offset="27042" shape="1,64,1,1" size="128"/>
			<output>
				<port id="0" precision="FP16">
					<dim>1</dim>
					<dim>64</dim>
					<dim>1</dim>
					<dim>1</dim>
				</port>
			</output>
		</layer>
		<layer id="420" name="614" type="Add" version="opset1">
			<data auto_broadcast="numpy"/>
			<input>
				<port id="0">
					<dim>1</dim>
					<dim>64</dim>
					<dim>1</dim>
					<dim>1</dim>
				</port>
				<port id="1">
					<dim>1</dim>
					<dim>64</dim>
					<dim>1</dim>
					<dim>1</dim>
				</port>
			</input>
			<output>
				<port id="2" names="614" precision="FP16">
					<dim>1</dim>
					<dim>64</dim>
					<dim>1</dim>
					<dim>1</dim>
				</port>
			</output>
		</layer>
		<layer id="421" name="615" type="Sigmoid" version="opset1">
			<input>
				<port id="0">
					<dim>1</dim>
					<dim>64</dim>
					<dim>1</dim>
					<dim>1</dim>
				</port>
			</input>
			<output>
				<port id="1" names="615" precision="FP16">
					<dim>1</dim>
					<dim>64</dim>
					<dim>1</dim>
					<dim>1</dim>
				</port>
			</output>
		</layer>
		<layer id="422" name="616/fq_input_1" type="FakeQuantize" version="opset1">
			<data auto_broadcast="numpy" levels="256"/>
			<input>
				<port id="0">
					<dim>1</dim>
					<dim>64</dim>
					<dim>1</dim>
					<dim>1</dim>
				</port>
				<port id="1"/>
				<port id="2"/>
				<port id="3"/>
				<port id="4"/>
			</input>
			<output>
				<port id="5" precision="FP16">
					<dim>1</dim>
					<dim>64</dim>
					<dim>1</dim>
					<dim>1</dim>
				</port>
			</output>
		</layer>
		<layer id="423" name="616" type="Multiply" version="opset1">
			<data auto_broadcast="numpy"/>
			<input>
				<port id="0">
					<dim>1</dim>
					<dim>64</dim>
					<dim>64</dim>
					<dim>32</dim>
				</port>
				<port id="1">
					<dim>1</dim>
					<dim>64</dim>
					<dim>1</dim>
					<dim>1</dim>
				</port>
			</input>
			<output>
				<port id="2" names="616" precision="FP16">
					<dim>1</dim>
					<dim>64</dim>
					<dim>64</dim>
					<dim>32</dim>
				</port>
			</output>
		</layer>
		<layer id="424" name="623/fq_input_0" type="FakeQuantize" version="opset1">
			<data auto_broadcast="numpy" levels="256"/>
			<input>
				<port id="0">
					<dim>1</dim>
					<dim>64</dim>
					<dim>64</dim>
					<dim>32</dim>
				</port>
				<port id="1"/>
				<port id="2"/>
				<port id="3"/>
				<port id="4"/>
			</input>
			<output>
				<port id="5" precision="FP16">
					<dim>1</dim>
					<dim>64</dim>
					<dim>64</dim>
					<dim>32</dim>
				</port>
			</output>
		</layer>
		<layer id="425" name="7607761131088" type="Const" version="opset1">
			<data element_type="f16" offset="2568" shape="" size="2"/>
			<output>
				<port id="0" precision="FP16"/>
			</output>
		</layer>
		<layer id="426" name="7608761233743" type="Const" version="opset1">
			<data element_type="f16" offset="27170" shape="" size="2"/>
			<output>
				<port id="0" precision="FP16"/>
			</output>
		</layer>
		<layer id="427" name="7609761328511" type="Const" version="opset1">
			<data element_type="f16" offset="2568" shape="" size="2"/>
			<output>
				<port id="0" precision="FP16"/>
			</output>
		</layer>
		<layer id="428" name="7610761433803" type="Const" version="opset1">
			<data element_type="f16" offset="27170" shape="" size="2"/>
			<output>
				<port id="0" precision="FP16"/>
			</output>
		</layer>
		<layer id="429" name="7127713129468" type="Const" version="opset1">
			<data element_type="f16" offset="2568" shape="" size="2"/>
			<output>
				<port id="0" precision="FP16"/>
			</output>
		</layer>
		<layer id="430" name="7128713231415" type="Const" version="opset1">
			<data element_type="f16" offset="27172" shape="" size="2"/>
			<output>
				<port id="0" precision="FP16"/>
			</output>
		</layer>
		<layer id="431" name="7129713332876" type="Const" version="opset1">
			<data element_type="f16" offset="2568" shape="" size="2"/>
			<output>
				<port id="0" precision="FP16"/>
			</output>
		</layer>
		<layer id="432" name="7130713430452" type="Const" version="opset1">
			<data element_type="f16" offset="27172" shape="" size="2"/>
			<output>
				<port id="0" precision="FP16"/>
			</output>
		</layer>
		<layer id="433" name="7807781132681" type="Const" version="opset1">
			<data element_type="f16" offset="2568" shape="" size="2"/>
			<output>
				<port id="0" precision="FP16"/>
			</output>
		</layer>
		<layer id="434" name="7808781231667" type="Const" version="opset1">
			<data element_type="f16" offset="27174" shape="" size="2"/>
			<output>
				<port id="0" precision="FP16"/>
			</output>
		</layer>
		<layer id="435" name="7809781331253" type="Const" version="opset1">
			<data element_type="f16" offset="2568" shape="" size="2"/>
			<output>
				<port id="0" precision="FP16"/>
			</output>
		</layer>
		<layer id="436" name="7810781432687" type="Const" version="opset1">
			<data element_type="f16" offset="27174" shape="" size="2"/>
			<output>
				<port id="0" precision="FP16"/>
			</output>
		</layer>
		<layer id="437" name="6417642128628" type="Const" version="opset1">
			<data element_type="f16" offset="27176" shape="1,64,1,1" size="128"/>
			<output>
				<port id="0" precision="FP16">
					<dim>1</dim>
					<dim>64</dim>
					<dim>1</dim>
					<dim>1</dim>
				</port>
			</output>
		</layer>
		<layer id="438" name="6418642233365" type="Const" version="opset1">
			<data element_type="f16" offset="27304" shape="1,64,1,1" size="128"/>
			<output>
				<port id="0" precision="FP16">
					<dim>1</dim>
					<dim>64</dim>
					<dim>1</dim>
					<dim>1</dim>
				</port>
			</output>
		</layer>
		<layer id="439" name="6419642329483" type="Const" version="opset1">
			<data element_type="f16" offset="27176" shape="1,64,1,1" size="128"/>
			<output>
				<port id="0" precision="FP16">
					<dim>1</dim>
					<dim>64</dim>
					<dim>1</dim>
					<dim>1</dim>
				</port>
			</output>
		</layer>
		<layer id="440" name="6420642432831" type="Const" version="opset1">
			<data element_type="f16" offset="27304" shape="1,64,1,1" size="128"/>
			<output>
				<port id="0" precision="FP16">
					<dim>1</dim>
					<dim>64</dim>
					<dim>1</dim>
					<dim>1</dim>
				</port>
			</output>
		</layer>
		<layer id="441" name="2880288230281" type="Const" version="opset1">
			<data element_type="f16" offset="5798" shape="1,64,1,1" size="128"/>
			<output>
				<port id="0" precision="FP16">
					<dim>1</dim>
					<dim>64</dim>
					<dim>1</dim>
					<dim>1</dim>
				</port>
			</output>
		</layer>
		<layer id="442" name="6357636132651" type="Const" version="opset1">
			<data element_type="f16" offset="2568" shape="" size="2"/>
			<output>
				<port id="0" precision="FP16"/>
			</output>
		</layer>
		<layer id="443" name="6358636230650" type="Const" version="opset1">
			<data element_type="f16" offset="27432" shape="" size="2"/>
			<output>
				<port id="0" precision="FP16"/>
			</output>
		</layer>
		<layer id="444" name="6359636333497" type="Const" version="opset1">
			<data element_type="f16" offset="2568" shape="" size="2"/>
			<output>
				<port id="0" precision="FP16"/>
			</output>
		</layer>
		<layer id="445" name="6360636433023" type="Const" version="opset1">
			<data element_type="f16" offset="27432" shape="" size="2"/>
			<output>
				<port id="0" precision="FP16"/>
			</output>
		</layer>
		<layer id="446" name="8357836133350" type="Const" version="opset1">
			<data element_type="f16" offset="27434" shape="1,64,1,1" size="128"/>
			<output>
				<port id="0" precision="FP16">
					<dim>1</dim>
					<dim>64</dim>
					<dim>1</dim>
					<dim>1</dim>
				</port>
			</output>
		</layer>
		<layer id="447" name="8358836229594" type="Const" version="opset1">
			<data element_type="f16" offset="27562" shape="1,64,1,1" size="128"/>
			<output>
				<port id="0" precision="FP16">
					<dim>1</dim>
					<dim>64</dim>
					<dim>1</dim>
					<dim>1</dim>
				</port>
			</output>
		</layer>
		<layer id="448" name="8359836328397" type="Const" version="opset1">
			<data element_type="f16" offset="27434" shape="1,64,1,1" size="128"/>
			<output>
				<port id="0" precision="FP16">
					<dim>1</dim>
					<dim>64</dim>
					<dim>1</dim>
					<dim>1</dim>
				</port>
			</output>
		</layer>
		<layer id="449" name="8360836428613" type="Const" version="opset1">
			<data element_type="f16" offset="27562" shape="1,64,1,1" size="128"/>
			<output>
				<port id="0" precision="FP16">
					<dim>1</dim>
					<dim>64</dim>
					<dim>1</dim>
					<dim>1</dim>
				</port>
			</output>
		</layer>
		<layer id="450" name="2876287831883" type="Const" version="opset1">
			<data element_type="f16" offset="5798" shape="1,64,1,1" size="128"/>
			<output>
				<port id="0" precision="FP16">
					<dim>1</dim>
					<dim>64</dim>
					<dim>1</dim>
					<dim>1</dim>
				</port>
			</output>
		</layer>
		<layer id="451" name="conv2.0.conv2b.0.conv1.weight127015339/quantized2042729129" type="Const" version="opset1">
			<data element_type="i8" offset="27690" shape="64,64,1,1" size="4096"/>
			<output>
				<port id="0" precision="I8">
					<dim>64</dim>
					<dim>64</dim>
					<dim>1</dim>
					<dim>1</dim>
				</port>
			</output>
		</layer>
		<layer id="452" name="conv2.0.conv2b.0.conv1.weight127015339/quantized/to_f16" type="Convert" version="opset1">
			<data destination_type="f16"/>
			<input>
				<port id="0">
					<dim>64</dim>
					<dim>64</dim>
					<dim>1</dim>
					<dim>1</dim>
				</port>
			</input>
			<output>
				<port id="1" precision="FP16">
					<dim>64</dim>
					<dim>64</dim>
					<dim>1</dim>
					<dim>1</dim>
				</port>
			</output>
		</layer>
		<layer id="453" name="575/fq_weights_1/zero_point2044032795" type="Const" version="opset1">
			<data element_type="f16" offset="31786" shape="64,1,1,1" size="128"/>
			<output>
				<port id="0" precision="FP16">
					<dim>64</dim>
					<dim>1</dim>
					<dim>1</dim>
					<dim>1</dim>
				</port>
			</output>
		</layer>
		<layer id="454" name="575/fq_weights_1/minus_zp" type="Subtract" version="opset1">
			<data auto_broadcast="numpy"/>
			<input>
				<port id="0">
					<dim>64</dim>
					<dim>64</dim>
					<dim>1</dim>
					<dim>1</dim>
				</port>
				<port id="1">
					<dim>64</dim>
					<dim>1</dim>
					<dim>1</dim>
					<dim>1</dim>
				</port>
			</input>
			<output>
				<port id="2" precision="FP16">
					<dim>64</dim>
					<dim>64</dim>
					<dim>1</dim>
					<dim>1</dim>
				</port>
			</output>
		</layer>
		<layer id="455" name="575/fq_weights_1/scale2043530059" type="Const" version="opset1">
			<data element_type="f16" offset="31914" shape="64,1,1,1" size="128"/>
			<output>
				<port id="0" precision="FP16">
					<dim>64</dim>
					<dim>1</dim>
					<dim>1</dim>
					<dim>1</dim>
				</port>
			</output>
		</layer>
		<layer id="456" name="575/fq_weights_1/mulpiply_by_scale" type="Multiply" version="opset1">
			<data auto_broadcast="numpy"/>
			<input>
				<port id="0">
					<dim>64</dim>
					<dim>64</dim>
					<dim>1</dim>
					<dim>1</dim>
				</port>
				<port id="1">
					<dim>64</dim>
					<dim>1</dim>
					<dim>1</dim>
					<dim>1</dim>
				</port>
			</input>
			<output>
				<port id="2" precision="FP16">
					<dim>64</dim>
					<dim>64</dim>
					<dim>1</dim>
					<dim>1</dim>
				</port>
			</output>
		</layer>
		<layer id="457" name="575" type="Convolution" version="opset1">
			<data auto_pad="explicit" dilations="1,1" pads_begin="0,0" pads_end="0,0" strides="1,1"/>
			<input>
				<port id="0">
					<dim>1</dim>
					<dim>64</dim>
					<dim>64</dim>
					<dim>32</dim>
				</port>
				<port id="1">
					<dim>64</dim>
					<dim>64</dim>
					<dim>1</dim>
					<dim>1</dim>
				</port>
			</input>
			<output>
				<port id="2" names="575" precision="FP16">
					<dim>1</dim>
					<dim>64</dim>
					<dim>64</dim>
					<dim>32</dim>
				</port>
			</output>
		</layer>
		<layer id="458" name="575/add_" type="Add" version="opset1">
			<data auto_broadcast="numpy"/>
			<input>
				<port id="0">
					<dim>1</dim>
					<dim>64</dim>
					<dim>64</dim>
					<dim>32</dim>
				</port>
				<port id="1">
					<dim>1</dim>
					<dim>64</dim>
					<dim>1</dim>
					<dim>1</dim>
				</port>
			</input>
			<output>
				<port id="2" precision="FP16">
					<dim>1</dim>
					<dim>64</dim>
					<dim>64</dim>
					<dim>32</dim>
				</port>
			</output>
		</layer>
		<layer id="459" name="576/fq_input_0" type="FakeQuantize" version="opset1">
			<data auto_broadcast="numpy" levels="256"/>
			<input>
				<port id="0">
					<dim>1</dim>
					<dim>64</dim>
					<dim>64</dim>
					<dim>32</dim>
				</port>
				<port id="1">
					<dim>1</dim>
					<dim>64</dim>
					<dim>1</dim>
					<dim>1</dim>
				</port>
				<port id="2">
					<dim>1</dim>
					<dim>64</dim>
					<dim>1</dim>
					<dim>1</dim>
				</port>
				<port id="3">
					<dim>1</dim>
					<dim>64</dim>
					<dim>1</dim>
					<dim>1</dim>
				</port>
				<port id="4">
					<dim>1</dim>
					<dim>64</dim>
					<dim>1</dim>
					<dim>1</dim>
				</port>
			</input>
			<output>
				<port id="5" precision="FP16">
					<dim>1</dim>
					<dim>64</dim>
					<dim>64</dim>
					<dim>32</dim>
				</port>
			</output>
		</layer>
		<layer id="460" name="24612/value2461431721" type="Const" version="opset1">
			<data element_type="i64" offset="25010" shape="5" size="40"/>
			<output>
				<port id="0" precision="I64">
					<dim>5</dim>
				</port>
			</output>
		</layer>
		<layer id="461" name="577/mean/Fused_Mul__copy127215340/quantized2040332462" type="Const" version="opset1">
			<data element_type="i8" offset="32042" shape="64,1,3,3" size="576"/>
			<output>
				<port id="0" precision="I8">
					<dim>64</dim>
					<dim>1</dim>
					<dim>3</dim>
					<dim>3</dim>
				</port>
			</output>
		</layer>
		<layer id="462" name="577/mean/Fused_Mul__copy127215340/quantized/to_f16" type="Convert" version="opset1">
			<data destination_type="f16"/>
			<input>
				<port id="0">
					<dim>64</dim>
					<dim>1</dim>
					<dim>3</dim>
					<dim>3</dim>
				</port>
			</input>
			<output>
				<port id="1" precision="FP16">
					<dim>64</dim>
					<dim>1</dim>
					<dim>3</dim>
					<dim>3</dim>
				</port>
			</output>
		</layer>
		<layer id="463" name="576/fq_weights_1/zero_point2041631505" type="Const" version="opset1">
			<data element_type="f16" offset="32618" shape="64,1,1,1" size="128"/>
			<output>
				<port id="0" precision="FP16">
					<dim>64</dim>
					<dim>1</dim>
					<dim>1</dim>
					<dim>1</dim>
				</port>
			</output>
		</layer>
		<layer id="464" name="576/fq_weights_1/minus_zp" type="Subtract" version="opset1">
			<data auto_broadcast="numpy"/>
			<input>
				<port id="0">
					<dim>64</dim>
					<dim>1</dim>
					<dim>3</dim>
					<dim>3</dim>
				</port>
				<port id="1">
					<dim>64</dim>
					<dim>1</dim>
					<dim>1</dim>
					<dim>1</dim>
				</port>
			</input>
			<output>
				<port id="2" precision="FP16">
					<dim>64</dim>
					<dim>1</dim>
					<dim>3</dim>
					<dim>3</dim>
				</port>
			</output>
		</layer>
		<layer id="465" name="576/fq_weights_1/scale2041129723" type="Const" version="opset1">
			<data element_type="f16" offset="32746" shape="64,1,1,1" size="128"/>
			<output>
				<port id="0" precision="FP16">
					<dim>64</dim>
					<dim>1</dim>
					<dim>1</dim>
					<dim>1</dim>
				</port>
			</output>
		</layer>
		<layer id="466" name="576/fq_weights_1/mulpiply_by_scale" type="Multiply" version="opset1">
			<data auto_broadcast="numpy"/>
			<input>
				<port id="0">
					<dim>64</dim>
					<dim>1</dim>
					<dim>3</dim>
					<dim>3</dim>
				</port>
				<port id="1">
					<dim>64</dim>
					<dim>1</dim>
					<dim>1</dim>
					<dim>1</dim>
				</port>
			</input>
			<output>
				<port id="2" precision="FP16">
					<dim>64</dim>
					<dim>1</dim>
					<dim>3</dim>
					<dim>3</dim>
				</port>
			</output>
		</layer>
		<layer id="467" name="24612" type="Reshape" version="opset1">
			<data special_zero="true"/>
			<input>
				<port id="0">
					<dim>64</dim>
					<dim>1</dim>
					<dim>3</dim>
					<dim>3</dim>
				</port>
				<port id="1">
					<dim>5</dim>
				</port>
			</input>
			<output>
				<port id="2" precision="FP16">
					<dim>64</dim>
					<dim>1</dim>
					<dim>1</dim>
					<dim>3</dim>
					<dim>3</dim>
				</port>
			</output>
		</layer>
		<layer id="468" name="576" type="GroupConvolution" version="opset1">
			<data auto_pad="explicit" dilations="1,1" pads_begin="1,1" pads_end="1,1" strides="1,1"/>
			<input>
				<port id="0">
					<dim>1</dim>
					<dim>64</dim>
					<dim>64</dim>
					<dim>32</dim>
				</port>
				<port id="1">
					<dim>64</dim>
					<dim>1</dim>
					<dim>1</dim>
					<dim>3</dim>
					<dim>3</dim>
				</port>
			</input>
			<output>
				<port id="2" precision="FP16">
					<dim>1</dim>
					<dim>64</dim>
					<dim>64</dim>
					<dim>32</dim>
				</port>
			</output>
		</layer>
		<layer id="469" name="data_add_2176921774127429930" type="Const" version="opset1">
			<data element_type="f16" offset="32874" shape="1,64,1,1" size="128"/>
			<output>
				<port id="0" precision="FP16">
					<dim>1</dim>
					<dim>64</dim>
					<dim>1</dim>
					<dim>1</dim>
				</port>
			</output>
		</layer>
		<layer id="470" name="577/variance/Fused_Add_" type="Add" version="opset1">
			<data auto_broadcast="numpy"/>
			<input>
				<port id="0">
					<dim>1</dim>
					<dim>64</dim>
					<dim>64</dim>
					<dim>32</dim>
				</port>
				<port id="1">
					<dim>1</dim>
					<dim>64</dim>
					<dim>1</dim>
					<dim>1</dim>
				</port>
			</input>
			<output>
				<port id="2" names="577" precision="FP16">
					<dim>1</dim>
					<dim>64</dim>
					<dim>64</dim>
					<dim>32</dim>
				</port>
			</output>
		</layer>
		<layer id="471" name="578" type="ReLU" version="opset1">
			<input>
				<port id="0">
					<dim>1</dim>
					<dim>64</dim>
					<dim>64</dim>
					<dim>32</dim>
				</port>
			</input>
			<output>
				<port id="1" names="578" precision="FP16">
					<dim>1</dim>
					<dim>64</dim>
					<dim>64</dim>
					<dim>32</dim>
				</port>
			</output>
		</layer>
		<layer id="472" name="579/fq_input_0" type="FakeQuantize" version="opset1">
			<data auto_broadcast="numpy" levels="256"/>
			<input>
				<port id="0">
					<dim>1</dim>
					<dim>64</dim>
					<dim>64</dim>
					<dim>32</dim>
				</port>
				<port id="1"/>
				<port id="2"/>
				<port id="3"/>
				<port id="4"/>
			</input>
			<output>
				<port id="5" precision="FP16">
					<dim>1</dim>
					<dim>64</dim>
					<dim>64</dim>
					<dim>32</dim>
				</port>
			</output>
		</layer>
		<layer id="473" name="conv2.0.conv2b.1.conv1.weight127715342/quantized1776330089" type="Const" version="opset1">
			<data element_type="i8" offset="33002" shape="64,64,1,1" size="4096"/>
			<output>
				<port id="0" precision="I8">
					<dim>64</dim>
					<dim>64</dim>
					<dim>1</dim>
					<dim>1</dim>
				</port>
			</output>
		</layer>
		<layer id="474" name="conv2.0.conv2b.1.conv1.weight127715342/quantized/to_f16" type="Convert" version="opset1">
			<data destination_type="f16"/>
			<input>
				<port id="0">
					<dim>64</dim>
					<dim>64</dim>
					<dim>1</dim>
					<dim>1</dim>
				</port>
			</input>
			<output>
				<port id="1" precision="FP16">
					<dim>64</dim>
					<dim>64</dim>
					<dim>1</dim>
					<dim>1</dim>
				</port>
			</output>
		</layer>
		<layer id="475" name="579/fq_weights_1/zero_point1777631985" type="Const" version="opset1">
			<data element_type="f16" offset="37098" shape="64,1,1,1" size="128"/>
			<output>
				<port id="0" precision="FP16">
					<dim>64</dim>
					<dim>1</dim>
					<dim>1</dim>
					<dim>1</dim>
				</port>
			</output>
		</layer>
		<layer id="476" name="579/fq_weights_1/minus_zp" type="Subtract" version="opset1">
			<data auto_broadcast="numpy"/>
			<input>
				<port id="0">
					<dim>64</dim>
					<dim>64</dim>
					<dim>1</dim>
					<dim>1</dim>
				</port>
				<port id="1">
					<dim>64</dim>
					<dim>1</dim>
					<dim>1</dim>
					<dim>1</dim>
				</port>
			</input>
			<output>
				<port id="2" precision="FP16">
					<dim>64</dim>
					<dim>64</dim>
					<dim>1</dim>
					<dim>1</dim>
				</port>
			</output>
		</layer>
		<layer id="477" name="579/fq_weights_1/scale1777130350" type="Const" version="opset1">
			<data element_type="f16" offset="37226" shape="64,1,1,1" size="128"/>
			<output>
				<port id="0" precision="FP16">
					<dim>64</dim>
					<dim>1</dim>
					<dim>1</dim>
					<dim>1</dim>
				</port>
			</output>
		</layer>
		<layer id="478" name="579/fq_weights_1/mulpiply_by_scale" type="Multiply" version="opset1">
			<data auto_broadcast="numpy"/>
			<input>
				<port id="0">
					<dim>64</dim>
					<dim>64</dim>
					<dim>1</dim>
					<dim>1</dim>
				</port>
				<port id="1">
					<dim>64</dim>
					<dim>1</dim>
					<dim>1</dim>
					<dim>1</dim>
				</port>
			</input>
			<output>
				<port id="2" precision="FP16">
					<dim>64</dim>
					<dim>64</dim>
					<dim>1</dim>
					<dim>1</dim>
				</port>
			</output>
		</layer>
		<layer id="479" name="579" type="Convolution" version="opset1">
			<data auto_pad="explicit" dilations="1,1" pads_begin="0,0" pads_end="0,0" strides="1,1"/>
			<input>
				<port id="0">
					<dim>1</dim>
					<dim>64</dim>
					<dim>64</dim>
					<dim>32</dim>
				</port>
				<port id="1">
					<dim>64</dim>
					<dim>64</dim>
					<dim>1</dim>
					<dim>1</dim>
				</port>
			</input>
			<output>
				<port id="2" names="579" precision="FP16">
					<dim>1</dim>
					<dim>64</dim>
					<dim>64</dim>
					<dim>32</dim>
				</port>
			</output>
		</layer>
		<layer id="480" name="579/add_" type="Add" version="opset1">
			<data auto_broadcast="numpy"/>
			<input>
				<port id="0">
					<dim>1</dim>
					<dim>64</dim>
					<dim>64</dim>
					<dim>32</dim>
				</port>
				<port id="1">
					<dim>1</dim>
					<dim>64</dim>
					<dim>1</dim>
					<dim>1</dim>
				</port>
			</input>
			<output>
				<port id="2" precision="FP16">
					<dim>1</dim>
					<dim>64</dim>
					<dim>64</dim>
					<dim>32</dim>
				</port>
			</output>
		</layer>
		<layer id="481" name="580/fq_input_0" type="FakeQuantize" version="opset1">
			<data auto_broadcast="numpy" levels="256"/>
			<input>
				<port id="0">
					<dim>1</dim>
					<dim>64</dim>
					<dim>64</dim>
					<dim>32</dim>
				</port>
				<port id="1">
					<dim>1</dim>
					<dim>64</dim>
					<dim>1</dim>
					<dim>1</dim>
				</port>
				<port id="2">
					<dim>1</dim>
					<dim>64</dim>
					<dim>1</dim>
					<dim>1</dim>
				</port>
				<port id="3">
					<dim>1</dim>
					<dim>64</dim>
					<dim>1</dim>
					<dim>1</dim>
				</port>
				<port id="4">
					<dim>1</dim>
					<dim>64</dim>
					<dim>1</dim>
					<dim>1</dim>
				</port>
			</input>
			<output>
				<port id="5" precision="FP16">
					<dim>1</dim>
					<dim>64</dim>
					<dim>64</dim>
					<dim>32</dim>
				</port>
			</output>
		</layer>
		<layer id="482" name="24476/value2447832285" type="Const" version="opset1">
			<data element_type="i64" offset="25010" shape="5" size="40"/>
			<output>
				<port id="0" precision="I64">
					<dim>5</dim>
				</port>
			</output>
		</layer>
		<layer id="483" name="581/mean/Fused_Mul__copy127915343/quantized1795529048" type="Const" version="opset1">
			<data element_type="i8" offset="37354" shape="64,1,3,3" size="576"/>
			<output>
				<port id="0" precision="I8">
					<dim>64</dim>
					<dim>1</dim>
					<dim>3</dim>
					<dim>3</dim>
				</port>
			</output>
		</layer>
		<layer id="484" name="581/mean/Fused_Mul__copy127915343/quantized/to_f16" type="Convert" version="opset1">
			<data destination_type="f16"/>
			<input>
				<port id="0">
					<dim>64</dim>
					<dim>1</dim>
					<dim>3</dim>
					<dim>3</dim>
				</port>
			</input>
			<output>
				<port id="1" precision="FP16">
					<dim>64</dim>
					<dim>1</dim>
					<dim>3</dim>
					<dim>3</dim>
				</port>
			</output>
		</layer>
		<layer id="485" name="580/fq_weights_1/zero_point1796833176" type="Const" version="opset1">
			<data element_type="f16" offset="37930" shape="64,1,1,1" size="128"/>
			<output>
				<port id="0" precision="FP16">
					<dim>64</dim>
					<dim>1</dim>
					<dim>1</dim>
					<dim>1</dim>
				</port>
			</output>
		</layer>
		<layer id="486" name="580/fq_weights_1/minus_zp" type="Subtract" version="opset1">
			<data auto_broadcast="numpy"/>
			<input>
				<port id="0">
					<dim>64</dim>
					<dim>1</dim>
					<dim>3</dim>
					<dim>3</dim>
				</port>
				<port id="1">
					<dim>64</dim>
					<dim>1</dim>
					<dim>1</dim>
					<dim>1</dim>
				</port>
			</input>
			<output>
				<port id="2" precision="FP16">
					<dim>64</dim>
					<dim>1</dim>
					<dim>3</dim>
					<dim>3</dim>
				</port>
			</output>
		</layer>
		<layer id="487" name="580/fq_weights_1/scale1796328490" type="Const" version="opset1">
			<data element_type="f16" offset="38058" shape="64,1,1,1" size="128"/>
			<output>
				<port id="0" precision="FP16">
					<dim>64</dim>
					<dim>1</dim>
					<dim>1</dim>
					<dim>1</dim>
				</port>
			</output>
		</layer>
		<layer id="488" name="580/fq_weights_1/mulpiply_by_scale" type="Multiply" version="opset1">
			<data auto_broadcast="numpy"/>
			<input>
				<port id="0">
					<dim>64</dim>
					<dim>1</dim>
					<dim>3</dim>
					<dim>3</dim>
				</port>
				<port id="1">
					<dim>64</dim>
					<dim>1</dim>
					<dim>1</dim>
					<dim>1</dim>
				</port>
			</input>
			<output>
				<port id="2" precision="FP16">
					<dim>64</dim>
					<dim>1</dim>
					<dim>3</dim>
					<dim>3</dim>
				</port>
			</output>
		</layer>
		<layer id="489" name="24476" type="Reshape" version="opset1">
			<data special_zero="true"/>
			<input>
				<port id="0">
					<dim>64</dim>
					<dim>1</dim>
					<dim>3</dim>
					<dim>3</dim>
				</port>
				<port id="1">
					<dim>5</dim>
				</port>
			</input>
			<output>
				<port id="2" precision="FP16">
					<dim>64</dim>
					<dim>1</dim>
					<dim>1</dim>
					<dim>3</dim>
					<dim>3</dim>
				</port>
			</output>
		</layer>
		<layer id="490" name="580" type="GroupConvolution" version="opset1">
			<data auto_pad="explicit" dilations="1,1" pads_begin="1,1" pads_end="1,1" strides="1,1"/>
			<input>
				<port id="0">
					<dim>1</dim>
					<dim>64</dim>
					<dim>64</dim>
					<dim>32</dim>
				</port>
				<port id="1">
					<dim>64</dim>
					<dim>1</dim>
					<dim>1</dim>
					<dim>3</dim>
					<dim>3</dim>
				</port>
			</input>
			<output>
				<port id="2" precision="FP16">
					<dim>1</dim>
					<dim>64</dim>
					<dim>64</dim>
					<dim>32</dim>
				</port>
			</output>
		</layer>
		<layer id="491" name="data_add_2177721782128129180" type="Const" version="opset1">
			<data element_type="f16" offset="38186" shape="1,64,1,1" size="128"/>
			<output>
				<port id="0" precision="FP16">
					<dim>1</dim>
					<dim>64</dim>
					<dim>1</dim>
					<dim>1</dim>
				</port>
			</output>
		</layer>
		<layer id="492" name="581/variance/Fused_Add_" type="Add" version="opset1">
			<data auto_broadcast="numpy"/>
			<input>
				<port id="0">
					<dim>1</dim>
					<dim>64</dim>
					<dim>64</dim>
					<dim>32</dim>
				</port>
				<port id="1">
					<dim>1</dim>
					<dim>64</dim>
					<dim>1</dim>
					<dim>1</dim>
				</port>
			</input>
			<output>
				<port id="2" names="581" precision="FP16">
					<dim>1</dim>
					<dim>64</dim>
					<dim>64</dim>
					<dim>32</dim>
				</port>
			</output>
		</layer>
		<layer id="493" name="582" type="ReLU" version="opset1">
			<input>
				<port id="0">
					<dim>1</dim>
					<dim>64</dim>
					<dim>64</dim>
					<dim>32</dim>
				</port>
			</input>
			<output>
				<port id="1" names="582" precision="FP16">
					<dim>1</dim>
					<dim>64</dim>
					<dim>64</dim>
					<dim>32</dim>
				</port>
			</output>
		</layer>
		<layer id="494" name="617/reduce/fq_input_0" type="FakeQuantize" version="opset1">
			<data auto_broadcast="numpy" levels="256"/>
			<input>
				<port id="0">
					<dim>1</dim>
					<dim>64</dim>
					<dim>64</dim>
					<dim>32</dim>
				</port>
				<port id="1"/>
				<port id="2"/>
				<port id="3"/>
				<port id="4"/>
			</input>
			<output>
				<port id="5" precision="FP16">
					<dim>1</dim>
					<dim>64</dim>
					<dim>64</dim>
					<dim>32</dim>
				</port>
			</output>
		</layer>
		<layer id="495" name="1329128430941" type="Const" version="opset1">
			<data element_type="i64" offset="2846" shape="" size="8"/>
			<output>
				<port id="0" precision="I64"/>
			</output>
		</layer>
		<layer id="496" name="617/input_rank/shape_of" type="ShapeOf" version="opset3">
			<data output_type="i64"/>
			<input>
				<port id="0">
					<dim>1</dim>
					<dim>64</dim>
					<dim>64</dim>
					<dim>32</dim>
				</port>
			</input>
			<output>
				<port id="1" precision="I64">
					<dim>4</dim>
				</port>
			</output>
		</layer>
		<layer id="497" name="617/input_rank/rank_of" type="ShapeOf" version="opset3">
			<data output_type="i64"/>
			<input>
				<port id="0">
					<dim>4</dim>
				</port>
			</input>
			<output>
				<port id="1" precision="I64">
					<dim>1</dim>
				</port>
			</output>
		</layer>
		<layer id="498" name="617/input_rank/0d_rank_of/value128730239" type="Const" version="opset1">
			<data element_type="i64" offset="6210" shape="1" size="8"/>
			<output>
				<port id="0" precision="I64">
					<dim>1</dim>
				</port>
			</output>
		</layer>
		<layer id="499" name="617/input_rank" type="Squeeze" version="opset1">
			<input>
				<port id="0">
					<dim>1</dim>
				</port>
				<port id="1">
					<dim>1</dim>
				</port>
			</input>
			<output>
				<port id="2" precision="I64"/>
			</output>
		</layer>
		<layer id="500" name="1331128930191" type="Const" version="opset1">
			<data element_type="i64" offset="6218" shape="" size="8"/>
			<output>
				<port id="0" precision="I64"/>
			</output>
		</layer>
		<layer id="501" name="617/global_pooling_reduce_axis" type="Range" version="opset4">
			<data output_type="i64"/>
			<input>
				<port id="0"/>
				<port id="1"/>
				<port id="2"/>
			</input>
			<output>
				<port id="3" precision="I64">
					<dim>2</dim>
				</port>
			</output>
		</layer>
		<layer id="502" name="617/reduce" type="ReduceMean" version="opset1">
			<data keep_dims="true"/>
			<input>
				<port id="0">
					<dim>1</dim>
					<dim>64</dim>
					<dim>64</dim>
					<dim>32</dim>
				</port>
				<port id="1">
					<dim>2</dim>
				</port>
			</input>
			<output>
				<port id="2" names="617" precision="FP16">
					<dim>1</dim>
					<dim>64</dim>
					<dim>1</dim>
					<dim>1</dim>
				</port>
			</output>
		</layer>
		<layer id="503" name="conv2.0.gate.fc1.weight44764129230386" type="Const" version="opset1">
			<data element_type="f16" offset="26010" shape="4,64,1,1" size="512"/>
			<output>
				<port id="0" names="conv2.0.gate.fc1.weight" precision="FP16">
					<dim>4</dim>
					<dim>64</dim>
					<dim>1</dim>
					<dim>1</dim>
				</port>
			</output>
		</layer>
		<layer id="504" name="618/WithoutBiases" type="Convolution" version="opset1">
			<data auto_pad="explicit" dilations="1,1" pads_begin="0,0" pads_end="0,0" strides="1,1"/>
			<input>
				<port id="0">
					<dim>1</dim>
					<dim>64</dim>
					<dim>1</dim>
					<dim>1</dim>
				</port>
				<port id="1">
					<dim>4</dim>
					<dim>64</dim>
					<dim>1</dim>
					<dim>1</dim>
				</port>
			</input>
			<output>
				<port id="2" precision="FP16">
					<dim>1</dim>
					<dim>4</dim>
					<dim>1</dim>
					<dim>1</dim>
				</port>
			</output>
		</layer>
		<layer id="505" name="618/Dims12938129430551" type="Const" version="opset1">
			<data element_type="f16" offset="26522" shape="1,4,1,1" size="8"/>
			<output>
				<port id="0" precision="FP16">
					<dim>1</dim>
					<dim>4</dim>
					<dim>1</dim>
					<dim>1</dim>
				</port>
			</output>
		</layer>
		<layer id="506" name="618" type="Add" version="opset1">
			<data auto_broadcast="numpy"/>
			<input>
				<port id="0">
					<dim>1</dim>
					<dim>4</dim>
					<dim>1</dim>
					<dim>1</dim>
				</port>
				<port id="1">
					<dim>1</dim>
					<dim>4</dim>
					<dim>1</dim>
					<dim>1</dim>
				</port>
			</input>
			<output>
				<port id="2" names="618" precision="FP16">
					<dim>1</dim>
					<dim>4</dim>
					<dim>1</dim>
					<dim>1</dim>
				</port>
			</output>
		</layer>
		<layer id="507" name="619" type="ReLU" version="opset1">
			<input>
				<port id="0">
					<dim>1</dim>
					<dim>4</dim>
					<dim>1</dim>
					<dim>1</dim>
				</port>
			</input>
			<output>
				<port id="1" names="619" precision="FP16">
					<dim>1</dim>
					<dim>4</dim>
					<dim>1</dim>
					<dim>1</dim>
				</port>
			</output>
		</layer>
		<layer id="508" name="conv2.0.gate.fc2.weight44566129731532" type="Const" version="opset1">
			<data element_type="f16" offset="26530" shape="64,4,1,1" size="512"/>
			<output>
				<port id="0" names="conv2.0.gate.fc2.weight" precision="FP16">
					<dim>64</dim>
					<dim>4</dim>
					<dim>1</dim>
					<dim>1</dim>
				</port>
			</output>
		</layer>
		<layer id="509" name="620/WithoutBiases" type="Convolution" version="opset1">
			<data auto_pad="explicit" dilations="1,1" pads_begin="0,0" pads_end="0,0" strides="1,1"/>
			<input>
				<port id="0">
					<dim>1</dim>
					<dim>4</dim>
					<dim>1</dim>
					<dim>1</dim>
				</port>
				<port id="1">
					<dim>64</dim>
					<dim>4</dim>
					<dim>1</dim>
					<dim>1</dim>
				</port>
			</input>
			<output>
				<port id="2" precision="FP16">
					<dim>1</dim>
					<dim>64</dim>
					<dim>1</dim>
					<dim>1</dim>
				</port>
			</output>
		</layer>
		<layer id="510" name="620/Dims12932129933581" type="Const" version="opset1">
			<data element_type="f16" offset="27042" shape="1,64,1,1" size="128"/>
			<output>
				<port id="0" precision="FP16">
					<dim>1</dim>
					<dim>64</dim>
					<dim>1</dim>
					<dim>1</dim>
				</port>
			</output>
		</layer>
		<layer id="511" name="620" type="Add" version="opset1">
			<data auto_broadcast="numpy"/>
			<input>
				<port id="0">
					<dim>1</dim>
					<dim>64</dim>
					<dim>1</dim>
					<dim>1</dim>
				</port>
				<port id="1">
					<dim>1</dim>
					<dim>64</dim>
					<dim>1</dim>
					<dim>1</dim>
				</port>
			</input>
			<output>
				<port id="2" names="620" precision="FP16">
					<dim>1</dim>
					<dim>64</dim>
					<dim>1</dim>
					<dim>1</dim>
				</port>
			</output>
		</layer>
		<layer id="512" name="621" type="Sigmoid" version="opset1">
			<input>
				<port id="0">
					<dim>1</dim>
					<dim>64</dim>
					<dim>1</dim>
					<dim>1</dim>
				</port>
			</input>
			<output>
				<port id="1" names="621" precision="FP16">
					<dim>1</dim>
					<dim>64</dim>
					<dim>1</dim>
					<dim>1</dim>
				</port>
			</output>
		</layer>
		<layer id="513" name="622/fq_input_1" type="FakeQuantize" version="opset1">
			<data auto_broadcast="numpy" levels="256"/>
			<input>
				<port id="0">
					<dim>1</dim>
					<dim>64</dim>
					<dim>1</dim>
					<dim>1</dim>
				</port>
				<port id="1"/>
				<port id="2"/>
				<port id="3"/>
				<port id="4"/>
			</input>
			<output>
				<port id="5" precision="FP16">
					<dim>1</dim>
					<dim>64</dim>
					<dim>1</dim>
					<dim>1</dim>
				</port>
			</output>
		</layer>
		<layer id="514" name="622" type="Multiply" version="opset1">
			<data auto_broadcast="numpy"/>
			<input>
				<port id="0">
					<dim>1</dim>
					<dim>64</dim>
					<dim>64</dim>
					<dim>32</dim>
				</port>
				<port id="1">
					<dim>1</dim>
					<dim>64</dim>
					<dim>1</dim>
					<dim>1</dim>
				</port>
			</input>
			<output>
				<port id="2" names="622" precision="FP16">
					<dim>1</dim>
					<dim>64</dim>
					<dim>64</dim>
					<dim>32</dim>
				</port>
			</output>
		</layer>
		<layer id="515" name="623/fq_input_1" type="FakeQuantize" version="opset1">
			<data auto_broadcast="numpy" levels="256"/>
			<input>
				<port id="0">
					<dim>1</dim>
					<dim>64</dim>
					<dim>64</dim>
					<dim>32</dim>
				</port>
				<port id="1"/>
				<port id="2"/>
				<port id="3"/>
				<port id="4"/>
			</input>
			<output>
				<port id="5" precision="FP16">
					<dim>1</dim>
					<dim>64</dim>
					<dim>64</dim>
					<dim>32</dim>
				</port>
			</output>
		</layer>
		<layer id="516" name="623" type="Add" version="opset1">
			<data auto_broadcast="numpy"/>
			<input>
				<port id="0">
					<dim>1</dim>
					<dim>64</dim>
					<dim>64</dim>
					<dim>32</dim>
				</port>
				<port id="1">
					<dim>1</dim>
					<dim>64</dim>
					<dim>64</dim>
					<dim>32</dim>
				</port>
			</input>
			<output>
				<port id="2" names="623" precision="FP16">
					<dim>1</dim>
					<dim>64</dim>
					<dim>64</dim>
					<dim>32</dim>
				</port>
			</output>
		</layer>
		<layer id="517" name="630/fq_input_0" type="FakeQuantize" version="opset1">
			<data auto_broadcast="numpy" levels="256"/>
			<input>
				<port id="0">
					<dim>1</dim>
					<dim>64</dim>
					<dim>64</dim>
					<dim>32</dim>
				</port>
				<port id="1"/>
				<port id="2"/>
				<port id="3"/>
				<port id="4"/>
			</input>
			<output>
				<port id="5" precision="FP16">
					<dim>1</dim>
					<dim>64</dim>
					<dim>64</dim>
					<dim>32</dim>
				</port>
			</output>
		</layer>
		<layer id="518" name="7867787130575" type="Const" version="opset1">
			<data element_type="f16" offset="2568" shape="" size="2"/>
			<output>
				<port id="0" precision="FP16"/>
			</output>
		</layer>
		<layer id="519" name="7868787230392" type="Const" version="opset1">
			<data element_type="f16" offset="38314" shape="" size="2"/>
			<output>
				<port id="0" precision="FP16"/>
			</output>
		</layer>
		<layer id="520" name="7869787332261" type="Const" version="opset1">
			<data element_type="f16" offset="2568" shape="" size="2"/>
			<output>
				<port id="0" precision="FP16"/>
			</output>
		</layer>
		<layer id="521" name="7870787428937" type="Const" version="opset1">
			<data element_type="f16" offset="38314" shape="" size="2"/>
			<output>
				<port id="0" precision="FP16"/>
			</output>
		</layer>
		<layer id="522" name="7627763129345" type="Const" version="opset1">
			<data element_type="f16" offset="2568" shape="" size="2"/>
			<output>
				<port id="0" precision="FP16"/>
			</output>
		</layer>
		<layer id="523" name="7628763231217" type="Const" version="opset1">
			<data element_type="f16" offset="38316" shape="" size="2"/>
			<output>
				<port id="0" precision="FP16"/>
			</output>
		</layer>
		<layer id="524" name="7629763332849" type="Const" version="opset1">
			<data element_type="f16" offset="2568" shape="" size="2"/>
			<output>
				<port id="0" precision="FP16"/>
			</output>
		</layer>
		<layer id="525" name="7630763430263" type="Const" version="opset1">
			<data element_type="f16" offset="38316" shape="" size="2"/>
			<output>
				<port id="0" precision="FP16"/>
			</output>
		</layer>
		<layer id="526" name="7547755129498" type="Const" version="opset1">
			<data element_type="f16" offset="2568" shape="" size="2"/>
			<output>
				<port id="0" precision="FP16"/>
			</output>
		</layer>
		<layer id="527" name="7548755228913" type="Const" version="opset1">
			<data element_type="f16" offset="38318" shape="" size="2"/>
			<output>
				<port id="0" precision="FP16"/>
			</output>
		</layer>
		<layer id="528" name="7549755329870" type="Const" version="opset1">
			<data element_type="f16" offset="2568" shape="" size="2"/>
			<output>
				<port id="0" precision="FP16"/>
			</output>
		</layer>
		<layer id="529" name="7550755429855" type="Const" version="opset1">
			<data element_type="f16" offset="38318" shape="" size="2"/>
			<output>
				<port id="0" precision="FP16"/>
			</output>
		</layer>
		<layer id="530" name="6377638131973" type="Const" version="opset1">
			<data element_type="f16" offset="38320" shape="1,64,1,1" size="128"/>
			<output>
				<port id="0" precision="FP16">
					<dim>1</dim>
					<dim>64</dim>
					<dim>1</dim>
					<dim>1</dim>
				</port>
			</output>
		</layer>
		<layer id="531" name="6378638229027" type="Const" version="opset1">
			<data element_type="f16" offset="38448" shape="1,64,1,1" size="128"/>
			<output>
				<port id="0" precision="FP16">
					<dim>1</dim>
					<dim>64</dim>
					<dim>1</dim>
					<dim>1</dim>
				</port>
			</output>
		</layer>
		<layer id="532" name="6379638331454" type="Const" version="opset1">
			<data element_type="f16" offset="38320" shape="1,64,1,1" size="128"/>
			<output>
				<port id="0" precision="FP16">
					<dim>1</dim>
					<dim>64</dim>
					<dim>1</dim>
					<dim>1</dim>
				</port>
			</output>
		</layer>
		<layer id="533" name="6380638433299" type="Const" version="opset1">
			<data element_type="f16" offset="38448" shape="1,64,1,1" size="128"/>
			<output>
				<port id="0" precision="FP16">
					<dim>1</dim>
					<dim>64</dim>
					<dim>1</dim>
					<dim>1</dim>
				</port>
			</output>
		</layer>
		<layer id="534" name="2892289432540" type="Const" version="opset1">
			<data element_type="f16" offset="5798" shape="1,64,1,1" size="128"/>
			<output>
				<port id="0" precision="FP16">
					<dim>1</dim>
					<dim>64</dim>
					<dim>1</dim>
					<dim>1</dim>
				</port>
			</output>
		</layer>
		<layer id="535" name="6607661130977" type="Const" version="opset1">
			<data element_type="f16" offset="2568" shape="" size="2"/>
			<output>
				<port id="0" precision="FP16"/>
			</output>
		</layer>
		<layer id="536" name="6608661229378" type="Const" version="opset1">
			<data element_type="f16" offset="38576" shape="" size="2"/>
			<output>
				<port id="0" precision="FP16"/>
			</output>
		</layer>
		<layer id="537" name="6609661331112" type="Const" version="opset1">
			<data element_type="f16" offset="2568" shape="" size="2"/>
			<output>
				<port id="0" precision="FP16"/>
			</output>
		</layer>
		<layer id="538" name="6610661430788" type="Const" version="opset1">
			<data element_type="f16" offset="38576" shape="" size="2"/>
			<output>
				<port id="0" precision="FP16"/>
			</output>
		</layer>
		<layer id="539" name="6047605128382" type="Const" version="opset1">
			<data element_type="f16" offset="38578" shape="1,64,1,1" size="128"/>
			<output>
				<port id="0" precision="FP16">
					<dim>1</dim>
					<dim>64</dim>
					<dim>1</dim>
					<dim>1</dim>
				</port>
			</output>
		</layer>
		<layer id="540" name="6048605231913" type="Const" version="opset1">
			<data element_type="f16" offset="38706" shape="1,64,1,1" size="128"/>
			<output>
				<port id="0" precision="FP16">
					<dim>1</dim>
					<dim>64</dim>
					<dim>1</dim>
					<dim>1</dim>
				</port>
…
		<edge from-layer="2788" from-port="2" to-layer="2789" to-port="0"/>
		<edge from-layer="2789" from-port="1" to-layer="2790" to-port="0"/>
		<edge from-layer="61" from-port="0" to-layer="2790" to-port="1"/>
		<edge from-layer="62" from-port="0" to-layer="2790" to-port="2"/>
		<edge from-layer="63" from-port="0" to-layer="2790" to-port="3"/>
		<edge from-layer="64" from-port="0" to-layer="2790" to-port="4"/>
		<edge from-layer="2791" from-port="0" to-layer="2792" to-port="0"/>
		<edge from-layer="2792" from-port="1" to-layer="2794" to-port="0"/>
		<edge from-layer="2793" from-port="0" to-layer="2794" to-port="1"/>
		<edge from-layer="2794" from-port="2" to-layer="2796" to-port="0"/>
		<edge from-layer="2795" from-port="0" to-layer="2796" to-port="1"/>
		<edge from-layer="2790" from-port="5" to-layer="2797" to-port="0"/>
		<edge from-layer="2796" from-port="2" to-layer="2797" to-port="1"/>
		<edge from-layer="2797" from-port="2" to-layer="2798" to-port="0"/>
		<edge from-layer="60" from-port="0" to-layer="2798" to-port="1"/>
		<edge from-layer="2798" from-port="2" to-layer="2799" to-port="0"/>
		<edge from-layer="56" from-port="0" to-layer="2799" to-port="1"/>
		<edge from-layer="57" from-port="0" to-layer="2799" to-port="2"/>
		<edge from-layer="58" from-port="0" to-layer="2799" to-port="3"/>
		<edge from-layer="59" from-port="0" to-layer="2799" to-port="4"/>
		<edge from-layer="2801" from-port="0" to-layer="2802" to-port="0"/>
		<edge from-layer="2802" from-port="1" to-layer="2804" to-port="0"/>
		<edge from-layer="2803" from-port="0" to-layer="2804" to-port="1"/>
		<edge from-layer="2804" from-port="2" to-layer="2806" to-port="0"/>
		<edge from-layer="2805" from-port="0" to-layer="2806" to-port="1"/>
		<edge from-layer="2806" from-port="2" to-layer="2807" to-port="0"/>
		<edge from-layer="2800" from-port="0" to-layer="2807" to-port="1"/>
		<edge from-layer="2799" from-port="5" to-layer="2808" to-port="0"/>
		<edge from-layer="2807" from-port="2" to-layer="2808" to-port="1"/>
		<edge from-layer="2808" from-port="2" to-layer="2810" to-port="0"/>
		<edge from-layer="2809" from-port="0" to-layer="2810" to-port="1"/>
		<edge from-layer="2810" from-port="2" to-layer="2811" to-port="0"/>
		<edge from-layer="2811" from-port="1" to-layer="2812" to-port="0"/>
		<edge from-layer="52" from-port="0" to-layer="2812" to-port="1"/>
		<edge from-layer="53" from-port="0" to-layer="2812" to-port="2"/>
		<edge from-layer="54" from-port="0" to-layer="2812" to-port="3"/>
		<edge from-layer="55" from-port="0" to-layer="2812" to-port="4"/>
		<edge from-layer="2811" from-port="1" to-layer="2814" to-port="0"/>
		<edge from-layer="2814" from-port="1" to-layer="2815" to-port="0"/>
		<edge from-layer="2815" from-port="1" to-layer="2817" to-port="0"/>
		<edge from-layer="2816" from-port="0" to-layer="2817" to-port="1"/>
		<edge from-layer="2813" from-port="0" to-layer="2819" to-port="0"/>
		<edge from-layer="2817" from-port="2" to-layer="2819" to-port="1"/>
		<edge from-layer="2818" from-port="0" to-layer="2819" to-port="2"/>
		<edge from-layer="2812" from-port="5" to-layer="2820" to-port="0"/>
		<edge from-layer="2819" from-port="3" to-layer="2820" to-port="1"/>
		<edge from-layer="2820" from-port="2" to-layer="2821" to-port="0"/>
		<edge from-layer="48" from-port="0" to-layer="2821" to-port="1"/>
		<edge from-layer="49" from-port="0" to-layer="2821" to-port="2"/>
		<edge from-layer="50" from-port="0" to-layer="2821" to-port="3"/>
		<edge from-layer="51" from-port="0" to-layer="2821" to-port="4"/>
		<edge from-layer="2821" from-port="5" to-layer="2822" to-port="0"/>
		<edge from-layer="47" from-port="0" to-layer="2822" to-port="1"/>
		<edge from-layer="2822" from-port="2" to-layer="2823" to-port="0"/>
		<edge from-layer="2823" from-port="1" to-layer="2824" to-port="0"/>
		<edge from-layer="2824" from-port="1" to-layer="2826" to-port="0"/>
		<edge from-layer="2825" from-port="0" to-layer="2826" to-port="1"/>
		<edge from-layer="46" from-port="0" to-layer="2828" to-port="0"/>
		<edge from-layer="2826" from-port="2" to-layer="2828" to-port="1"/>
		<edge from-layer="2827" from-port="0" to-layer="2828" to-port="2"/>
		<edge from-layer="2822" from-port="2" to-layer="2829" to-port="0"/>
		<edge from-layer="2828" from-port="3" to-layer="2829" to-port="1"/>
		<edge from-layer="2829" from-port="2" to-layer="2831" to-port="0"/>
		<edge from-layer="2830" from-port="0" to-layer="2831" to-port="1"/>
		<edge from-layer="2831" from-port="2" to-layer="2833" to-port="0"/>
		<edge from-layer="2832" from-port="0" to-layer="2833" to-port="1"/>
		<edge from-layer="2833" from-port="2" to-layer="2834" to-port="0"/>
		<edge from-layer="42" from-port="0" to-layer="2834" to-port="1"/>
		<edge from-layer="43" from-port="0" to-layer="2834" to-port="2"/>
		<edge from-layer="44" from-port="0" to-layer="2834" to-port="3"/>
		<edge from-layer="45" from-port="0" to-layer="2834" to-port="4"/>
		<edge from-layer="2820" from-port="2" to-layer="2835" to-port="0"/>
		<edge from-layer="2834" from-port="5" to-layer="2836" to-port="0"/>
		<edge from-layer="2835" from-port="1" to-layer="2836" to-port="1"/>
		<edge from-layer="2836" from-port="2" to-layer="2837" to-port="0"/>
		<edge from-layer="41" from-port="0" to-layer="2837" to-port="1"/>
		<edge from-layer="2837" from-port="2" to-layer="2839" to-port="0"/>
		<edge from-layer="2838" from-port="0" to-layer="2839" to-port="1"/>
		<edge from-layer="2839" from-port="2" to-layer="2840" to-port="0"/>
		<edge from-layer="2840" from-port="1" to-layer="2841" to-port="0"/>
		<edge from-layer="37" from-port="0" to-layer="2841" to-port="1"/>
		<edge from-layer="38" from-port="0" to-layer="2841" to-port="2"/>
		<edge from-layer="39" from-port="0" to-layer="2841" to-port="3"/>
		<edge from-layer="40" from-port="0" to-layer="2841" to-port="4"/>
		<edge from-layer="2812" from-port="5" to-layer="2842" to-port="0"/>
		<edge from-layer="2841" from-port="5" to-layer="2842" to-port="1"/>
		<edge from-layer="2842" from-port="2" to-layer="2843" to-port="0"/>
		<edge from-layer="33" from-port="0" to-layer="2843" to-port="1"/>
		<edge from-layer="34" from-port="0" to-layer="2843" to-port="2"/>
		<edge from-layer="35" from-port="0" to-layer="2843" to-port="3"/>
		<edge from-layer="36" from-port="0" to-layer="2843" to-port="4"/>
		<edge from-layer="2881" from-port="0" to-layer="2882" to-port="0"/>
		<edge from-layer="2882" from-port="1" to-layer="2884" to-port="0"/>
		<edge from-layer="2883" from-port="0" to-layer="2884" to-port="1"/>
		<edge from-layer="2884" from-port="2" to-layer="2886" to-port="0"/>
		<edge from-layer="2885" from-port="0" to-layer="2886" to-port="1"/>
		<edge from-layer="2790" from-port="5" to-layer="2887" to-port="0"/>
		<edge from-layer="2886" from-port="2" to-layer="2887" to-port="1"/>
		<edge from-layer="2887" from-port="2" to-layer="2888" to-port="0"/>
		<edge from-layer="2880" from-port="0" to-layer="2888" to-port="1"/>
		<edge from-layer="2888" from-port="2" to-layer="2889" to-port="0"/>
		<edge from-layer="2876" from-port="0" to-layer="2889" to-port="1"/>
		<edge from-layer="2877" from-port="0" to-layer="2889" to-port="2"/>
		<edge from-layer="2878" from-port="0" to-layer="2889" to-port="3"/>
		<edge from-layer="2879" from-port="0" to-layer="2889" to-port="4"/>
		<edge from-layer="2891" from-port="0" to-layer="2892" to-port="0"/>
		<edge from-layer="2892" from-port="1" to-layer="2894" to-port="0"/>
		<edge from-layer="2893" from-port="0" to-layer="2894" to-port="1"/>
		<edge from-layer="2894" from-port="2" to-layer="2896" to-port="0"/>
		<edge from-layer="2895" from-port="0" to-layer="2896" to-port="1"/>
		<edge from-layer="2896" from-port="2" to-layer="2897" to-port="0"/>
		<edge from-layer="2890" from-port="0" to-layer="2897" to-port="1"/>
		<edge from-layer="2889" from-port="5" to-layer="2898" to-port="0"/>
		<edge from-layer="2897" from-port="2" to-layer="2898" to-port="1"/>
		<edge from-layer="2898" from-port="2" to-layer="2900" to-port="0"/>
		<edge from-layer="2899" from-port="0" to-layer="2900" to-port="1"/>
		<edge from-layer="2900" from-port="2" to-layer="2901" to-port="0"/>
		<edge from-layer="2901" from-port="1" to-layer="2902" to-port="0"/>
		<edge from-layer="2872" from-port="0" to-layer="2902" to-port="1"/>
		<edge from-layer="2873" from-port="0" to-layer="2902" to-port="2"/>
		<edge from-layer="2874" from-port="0" to-layer="2902" to-port="3"/>
		<edge from-layer="2875" from-port="0" to-layer="2902" to-port="4"/>
		<edge from-layer="2903" from-port="0" to-layer="2904" to-port="0"/>
		<edge from-layer="2904" from-port="1" to-layer="2906" to-port="0"/>
		<edge from-layer="2905" from-port="0" to-layer="2906" to-port="1"/>
		<edge from-layer="2906" from-port="2" to-layer="2908" to-port="0"/>
		<edge from-layer="2907" from-port="0" to-layer="2908" to-port="1"/>
		<edge from-layer="2902" from-port="5" to-layer="2909" to-port="0"/>
		<edge from-layer="2908" from-port="2" to-layer="2909" to-port="1"/>
		<edge from-layer="2909" from-port="2" to-layer="2910" to-port="0"/>
		<edge from-layer="2871" from-port="0" to-layer="2910" to-port="1"/>
		<edge from-layer="2910" from-port="2" to-layer="2911" to-port="0"/>
		<edge from-layer="2867" from-port="0" to-layer="2911" to-port="1"/>
		<edge from-layer="2868" from-port="0" to-layer="2911" to-port="2"/>
		<edge from-layer="2869" from-port="0" to-layer="2911" to-port="3"/>
		<edge from-layer="2870" from-port="0" to-layer="2911" to-port="4"/>
		<edge from-layer="2913" from-port="0" to-layer="2914" to-port="0"/>
		<edge from-layer="2914" from-port="1" to-layer="2916" to-port="0"/>
		<edge from-layer="2915" from-port="0" to-layer="2916" to-port="1"/>
		<edge from-layer="2916" from-port="2" to-layer="2918" to-port="0"/>
		<edge from-layer="2917" from-port="0" to-layer="2918" to-port="1"/>
		<edge from-layer="2918" from-port="2" to-layer="2919" to-port="0"/>
		<edge from-layer="2912" from-port="0" to-layer="2919" to-port="1"/>
		<edge from-layer="2911" from-port="5" to-layer="2920" to-port="0"/>
		<edge from-layer="2919" from-port="2" to-layer="2920" to-port="1"/>
		<edge from-layer="2920" from-port="2" to-layer="2922" to-port="0"/>
		<edge from-layer="2921" from-port="0" to-layer="2922" to-port="1"/>
		<edge from-layer="2922" from-port="2" to-layer="2923" to-port="0"/>
		<edge from-layer="2923" from-port="1" to-layer="2924" to-port="0"/>
		<edge from-layer="2863" from-port="0" to-layer="2924" to-port="1"/>
		<edge from-layer="2864" from-port="0" to-layer="2924" to-port="2"/>
		<edge from-layer="2865" from-port="0" to-layer="2924" to-port="3"/>
		<edge from-layer="2866" from-port="0" to-layer="2924" to-port="4"/>
		<edge from-layer="2923" from-port="1" to-layer="2926" to-port="0"/>
		<edge from-layer="2926" from-port="1" to-layer="2927" to-port="0"/>
		<edge from-layer="2927" from-port="1" to-layer="2929" to-port="0"/>
		<edge from-layer="2928" from-port="0" to-layer="2929" to-port="1"/>
		<edge from-layer="2925" from-port="0" to-layer="2931" to-port="0"/>
		<edge from-layer="2929" from-port="2" to-layer="2931" to-port="1"/>
		<edge from-layer="2930" from-port="0" to-layer="2931" to-port="2"/>
		<edge from-layer="2924" from-port="5" to-layer="2932" to-port="0"/>
		<edge from-layer="2931" from-port="3" to-layer="2932" to-port="1"/>
		<edge from-layer="2932" from-port="2" to-layer="2933" to-port="0"/>
		<edge from-layer="2859" from-port="0" to-layer="2933" to-port="1"/>
		<edge from-layer="2860" from-port="0" to-layer="2933" to-port="2"/>
		<edge from-layer="2861" from-port="0" to-layer="2933" to-port="3"/>
		<edge from-layer="2862" from-port="0" to-layer="2933" to-port="4"/>
		<edge from-layer="2933" from-port="5" to-layer="2934" to-port="0"/>
		<edge from-layer="2858" from-port="0" to-layer="2934" to-port="1"/>
		<edge from-layer="2934" from-port="2" to-layer="2935" to-port="0"/>
		<edge from-layer="2935" from-port="1" to-layer="2936" to-port="0"/>
		<edge from-layer="2936" from-port="1" to-layer="2938" to-port="0"/>
		<edge from-layer="2937" from-port="0" to-layer="2938" to-port="1"/>
		<edge from-layer="2857" from-port="0" to-layer="2940" to-port="0"/>
		<edge from-layer="2938" from-port="2" to-layer="2940" to-port="1"/>
		<edge from-layer="2939" from-port="0" to-layer="2940" to-port="2"/>
		<edge from-layer="2934" from-port="2" to-layer="2941" to-port="0"/>
		<edge from-layer="2940" from-port="3" to-layer="2941" to-port="1"/>
		<edge from-layer="2941" from-port="2" to-layer="2943" to-port="0"/>
		<edge from-layer="2942" from-port="0" to-layer="2943" to-port="1"/>
		<edge from-layer="2943" from-port="2" to-layer="2945" to-port="0"/>
		<edge from-layer="2944" from-port="0" to-layer="2945" to-port="1"/>
		<edge from-layer="2945" from-port="2" to-layer="2946" to-port="0"/>
		<edge from-layer="2853" from-port="0" to-layer="2946" to-port="1"/>
		<edge from-layer="2854" from-port="0" to-layer="2946" to-port="2"/>
		<edge from-layer="2855" from-port="0" to-layer="2946" to-port="3"/>
		<edge from-layer="2856" from-port="0" to-layer="2946" to-port="4"/>
		<edge from-layer="2932" from-port="2" to-layer="2947" to-port="0"/>
		<edge from-layer="2946" from-port="5" to-layer="2948" to-port="0"/>
		<edge from-layer="2947" from-port="1" to-layer="2948" to-port="1"/>
		<edge from-layer="2948" from-port="2" to-layer="2949" to-port="0"/>
		<edge from-layer="2852" from-port="0" to-layer="2949" to-port="1"/>
		<edge from-layer="2949" from-port="2" to-layer="2951" to-port="0"/>
		<edge from-layer="2950" from-port="0" to-layer="2951" to-port="1"/>
		<edge from-layer="2951" from-port="2" to-layer="2952" to-port="0"/>
		<edge from-layer="2952" from-port="1" to-layer="2953" to-port="0"/>
		<edge from-layer="2848" from-port="0" to-layer="2953" to-port="1"/>
		<edge from-layer="2849" from-port="0" to-layer="2953" to-port="2"/>
		<edge from-layer="2850" from-port="0" to-layer="2953" to-port="3"/>
		<edge from-layer="2851" from-port="0" to-layer="2953" to-port="4"/>
		<edge from-layer="2924" from-port="5" to-layer="2954" to-port="0"/>
		<edge from-layer="2953" from-port="5" to-layer="2954" to-port="1"/>
		<edge from-layer="2954" from-port="2" to-layer="2955" to-port="0"/>
		<edge from-layer="2844" from-port="0" to-layer="2955" to-port="1"/>
		<edge from-layer="2845" from-port="0" to-layer="2955" to-port="2"/>
		<edge from-layer="2846" from-port="0" to-layer="2955" to-port="3"/>
		<edge from-layer="2847" from-port="0" to-layer="2955" to-port="4"/>
		<edge from-layer="2843" from-port="5" to-layer="2956" to-port="0"/>
		<edge from-layer="2955" from-port="5" to-layer="2956" to-port="1"/>
		<edge from-layer="2956" from-port="2" to-layer="2957" to-port="0"/>
		<edge from-layer="29" from-port="0" to-layer="2957" to-port="1"/>
		<edge from-layer="30" from-port="0" to-layer="2957" to-port="2"/>
		<edge from-layer="31" from-port="0" to-layer="2957" to-port="3"/>
		<edge from-layer="32" from-port="0" to-layer="2957" to-port="4"/>
		<edge from-layer="3004" from-port="0" to-layer="3005" to-port="0"/>
		<edge from-layer="3005" from-port="1" to-layer="3007" to-port="0"/>
		<edge from-layer="3006" from-port="0" to-layer="3007" to-port="1"/>
		<edge from-layer="3007" from-port="2" to-layer="3009" to-port="0"/>
		<edge from-layer="3008" from-port="0" to-layer="3009" to-port="1"/>
		<edge from-layer="2790" from-port="5" to-layer="3010" to-port="0"/>
		<edge from-layer="3009" from-port="2" to-layer="3010" to-port="1"/>
		<edge from-layer="3010" from-port="2" to-layer="3011" to-port="0"/>
		<edge from-layer="3003" from-port="0" to-layer="3011" to-port="1"/>
		<edge from-layer="3011" from-port="2" to-layer="3012" to-port="0"/>
		<edge from-layer="2999" from-port="0" to-layer="3012" to-port="1"/>
		<edge from-layer="3000" from-port="0" to-layer="3012" to-port="2"/>
		<edge from-layer="3001" from-port="0" to-layer="3012" to-port="3"/>
		<edge from-layer="3002" from-port="0" to-layer="3012" to-port="4"/>
		<edge from-layer="3014" from-port="0" to-layer="3015" to-port="0"/>
		<edge from-layer="3015" from-port="1" to-layer="3017" to-port="0"/>
		<edge from-layer="3016" from-port="0" to-layer="3017" to-port="1"/>
		<edge from-layer="3017" from-port="2" to-layer="3019" to-port="0"/>
		<edge from-layer="3018" from-port="0" to-layer="3019" to-port="1"/>
		<edge from-layer="3019" from-port="2" to-layer="3020" to-port="0"/>
		<edge from-layer="3013" from-port="0" to-layer="3020" to-port="1"/>
		<edge from-layer="3012" from-port="5" to-layer="3021" to-port="0"/>
		<edge from-layer="3020" from-port="2" to-layer="3021" to-port="1"/>
		<edge from-layer="3021" from-port="2" to-layer="3023" to-port="0"/>
		<edge from-layer="3022" from-port="0" to-layer="3023" to-port="1"/>
		<edge from-layer="3023" from-port="2" to-layer="3024" to-port="0"/>
		<edge from-layer="3024" from-port="1" to-layer="3025" to-port="0"/>
		<edge from-layer="2995" from-port="0" to-layer="3025" to-port="1"/>
		<edge from-layer="2996" from-port="0" to-layer="3025" to-port="2"/>
		<edge from-layer="2997" from-port="0" to-layer="3025" to-port="3"/>
		<edge from-layer="2998" from-port="0" to-layer="3025" to-port="4"/>
		<edge from-layer="3026" from-port="0" to-layer="3027" to-port="0"/>
		<edge from-layer="3027" from-port="1" to-layer="3029" to-port="0"/>
		<edge from-layer="3028" from-port="0" to-layer="3029" to-port="1"/>
		<edge from-layer="3029" from-port="2" to-layer="3031" to-port="0"/>
		<edge from-layer="3030" from-port="0" to-layer="3031" to-port="1"/>
		<edge from-layer="3025" from-port="5" to-layer="3032" to-port="0"/>
		<edge from-layer="3031" from-port="2" to-layer="3032" to-port="1"/>
		<edge from-layer="3032" from-port="2" to-layer="3033" to-port="0"/>
		<edge from-layer="2994" from-port="0" to-layer="3033" to-port="1"/>
		<edge from-layer="3033" from-port="2" to-layer="3034" to-port="0"/>
		<edge from-layer="2990" from-port="0" to-layer="3034" to-port="1"/>
		<edge from-layer="2991" from-port="0" to-layer="3034" to-port="2"/>
		<edge from-layer="2992" from-port="0" to-layer="3034" to-port="3"/>
		<edge from-layer="2993" from-port="0" to-layer="3034" to-port="4"/>
		<edge from-layer="3036" from-port="0" to-layer="3037" to-port="0"/>
		<edge from-layer="3037" from-port="1" to-layer="3039" to-port="0"/>
		<edge from-layer="3038" from-port="0" to-layer="3039" to-port="1"/>
		<edge from-layer="3039" from-port="2" to-layer="3041" to-port="0"/>
		<edge from-layer="3040" from-port="0" to-layer="3041" to-port="1"/>
		<edge from-layer="3041" from-port="2" to-layer="3042" to-port="0"/>
		<edge from-layer="3035" from-port="0" to-layer="3042" to-port="1"/>
		<edge from-layer="3034" from-port="5" to-layer="3043" to-port="0"/>
		<edge from-layer="3042" from-port="2" to-layer="3043" to-port="1"/>
		<edge from-layer="3043" from-port="2" to-layer="3045" to-port="0"/>
		<edge from-layer="3044" from-port="0" to-layer="3045" to-port="1"/>
		<edge from-layer="3045" from-port="2" to-layer="3046" to-port="0"/>
		<edge from-layer="3046" from-port="1" to-layer="3047" to-port="0"/>
		<edge from-layer="2986" from-port="0" to-layer="3047" to-port="1"/>
		<edge from-layer="2987" from-port="0" to-layer="3047" to-port="2"/>
		<edge from-layer="2988" from-port="0" to-layer="3047" to-port="3"/>
		<edge from-layer="2989" from-port="0" to-layer="3047" to-port="4"/>
		<edge from-layer="3048" from-port="0" to-layer="3049" to-port="0"/>
		<edge from-layer="3049" from-port="1" to-layer="3051" to-port="0"/>
		<edge from-layer="3050" from-port="0" to-layer="3051" to-port="1"/>
		<edge from-layer="3051" from-port="2" to-layer="3053" to-port="0"/>
		<edge from-layer="3052" from-port="0" to-layer="3053" to-port="1"/>
		<edge from-layer="3047" from-port="5" to-layer="3054" to-port="0"/>
		<edge from-layer="3053" from-port="2" to-layer="3054" to-port="1"/>
		<edge from-layer="3054" from-port="2" to-layer="3055" to-port="0"/>
		<edge from-layer="2985" from-port="0" to-layer="3055" to-port="1"/>
		<edge from-layer="3055" from-port="2" to-layer="3056" to-port="0"/>
		<edge from-layer="2981" from-port="0" to-layer="3056" to-port="1"/>
		<edge from-layer="2982" from-port="0" to-layer="3056" to-port="2"/>
		<edge from-layer="2983" from-port="0" to-layer="3056" to-port="3"/>
		<edge from-layer="2984" from-port="0" to-layer="3056" to-port="4"/>
		<edge from-layer="3058" from-port="0" to-layer="3059" to-port="0"/>
		<edge from-layer="3059" from-port="1" to-layer="3061" to-port="0"/>
		<edge from-layer="3060" from-port="0" to-layer="3061" to-port="1"/>
		<edge from-layer="3061" from-port="2" to-layer="3063" to-port="0"/>
		<edge from-layer="3062" from-port="0" to-layer="3063" to-port="1"/>
		<edge from-layer="3063" from-port="2" to-layer="3064" to-port="0"/>
		<edge from-layer="3057" from-port="0" to-layer="3064" to-port="1"/>
		<edge from-layer="3056" from-port="5" to-layer="3065" to-port="0"/>
		<edge from-layer="3064" from-port="2" to-layer="3065" to-port="1"/>
		<edge from-layer="3065" from-port="2" to-layer="3067" to-port="0"/>
		<edge from-layer="3066" from-port="0" to-layer="3067" to-port="1"/>
		<edge from-layer="3067" from-port="2" to-layer="3068" to-port="0"/>
		<edge from-layer="3068" from-port="1" to-layer="3069" to-port="0"/>
		<edge from-layer="2977" from-port="0" to-layer="3069" to-port="1"/>
		<edge from-layer="2978" from-port="0" to-layer="3069" to-port="2"/>
		<edge from-layer="2979" from-port="0" to-layer="3069" to-port="3"/>
		<edge from-layer="2980" from-port="0" to-layer="3069" to-port="4"/>
		<edge from-layer="3068" from-port="1" to-layer="3071" to-port="0"/>
		<edge from-layer="3071" from-port="1" to-layer="3072" to-port="0"/>
		<edge from-layer="3072" from-port="1" to-layer="3074" to-port="0"/>
		<edge from-layer="3073" from-port="0" to-layer="3074" to-port="1"/>
		<edge from-layer="3070" from-port="0" to-layer="3076" to-port="0"/>
		<edge from-layer="3074" from-port="2" to-layer="3076" to-port="1"/>
		<edge from-layer="3075" from-port="0" to-layer="3076" to-port="2"/>
		<edge from-layer="3069" from-port="5" to-layer="3077" to-port="0"/>
		<edge from-layer="3076" from-port="3" to-layer="3077" to-port="1"/>
		<edge from-layer="3077" from-port="2" to-layer="3078" to-port="0"/>
		<edge from-layer="2973" from-port="0" to-layer="3078" to-port="1"/>
		<edge from-layer="2974" from-port="0" to-layer="3078" to-port="2"/>
		<edge from-layer="2975" from-port="0" to-layer="3078" to-port="3"/>
		<edge from-layer="2976" from-port="0" to-layer="3078" to-port="4"/>
		<edge from-layer="3078" from-port="5" to-layer="3079" to-port="0"/>
		<edge from-layer="2972" from-port="0" to-layer="3079" to-port="1"/>
		<edge from-layer="3079" from-port="2" to-layer="3080" to-port="0"/>
		<edge from-layer="3080" from-port="1" to-layer="3081" to-port="0"/>
		<edge from-layer="3081" from-port="1" to-layer="3083" to-port="0"/>
		<edge from-layer="3082" from-port="0" to-layer="3083" to-port="1"/>
		<edge from-layer="2971" from-port="0" to-layer="3085" to-port="0"/>
		<edge from-layer="3083" from-port="2" to-layer="3085" to-port="1"/>
		<edge from-layer="3084" from-port="0" to-layer="3085" to-port="2"/>
		<edge from-layer="3079" from-port="2" to-layer="3086" to-port="0"/>
		<edge from-layer="3085" from-port="3" to-layer="3086" to-port="1"/>
		<edge from-layer="3086" from-port="2" to-layer="3088" to-port="0"/>
		<edge from-layer="3087" from-port="0" to-layer="3088" to-port="1"/>
		<edge from-layer="3088" from-port="2" to-layer="3090" to-port="0"/>
		<edge from-layer="3089" from-port="0" to-layer="3090" to-port="1"/>
		<edge from-layer="3090" from-port="2" to-layer="3091" to-port="0"/>
		<edge from-layer="2967" from-port="0" to-layer="3091" to-port="1"/>
		<edge from-layer="2968" from-port="0" to-layer="3091" to-port="2"/>
		<edge from-layer="2969" from-port="0" to-layer="3091" to-port="3"/>
		<edge from-layer="2970" from-port="0" to-layer="3091" to-port="4"/>
		<edge from-layer="3077" from-port="2" to-layer="3092" to-port="0"/>
		<edge from-layer="3091" from-port="5" to-layer="3093" to-port="0"/>
		<edge from-layer="3092" from-port="1" to-layer="3093" to-port="1"/>
		<edge from-layer="3093" from-port="2" to-layer="3094" to-port="0"/>
		<edge from-layer="2966" from-port="0" to-layer="3094" to-port="1"/>
		<edge from-layer="3094" from-port="2" to-layer="3096" to-port="0"/>
		<edge from-layer="3095" from-port="0" to-layer="3096" to-port="1"/>
		<edge from-layer="3096" from-port="2" to-layer="3097" to-port="0"/>
		<edge from-layer="3097" from-port="1" to-layer="3098" to-port="0"/>
		<edge from-layer="2962" from-port="0" to-layer="3098" to-port="1"/>
		<edge from-layer="2963" from-port="0" to-layer="3098" to-port="2"/>
		<edge from-layer="2964" from-port="0" to-layer="3098" to-port="3"/>
		<edge from-layer="2965" from-port="0" to-layer="3098" to-port="4"/>
		<edge from-layer="3069" from-port="5" to-layer="3099" to-port="0"/>
		<edge from-layer="3098" from-port="5" to-layer="3099" to-port="1"/>
		<edge from-layer="3099" from-port="2" to-layer="3100" to-port="0"/>
		<edge from-layer="2958" from-port="0" to-layer="3100" to-port="1"/>
		<edge from-layer="2959" from-port="0" to-layer="3100" to-port="2"/>
		<edge from-layer="2960" from-port="0" to-layer="3100" to-port="3"/>
		<edge from-layer="2961" from-port="0" to-layer="3100" to-port="4"/>
		<edge from-layer="2957" from-port="5" to-layer="3101" to-port="0"/>
		<edge from-layer="3100" from-port="5" to-layer="3101" to-port="1"/>
		<edge from-layer="3101" from-port="2" to-layer="3102" to-port="0"/>
		<edge from-layer="25" from-port="0" to-layer="3102" to-port="1"/>
		<edge from-layer="26" from-port="0" to-layer="3102" to-port="2"/>
		<edge from-layer="27" from-port="0" to-layer="3102" to-port="3"/>
		<edge from-layer="28" from-port="0" to-layer="3102" to-port="4"/>
		<edge from-layer="3158" from-port="0" to-layer="3159" to-port="0"/>
		<edge from-layer="3159" from-port="1" to-layer="3161" to-port="0"/>
		<edge from-layer="3160" from-port="0" to-layer="3161" to-port="1"/>
		<edge from-layer="3161" from-port="2" to-layer="3163" to-port="0"/>
		<edge from-layer="3162" from-port="0" to-layer="3163" to-port="1"/>
		<edge from-layer="2790" from-port="5" to-layer="3164" to-port="0"/>
		<edge from-layer="3163" from-port="2" to-layer="3164" to-port="1"/>
		<edge from-layer="3164" from-port="2" to-layer="3165" to-port="0"/>
		<edge from-layer="3157" from-port="0" to-layer="3165" to-port="1"/>
		<edge from-layer="3165" from-port="2" to-layer="3166" to-port="0"/>
		<edge from-layer="3153" from-port="0" to-layer="3166" to-port="1"/>
		<edge from-layer="3154" from-port="0" to-layer="3166" to-port="2"/>
		<edge from-layer="3155" from-port="0" to-layer="3166" to-port="3"/>
		<edge from-layer="3156" from-port="0" to-layer="3166" to-port="4"/>
		<edge from-layer="3168" from-port="0" to-layer="3169" to-port="0"/>
		<edge from-layer="3169" from-port="1" to-layer="3171" to-port="0"/>
		<edge from-layer="3170" from-port="0" to-layer="3171" to-port="1"/>
		<edge from-layer="3171" from-port="2" to-layer="3173" to-port="0"/>
		<edge from-layer="3172" from-port="0" to-layer="3173" to-port="1"/>
		<edge from-layer="3173" from-port="2" to-layer="3174" to-port="0"/>
		<edge from-layer="3167" from-port="0" to-layer="3174" to-port="1"/>
		<edge from-layer="3166" from-port="5" to-layer="3175" to-port="0"/>
		<edge from-layer="3174" from-port="2" to-layer="3175" to-port="1"/>
		<edge from-layer="3175" from-port="2" to-layer="3177" to-port="0"/>
		<edge from-layer="3176" from-port="0" to-layer="3177" to-port="1"/>
		<edge from-layer="3177" from-port="2" to-layer="3178" to-port="0"/>
		<edge from-layer="3178" from-port="1" to-layer="3179" to-port="0"/>
		<edge from-layer="3149" from-port="0" to-layer="3179" to-port="1"/>
		<edge from-layer="3150" from-port="0" to-layer="3179" to-port="2"/>
		<edge from-layer="3151" from-port="0" to-layer="3179" to-port="3"/>
		<edge from-layer="3152" from-port="0" to-layer="3179" to-port="4"/>
		<edge from-layer="3180" from-port="0" to-layer="3181" to-port="0"/>
		<edge from-layer="3181" from-port="1" to-layer="3183" to-port="0"/>
		<edge from-layer="3182" from-port="0" to-layer="3183" to-port="1"/>
		<edge from-layer="3183" from-port="2" to-layer="3185" to-port="0"/>
		<edge from-layer="3184" from-port="0" to-layer="3185" to-port="1"/>
		<edge from-layer="3179" from-port="5" to-layer="3186" to-port="0"/>
		<edge from-layer="3185" from-port="2" to-layer="3186" to-port="1"/>
		<edge from-layer="3186" from-port="2" to-layer="3187" to-port="0"/>
		<edge from-layer="3148" from-port="0" to-layer="3187" to-port="1"/>
		<edge from-layer="3187" from-port="2" to-layer="3188" to-port="0"/>
		<edge from-layer="3144" from-port="0" to-layer="3188" to-port="1"/>
		<edge from-layer="3145" from-port="0" to-layer="3188" to-port="2"/>
		<edge from-layer="3146" from-port="0" to-layer="3188" to-port="3"/>
		<edge from-layer="3147" from-port="0" to-layer="3188" to-port="4"/>
		<edge from-layer="3190" from-port="0" to-layer="3191" to-port="0"/>
		<edge from-layer="3191" from-port="1" to-layer="3193" to-port="0"/>
		<edge from-layer="3192" from-port="0" to-layer="3193" to-port="1"/>
		<edge from-layer="3193" from-port="2" to-layer="3195" to-port="0"/>
		<edge from-layer="3194" from-port="0" to-layer="3195" to-port="1"/>
		<edge from-layer="3195" from-port="2" to-layer="3196" to-port="0"/>
		<edge from-layer="3189" from-port="0" to-layer="3196" to-port="1"/>
		<edge from-layer="3188" from-port="5" to-layer="3197" to-port="0"/>
		<edge from-layer="3196" from-port="2" to-layer="3197" to-port="1"/>
		<edge from-layer="3197" from-port="2" to-layer="3199" to-port="0"/>
		<edge from-layer="3198" from-port="0" to-layer="3199" to-port="1"/>
		<edge from-layer="3199" from-port="2" to-layer="3200" to-port="0"/>
		<edge from-layer="3200" from-port="1" to-layer="3201" to-port="0"/>
		<edge from-layer="3140" from-port="0" to-layer="3201" to-port="1"/>
		<edge from-layer="3141" from-port="0" to-layer="3201" to-port="2"/>
		<edge from-layer="3142" from-port="0" to-layer="3201" to-port="3"/>
		<edge from-layer="3143" from-port="0" to-layer="3201" to-port="4"/>
		<edge from-layer="3202" from-port="0" to-layer="3203" to-port="0"/>
		<edge from-layer="3203" from-port="1" to-layer="3205" to-port="0"/>
		<edge from-layer="3204" from-port="0" to-layer="3205" to-port="1"/>
		<edge from-layer="3205" from-port="2" to-layer="3207" to-port="0"/>
		<edge from-layer="3206" from-port="0" to-layer="3207" to-port="1"/>
		<edge from-layer="3201" from-port="5" to-layer="3208" to-port="0"/>
		<edge from-layer="3207" from-port="2" to-layer="3208" to-port="1"/>
		<edge from-layer="3208" from-port="2" to-layer="3209" to-port="0"/>
		<edge from-layer="3139" from-port="0" to-layer="3209" to-port="1"/>
		<edge from-layer="3209" from-port="2" to-layer="3210" to-port="0"/>
		<edge from-layer="3135" from-port="0" to-layer="3210" to-port="1"/>
		<edge from-layer="3136" from-port="0" to-layer="3210" to-port="2"/>
		<edge from-layer="3137" from-port="0" to-layer="3210" to-port="3"/>
		<edge from-layer="3138" from-port="0" to-layer="3210" to-port="4"/>
		<edge from-layer="3212" from-port="0" to-layer="3213" to-port="0"/>
		<edge from-layer="3213" from-port="1" to-layer="3215" to-port="0"/>
		<edge from-layer="3214" from-port="0" to-layer="3215" to-port="1"/>
		<edge from-layer="3215" from-port="2" to-layer="3217" to-port="0"/>
		<edge from-layer="3216" from-port="0" to-layer="3217" to-port="1"/>
		<edge from-layer="3217" from-port="2" to-layer="3218" to-port="0"/>
		<edge from-layer="3211" from-port="0" to-layer="3218" to-port="1"/>
		<edge from-layer="3210" from-port="5" to-layer="3219" to-port="0"/>
		<edge from-layer="3218" from-port="2" to-layer="3219" to-port="1"/>
		<edge from-layer="3219" from-port="2" to-layer="3221" to-port="0"/>
		<edge from-layer="3220" from-port="0" to-layer="3221" to-port="1"/>
		<edge from-layer="3221" from-port="2" to-layer="3222" to-port="0"/>
		<edge from-layer="3222" from-port="1" to-layer="3223" to-port="0"/>
		<edge from-layer="3131" from-port="0" to-layer="3223" to-port="1"/>
		<edge from-layer="3132" from-port="0" to-layer="3223" to-port="2"/>
		<edge from-layer="3133" from-port="0" to-layer="3223" to-port="3"/>
		<edge from-layer="3134" from-port="0" to-layer="3223" to-port="4"/>
		<edge from-layer="3224" from-port="0" to-layer="3225" to-port="0"/>
		<edge from-layer="3225" from-port="1" to-layer="3227" to-port="0"/>
		<edge from-layer="3226" from-port="0" to-layer="3227" to-port="1"/>
		<edge from-layer="3227" from-port="2" to-layer="3229" to-port="0"/>
		<edge from-layer="3228" from-port="0" to-layer="3229" to-port="1"/>
		<edge from-layer="3223" from-port="5" to-layer="3230" to-port="0"/>
		<edge from-layer="3229" from-port="2" to-layer="3230" to-port="1"/>
		<edge from-layer="3230" from-port="2" to-layer="3231" to-port="0"/>
		<edge from-layer="3130" from-port="0" to-layer="3231" to-port="1"/>
		<edge from-layer="3231" from-port="2" to-layer="3232" to-port="0"/>
		<edge from-layer="3126" from-port="0" to-layer="3232" to-port="1"/>
		<edge from-layer="3127" from-port="0" to-layer="3232" to-port="2"/>
		<edge from-layer="3128" from-port="0" to-layer="3232" to-port="3"/>
		<edge from-layer="3129" from-port="0" to-layer="3232" to-port="4"/>
		<edge from-layer="3234" from-port="0" to-layer="3235" to-port="0"/>
		<edge from-layer="3235" from-port="1" to-layer="3237" to-port="0"/>
		<edge from-layer="3236" from-port="0" to-layer="3237" to-port="1"/>
		<edge from-layer="3237" from-port="2" to-layer="3239" to-port="0"/>
		<edge from-layer="3238" from-port="0" to-layer="3239" to-port="1"/>
		<edge from-layer="3239" from-port="2" to-layer="3240" to-port="0"/>
		<edge from-layer="3233" from-port="0" to-layer="3240" to-port="1"/>
		<edge from-layer="3232" from-port="5" to-layer="3241" to-port="0"/>
		<edge from-layer="3240" from-port="2" to-layer="3241" to-port="1"/>
		<edge from-layer="3241" from-port="2" to-layer="3243" to-port="0"/>
		<edge from-layer="3242" from-port="0" to-layer="3243" to-port="1"/>
		<edge from-layer="3243" from-port="2" to-layer="3244" to-port="0"/>
		<edge from-layer="3244" from-port="1" to-layer="3245" to-port="0"/>
		<edge from-layer="3122" from-port="0" to-layer="3245" to-port="1"/>
		<edge from-layer="3123" from-port="0" to-layer="3245" to-port="2"/>
		<edge from-layer="3124" from-port="0" to-layer="3245" to-port="3"/>
		<edge from-layer="3125" from-port="0" to-layer="3245" to-port="4"/>
		<edge from-layer="3244" from-port="1" to-layer="3247" to-port="0"/>
		<edge from-layer="3247" from-port="1" to-layer="3248" to-port="0"/>
		<edge from-layer="3248" from-port="1" to-layer="3250" to-port="0"/>
		<edge from-layer="3249" from-port="0" to-layer="3250" to-port="1"/>
		<edge from-layer="3246" from-port="0" to-layer="3252" to-port="0"/>
		<edge from-layer="3250" from-port="2" to-layer="3252" to-port="1"/>
		<edge from-layer="3251" from-port="0" to-layer="3252" to-port="2"/>
		<edge from-layer="3245" from-port="5" to-layer="3253" to-port="0"/>
		<edge from-layer="3252" from-port="3" to-layer="3253" to-port="1"/>
		<edge from-layer="3253" from-port="2" to-layer="3254" to-port="0"/>
		<edge from-layer="3118" from-port="0" to-layer="3254" to-port="1"/>
		<edge from-layer="3119" from-port="0" to-layer="3254" to-port="2"/>
		<edge from-layer="3120" from-port="0" to-layer="3254" to-port="3"/>
		<edge from-layer="3121" from-port="0" to-layer="3254" to-port="4"/>
		<edge from-layer="3254" from-port="5" to-layer="3255" to-port="0"/>
		<edge from-layer="3117" from-port="0" to-layer="3255" to-port="1"/>
		<edge from-layer="3255" from-port="2" to-layer="3256" to-port="0"/>
		<edge from-layer="3256" from-port="1" to-layer="3257" to-port="0"/>
		<edge from-layer="3257" from-port="1" to-layer="3259" to-port="0"/>
		<edge from-layer="3258" from-port="0" to-layer="3259" to-port="1"/>
		<edge from-layer="3116" from-port="0" to-layer="3261" to-port="0"/>
		<edge from-layer="3259" from-port="2" to-layer="3261" to-port="1"/>
		<edge from-layer="3260" from-port="0" to-layer="3261" to-port="2"/>
		<edge from-layer="3255" from-port="2" to-layer="3262" to-port="0"/>
		<edge from-layer="3261" from-port="3" to-layer="3262" to-port="1"/>
		<edge from-layer="3262" from-port="2" to-layer="3264" to-port="0"/>
		<edge from-layer="3263" from-port="0" to-layer="3264" to-port="1"/>
		<edge from-layer="3264" from-port="2" to-layer="3266" to-port="0"/>
		<edge from-layer="3265" from-port="0" to-layer="3266" to-port="1"/>
		<edge from-layer="3266" from-port="2" to-layer="3267" to-port="0"/>
		<edge from-layer="3112" from-port="0" to-layer="3267" to-port="1"/>
		<edge from-layer="3113" from-port="0" to-layer="3267" to-port="2"/>
		<edge from-layer="3114" from-port="0" to-layer="3267" to-port="3"/>
		<edge from-layer="3115" from-port="0" to-layer="3267" to-port="4"/>
		<edge from-layer="3253" from-port="2" to-layer="3268" to-port="0"/>
		<edge from-layer="3267" from-port="5" to-layer="3269" to-port="0"/>
		<edge from-layer="3268" from-port="1" to-layer="3269" to-port="1"/>
		<edge from-layer="3269" from-port="2" to-layer="3270" to-port="0"/>
		<edge from-layer="3111" from-port="0" to-layer="3270" to-port="1"/>
		<edge from-layer="3270" from-port="2" to-layer="3272" to-port="0"/>
		<edge from-layer="3271" from-port="0" to-layer="3272" to-port="1"/>
		<edge from-layer="3272" from-port="2" to-layer="3273" to-port="0"/>
		<edge from-layer="3273" from-port="1" to-layer="3274" to-port="0"/>
		<edge from-layer="3107" from-port="0" to-layer="3274" to-port="1"/>
		<edge from-layer="3108" from-port="0" to-layer="3274" to-port="2"/>
		<edge from-layer="3109" from-port="0" to-layer="3274" to-port="3"/>
		<edge from-layer="3110" from-port="0" to-layer="3274" to-port="4"/>
		<edge from-layer="3245" from-port="5" to-layer="3275" to-port="0"/>
		<edge from-layer="3274" from-port="5" to-layer="3275" to-port="1"/>
		<edge from-layer="3275" from-port="2" to-layer="3276" to-port="0"/>
		<edge from-layer="3103" from-port="0" to-layer="3276" to-port="1"/>
		<edge from-layer="3104" from-port="0" to-layer="3276" to-port="2"/>
		<edge from-layer="3105" from-port="0" to-layer="3276" to-port="3"/>
		<edge from-layer="3106" from-port="0" to-layer="3276" to-port="4"/>
		<edge from-layer="3102" from-port="5" to-layer="3277" to-port="0"/>
		<edge from-layer="3276" from-port="5" to-layer="3277" to-port="1"/>
		<edge from-layer="3277" from-port="2" to-layer="3278" to-port="0"/>
		<edge from-layer="21" from-port="0" to-layer="3278" to-port="1"/>
		<edge from-layer="22" from-port="0" to-layer="3278" to-port="2"/>
		<edge from-layer="23" from-port="0" to-layer="3278" to-port="3"/>
		<edge from-layer="24" from-port="0" to-layer="3278" to-port="4"/>
		<edge from-layer="3279" from-port="0" to-layer="3280" to-port="0"/>
		<edge from-layer="3280" from-port="1" to-layer="3282" to-port="0"/>
		<edge from-layer="3281" from-port="0" to-layer="3282" to-port="1"/>
		<edge from-layer="3282" from-port="2" to-layer="3284" to-port="0"/>
		<edge from-layer="3283" from-port="0" to-layer="3284" to-port="1"/>
		<edge from-layer="3278" from-port="5" to-layer="3285" to-port="0"/>
		<edge from-layer="3284" from-port="2" to-layer="3285" to-port="1"/>
		<edge from-layer="3285" from-port="2" to-layer="3287" to-port="0"/>
		<edge from-layer="3286" from-port="0" to-layer="3287" to-port="1"/>
		<edge from-layer="3287" from-port="2" to-layer="3288" to-port="0"/>
		<edge from-layer="17" from-port="0" to-layer="3288" to-port="1"/>
		<edge from-layer="18" from-port="0" to-layer="3288" to-port="2"/>
		<edge from-layer="19" from-port="0" to-layer="3288" to-port="3"/>
		<edge from-layer="20" from-port="0" to-layer="3288" to-port="4"/>
		<edge from-layer="3288" from-port="5" to-layer="3289" to-port="0"/>
		<edge from-layer="2779" from-port="5" to-layer="3289" to-port="1"/>
		<edge from-layer="3289" from-port="2" to-layer="3290" to-port="0"/>
		<edge from-layer="3290" from-port="1" to-layer="3291" to-port="0"/>
		<edge from-layer="13" from-port="0" to-layer="3291" to-port="1"/>
		<edge from-layer="14" from-port="0" to-layer="3291" to-port="2"/>
		<edge from-layer="15" from-port="0" to-layer="3291" to-port="3"/>
		<edge from-layer="16" from-port="0" to-layer="3291" to-port="4"/>
		<edge from-layer="3292" from-port="0" to-layer="3293" to-port="0"/>
		<edge from-layer="3293" from-port="1" to-layer="3295" to-port="0"/>
		<edge from-layer="3294" from-port="0" to-layer="3295" to-port="1"/>
		<edge from-layer="3295" from-port="2" to-layer="3297" to-port="0"/>
		<edge from-layer="3296" from-port="0" to-layer="3297" to-port="1"/>
		<edge from-layer="3291" from-port="5" to-layer="3298" to-port="0"/>
		<edge from-layer="3297" from-port="2" to-layer="3298" to-port="1"/>
		<edge from-layer="3298" from-port="2" to-layer="3300" to-port="0"/>
		<edge from-layer="3299" from-port="0" to-layer="3300" to-port="1"/>
		<edge from-layer="3300" from-port="2" to-layer="3301" to-port="0"/>
		<edge from-layer="3301" from-port="1" to-layer="3302" to-port="0"/>
		<edge from-layer="9" from-port="0" to-layer="3302" to-port="1"/>
		<edge from-layer="10" from-port="0" to-layer="3302" to-port="2"/>
		<edge from-layer="11" from-port="0" to-layer="3302" to-port="3"/>
		<edge from-layer="12" from-port="0" to-layer="3302" to-port="4"/>
		<edge from-layer="3304" from-port="0" to-layer="3305" to-port="0"/>
		<edge from-layer="3305" from-port="1" to-layer="3307" to-port="0"/>
		<edge from-layer="3306" from-port="0" to-layer="3307" to-port="1"/>
		<edge from-layer="3307" from-port="2" to-layer="3309" to-port="0"/>
		<edge from-layer="3308" from-port="0" to-layer="3309" to-port="1"/>
		<edge from-layer="3309" from-port="2" to-layer="3310" to-port="0"/>
		<edge from-layer="3303" from-port="0" to-layer="3310" to-port="1"/>
		<edge from-layer="3302" from-port="5" to-layer="3311" to-port="0"/>
		<edge from-layer="3310" from-port="2" to-layer="3311" to-port="1"/>
		<edge from-layer="3311" from-port="2" to-layer="3313" to-port="0"/>
		<edge from-layer="3312" from-port="0" to-layer="3313" to-port="1"/>
		<edge from-layer="3313" from-port="2" to-layer="3314" to-port="0"/>
		<edge from-layer="5" from-port="0" to-layer="3314" to-port="1"/>
		<edge from-layer="6" from-port="0" to-layer="3314" to-port="2"/>
		<edge from-layer="7" from-port="0" to-layer="3314" to-port="3"/>
		<edge from-layer="8" from-port="0" to-layer="3314" to-port="4"/>
		<edge from-layer="3313" from-port="2" to-layer="3315" to-port="0"/>
		<edge from-layer="3315" from-port="1" to-layer="3318" to-port="0"/>
		<edge from-layer="3316" from-port="0" to-layer="3318" to-port="1"/>
		<edge from-layer="3317" from-port="0" to-layer="3318" to-port="2"/>
		<edge from-layer="3318" from-port="3" to-layer="3320" to-port="0"/>
		<edge from-layer="3319" from-port="0" to-layer="3320" to-port="1"/>
		<edge from-layer="3320" from-port="2" to-layer="3322" to-port="0"/>
		<edge from-layer="3321" from-port="0" to-layer="3322" to-port="1"/>
		<edge from-layer="3314" from-port="5" to-layer="3323" to-port="0"/>
		<edge from-layer="3322" from-port="2" to-layer="3323" to-port="1"/>
		<edge from-layer="3324" from-port="0" to-layer="3325" to-port="0"/>
		<edge from-layer="3325" from-port="1" to-layer="3327" to-port="0"/>
		<edge from-layer="3326" from-port="0" to-layer="3327" to-port="1"/>
		<edge from-layer="3327" from-port="2" to-layer="3329" to-port="0"/>
		<edge from-layer="3328" from-port="0" to-layer="3329" to-port="1"/>
		<edge from-layer="3323" from-port="2" to-layer="3330" to-port="0"/>
		<edge from-layer="3329" from-port="2" to-layer="3330" to-port="1"/>
		<edge from-layer="3330" from-port="2" to-layer="3332" to-port="0"/>
		<edge from-layer="3331" from-port="0" to-layer="3332" to-port="1"/>
		<edge from-layer="3332" from-port="2" to-layer="3333" to-port="0"/>
		<edge from-layer="1" from-port="0" to-layer="3333" to-port="1"/>
		<edge from-layer="2" from-port="0" to-layer="3333" to-port="2"/>
		<edge from-layer="3" from-port="0" to-layer="3333" to-port="3"/>
		<edge from-layer="4" from-port="0" to-layer="3333" to-port="4"/>
		<edge from-layer="3323" from-port="2" to-layer="3334" to-port="0"/>
		<edge from-layer="3334" from-port="1" to-layer="3337" to-port="0"/>
		<edge from-layer="3335" from-port="0" to-layer="3337" to-port="1"/>
		<edge from-layer="3336" from-port="0" to-layer="3337" to-port="2"/>
		<edge from-layer="3337" from-port="3" to-layer="3339" to-port="0"/>
		<edge from-layer="3338" from-port="0" to-layer="3339" to-port="1"/>
		<edge from-layer="3339" from-port="2" to-layer="3342" to-port="0"/>
		<edge from-layer="3340" from-port="0" to-layer="3342" to-port="1"/>
		<edge from-layer="3341" from-port="0" to-layer="3342" to-port="2"/>
		<edge from-layer="3333" from-port="5" to-layer="3343" to-port="0"/>
		<edge from-layer="3342" from-port="3" to-layer="3343" to-port="1"/>
		<edge from-layer="3343" from-port="2" to-layer="3344" to-port="0"/>
		<edge from-layer="0" from-port="0" to-layer="3344" to-port="1"/>
		<edge from-layer="3344" from-port="2" to-layer="3346" to-port="0"/>
		<edge from-layer="3345" from-port="0" to-layer="3346" to-port="1"/>
		<edge from-layer="3346" from-port="2" to-layer="3348" to-port="0"/>
		<edge from-layer="3347" from-port="0" to-layer="3348" to-port="1"/>
		<edge from-layer="3348" from-port="2" to-layer="3349" to-port="0"/>
		<edge from-layer="3349" from-port="1" to-layer="3352" to-port="0"/>
		<edge from-layer="3350" from-port="0" to-layer="3352" to-port="1"/>
		<edge from-layer="3351" from-port="0" to-layer="3352" to-port="2"/>
		<edge from-layer="3352" from-port="3" to-layer="3354" to-port="0"/>
		<edge from-layer="3353" from-port="0" to-layer="3354" to-port="1"/>
		<edge from-layer="3354" from-port="2" to-layer="3356" to-port="0"/>
		<edge from-layer="3355" from-port="0" to-layer="3356" to-port="1"/>
		<edge from-layer="3348" from-port="2" to-layer="3357" to-port="0"/>
		<edge from-layer="3356" from-port="2" to-layer="3357" to-port="1"/>
		<edge from-layer="3357" from-port="2" to-layer="3358" to-port="0"/>
	</edges>
	<meta_data>
		<MO_version value="custom_HEAD_149c43044cb1e8ed8cd4f3f196b23f7b3f129a36"/>
		<cli_parameters>
			<caffe_parser_path value="DIR"/>
			<data_type value="FP16"/>
			<disable_nhwc_to_nchw value="False"/>
			<disable_omitting_optional value="False"/>
			<disable_resnet_optimization value="False"/>
			<disable_weights_compression value="False"/>
			<enable_concat_optimization value="False"/>
			<enable_flattening_nested_params value="False"/>
			<enable_ssd_gluoncv value="False"/>
			<extensions value="DIR"/>
			<framework value="onnx"/>
			<freeze_placeholder_with_value value="{}"/>
			<generate_deprecated_IR_V7 value="False"/>
			<input value="data"/>
			<input_model value="DIR/person-reidentification-retail-0277.onnx"/>
			<input_model_is_text value="False"/>
			<input_shape value="[1,3,256,128]"/>
			<k value="DIR/CustomLayersMapping.xml"/>
			<keep_shape_ops value="True"/>
			<legacy_ir_generation value="False"/>
			<legacy_mxnet_model value="False"/>
			<log_level value="ERROR"/>
			<mean_scale_values value="{'data': {'mean': array([123.675, 116.28 , 103.53 ]), 'scale': array([58.395, 57.12 , 57.375])}}"/>
			<mean_values value="data[123.675,116.28,103.53]"/>
			<model_name value="person-reidentification-retail-0277"/>
			<output value="['reid_embedding']"/>
			<output_dir value="DIR"/>
			<placeholder_data_types value="{}"/>
			<placeholder_shapes value="{'data': array([  1,   3, 256, 128])}"/>
			<progress value="False"/>
			<remove_memory value="False"/>
			<remove_output_softmax value="False"/>
			<reverse_input_channels value="True"/>
			<save_params_from_nd value="False"/>
			<scale_values value="data[58.395,57.12,57.375]"/>
			<silent value="False"/>
			<static_shape value="False"/>
			<stream_output value="False"/>
			<transform value=""/>
			<unset unset_cli_parameters="batch, counts, disable_fusing, disable_gfusing, finegrain_fusing, input_checkpoint, input_meta_graph, input_proto, input_symbol, mean_file, mean_file_offsets, move_to_preprocess, nd_prefix_name, pretrained_model_name, saved_model_dir, saved_model_tags, scale, tensorboard_logdir, tensorflow_custom_layer_libraries, tensorflow_custom_operations_config_update, tensorflow_object_detection_api_pipeline_config, tensorflow_use_custom_operations_config, transformations_config"/>
		</cli_parameters>
	</meta_data>
	<quantization_parameters>
		<config>{
		'compression': {
			'algorithms': [
				{
					'name': 'DefaultQuantization',
					'params': {
						'num_samples_for_tuning': 2000,
						'preset': 'performance',
						'stat_subset_size': 300,
						'use_layerwise_tuning': false
					}
				}
			],
			'dump_intermediate_model': true,
			'target_device': 'ANY'
		},
		'engine': {
			'models': [
				{
					'name': 'person-reidentification-retail-0277',
					'launchers': [
						{
							'framework': 'dlsdk',
							'adapter': 'reid',
							'device': 'CPU'
						}
					],
					'datasets': [
						{
							'name': 'market1501',
							'data_source': 'PATH',
							'annotation_conversion': {
								'converter': 'market1501_reid',
								'data_dir': 'PATH'
							},
							'annotation': 'PATH',
							'preprocessing': [
								{
									'type': 'resize',
									'dst_width': 128,
									'dst_height': 256,
									'use_pillow': true,
									'interpolation': 'BILINEAR'
								}
							],
							'metrics': [
								{
									'name': 'rank@1',
									'type': 'cmc',
									'top_k': 1
								},
								{
									'type': 'reid_map'
								}
							],
							'_command_line_mapping': {
								'data_dir': 'PATH'
							}
						}
					]
				}
			],
			'stat_requests_number': null,
			'eval_requests_number': null,
			'type': 'accuracy_checker'
		}
	}</config>
		<version value="1.0"/>
		<cli_params value="{'quantize': None, 'preset': None, 'model': None, 'weights': None, 'name': None, 'ac_config': None, 'max_drop': None, 'evaluate': False, 'output_dir': 'PATH', 'direct_dump': True, 'log_level': 'INFO', 'pbar': False, 'stream_output': False, 'keep_uncompressed_weights': False}"/>
	</quantization_parameters>
</net>
