<?xml version="1.0" ?>
<net name="person-reidentification-retail-0286" version="10">
	<layers>
		<layer id="0" name="data_mul_2232022324238730140" type="Const" version="opset1">
			<data element_type="f16" offset="0" shape="1,256,1" size="512"/>
			<output>
				<port id="0" precision="FP16">
					<dim>1</dim>
					<dim>256</dim>
					<dim>1</dim>
				</port>
			</output>
		</layer>
		<layer id="1" name="108181082232390" type="Const" version="opset1">
			<data element_type="f16" offset="512" shape="" size="2"/>
			<output>
				<port id="0" precision="FP16"/>
			</output>
		</layer>
		<layer id="2" name="108191082329687" type="Const" version="opset1">
			<data element_type="f16" offset="514" shape="" size="2"/>
			<output>
				<port id="0" precision="FP16"/>
			</output>
		</layer>
		<layer id="3" name="108201082431952" type="Const" version="opset1">
			<data element_type="f16" offset="512" shape="" size="2"/>
			<output>
				<port id="0" precision="FP16"/>
			</output>
		</layer>
		<layer id="4" name="108211082531316" type="Const" version="opset1">
			<data element_type="f16" offset="514" shape="" size="2"/>
			<output>
				<port id="0" precision="FP16"/>
			</output>
		</layer>
		<layer id="5" name="108081081231955" type="Const" version="opset1">
			<data element_type="f16" offset="516" shape="" size="2"/>
			<output>
				<port id="0" precision="FP16"/>
			</output>
		</layer>
		<layer id="6" name="108091081329465" type="Const" version="opset1">
			<data element_type="f16" offset="518" shape="" size="2"/>
			<output>
				<port id="0" precision="FP16"/>
			</output>
		</layer>
		<layer id="7" name="108101081428529" type="Const" version="opset1">
			<data element_type="f16" offset="516" shape="" size="2"/>
			<output>
				<port id="0" precision="FP16"/>
			</output>
		</layer>
		<layer id="8" name="108111081531811" type="Const" version="opset1">
			<data element_type="f16" offset="518" shape="" size="2"/>
			<output>
				<port id="0" precision="FP16"/>
			</output>
		</layer>
		<layer id="9" name="5597560130347" type="Const" version="opset1">
			<data element_type="f16" offset="520" shape="1,384,1,1" size="768"/>
			<output>
				<port id="0" precision="FP16">
					<dim>1</dim>
					<dim>384</dim>
					<dim>1</dim>
					<dim>1</dim>
				</port>
			</output>
		</layer>
		<layer id="10" name="5598560229864" type="Const" version="opset1">
			<data element_type="f16" offset="1288" shape="1,384,1,1" size="768"/>
			<output>
				<port id="0" precision="FP16">
					<dim>1</dim>
					<dim>384</dim>
					<dim>1</dim>
					<dim>1</dim>
				</port>
			</output>
		</layer>
		<layer id="11" name="5599560333644" type="Const" version="opset1">
			<data element_type="f16" offset="520" shape="1,384,1,1" size="768"/>
			<output>
				<port id="0" precision="FP16">
					<dim>1</dim>
					<dim>384</dim>
					<dim>1</dim>
					<dim>1</dim>
				</port>
			</output>
		</layer>
		<layer id="12" name="5600560433527" type="Const" version="opset1">
			<data element_type="f16" offset="1288" shape="1,384,1,1" size="768"/>
			<output>
				<port id="0" precision="FP16">
					<dim>1</dim>
					<dim>384</dim>
					<dim>1</dim>
					<dim>1</dim>
				</port>
			</output>
		</layer>
		<layer id="13" name="data_add_2231322318120228859" type="Const" version="opset1">
			<data element_type="f16" offset="2056" shape="1,384,1,1" size="768"/>
			<output>
				<port id="0" precision="FP16">
					<dim>1</dim>
					<dim>384</dim>
					<dim>1</dim>
					<dim>1</dim>
				</port>
			</output>
		</layer>
		<layer id="14" name="5707571129987" type="Const" version="opset1">
			<data element_type="f16" offset="2824" shape="" size="2"/>
			<output>
				<port id="0" precision="FP16"/>
			</output>
		</layer>
		<layer id="15" name="5708571228997" type="Const" version="opset1">
			<data element_type="f16" offset="2826" shape="" size="2"/>
			<output>
				<port id="0" precision="FP16"/>
			</output>
		</layer>
		<layer id="16" name="5709571333491" type="Const" version="opset1">
			<data element_type="f16" offset="2824" shape="" size="2"/>
			<output>
				<port id="0" precision="FP16"/>
			</output>
		</layer>
		<layer id="17" name="5710571429903" type="Const" version="opset1">
			<data element_type="f16" offset="2826" shape="" size="2"/>
			<output>
				<port id="0" precision="FP16"/>
			</output>
		</layer>
		<layer id="18" name="7877788132276" type="Const" version="opset1">
			<data element_type="f16" offset="2828" shape="" size="2"/>
			<output>
				<port id="0" precision="FP16"/>
			</output>
		</layer>
		<layer id="19" name="7878788230488" type="Const" version="opset1">
			<data element_type="f16" offset="2830" shape="" size="2"/>
			<output>
				<port id="0" precision="FP16"/>
			</output>
		</layer>
		<layer id="20" name="7879788333536" type="Const" version="opset1">
			<data element_type="f16" offset="2828" shape="" size="2"/>
			<output>
				<port id="0" precision="FP16"/>
			</output>
		</layer>
		<layer id="21" name="7880788432807" type="Const" version="opset1">
			<data element_type="f16" offset="2830" shape="" size="2"/>
			<output>
				<port id="0" precision="FP16"/>
			</output>
		</layer>
		<layer id="22" name="data_add_2230522310215329720" type="Const" version="opset1">
			<data element_type="f16" offset="2832" shape="1,384,1,1" size="768"/>
			<output>
				<port id="0" precision="FP16">
					<dim>1</dim>
					<dim>384</dim>
					<dim>1</dim>
					<dim>1</dim>
				</port>
			</output>
		</layer>
		<layer id="23" name="4557456131040" type="Const" version="opset1">
			<data element_type="f16" offset="2824" shape="" size="2"/>
			<output>
				<port id="0" precision="FP16"/>
			</output>
		</layer>
		<layer id="24" name="4558456230458" type="Const" version="opset1">
			<data element_type="f16" offset="3600" shape="" size="2"/>
			<output>
				<port id="0" precision="FP16"/>
			</output>
		</layer>
		<layer id="25" name="4559456330632" type="Const" version="opset1">
			<data element_type="f16" offset="2824" shape="" size="2"/>
			<output>
				<port id="0" precision="FP16"/>
			</output>
		</layer>
		<layer id="26" name="4560456430149" type="Const" version="opset1">
			<data element_type="f16" offset="3600" shape="" size="2"/>
			<output>
				<port id="0" precision="FP16"/>
			</output>
		</layer>
		<layer id="27" name="7817782132972" type="Const" version="opset1">
			<data element_type="f16" offset="2824" shape="" size="2"/>
			<output>
				<port id="0" precision="FP16"/>
			</output>
		</layer>
		<layer id="28" name="7818782233242" type="Const" version="opset1">
			<data element_type="f16" offset="3602" shape="" size="2"/>
			<output>
				<port id="0" precision="FP16"/>
			</output>
		</layer>
		<layer id="29" name="7819782333101" type="Const" version="opset1">
			<data element_type="f16" offset="2824" shape="" size="2"/>
			<output>
				<port id="0" precision="FP16"/>
			</output>
		</layer>
		<layer id="30" name="7820782430887" type="Const" version="opset1">
			<data element_type="f16" offset="3602" shape="" size="2"/>
			<output>
				<port id="0" precision="FP16"/>
			</output>
		</layer>
		<layer id="31" name="8077808129024" type="Const" version="opset1">
			<data element_type="f16" offset="2824" shape="" size="2"/>
			<output>
				<port id="0" precision="FP16"/>
			</output>
		</layer>
		<layer id="32" name="8078808231796" type="Const" version="opset1">
			<data element_type="f16" offset="3604" shape="" size="2"/>
			<output>
				<port id="0" precision="FP16"/>
			</output>
		</layer>
		<layer id="33" name="8079808331133" type="Const" version="opset1">
			<data element_type="f16" offset="2824" shape="" size="2"/>
			<output>
				<port id="0" precision="FP16"/>
			</output>
		</layer>
		<layer id="34" name="8080808428520" type="Const" version="opset1">
			<data element_type="f16" offset="3604" shape="" size="2"/>
			<output>
				<port id="0" precision="FP16"/>
			</output>
		</layer>
		<layer id="35" name="6917692133620" type="Const" version="opset1">
			<data element_type="f16" offset="2824" shape="" size="2"/>
			<output>
				<port id="0" precision="FP16"/>
			</output>
		</layer>
		<layer id="36" name="6918692231655" type="Const" version="opset1">
			<data element_type="f16" offset="3606" shape="" size="2"/>
			<output>
				<port id="0" precision="FP16"/>
			</output>
		</layer>
		<layer id="37" name="6919692332066" type="Const" version="opset1">
			<data element_type="f16" offset="2824" shape="" size="2"/>
			<output>
				<port id="0" precision="FP16"/>
			</output>
		</layer>
		<layer id="38" name="6920692428673" type="Const" version="opset1">
			<data element_type="f16" offset="3606" shape="" size="2"/>
			<output>
				<port id="0" precision="FP16"/>
			</output>
		</layer>
		<layer id="39" name="6537654129996" type="Const" version="opset1">
			<data element_type="f16" offset="2824" shape="" size="2"/>
			<output>
				<port id="0" precision="FP16"/>
			</output>
		</layer>
		<layer id="40" name="6538654232192" type="Const" version="opset1">
			<data element_type="f16" offset="3608" shape="" size="2"/>
			<output>
				<port id="0" precision="FP16"/>
			</output>
		</layer>
		<layer id="41" name="6539654328646" type="Const" version="opset1">
			<data element_type="f16" offset="2824" shape="" size="2"/>
			<output>
				<port id="0" precision="FP16"/>
			</output>
		</layer>
		<layer id="42" name="6540654431916" type="Const" version="opset1">
			<data element_type="f16" offset="3608" shape="" size="2"/>
			<output>
				<port id="0" precision="FP16"/>
			</output>
		</layer>
		<layer id="43" name="1069/Unsqueeze219031559" type="Const" version="opset1">
			<data element_type="f16" offset="3610" shape="1,96,1,1" size="192"/>
			<output>
				<port id="0" names="1069" precision="FP16">
					<dim>1</dim>
					<dim>96</dim>
					<dim>1</dim>
					<dim>1</dim>
				</port>
			</output>
		</layer>
		<layer id="44" name="107381074229042" type="Const" version="opset1">
			<data element_type="f16" offset="3802" shape="" size="2"/>
			<output>
				<port id="0" precision="FP16"/>
			</output>
		</layer>
		<layer id="45" name="107391074328493" type="Const" version="opset1">
			<data element_type="f16" offset="3804" shape="" size="2"/>
			<output>
				<port id="0" precision="FP16"/>
			</output>
		</layer>
		<layer id="46" name="107401074430335" type="Const" version="opset1">
			<data element_type="f16" offset="3802" shape="" size="2"/>
			<output>
				<port id="0" precision="FP16"/>
			</output>
		</layer>
		<layer id="47" name="107411074531988" type="Const" version="opset1">
			<data element_type="f16" offset="3804" shape="" size="2"/>
			<output>
				<port id="0" precision="FP16"/>
			</output>
		</layer>
		<layer id="48" name="1066/Range_input_port_0/value217629471" type="Const" version="opset1">
			<data element_type="i64" offset="3806" shape="" size="8"/>
			<output>
				<port id="0" precision="I64"/>
			</output>
		</layer>
		<layer id="49" name="1066/Range_input_port_2/value217733437" type="Const" version="opset1">
			<data element_type="i64" offset="3814" shape="" size="8"/>
			<output>
				<port id="0" precision="I64"/>
			</output>
		</layer>
		<layer id="50" name="1062217431541" type="Const" version="opset1">
			<data element_type="i64" offset="3822" shape="3" size="24"/>
			<output>
				<port id="0" names="1062" precision="I64">
					<dim>3</dim>
				</port>
			</output>
		</layer>
		<layer id="51" name="107281073230542" type="Const" version="opset1">
			<data element_type="f16" offset="2824" shape="" size="2"/>
			<output>
				<port id="0" precision="FP16"/>
			</output>
		</layer>
		<layer id="52" name="107291073331781" type="Const" version="opset1">
			<data element_type="f16" offset="3846" shape="" size="2"/>
			<output>
				<port id="0" precision="FP16"/>
			</output>
		</layer>
		<layer id="53" name="107301073429876" type="Const" version="opset1">
			<data element_type="f16" offset="2824" shape="" size="2"/>
			<output>
				<port id="0" precision="FP16"/>
			</output>
		</layer>
		<layer id="54" name="107311073529387" type="Const" version="opset1">
			<data element_type="f16" offset="3846" shape="" size="2"/>
			<output>
				<port id="0" precision="FP16"/>
			</output>
		</layer>
		<layer id="55" name="6047605129498" type="Const" version="opset1">
			<data element_type="f16" offset="2824" shape="" size="2"/>
			<output>
				<port id="0" precision="FP16"/>
			</output>
		</layer>
		<layer id="56" name="6048605229678" type="Const" version="opset1">
			<data element_type="f16" offset="3848" shape="" size="2"/>
			<output>
				<port id="0" precision="FP16"/>
			</output>
		</layer>
		<layer id="57" name="6049605331358" type="Const" version="opset1">
			<data element_type="f16" offset="2824" shape="" size="2"/>
			<output>
				<port id="0" precision="FP16"/>
			</output>
		</layer>
		<layer id="58" name="6050605430647" type="Const" version="opset1">
			<data element_type="f16" offset="3848" shape="" size="2"/>
			<output>
				<port id="0" precision="FP16"/>
			</output>
		</layer>
		<layer id="59" name="data_add_2229722302215432246" type="Const" version="opset1">
			<data element_type="f16" offset="3850" shape="1,96,1,1" size="192"/>
			<output>
				<port id="0" precision="FP16">
					<dim>1</dim>
					<dim>96</dim>
					<dim>1</dim>
					<dim>1</dim>
				</port>
			</output>
		</layer>
		<layer id="60" name="6057606132060" type="Const" version="opset1">
			<data element_type="f16" offset="4042" shape="1,96,1,1" size="192"/>
			<output>
				<port id="0" precision="FP16">
					<dim>1</dim>
					<dim>96</dim>
					<dim>1</dim>
					<dim>1</dim>
				</port>
			</output>
		</layer>
		<layer id="61" name="6058606229738" type="Const" version="opset1">
			<data element_type="f16" offset="4234" shape="1,96,1,1" size="192"/>
			<output>
				<port id="0" precision="FP16">
					<dim>1</dim>
					<dim>96</dim>
					<dim>1</dim>
					<dim>1</dim>
				</port>
			</output>
		</layer>
		<layer id="62" name="6059606328607" type="Const" version="opset1">
			<data element_type="f16" offset="4042" shape="1,96,1,1" size="192"/>
			<output>
				<port id="0" precision="FP16">
					<dim>1</dim>
					<dim>96</dim>
					<dim>1</dim>
					<dim>1</dim>
				</port>
			</output>
		</layer>
		<layer id="63" name="6060606432174" type="Const" version="opset1">
			<data element_type="f16" offset="4234" shape="1,96,1,1" size="192"/>
			<output>
				<port id="0" precision="FP16">
					<dim>1</dim>
					<dim>96</dim>
					<dim>1</dim>
					<dim>1</dim>
				</port>
			</output>
		</layer>
		<layer id="64" name="3072307429810" type="Const" version="opset1">
			<data element_type="f16" offset="4426" shape="1,96,1,1" size="192"/>
			<output>
				<port id="0" precision="FP16">
					<dim>1</dim>
					<dim>96</dim>
					<dim>1</dim>
					<dim>1</dim>
				</port>
			</output>
		</layer>
		<layer id="65" name="7557756131493" type="Const" version="opset1">
			<data element_type="f16" offset="2824" shape="" size="2"/>
			<output>
				<port id="0" precision="FP16"/>
			</output>
		</layer>
		<layer id="66" name="7558756232795" type="Const" version="opset1">
			<data element_type="f16" offset="4618" shape="" size="2"/>
			<output>
				<port id="0" precision="FP16"/>
			</output>
		</layer>
		<layer id="67" name="7559756330662" type="Const" version="opset1">
			<data element_type="f16" offset="2824" shape="" size="2"/>
			<output>
				<port id="0" precision="FP16"/>
			</output>
		</layer>
		<layer id="68" name="7560756428742" type="Const" version="opset1">
			<data element_type="f16" offset="4618" shape="" size="2"/>
			<output>
				<port id="0" precision="FP16"/>
			</output>
		</layer>
		<layer id="69" name="data_add_2221722222215631226" type="Const" version="opset1">
			<data element_type="f16" offset="4620" shape="1,96,1,1" size="192"/>
			<output>
				<port id="0" precision="FP16">
					<dim>1</dim>
					<dim>96</dim>
					<dim>1</dim>
					<dim>1</dim>
				</port>
			</output>
		</layer>
		<layer id="70" name="4987499128517" type="Const" version="opset1">
			<data element_type="f16" offset="2824" shape="" size="2"/>
			<output>
				<port id="0" precision="FP16"/>
			</output>
		</layer>
		<layer id="71" name="4988499233137" type="Const" version="opset1">
			<data element_type="f16" offset="4812" shape="" size="2"/>
			<output>
				<port id="0" precision="FP16"/>
			</output>
		</layer>
		<layer id="72" name="4989499329195" type="Const" version="opset1">
			<data element_type="f16" offset="2824" shape="" size="2"/>
			<output>
				<port id="0" precision="FP16"/>
			</output>
		</layer>
		<layer id="73" name="4990499433038" type="Const" version="opset1">
			<data element_type="f16" offset="4812" shape="" size="2"/>
			<output>
				<port id="0" precision="FP16"/>
			</output>
		</layer>
		<layer id="74" name="4487449128928" type="Const" version="opset1">
			<data element_type="f16" offset="4814" shape="" size="2"/>
			<output>
				<port id="0" precision="FP16"/>
			</output>
		</layer>
		<layer id="75" name="4488449230986" type="Const" version="opset1">
			<data element_type="f16" offset="4816" shape="" size="2"/>
			<output>
				<port id="0" precision="FP16"/>
			</output>
		</layer>
		<layer id="76" name="4489449330953" type="Const" version="opset1">
			<data element_type="f16" offset="4814" shape="" size="2"/>
			<output>
				<port id="0" precision="FP16"/>
			</output>
		</layer>
		<layer id="77" name="4490449433473" type="Const" version="opset1">
			<data element_type="f16" offset="4816" shape="" size="2"/>
			<output>
				<port id="0" precision="FP16"/>
			</output>
		</layer>
		<layer id="78" name="data_add_2220922214199329336" type="Const" version="opset1">
			<data element_type="f16" offset="4818" shape="1,384,1,1" size="768"/>
			<output>
				<port id="0" precision="FP16">
					<dim>1</dim>
					<dim>384</dim>
					<dim>1</dim>
					<dim>1</dim>
				</port>
			</output>
		</layer>
		<layer id="79" name="7947795128577" type="Const" version="opset1">
			<data element_type="f16" offset="2824" shape="" size="2"/>
			<output>
				<port id="0" precision="FP16"/>
			</output>
		</layer>
		<layer id="80" name="7948795230761" type="Const" version="opset1">
			<data element_type="f16" offset="5586" shape="" size="2"/>
			<output>
				<port id="0" precision="FP16"/>
			</output>
		</layer>
		<layer id="81" name="7949795332117" type="Const" version="opset1">
			<data element_type="f16" offset="2824" shape="" size="2"/>
			<output>
				<port id="0" precision="FP16"/>
			</output>
		</layer>
		<layer id="82" name="7950795432615" type="Const" version="opset1">
			<data element_type="f16" offset="5586" shape="" size="2"/>
			<output>
				<port id="0" precision="FP16"/>
			</output>
		</layer>
		<layer id="83" name="6667667132825" type="Const" version="opset1">
			<data element_type="f16" offset="2824" shape="" size="2"/>
			<output>
				<port id="0" precision="FP16"/>
			</output>
		</layer>
		<layer id="84" name="6668667230014" type="Const" version="opset1">
			<data element_type="f16" offset="5588" shape="" size="2"/>
			<output>
				<port id="0" precision="FP16"/>
			</output>
		</layer>
		<layer id="85" name="6669667329693" type="Const" version="opset1">
			<data element_type="f16" offset="2824" shape="" size="2"/>
			<output>
				<port id="0" precision="FP16"/>
			</output>
		</layer>
		<layer id="86" name="6670667428835" type="Const" version="opset1">
			<data element_type="f16" offset="5588" shape="" size="2"/>
			<output>
				<port id="0" precision="FP16"/>
			</output>
		</layer>
		<layer id="87" name="6247625132699" type="Const" version="opset1">
			<data element_type="f16" offset="2824" shape="" size="2"/>
			<output>
				<port id="0" precision="FP16"/>
			</output>
		</layer>
		<layer id="88" name="6248625232105" type="Const" version="opset1">
			<data element_type="f16" offset="5590" shape="" size="2"/>
			<output>
				<port id="0" precision="FP16"/>
			</output>
		</layer>
		<layer id="89" name="6249625328898" type="Const" version="opset1">
			<data element_type="f16" offset="2824" shape="" size="2"/>
			<output>
				<port id="0" precision="FP16"/>
			</output>
		</layer>
		<layer id="90" name="6250625429891" type="Const" version="opset1">
			<data element_type="f16" offset="5590" shape="" size="2"/>
			<output>
				<port id="0" precision="FP16"/>
			</output>
		</layer>
		<layer id="91" name="6897690132831" type="Const" version="opset1">
			<data element_type="f16" offset="2824" shape="" size="2"/>
			<output>
				<port id="0" precision="FP16"/>
			</output>
		</layer>
		<layer id="92" name="6898690229921" type="Const" version="opset1">
			<data element_type="f16" offset="5592" shape="" size="2"/>
			<output>
				<port id="0" precision="FP16"/>
			</output>
		</layer>
		<layer id="93" name="6899690331838" type="Const" version="opset1">
			<data element_type="f16" offset="2824" shape="" size="2"/>
			<output>
				<port id="0" precision="FP16"/>
			</output>
		</layer>
		<layer id="94" name="6900690431058" type="Const" version="opset1">
			<data element_type="f16" offset="5592" shape="" size="2"/>
			<output>
				<port id="0" precision="FP16"/>
			</output>
		</layer>
		<layer id="95" name="7247725130917" type="Const" version="opset1">
			<data element_type="f16" offset="2824" shape="" size="2"/>
			<output>
				<port id="0" precision="FP16"/>
			</output>
		</layer>
		<layer id="96" name="7248725231445" type="Const" version="opset1">
			<data element_type="f16" offset="5594" shape="" size="2"/>
			<output>
				<port id="0" precision="FP16"/>
			</output>
		</layer>
		<layer id="97" name="7249725329159" type="Const" version="opset1">
			<data element_type="f16" offset="2824" shape="" size="2"/>
			<output>
				<port id="0" precision="FP16"/>
			</output>
		</layer>
		<layer id="98" name="7250725433389" type="Const" version="opset1">
			<data element_type="f16" offset="5594" shape="" size="2"/>
			<output>
				<port id="0" precision="FP16"/>
			</output>
		</layer>
		<layer id="99" name="4527453128616" type="Const" version="opset1">
			<data element_type="f16" offset="2824" shape="" size="2"/>
			<output>
				<port id="0" precision="FP16"/>
			</output>
		</layer>
		<layer id="100" name="4528453233686" type="Const" version="opset1">
			<data element_type="f16" offset="5596" shape="" size="2"/>
			<output>
				<port id="0" precision="FP16"/>
			</output>
		</layer>
		<layer id="101" name="4529453330626" type="Const" version="opset1">
			<data element_type="f16" offset="2824" shape="" size="2"/>
			<output>
				<port id="0" precision="FP16"/>
			</output>
		</layer>
		<layer id="102" name="4530453432753" type="Const" version="opset1">
			<data element_type="f16" offset="5596" shape="" size="2"/>
			<output>
				<port id="0" precision="FP16"/>
			</output>
		</layer>
		<layer id="103" name="data_add_2220122206199432639" type="Const" version="opset1">
			<data element_type="f16" offset="5598" shape="1,96,1,1" size="192"/>
			<output>
				<port id="0" precision="FP16">
					<dim>1</dim>
					<dim>96</dim>
					<dim>1</dim>
					<dim>1</dim>
				</port>
			</output>
		</layer>
		<layer id="104" name="7457746131787" type="Const" version="opset1">
			<data element_type="f16" offset="5790" shape="1,96,1,1" size="192"/>
			<output>
				<port id="0" precision="FP16">
					<dim>1</dim>
					<dim>96</dim>
					<dim>1</dim>
					<dim>1</dim>
				</port>
			</output>
		</layer>
		<layer id="105" name="7458746230515" type="Const" version="opset1">
			<data element_type="f16" offset="5982" shape="1,96,1,1" size="192"/>
			<output>
				<port id="0" precision="FP16">
					<dim>1</dim>
					<dim>96</dim>
					<dim>1</dim>
					<dim>1</dim>
				</port>
			</output>
		</layer>
		<layer id="106" name="7459746330902" type="Const" version="opset1">
			<data element_type="f16" offset="5790" shape="1,96,1,1" size="192"/>
			<output>
				<port id="0" precision="FP16">
					<dim>1</dim>
					<dim>96</dim>
					<dim>1</dim>
					<dim>1</dim>
				</port>
			</output>
		</layer>
		<layer id="107" name="7460746430863" type="Const" version="opset1">
			<data element_type="f16" offset="5982" shape="1,96,1,1" size="192"/>
			<output>
				<port id="0" precision="FP16">
					<dim>1</dim>
					<dim>96</dim>
					<dim>1</dim>
					<dim>1</dim>
				</port>
			</output>
		</layer>
		<layer id="108" name="3032303430128" type="Const" version="opset1">
			<data element_type="f16" offset="4426" shape="1,96,1,1" size="192"/>
			<output>
				<port id="0" precision="FP16">
					<dim>1</dim>
					<dim>96</dim>
					<dim>1</dim>
					<dim>1</dim>
				</port>
			</output>
		</layer>
		<layer id="109" name="7797780132888" type="Const" version="opset1">
			<data element_type="f16" offset="2824" shape="" size="2"/>
			<output>
				<port id="0" precision="FP16"/>
			</output>
		</layer>
		<layer id="110" name="7798780231763" type="Const" version="opset1">
			<data element_type="f16" offset="6174" shape="" size="2"/>
			<output>
				<port id="0" precision="FP16"/>
			</output>
		</layer>
		<layer id="111" name="7799780328355" type="Const" version="opset1">
			<data element_type="f16" offset="2824" shape="" size="2"/>
			<output>
				<port id="0" precision="FP16"/>
			</output>
		</layer>
		<layer id="112" name="7800780430944" type="Const" version="opset1">
			<data element_type="f16" offset="6174" shape="" size="2"/>
			<output>
				<port id="0" precision="FP16"/>
			</output>
		</layer>
		<layer id="113" name="data_add_2212122126199633263" type="Const" version="opset1">
			<data element_type="f16" offset="6176" shape="1,96,1,1" size="192"/>
			<output>
				<port id="0" precision="FP16">
					<dim>1</dim>
					<dim>96</dim>
					<dim>1</dim>
					<dim>1</dim>
				</port>
			</output>
		</layer>
		<layer id="114" name="5477548129225" type="Const" version="opset1">
			<data element_type="f16" offset="2824" shape="" size="2"/>
			<output>
				<port id="0" precision="FP16"/>
			</output>
		</layer>
		<layer id="115" name="5478548230527" type="Const" version="opset1">
			<data element_type="f16" offset="6368" shape="" size="2"/>
			<output>
				<port id="0" precision="FP16"/>
			</output>
		</layer>
		<layer id="116" name="5479548333158" type="Const" version="opset1">
			<data element_type="f16" offset="2824" shape="" size="2"/>
			<output>
				<port id="0" precision="FP16"/>
			</output>
		</layer>
		<layer id="117" name="5480548433569" type="Const" version="opset1">
			<data element_type="f16" offset="6368" shape="" size="2"/>
			<output>
				<port id="0" precision="FP16"/>
			</output>
		</layer>
		<layer id="118" name="5037504128868" type="Const" version="opset1">
			<data element_type="f16" offset="2824" shape="" size="2"/>
			<output>
				<port id="0" precision="FP16"/>
			</output>
		</layer>
		<layer id="119" name="5038504230437" type="Const" version="opset1">
			<data element_type="f16" offset="6370" shape="" size="2"/>
			<output>
				<port id="0" precision="FP16"/>
			</output>
		</layer>
		<layer id="120" name="5039504328670" type="Const" version="opset1">
			<data element_type="f16" offset="2824" shape="" size="2"/>
			<output>
				<port id="0" precision="FP16"/>
			</output>
		</layer>
		<layer id="121" name="5040504431223" type="Const" version="opset1">
			<data element_type="f16" offset="6370" shape="" size="2"/>
			<output>
				<port id="0" precision="FP16"/>
			</output>
		</layer>
		<layer id="122" name="data_add_2210522110120429138" type="Const" version="opset1">
			<data element_type="f16" offset="6372" shape="1,288,1,1" size="576"/>
			<output>
				<port id="0" precision="FP16">
					<dim>1</dim>
					<dim>288</dim>
					<dim>1</dim>
					<dim>1</dim>
				</port>
			</output>
		</layer>
		<layer id="123" name="6307631131280" type="Const" version="opset1">
			<data element_type="f16" offset="2824" shape="" size="2"/>
			<output>
				<port id="0" precision="FP16"/>
			</output>
		</layer>
		<layer id="124" name="6308631233317" type="Const" version="opset1">
			<data element_type="f16" offset="6948" shape="" size="2"/>
			<output>
				<port id="0" precision="FP16"/>
			</output>
		</layer>
		<layer id="125" name="6309631332786" type="Const" version="opset1">
			<data element_type="f16" offset="2824" shape="" size="2"/>
			<output>
				<port id="0" precision="FP16"/>
			</output>
		</layer>
		<layer id="126" name="6310631433176" type="Const" version="opset1">
			<data element_type="f16" offset="6948" shape="" size="2"/>
			<output>
				<port id="0" precision="FP16"/>
			</output>
		</layer>
		<layer id="127" name="7307731132918" type="Const" version="opset1">
			<data element_type="f16" offset="6950" shape="" size="2"/>
			<output>
				<port id="0" precision="FP16"/>
			</output>
		</layer>
		<layer id="128" name="7308731229522" type="Const" version="opset1">
			<data element_type="f16" offset="6952" shape="" size="2"/>
			<output>
				<port id="0" precision="FP16"/>
			</output>
		</layer>
		<layer id="129" name="7309731332840" type="Const" version="opset1">
			<data element_type="f16" offset="6950" shape="" size="2"/>
			<output>
				<port id="0" precision="FP16"/>
			</output>
		</layer>
		<layer id="130" name="7310731431523" type="Const" version="opset1">
			<data element_type="f16" offset="6952" shape="" size="2"/>
			<output>
				<port id="0" precision="FP16"/>
			</output>
		</layer>
		<layer id="131" name="data_add_2209722102178130113" type="Const" version="opset1">
			<data element_type="f16" offset="6954" shape="1,288,1,1" size="576"/>
			<output>
				<port id="0" precision="FP16">
					<dim>1</dim>
					<dim>288</dim>
					<dim>1</dim>
					<dim>1</dim>
				</port>
			</output>
		</layer>
		<layer id="132" name="6567657129132" type="Const" version="opset1">
			<data element_type="f16" offset="2824" shape="" size="2"/>
			<output>
				<port id="0" precision="FP16"/>
			</output>
		</layer>
		<layer id="133" name="6568657228370" type="Const" version="opset1">
			<data element_type="f16" offset="7530" shape="" size="2"/>
			<output>
				<port id="0" precision="FP16"/>
			</output>
		</layer>
		<layer id="134" name="6569657332429" type="Const" version="opset1">
			<data element_type="f16" offset="2824" shape="" size="2"/>
			<output>
				<port id="0" precision="FP16"/>
			</output>
		</layer>
		<layer id="135" name="6570657429060" type="Const" version="opset1">
			<data element_type="f16" offset="7530" shape="" size="2"/>
			<output>
				<port id="0" precision="FP16"/>
			</output>
		</layer>
		<layer id="136" name="8317832129450" type="Const" version="opset1">
			<data element_type="f16" offset="2824" shape="" size="2"/>
			<output>
				<port id="0" precision="FP16"/>
			</output>
		</layer>
		<layer id="137" name="8318832228475" type="Const" version="opset1">
			<data element_type="f16" offset="7532" shape="" size="2"/>
			<output>
				<port id="0" precision="FP16"/>
			</output>
		</layer>
		<layer id="138" name="8319832329516" type="Const" version="opset1">
			<data element_type="f16" offset="2824" shape="" size="2"/>
			<output>
				<port id="0" precision="FP16"/>
			</output>
		</layer>
		<layer id="139" name="8320832431616" type="Const" version="opset1">
			<data element_type="f16" offset="7532" shape="" size="2"/>
			<output>
				<port id="0" precision="FP16"/>
			</output>
		</layer>
		<layer id="140" name="6077608132966" type="Const" version="opset1">
			<data element_type="f16" offset="2824" shape="" size="2"/>
			<output>
				<port id="0" precision="FP16"/>
			</output>
		</layer>
		<layer id="141" name="6078608229696" type="Const" version="opset1">
			<data element_type="f16" offset="7534" shape="" size="2"/>
			<output>
				<port id="0" precision="FP16"/>
			</output>
		</layer>
		<layer id="142" name="6079608328454" type="Const" version="opset1">
			<data element_type="f16" offset="2824" shape="" size="2"/>
			<output>
				<port id="0" precision="FP16"/>
			</output>
		</layer>
		<layer id="143" name="6080608431160" type="Const" version="opset1">
			<data element_type="f16" offset="7534" shape="" size="2"/>
			<output>
				<port id="0" precision="FP16"/>
			</output>
		</layer>
		<layer id="144" name="5207521133152" type="Const" version="opset1">
			<data element_type="f16" offset="2824" shape="" size="2"/>
			<output>
				<port id="0" precision="FP16"/>
			</output>
		</layer>
		<layer id="145" name="5208521232474" type="Const" version="opset1">
			<data element_type="f16" offset="7536" shape="" size="2"/>
			<output>
				<port id="0" precision="FP16"/>
			</output>
		</layer>
		<layer id="146" name="5209521333764" type="Const" version="opset1">
			<data element_type="f16" offset="2824" shape="" size="2"/>
			<output>
				<port id="0" precision="FP16"/>
			</output>
		</layer>
		<layer id="147" name="5210521432354" type="Const" version="opset1">
			<data element_type="f16" offset="7536" shape="" size="2"/>
			<output>
				<port id="0" precision="FP16"/>
			</output>
		</layer>
		<layer id="148" name="7177718132159" type="Const" version="opset1">
			<data element_type="f16" offset="2824" shape="" size="2"/>
			<output>
				<port id="0" precision="FP16"/>
			</output>
		</layer>
		<layer id="149" name="7178718233731" type="Const" version="opset1">
			<data element_type="f16" offset="7538" shape="" size="2"/>
			<output>
				<port id="0" precision="FP16"/>
			</output>
		</layer>
		<layer id="150" name="7179718331748" type="Const" version="opset1">
			<data element_type="f16" offset="2824" shape="" size="2"/>
			<output>
				<port id="0" precision="FP16"/>
			</output>
		</layer>
		<layer id="151" name="7180718432612" type="Const" version="opset1">
			<data element_type="f16" offset="7538" shape="" size="2"/>
			<output>
				<port id="0" precision="FP16"/>
			</output>
		</layer>
		<layer id="152" name="882/Unsqueeze181832681" type="Const" version="opset1">
			<data element_type="f16" offset="7540" shape="1,72,1,1" size="144"/>
			<output>
				<port id="0" names="882" precision="FP16">
					<dim>1</dim>
					<dim>72</dim>
					<dim>1</dim>
					<dim>1</dim>
				</port>
			</output>
		</layer>
		<layer id="153" name="109381094231607" type="Const" version="opset1">
			<data element_type="f16" offset="7684" shape="" size="2"/>
			<output>
				<port id="0" precision="FP16"/>
			</output>
		</layer>
		<layer id="154" name="109391094330803" type="Const" version="opset1">
			<data element_type="f16" offset="7686" shape="" size="2"/>
			<output>
				<port id="0" precision="FP16"/>
			</output>
		</layer>
		<layer id="155" name="109401094428514" type="Const" version="opset1">
			<data element_type="f16" offset="7684" shape="" size="2"/>
			<output>
				<port id="0" precision="FP16"/>
			</output>
		</layer>
		<layer id="156" name="109411094528586" type="Const" version="opset1">
			<data element_type="f16" offset="7686" shape="" size="2"/>
			<output>
				<port id="0" precision="FP16"/>
			</output>
		</layer>
		<layer id="157" name="879/Range_input_port_0/value180429003" type="Const" version="opset1">
			<data element_type="i64" offset="3806" shape="" size="8"/>
			<output>
				<port id="0" precision="I64"/>
			</output>
		</layer>
		<layer id="158" name="879/Range_input_port_2/value180532459" type="Const" version="opset1">
			<data element_type="i64" offset="3814" shape="" size="8"/>
			<output>
				<port id="0" precision="I64"/>
			</output>
		</layer>
		<layer id="159" name="875180230881" type="Const" version="opset1">
			<data element_type="i64" offset="7688" shape="3" size="24"/>
			<output>
				<port id="0" names="875" precision="I64">
					<dim>3</dim>
				</port>
			</output>
		</layer>
		<layer id="160" name="109281093233680" type="Const" version="opset1">
			<data element_type="f16" offset="2824" shape="" size="2"/>
			<output>
				<port id="0" precision="FP16"/>
			</output>
		</layer>
		<layer id="161" name="109291093333611" type="Const" version="opset1">
			<data element_type="f16" offset="7712" shape="" size="2"/>
			<output>
				<port id="0" precision="FP16"/>
			</output>
		</layer>
		<layer id="162" name="109301093431628" type="Const" version="opset1">
			<data element_type="f16" offset="2824" shape="" size="2"/>
			<output>
				<port id="0" precision="FP16"/>
			</output>
		</layer>
		<layer id="163" name="109311093533089" type="Const" version="opset1">
			<data element_type="f16" offset="7712" shape="" size="2"/>
			<output>
				<port id="0" precision="FP16"/>
			</output>
		</layer>
		<layer id="164" name="5657566129579" type="Const" version="opset1">
			<data element_type="f16" offset="2824" shape="" size="2"/>
			<output>
				<port id="0" precision="FP16"/>
			</output>
		</layer>
		<layer id="165" name="5658566231082" type="Const" version="opset1">
			<data element_type="f16" offset="7714" shape="" size="2"/>
			<output>
				<port id="0" precision="FP16"/>
			</output>
		</layer>
		<layer id="166" name="5659566332528" type="Const" version="opset1">
			<data element_type="f16" offset="2824" shape="" size="2"/>
			<output>
				<port id="0" precision="FP16"/>
			</output>
		</layer>
		<layer id="167" name="5660566428808" type="Const" version="opset1">
			<data element_type="f16" offset="7714" shape="" size="2"/>
			<output>
				<port id="0" precision="FP16"/>
			</output>
		</layer>
		<layer id="168" name="data_add_2208922094178229144" type="Const" version="opset1">
			<data element_type="f16" offset="7716" shape="1,72,1,1" size="144"/>
			<output>
				<port id="0" precision="FP16">
					<dim>1</dim>
					<dim>72</dim>
					<dim>1</dim>
					<dim>1</dim>
				</port>
			</output>
		</layer>
		<layer id="169" name="6817682131466" type="Const" version="opset1">
			<data element_type="f16" offset="7860" shape="1,72,1,1" size="144"/>
			<output>
				<port id="0" precision="FP16">
					<dim>1</dim>
					<dim>72</dim>
					<dim>1</dim>
					<dim>1</dim>
				</port>
			</output>
		</layer>
		<layer id="170" name="6818682231301" type="Const" version="opset1">
			<data element_type="f16" offset="8004" shape="1,72,1,1" size="144"/>
			<output>
				<port id="0" precision="FP16">
					<dim>1</dim>
					<dim>72</dim>
					<dim>1</dim>
					<dim>1</dim>
				</port>
			</output>
		</layer>
		<layer id="171" name="6819682333371" type="Const" version="opset1">
			<data element_type="f16" offset="7860" shape="1,72,1,1" size="144"/>
			<output>
				<port id="0" precision="FP16">
					<dim>1</dim>
					<dim>72</dim>
					<dim>1</dim>
					<dim>1</dim>
				</port>
			</output>
		</layer>
		<layer id="172" name="6820682430668" type="Const" version="opset1">
			<data element_type="f16" offset="8004" shape="1,72,1,1" size="144"/>
			<output>
				<port id="0" precision="FP16">
					<dim>1</dim>
					<dim>72</dim>
					<dim>1</dim>
					<dim>1</dim>
				</port>
			</output>
		</layer>
		<layer id="173" name="2992299431856" type="Const" version="opset1">
			<data element_type="f16" offset="8148" shape="1,72,1,1" size="144"/>
			<output>
				<port id="0" precision="FP16">
					<dim>1</dim>
					<dim>72</dim>
					<dim>1</dim>
					<dim>1</dim>
				</port>
			</output>
		</layer>
		<layer id="174" name="6357636128883" type="Const" version="opset1">
			<data element_type="f16" offset="2824" shape="" size="2"/>
			<output>
				<port id="0" precision="FP16"/>
			</output>
		</layer>
		<layer id="175" name="6358636231574" type="Const" version="opset1">
			<data element_type="f16" offset="8292" shape="" size="2"/>
			<output>
				<port id="0" precision="FP16"/>
			</output>
		</layer>
		<layer id="176" name="6359636331718" type="Const" version="opset1">
			<data element_type="f16" offset="2824" shape="" size="2"/>
			<output>
				<port id="0" precision="FP16"/>
			</output>
		</layer>
		<layer id="177" name="6360636429621" type="Const" version="opset1">
			<data element_type="f16" offset="8292" shape="" size="2"/>
			<output>
				<port id="0" precision="FP16"/>
			</output>
		</layer>
		<layer id="178" name="data_add_2200922014178430290" type="Const" version="opset1">
			<data element_type="f16" offset="8294" shape="1,72,1,1" size="144"/>
			<output>
				<port id="0" precision="FP16">
					<dim>1</dim>
					<dim>72</dim>
					<dim>1</dim>
					<dim>1</dim>
				</port>
			</output>
		</layer>
		<layer id="179" name="8427843132912" type="Const" version="opset1">
			<data element_type="f16" offset="2824" shape="" size="2"/>
			<output>
				<port id="0" precision="FP16"/>
			</output>
		</layer>
		<layer id="180" name="8428843230485" type="Const" version="opset1">
			<data element_type="f16" offset="8438" shape="" size="2"/>
			<output>
				<port id="0" precision="FP16"/>
			</output>
		</layer>
		<layer id="181" name="8429843332879" type="Const" version="opset1">
			<data element_type="f16" offset="2824" shape="" size="2"/>
			<output>
				<port id="0" precision="FP16"/>
			</output>
		</layer>
		<layer id="182" name="8430843429135" type="Const" version="opset1">
			<data element_type="f16" offset="8438" shape="" size="2"/>
			<output>
				<port id="0" precision="FP16"/>
			</output>
		</layer>
		<layer id="183" name="6457646132555" type="Const" version="opset1">
			<data element_type="f16" offset="8440" shape="" size="2"/>
			<output>
				<port id="0" precision="FP16"/>
			</output>
		</layer>
		<layer id="184" name="6458646228862" type="Const" version="opset1">
			<data element_type="f16" offset="8442" shape="" size="2"/>
			<output>
				<port id="0" precision="FP16"/>
			</output>
		</layer>
		<layer id="185" name="6459646329369" type="Const" version="opset1">
			<data element_type="f16" offset="8440" shape="" size="2"/>
			<output>
				<port id="0" precision="FP16"/>
			</output>
		</layer>
		<layer id="186" name="6460646429111" type="Const" version="opset1">
			<data element_type="f16" offset="8442" shape="" size="2"/>
			<output>
				<port id="0" precision="FP16"/>
			</output>
		</layer>
		<layer id="187" name="data_add_2200122006162129594" type="Const" version="opset1">
			<data element_type="f16" offset="8444" shape="1,288,1,1" size="576"/>
			<output>
				<port id="0" precision="FP16">
					<dim>1</dim>
					<dim>288</dim>
					<dim>1</dim>
					<dim>1</dim>
				</port>
			</output>
		</layer>
		<layer id="188" name="7757776129708" type="Const" version="opset1">
			<data element_type="f16" offset="2824" shape="" size="2"/>
			<output>
				<port id="0" precision="FP16"/>
			</output>
		</layer>
		<layer id="189" name="7758776229930" type="Const" version="opset1">
			<data element_type="f16" offset="9020" shape="" size="2"/>
			<output>
				<port id="0" precision="FP16"/>
			</output>
		</layer>
		<layer id="190" name="7759776331733" type="Const" version="opset1">
			<data element_type="f16" offset="2824" shape="" size="2"/>
			<output>
				<port id="0" precision="FP16"/>
			</output>
		</layer>
		<layer id="191" name="7760776433392" type="Const" version="opset1">
			<data element_type="f16" offset="9020" shape="" size="2"/>
			<output>
				<port id="0" precision="FP16"/>
			</output>
		</layer>
		<layer id="192" name="7107711131676" type="Const" version="opset1">
			<data element_type="f16" offset="2824" shape="" size="2"/>
			<output>
				<port id="0" precision="FP16"/>
			</output>
		</layer>
		<layer id="193" name="7108711230146" type="Const" version="opset1">
			<data element_type="f16" offset="9022" shape="" size="2"/>
			<output>
				<port id="0" precision="FP16"/>
			</output>
		</layer>
		<layer id="194" name="7109711331406" type="Const" version="opset1">
			<data element_type="f16" offset="2824" shape="" size="2"/>
			<output>
				<port id="0" precision="FP16"/>
			</output>
		</layer>
		<layer id="195" name="7110711431484" type="Const" version="opset1">
			<data element_type="f16" offset="9022" shape="" size="2"/>
			<output>
				<port id="0" precision="FP16"/>
			</output>
		</layer>
		<layer id="196" name="5667567129873" type="Const" version="opset1">
			<data element_type="f16" offset="2824" shape="" size="2"/>
			<output>
				<port id="0" precision="FP16"/>
			</output>
		</layer>
		<layer id="197" name="5668567228301" type="Const" version="opset1">
			<data element_type="f16" offset="9024" shape="" size="2"/>
			<output>
				<port id="0" precision="FP16"/>
			</output>
		</layer>
		<layer id="198" name="5669567329381" type="Const" version="opset1">
			<data element_type="f16" offset="2824" shape="" size="2"/>
			<output>
				<port id="0" precision="FP16"/>
			</output>
		</layer>
		<layer id="199" name="5670567431757" type="Const" version="opset1">
			<data element_type="f16" offset="9024" shape="" size="2"/>
			<output>
				<port id="0" precision="FP16"/>
			</output>
		</layer>
		<layer id="200" name="8457846132690" type="Const" version="opset1">
			<data element_type="f16" offset="2824" shape="" size="2"/>
			<output>
				<port id="0" precision="FP16"/>
			</output>
		</layer>
		<layer id="201" name="8458846230815" type="Const" version="opset1">
			<data element_type="f16" offset="9026" shape="" size="2"/>
			<output>
				<port id="0" precision="FP16"/>
			</output>
		</layer>
		<layer id="202" name="8459846333095" type="Const" version="opset1">
			<data element_type="f16" offset="2824" shape="" size="2"/>
			<output>
				<port id="0" precision="FP16"/>
			</output>
		</layer>
		<layer id="203" name="8460846431868" type="Const" version="opset1">
			<data element_type="f16" offset="9026" shape="" size="2"/>
			<output>
				<port id="0" precision="FP16"/>
			</output>
		</layer>
		<layer id="204" name="6037604131034" type="Const" version="opset1">
			<data element_type="f16" offset="2824" shape="" size="2"/>
			<output>
				<port id="0" precision="FP16"/>
			</output>
		</layer>
		<layer id="205" name="6038604233206" type="Const" version="opset1">
			<data element_type="f16" offset="9028" shape="" size="2"/>
			<output>
				<port id="0" precision="FP16"/>
			</output>
		</layer>
		<layer id="206" name="6039604332471" type="Const" version="opset1">
			<data element_type="f16" offset="2824" shape="" size="2"/>
			<output>
				<port id="0" precision="FP16"/>
			</output>
		</layer>
		<layer id="207" name="6040604429537" type="Const" version="opset1">
			<data element_type="f16" offset="9028" shape="" size="2"/>
			<output>
				<port id="0" precision="FP16"/>
			</output>
		</layer>
		<layer id="208" name="4577458129972" type="Const" version="opset1">
			<data element_type="f16" offset="2824" shape="" size="2"/>
			<output>
				<port id="0" precision="FP16"/>
			</output>
		</layer>
		<layer id="209" name="4578458233452" type="Const" version="opset1">
			<data element_type="f16" offset="9030" shape="" size="2"/>
			<output>
				<port id="0" precision="FP16"/>
			</output>
		</layer>
		<layer id="210" name="4579458332198" type="Const" version="opset1">
			<data element_type="f16" offset="2824" shape="" size="2"/>
			<output>
				<port id="0" precision="FP16"/>
			</output>
		</layer>
		<layer id="211" name="4580458433779" type="Const" version="opset1">
			<data element_type="f16" offset="9030" shape="" size="2"/>
			<output>
				<port id="0" precision="FP16"/>
			</output>
		</layer>
		<layer id="212" name="data_add_2199321998162230005" type="Const" version="opset1">
			<data element_type="f16" offset="9032" shape="1,72,1,1" size="144"/>
			<output>
				<port id="0" precision="FP16">
					<dim>1</dim>
					<dim>72</dim>
					<dim>1</dim>
					<dim>1</dim>
				</port>
			</output>
		</layer>
		<layer id="213" name="5897590130920" type="Const" version="opset1">
			<data element_type="f16" offset="9176" shape="1,72,1,1" size="144"/>
			<output>
				<port id="0" precision="FP16">
					<dim>1</dim>
					<dim>72</dim>
					<dim>1</dim>
					<dim>1</dim>
				</port>
			</output>
		</layer>
		<layer id="214" name="5898590229582" type="Const" version="opset1">
			<data element_type="f16" offset="9320" shape="1,72,1,1" size="144"/>
			<output>
				<port id="0" precision="FP16">
					<dim>1</dim>
					<dim>72</dim>
					<dim>1</dim>
					<dim>1</dim>
				</port>
			</output>
		</layer>
		<layer id="215" name="5899590332642" type="Const" version="opset1">
			<data element_type="f16" offset="9176" shape="1,72,1,1" size="144"/>
			<output>
				<port id="0" precision="FP16">
					<dim>1</dim>
					<dim>72</dim>
					<dim>1</dim>
					<dim>1</dim>
				</port>
			</output>
		</layer>
		<layer id="216" name="5900590432798" type="Const" version="opset1">
			<data element_type="f16" offset="9320" shape="1,72,1,1" size="144"/>
			<output>
				<port id="0" precision="FP16">
					<dim>1</dim>
					<dim>72</dim>
					<dim>1</dim>
					<dim>1</dim>
				</port>
			</output>
		</layer>
		<layer id="217" name="2952295433110" type="Const" version="opset1">
			<data element_type="f16" offset="8148" shape="1,72,1,1" size="144"/>
			<output>
				<port id="0" precision="FP16">
					<dim>1</dim>
					<dim>72</dim>
					<dim>1</dim>
					<dim>1</dim>
				</port>
			</output>
		</layer>
		<layer id="218" name="6697670130413" type="Const" version="opset1">
			<data element_type="f16" offset="2824" shape="" size="2"/>
			<output>
				<port id="0" precision="FP16"/>
			</output>
		</layer>
		<layer id="219" name="6698670231061" type="Const" version="opset1">
			<data element_type="f16" offset="9464" shape="" size="2"/>
			<output>
				<port id="0" precision="FP16"/>
			</output>
		</layer>
		<layer id="220" name="6699670331694" type="Const" version="opset1">
			<data element_type="f16" offset="2824" shape="" size="2"/>
			<output>
				<port id="0" precision="FP16"/>
			</output>
		</layer>
		<layer id="221" name="6700670429204" type="Const" version="opset1">
			<data element_type="f16" offset="9464" shape="" size="2"/>
			<output>
				<port id="0" precision="FP16"/>
			</output>
		</layer>
		<layer id="222" name="data_add_2191321918162430875" type="Const" version="opset1">
			<data element_type="f16" offset="9466" shape="1,72,1,1" size="144"/>
			<output>
				<port id="0" precision="FP16">
					<dim>1</dim>
					<dim>72</dim>
					<dim>1</dim>
					<dim>1</dim>
				</port>
			</output>
		</layer>
		<layer id="223" name="7997800130083" type="Const" version="opset1">
			<data element_type="f16" offset="2824" shape="" size="2"/>
			<output>
				<port id="0" precision="FP16"/>
			</output>
		</layer>
		<layer id="224" name="7998800231775" type="Const" version="opset1">
			<data element_type="f16" offset="9610" shape="" size="2"/>
			<output>
				<port id="0" precision="FP16"/>
			</output>
		</layer>
		<layer id="225" name="7999800330167" type="Const" version="opset1">
			<data element_type="f16" offset="2824" shape="" size="2"/>
			<output>
				<port id="0" precision="FP16"/>
			</output>
		</layer>
		<layer id="226" name="8000800432552" type="Const" version="opset1">
			<data element_type="f16" offset="9610" shape="" size="2"/>
			<output>
				<port id="0" precision="FP16"/>
			</output>
		</layer>
		<layer id="227" name="7227723132315" type="Const" version="opset1">
			<data element_type="f16" offset="2824" shape="" size="2"/>
			<output>
				<port id="0" precision="FP16"/>
			</output>
		</layer>
		<layer id="228" name="7228723228403" type="Const" version="opset1">
			<data element_type="f16" offset="9612" shape="" size="2"/>
			<output>
				<port id="0" precision="FP16"/>
			</output>
		</layer>
		<layer id="229" name="7229723333512" type="Const" version="opset1">
			<data element_type="f16" offset="2824" shape="" size="2"/>
			<output>
				<port id="0" precision="FP16"/>
			</output>
		</layer>
		<layer id="230" name="7230723428757" type="Const" version="opset1">
			<data element_type="f16" offset="9612" shape="" size="2"/>
			<output>
				<port id="0" precision="FP16"/>
			</output>
		</layer>
		<layer id="231" name="data_add_2189721902120631997" type="Const" version="opset1">
			<data element_type="f16" offset="9614" shape="1,192,1,1" size="384"/>
			<output>
				<port id="0" precision="FP16">
					<dim>1</dim>
					<dim>192</dim>
					<dim>1</dim>
					<dim>1</dim>
				</port>
			</output>
		</layer>
		<layer id="232" name="6857686130410" type="Const" version="opset1">
			<data element_type="f16" offset="2824" shape="" size="2"/>
			<output>
				<port id="0" precision="FP16"/>
			</output>
		</layer>
		<layer id="233" name="6858686232819" type="Const" version="opset1">
			<data element_type="f16" offset="9998" shape="" size="2"/>
			<output>
				<port id="0" precision="FP16"/>
			</output>
		</layer>
		<layer id="234" name="6859686331154" type="Const" version="opset1">
			<data element_type="f16" offset="2824" shape="" size="2"/>
			<output>
				<port id="0" precision="FP16"/>
			</output>
		</layer>
		<layer id="235" name="6860686431991" type="Const" version="opset1">
			<data element_type="f16" offset="9998" shape="" size="2"/>
			<output>
				<port id="0" precision="FP16"/>
			</output>
		</layer>
		<layer id="236" name="5967597129417" type="Const" version="opset1">
			<data element_type="f16" offset="10000" shape="" size="2"/>
			<output>
				<port id="0" precision="FP16"/>
			</output>
		</layer>
		<layer id="237" name="5968597232567" type="Const" version="opset1">
			<data element_type="f16" offset="10002" shape="" size="2"/>
			<output>
				<port id="0" precision="FP16"/>
			</output>
		</layer>
		<layer id="238" name="5969597331325" type="Const" version="opset1">
			<data element_type="f16" offset="10000" shape="" size="2"/>
			<output>
				<port id="0" precision="FP16"/>
			</output>
		</layer>
		<layer id="239" name="5970597433587" type="Const" version="opset1">
			<data element_type="f16" offset="10002" shape="" size="2"/>
			<output>
				<port id="0" precision="FP16"/>
			</output>
		</layer>
		<layer id="240" name="data_add_2188921894140929630" type="Const" version="opset1">
			<data element_type="f16" offset="10004" shape="1,192,1,1" size="384"/>
			<output>
				<port id="0" precision="FP16">
					<dim>1</dim>
					<dim>192</dim>
					<dim>1</dim>
					<dim>1</dim>
				</port>
			</output>
		</layer>
		<layer id="241" name="4827483129807" type="Const" version="opset1">
			<data element_type="f16" offset="2824" shape="" size="2"/>
			<output>
				<port id="0" precision="FP16"/>
			</output>
		</layer>
		<layer id="242" name="4828483233524" type="Const" version="opset1">
			<data element_type="f16" offset="10388" shape="" size="2"/>
			<output>
				<port id="0" precision="FP16"/>
			</output>
		</layer>
		<layer id="243" name="4829483332924" type="Const" version="opset1">
			<data element_type="f16" offset="2824" shape="" size="2"/>
			<output>
				<port id="0" precision="FP16"/>
			</output>
		</layer>
		<layer id="244" name="4830483431925" type="Const" version="opset1">
			<data element_type="f16" offset="10388" shape="" size="2"/>
			<output>
				<port id="0" precision="FP16"/>
			</output>
		</layer>
		<layer id="245" name="5947595129774" type="Const" version="opset1">
			<data element_type="f16" offset="2824" shape="" size="2"/>
			<output>
				<port id="0" precision="FP16"/>
			</output>
		</layer>
		<layer id="246" name="5948595231247" type="Const" version="opset1">
			<data element_type="f16" offset="10390" shape="" size="2"/>
			<output>
				<port id="0" precision="FP16"/>
			</output>
		</layer>
		<layer id="247" name="5949595330722" type="Const" version="opset1">
			<data element_type="f16" offset="2824" shape="" size="2"/>
			<output>
				<port id="0" precision="FP16"/>
			</output>
		</layer>
		<layer id="248" name="5950595428799" type="Const" version="opset1">
			<data element_type="f16" offset="10390" shape="" size="2"/>
			<output>
				<port id="0" precision="FP16"/>
			</output>
		</layer>
		<layer id="249" name="7047705130767" type="Const" version="opset1">
			<data element_type="f16" offset="2824" shape="" size="2"/>
			<output>
				<port id="0" precision="FP16"/>
			</output>
		</layer>
		<layer id="250" name="7048705229354" type="Const" version="opset1">
			<data element_type="f16" offset="10392" shape="" size="2"/>
			<output>
				<port id="0" precision="FP16"/>
			</output>
		</layer>
		<layer id="251" name="7049705328304" type="Const" version="opset1">
			<data element_type="f16" offset="2824" shape="" size="2"/>
			<output>
				<port id="0" precision="FP16"/>
			</output>
		</layer>
		<layer id="252" name="7050705430623" type="Const" version="opset1">
			<data element_type="f16" offset="10392" shape="" size="2"/>
			<output>
				<port id="0" precision="FP16"/>
			</output>
		</layer>
		<layer id="253" name="6837684132498" type="Const" version="opset1">
			<data element_type="f16" offset="2824" shape="" size="2"/>
			<output>
				<port id="0" precision="FP16"/>
			</output>
		</layer>
		<layer id="254" name="6838684229552" type="Const" version="opset1">
			<data element_type="f16" offset="10394" shape="" size="2"/>
			<output>
				<port id="0" precision="FP16"/>
			</output>
		</layer>
		<layer id="255" name="6839684329252" type="Const" version="opset1">
			<data element_type="f16" offset="2824" shape="" size="2"/>
			<output>
				<port id="0" precision="FP16"/>
			</output>
		</layer>
		<layer id="256" name="6840684430977" type="Const" version="opset1">
			<data element_type="f16" offset="10394" shape="" size="2"/>
			<output>
				<port id="0" precision="FP16"/>
			</output>
		</layer>
		<layer id="257" name="7977798133641" type="Const" version="opset1">
			<data element_type="f16" offset="2824" shape="" size="2"/>
			<output>
				<port id="0" precision="FP16"/>
			</output>
		</layer>
		<layer id="258" name="7978798230383" type="Const" version="opset1">
			<data element_type="f16" offset="10396" shape="" size="2"/>
			<output>
				<port id="0" precision="FP16"/>
			</output>
		</layer>
		<layer id="259" name="7979798330464" type="Const" version="opset1">
			<data element_type="f16" offset="2824" shape="" size="2"/>
			<output>
				<port id="0" precision="FP16"/>
			</output>
		</layer>
		<layer id="260" name="7980798431340" type="Const" version="opset1">
			<data element_type="f16" offset="10396" shape="" size="2"/>
			<output>
				<port id="0" precision="FP16"/>
			</output>
		</layer>
		<layer id="261" name="695/Unsqueeze144628544" type="Const" version="opset1">
			<data element_type="f16" offset="10398" shape="1,48,1,1" size="96"/>
			<output>
				<port id="0" names="695" precision="FP16">
					<dim>1</dim>
					<dim>48</dim>
					<dim>1</dim>
					<dim>1</dim>
				</port>
			</output>
		</layer>
		<layer id="262" name="108581086232576" type="Const" version="opset1">
			<data element_type="f16" offset="10494" shape="" size="2"/>
			<output>
				<port id="0" precision="FP16"/>
			</output>
		</layer>
		<layer id="263" name="108591086333218" type="Const" version="opset1">
			<data element_type="f16" offset="10496" shape="" size="2"/>
			<output>
				<port id="0" precision="FP16"/>
			</output>
		</layer>
		<layer id="264" name="108601086431271" type="Const" version="opset1">
			<data element_type="f16" offset="10494" shape="" size="2"/>
			<output>
				<port id="0" precision="FP16"/>
			</output>
		</layer>
		<layer id="265" name="108611086531562" type="Const" version="opset1">
			<data element_type="f16" offset="10496" shape="" size="2"/>
			<output>
				<port id="0" precision="FP16"/>
			</output>
		</layer>
		<layer id="266" name="692/Range_input_port_0/value143231307" type="Const" version="opset1">
			<data element_type="i64" offset="3806" shape="" size="8"/>
			<output>
				<port id="0" precision="I64"/>
			</output>
		</layer>
		<layer id="267" name="692/Range_input_port_2/value143332453" type="Const" version="opset1">
			<data element_type="i64" offset="3814" shape="" size="8"/>
			<output>
				<port id="0" precision="I64"/>
			</output>
		</layer>
		<layer id="268" name="688143030923" type="Const" version="opset1">
			<data element_type="i64" offset="3822" shape="3" size="24"/>
			<output>
				<port id="0" names="688" precision="I64">
					<dim>3</dim>
				</port>
			</output>
		</layer>
		<layer id="269" name="108481085230089" type="Const" version="opset1">
			<data element_type="f16" offset="2824" shape="" size="2"/>
			<output>
				<port id="0" precision="FP16"/>
			</output>
		</layer>
		<layer id="270" name="108491085331865" type="Const" version="opset1">
			<data element_type="f16" offset="10498" shape="" size="2"/>
			<output>
				<port id="0" precision="FP16"/>
			</output>
		</layer>
		<layer id="271" name="108501085433443" type="Const" version="opset1">
			<data element_type="f16" offset="2824" shape="" size="2"/>
			<output>
				<port id="0" precision="FP16"/>
			</output>
		</layer>
		<layer id="272" name="108511085530992" type="Const" version="opset1">
			<data element_type="f16" offset="10498" shape="" size="2"/>
			<output>
				<port id="0" precision="FP16"/>
			</output>
		</layer>
		<layer id="273" name="6277628131121" type="Const" version="opset1">
			<data element_type="f16" offset="2824" shape="" size="2"/>
			<output>
				<port id="0" precision="FP16"/>
			</output>
		</layer>
		<layer id="274" name="6278628232783" type="Const" version="opset1">
			<data element_type="f16" offset="10500" shape="" size="2"/>
			<output>
				<port id="0" precision="FP16"/>
			</output>
		</layer>
		<layer id="275" name="6279628331973" type="Const" version="opset1">
			<data element_type="f16" offset="2824" shape="" size="2"/>
			<output>
				<port id="0" precision="FP16"/>
			</output>
		</layer>
		<layer id="276" name="6280628428931" type="Const" version="opset1">
			<data element_type="f16" offset="10500" shape="" size="2"/>
			<output>
				<port id="0" precision="FP16"/>
			</output>
		</layer>
		<layer id="277" name="data_add_2188121886141029348" type="Const" version="opset1">
			<data element_type="f16" offset="10502" shape="1,48,1,1" size="96"/>
			<output>
				<port id="0" precision="FP16">
					<dim>1</dim>
					<dim>48</dim>
					<dim>1</dim>
					<dim>1</dim>
				</port>
			</output>
		</layer>
		<layer id="278" name="8057806131454" type="Const" version="opset1">
			<data element_type="f16" offset="10598" shape="1,48,1,1" size="96"/>
			<output>
				<port id="0" precision="FP16">
					<dim>1</dim>
					<dim>48</dim>
					<dim>1</dim>
					<dim>1</dim>
				</port>
			</output>
		</layer>
		<layer id="279" name="8058806232636" type="Const" version="opset1">
			<data element_type="f16" offset="10694" shape="1,48,1,1" size="96"/>
			<output>
				<port id="0" precision="FP16">
					<dim>1</dim>
					<dim>48</dim>
					<dim>1</dim>
					<dim>1</dim>
				</port>
			</output>
		</layer>
		<layer id="280" name="8059806329291" type="Const" version="opset1">
			<data element_type="f16" offset="10598" shape="1,48,1,1" size="96"/>
			<output>
				<port id="0" precision="FP16">
					<dim>1</dim>
					<dim>48</dim>
					<dim>1</dim>
					<dim>1</dim>
				</port>
			</output>
		</layer>
		<layer id="281" name="8060806431514" type="Const" version="opset1">
			<data element_type="f16" offset="10694" shape="1,48,1,1" size="96"/>
			<output>
				<port id="0" precision="FP16">
					<dim>1</dim>
					<dim>48</dim>
					<dim>1</dim>
					<dim>1</dim>
				</port>
			</output>
		</layer>
		<layer id="282" name="2912291431019" type="Const" version="opset1">
			<data element_type="f16" offset="10790" shape="1,48,1,1" size="96"/>
			<output>
				<port id="0" precision="FP16">
					<dim>1</dim>
					<dim>48</dim>
					<dim>1</dim>
					<dim>1</dim>
				</port>
			</output>
		</layer>
		<layer id="283" name="6227623133047" type="Const" version="opset1">
			<data element_type="f16" offset="2824" shape="" size="2"/>
			<output>
				<port id="0" precision="FP16"/>
			</output>
		</layer>
		<layer id="284" name="6228623228817" type="Const" version="opset1">
			<data element_type="f16" offset="10886" shape="" size="2"/>
			<output>
				<port id="0" precision="FP16"/>
			</output>
		</layer>
		<layer id="285" name="6229623332033" type="Const" version="opset1">
			<data element_type="f16" offset="2824" shape="" size="2"/>
			<output>
				<port id="0" precision="FP16"/>
			</output>
		</layer>
		<layer id="286" name="6230623431805" type="Const" version="opset1">
			<data element_type="f16" offset="10886" shape="" size="2"/>
			<output>
				<port id="0" precision="FP16"/>
			</output>
		</layer>
		<layer id="287" name="data_add_2180121806141231976" type="Const" version="opset1">
			<data element_type="f16" offset="10888" shape="1,48,1,1" size="96"/>
			<output>
				<port id="0" precision="FP16">
					<dim>1</dim>
					<dim>48</dim>
					<dim>1</dim>
					<dim>1</dim>
				</port>
			</output>
		</layer>
		<layer id="288" name="6797680129816" type="Const" version="opset1">
			<data element_type="f16" offset="2824" shape="" size="2"/>
			<output>
				<port id="0" precision="FP16"/>
			</output>
		</layer>
		<layer id="289" name="6798680229075" type="Const" version="opset1">
			<data element_type="f16" offset="10984" shape="" size="2"/>
			<output>
				<port id="0" precision="FP16"/>
			</output>
		</layer>
		<layer id="290" name="6799680332558" type="Const" version="opset1">
			<data element_type="f16" offset="2824" shape="" size="2"/>
			<output>
				<port id="0" precision="FP16"/>
			</output>
		</layer>
		<layer id="291" name="6800680430164" type="Const" version="opset1">
			<data element_type="f16" offset="10984" shape="" size="2"/>
			<output>
				<port id="0" precision="FP16"/>
			</output>
		</layer>
		<layer id="292" name="8217822133374" type="Const" version="opset1">
			<data element_type="f16" offset="10986" shape="" size="2"/>
			<output>
				<port id="0" precision="FP16"/>
			</output>
		</layer>
		<layer id="293" name="8218822233395" type="Const" version="opset1">
			<data element_type="f16" offset="10988" shape="" size="2"/>
			<output>
				<port id="0" precision="FP16"/>
			</output>
		</layer>
		<layer id="294" name="8219822328775" type="Const" version="opset1">
			<data element_type="f16" offset="10986" shape="" size="2"/>
			<output>
				<port id="0" precision="FP16"/>
			</output>
		</layer>
		<layer id="295" name="8220822428748" type="Const" version="opset1">
			<data element_type="f16" offset="10988" shape="" size="2"/>
			<output>
				<port id="0" precision="FP16"/>
			</output>
		</layer>
		<layer id="296" name="data_add_2179321798124930680" type="Const" version="opset1">
			<data element_type="f16" offset="10990" shape="1,192,1,1" size="384"/>
			<output>
				<port id="0" precision="FP16">
					<dim>1</dim>
					<dim>192</dim>
					<dim>1</dim>
					<dim>1</dim>
				</port>
			</output>
		</layer>
		<layer id="297" name="5507551128943" type="Const" version="opset1">
			<data element_type="f16" offset="2824" shape="" size="2"/>
			<output>
				<port id="0" precision="FP16"/>
			</output>
		</layer>
		<layer id="298" name="5508551230872" type="Const" version="opset1">
			<data element_type="f16" offset="11374" shape="" size="2"/>
			<output>
				<port id="0" precision="FP16"/>
			</output>
		</layer>
		<layer id="299" name="5509551328352" type="Const" version="opset1">
			<data element_type="f16" offset="2824" shape="" size="2"/>
			<output>
				<port id="0" precision="FP16"/>
			</output>
		</layer>
		<layer id="300" name="5510551433068" type="Const" version="opset1">
			<data element_type="f16" offset="11374" shape="" size="2"/>
			<output>
				<port id="0" precision="FP16"/>
			</output>
		</layer>
		<layer id="301" name="8157816132870" type="Const" version="opset1">
			<data element_type="f16" offset="2824" shape="" size="2"/>
			<output>
				<port id="0" precision="FP16"/>
			</output>
		</layer>
		<layer id="302" name="8158816231229" type="Const" version="opset1">
			<data element_type="f16" offset="11376" shape="" size="2"/>
			<output>
				<port id="0" precision="FP16"/>
			</output>
		</layer>
		<layer id="303" name="8159816332234" type="Const" version="opset1">
			<data element_type="f16" offset="2824" shape="" size="2"/>
			<output>
				<port id="0" precision="FP16"/>
			</output>
		</layer>
		<layer id="304" name="8160816431679" type="Const" version="opset1">
			<data element_type="f16" offset="11376" shape="" size="2"/>
			<output>
				<port id="0" precision="FP16"/>
			</output>
		</layer>
		<layer id="305" name="7067707129474" type="Const" version="opset1">
			<data element_type="f16" offset="2824" shape="" size="2"/>
			<output>
				<port id="0" precision="FP16"/>
			</output>
		</layer>
		<layer id="306" name="7068707233581" type="Const" version="opset1">
			<data element_type="f16" offset="11378" shape="" size="2"/>
			<output>
				<port id="0" precision="FP16"/>
			</output>
		</layer>
		<layer id="307" name="7069707332489" type="Const" version="opset1">
			<data element_type="f16" offset="2824" shape="" size="2"/>
			<output>
				<port id="0" precision="FP16"/>
			</output>
		</layer>
		<layer id="308" name="7070707429726" type="Const" version="opset1">
			<data element_type="f16" offset="11378" shape="" size="2"/>
			<output>
				<port id="0" precision="FP16"/>
			</output>
		</layer>
		<layer id="309" name="5917592129048" type="Const" version="opset1">
			<data element_type="f16" offset="2824" shape="" size="2"/>
			<output>
				<port id="0" precision="FP16"/>
			</output>
		</layer>
		<layer id="310" name="5918592232996" type="Const" version="opset1">
			<data element_type="f16" offset="11380" shape="" size="2"/>
			<output>
				<port id="0" precision="FP16"/>
			</output>
		</layer>
		<layer id="311" name="5919592331292" type="Const" version="opset1">
			<data element_type="f16" offset="2824" shape="" size="2"/>
			<output>
				<port id="0" precision="FP16"/>
			</output>
		</layer>
		<layer id="312" name="5920592433725" type="Const" version="opset1">
			<data element_type="f16" offset="11380" shape="" size="2"/>
			<output>
				<port id="0" precision="FP16"/>
			</output>
		</layer>
		<layer id="313" name="7627763129315" type="Const" version="opset1">
			<data element_type="f16" offset="2824" shape="" size="2"/>
			<output>
				<port id="0" precision="FP16"/>
			</output>
		</layer>
		<layer id="314" name="7628763229036" type="Const" version="opset1">
			<data element_type="f16" offset="11382" shape="" size="2"/>
			<output>
				<port id="0" precision="FP16"/>
			</output>
		</layer>
		<layer id="315" name="7629763329198" type="Const" version="opset1">
			<data element_type="f16" offset="2824" shape="" size="2"/>
			<output>
				<port id="0" precision="FP16"/>
			</output>
		</layer>
		<layer id="316" name="7630763432669" type="Const" version="opset1">
			<data element_type="f16" offset="11382" shape="" size="2"/>
			<output>
				<port id="0" precision="FP16"/>
			</output>
		</layer>
		<layer id="317" name="4547455129723" type="Const" version="opset1">
			<data element_type="f16" offset="2824" shape="" size="2"/>
			<output>
				<port id="0" precision="FP16"/>
			</output>
		</layer>
		<layer id="318" name="4548455232849" type="Const" version="opset1">
			<data element_type="f16" offset="11384" shape="" size="2"/>
			<output>
				<port id="0" precision="FP16"/>
			</output>
		</layer>
		<layer id="319" name="4549455331697" type="Const" version="opset1">
			<data element_type="f16" offset="2824" shape="" size="2"/>
			<output>
				<port id="0" precision="FP16"/>
			</output>
		</layer>
		<layer id="320" name="4550455429837" type="Const" version="opset1">
			<data element_type="f16" offset="11384" shape="" size="2"/>
			<output>
				<port id="0" precision="FP16"/>
			</output>
		</layer>
		<layer id="321" name="data_add_2178521790125031751" type="Const" version="opset1">
			<data element_type="f16" offset="11386" shape="1,48,1,1" size="96"/>
			<output>
				<port id="0" precision="FP16">
					<dim>1</dim>
					<dim>48</dim>
					<dim>1</dim>
					<dim>1</dim>
				</port>
			</output>
		</layer>
		<layer id="322" name="6337634132186" type="Const" version="opset1">
			<data element_type="f16" offset="11482" shape="1,48,1,1" size="96"/>
			<output>
				<port id="0" precision="FP16">
					<dim>1</dim>
					<dim>48</dim>
					<dim>1</dim>
					<dim>1</dim>
				</port>
			</output>
		</layer>
		<layer id="323" name="6338634232123" type="Const" version="opset1">
			<data element_type="f16" offset="11578" shape="1,48,1,1" size="96"/>
			<output>
				<port id="0" precision="FP16">
					<dim>1</dim>
					<dim>48</dim>
					<dim>1</dim>
					<dim>1</dim>
				</port>
			</output>
		</layer>
		<layer id="324" name="6339634331403" type="Const" version="opset1">
			<data element_type="f16" offset="11482" shape="1,48,1,1" size="96"/>
			<output>
				<port id="0" precision="FP16">
					<dim>1</dim>
					<dim>48</dim>
					<dim>1</dim>
					<dim>1</dim>
				</port>
			</output>
		</layer>
		<layer id="325" name="6340634428496" type="Const" version="opset1">
			<data element_type="f16" offset="11578" shape="1,48,1,1" size="96"/>
			<output>
				<port id="0" precision="FP16">
					<dim>1</dim>
					<dim>48</dim>
					<dim>1</dim>
					<dim>1</dim>
				</port>
			</output>
		</layer>
		<layer id="326" name="2872287431382" type="Const" version="opset1">
			<data element_type="f16" offset="10790" shape="1,48,1,1" size="96"/>
			<output>
				<port id="0" precision="FP16">
					<dim>1</dim>
					<dim>48</dim>
					<dim>1</dim>
					<dim>1</dim>
				</port>
			</output>
		</layer>
		<layer id="327" name="6097610132486" type="Const" version="opset1">
			<data element_type="f16" offset="2824" shape="" size="2"/>
			<output>
				<port id="0" precision="FP16"/>
			</output>
		</layer>
		<layer id="328" name="6098610233344" type="Const" version="opset1">
			<data element_type="f16" offset="11674" shape="" size="2"/>
			<output>
				<port id="0" precision="FP16"/>
			</output>
		</layer>
		<layer id="329" name="6099610329918" type="Const" version="opset1">
			<data element_type="f16" offset="2824" shape="" size="2"/>
			<output>
				<port id="0" precision="FP16"/>
			</output>
		</layer>
		<layer id="330" name="6100610429639" type="Const" version="opset1">
			<data element_type="f16" offset="11674" shape="" size="2"/>
			<output>
				<port id="0" precision="FP16"/>
			</output>
		</layer>
		<layer id="331" name="data_add_2170521710125231622" type="Const" version="opset1">
			<data element_type="f16" offset="11676" shape="1,48,1,1" size="96"/>
			<output>
				<port id="0" precision="FP16">
					<dim>1</dim>
					<dim>48</dim>
					<dim>1</dim>
					<dim>1</dim>
				</port>
			</output>
		</layer>
		<layer id="332" name="108281083231625" type="Const" version="opset1">
			<data element_type="f16" offset="2824" shape="" size="2"/>
			<output>
				<port id="0" precision="FP16"/>
			</output>
		</layer>
		<layer id="333" name="108291083330344" type="Const" version="opset1">
			<data element_type="f16" offset="11772" shape="" size="2"/>
			<output>
				<port id="0" precision="FP16"/>
			</output>
		</layer>
		<layer id="334" name="108301083431235" type="Const" version="opset1">
			<data element_type="f16" offset="2824" shape="" size="2"/>
			<output>
				<port id="0" precision="FP16"/>
			</output>
		</layer>
		<layer id="335" name="108311083532957" type="Const" version="opset1">
			<data element_type="f16" offset="11772" shape="" size="2"/>
			<output>
				<port id="0" precision="FP16"/>
			</output>
		</layer>
		<layer id="336" name="565/Range_input_port_0/value123231436" type="Const" version="opset1">
			<data element_type="i64" offset="3806" shape="" size="8"/>
			<output>
				<port id="0" precision="I64"/>
			</output>
		</layer>
		<layer id="337" name="565/Range_input_port_2/value123333560" type="Const" version="opset1">
			<data element_type="i64" offset="3814" shape="" size="8"/>
			<output>
				<port id="0" precision="I64"/>
			</output>
		</layer>
		<layer id="338" name="2868287028844" type="Const" version="opset1">
			<data element_type="f16" offset="10790" shape="1,48,1,1" size="96"/>
			<output>
				<port id="0" precision="FP16">
					<dim>1</dim>
					<dim>48</dim>
					<dim>1</dim>
					<dim>1</dim>
				</port>
			</output>
		</layer>
		<layer id="339" name="8387839129672" type="Const" version="opset1">
			<data element_type="f16" offset="11774" shape="" size="2"/>
			<output>
				<port id="0" precision="FP16"/>
			</output>
		</layer>
		<layer id="340" name="8388839232960" type="Const" version="opset1">
			<data element_type="f16" offset="11776" shape="" size="2"/>
			<output>
				<port id="0" precision="FP16"/>
			</output>
		</layer>
		<layer id="341" name="8389839331880" type="Const" version="opset1">
			<data element_type="f16" offset="11774" shape="" size="2"/>
			<output>
				<port id="0" precision="FP16"/>
			</output>
		</layer>
		<layer id="342" name="8390839432654" type="Const" version="opset1">
			<data element_type="f16" offset="11776" shape="" size="2"/>
			<output>
				<port id="0" precision="FP16"/>
			</output>
		</layer>
		<layer id="343" name="563/Range_input_port_0/value120932708" type="Const" version="opset1">
			<data element_type="i64" offset="3806" shape="" size="8"/>
			<output>
				<port id="0" precision="I64"/>
			</output>
		</layer>
		<layer id="344" name="563/Range_input_port_2/value121030725" type="Const" version="opset1">
			<data element_type="i64" offset="3814" shape="" size="8"/>
			<output>
				<port id="0" precision="I64"/>
			</output>
		</layer>
		<layer id="345" name="data" type="Parameter" version="opset1">
			<data element_type="f16" shape="1,3,256,128"/>
			<output>
				<port id="0" names="data" precision="FP16">
					<dim>1</dim>
					<dim>3</dim>
					<dim>256</dim>
					<dim>128</dim>
				</port>
			</output>
		</layer>
		<layer id="346" name="563/Rank/shape_of" type="ShapeOf" version="opset3">
			<data output_type="i64"/>
			<input>
				<port id="0">
					<dim>1</dim>
					<dim>3</dim>
					<dim>256</dim>
					<dim>128</dim>
				</port>
			</input>
			<output>
				<port id="1" precision="I64">
					<dim>4</dim>
				</port>
			</output>
		</layer>
		<layer id="347" name="563/Rank/rank_of" type="ShapeOf" version="opset3">
			<data output_type="i64"/>
			<input>
				<port id="0">
					<dim>4</dim>
				</port>
			</input>
			<output>
				<port id="1" precision="I64">
					<dim>1</dim>
				</port>
			</output>
		</layer>
		<layer id="348" name="563/Rank/0d_rank_of/value121432417" type="Const" version="opset1">
			<data element_type="i64" offset="11778" shape="1" size="8"/>
			<output>
				<port id="0" precision="I64">
					<dim>1</dim>
				</port>
			</output>
		</layer>
		<layer id="349" name="563/Rank" type="Squeeze" version="opset1">
			<input>
				<port id="0">
					<dim>1</dim>
				</port>
				<port id="1">
					<dim>1</dim>
				</port>
			</input>
			<output>
				<port id="2" precision="I64"/>
			</output>
		</layer>
		<layer id="350" name="563/Range" type="Range" version="opset4">
			<data output_type="i64"/>
			<input>
				<port id="0"/>
				<port id="1"/>
				<port id="2"/>
			</input>
			<output>
				<port id="3" precision="I64">
					<dim>2</dim>
				</port>
			</output>
		</layer>
		<layer id="351" name="6517652128502" type="Const" version="opset1">
			<data element_type="f16" offset="11786" shape="" size="2"/>
			<output>
				<port id="0" precision="FP16"/>
			</output>
		</layer>
		<layer id="352" name="6518652230524" type="Const" version="opset1">
			<data element_type="f16" offset="11788" shape="" size="2"/>
			<output>
				<port id="0" precision="FP16"/>
			</output>
		</layer>
		<layer id="353" name="6519652333185" type="Const" version="opset1">
			<data element_type="f16" offset="11786" shape="" size="2"/>
			<output>
				<port id="0" precision="FP16"/>
			</output>
		</layer>
		<layer id="354" name="6520652432114" type="Const" version="opset1">
			<data element_type="f16" offset="11788" shape="" size="2"/>
			<output>
				<port id="0" precision="FP16"/>
			</output>
		</layer>
		<layer id="355" name="data/reverse_input_channels3963439638/Split_input_port_1/value3966843867121729528" type="Const" version="opset1">
			<data element_type="i64" offset="3814" shape="" size="8"/>
			<output>
				<port id="0" precision="I64"/>
			</output>
		</layer>
		<layer id="356" name="data/reverse_input_channels3963439638/Split" type="Split" version="opset1">
			<data num_splits="3"/>
			<input>
				<port id="0">
					<dim>1</dim>
					<dim>3</dim>
					<dim>256</dim>
					<dim>128</dim>
				</port>
				<port id="1"/>
			</input>
			<output>
				<port id="2" precision="FP16">
					<dim>1</dim>
					<dim>1</dim>
					<dim>256</dim>
					<dim>128</dim>
				</port>
				<port id="3" precision="FP16">
					<dim>1</dim>
					<dim>1</dim>
					<dim>256</dim>
					<dim>128</dim>
				</port>
				<port id="4" precision="FP16">
					<dim>1</dim>
					<dim>1</dim>
					<dim>256</dim>
					<dim>128</dim>
				</port>
			</output>
		</layer>
		<layer id="357" name="data/reverse_input_channels3963439638/Concat" type="Concat" version="opset1">
			<data axis="1"/>
			<input>
				<port id="0">
					<dim>1</dim>
					<dim>1</dim>
					<dim>256</dim>
					<dim>128</dim>
				</port>
				<port id="1">
					<dim>1</dim>
					<dim>1</dim>
					<dim>256</dim>
					<dim>128</dim>
				</port>
				<port id="2">
					<dim>1</dim>
					<dim>1</dim>
					<dim>256</dim>
					<dim>128</dim>
				</port>
			</input>
			<output>
				<port id="3" precision="FP16">
					<dim>1</dim>
					<dim>3</dim>
					<dim>256</dim>
					<dim>128</dim>
				</port>
			</output>
		</layer>
		<layer id="358" name="data_mul_21692122231295" type="Const" version="opset1">
			<data element_type="f16" offset="11790" shape="1,3,1,1" size="6"/>
			<output>
				<port id="0" precision="FP16">
					<dim>1</dim>
					<dim>3</dim>
					<dim>1</dim>
					<dim>1</dim>
				</port>
			</output>
		</layer>
		<layer id="359" name="data/scale/Fused_Mul_" type="Multiply" version="opset1">
			<data auto_broadcast="numpy"/>
			<input>
				<port id="0">
					<dim>1</dim>
					<dim>3</dim>
					<dim>256</dim>
					<dim>128</dim>
				</port>
				<port id="1">
					<dim>1</dim>
					<dim>3</dim>
					<dim>1</dim>
					<dim>1</dim>
				</port>
			</input>
			<output>
				<port id="2" precision="FP16">
					<dim>1</dim>
					<dim>3</dim>
					<dim>256</dim>
					<dim>128</dim>
				</port>
			</output>
		</layer>
		<layer id="360" name="data_add_21694122430002" type="Const" version="opset1">
			<data element_type="f16" offset="11796" shape="1,3,1,1" size="6"/>
			<output>
				<port id="0" precision="FP16">
					<dim>1</dim>
					<dim>3</dim>
					<dim>1</dim>
					<dim>1</dim>
				</port>
			</output>
		</layer>
		<layer id="361" name="data/mean/Fused_Add_" type="Add" version="opset1">
			<data auto_broadcast="numpy"/>
			<input>
				<port id="0">
					<dim>1</dim>
					<dim>3</dim>
					<dim>256</dim>
					<dim>128</dim>
				</port>
				<port id="1">
					<dim>1</dim>
					<dim>3</dim>
					<dim>1</dim>
					<dim>1</dim>
				</port>
			</input>
			<output>
				<port id="2" precision="FP16">
					<dim>1</dim>
					<dim>3</dim>
					<dim>256</dim>
					<dim>128</dim>
				</port>
			</output>
		</layer>
		<layer id="362" name="563/Ins_Norm/MVN_/fq_input_0" type="FakeQuantize" version="opset1">
			<data auto_broadcast="numpy" levels="256"/>
			<input>
				<port id="0">
					<dim>1</dim>
					<dim>3</dim>
					<dim>256</dim>
					<dim>128</dim>
				</port>
				<port id="1"/>
				<port id="2"/>
				<port id="3"/>
				<port id="4"/>
			</input>
			<output>
				<port id="5" precision="FP16">
					<dim>1</dim>
					<dim>3</dim>
					<dim>256</dim>
					<dim>128</dim>
				</port>
			</output>
		</layer>
		<layer id="363" name="563/Ins_Norm/MVN_" type="MVN" version="opset6">
			<data eps="9.999999747378752e-06" eps_mode="inside_sqrt" normalize_variance="true"/>
			<input>
				<port id="0">
					<dim>1</dim>
					<dim>3</dim>
					<dim>256</dim>
					<dim>128</dim>
				</port>
				<port id="1">
					<dim>2</dim>
				</port>
			</input>
			<output>
				<port id="2" precision="FP16">
					<dim>1</dim>
					<dim>3</dim>
					<dim>256</dim>
					<dim>128</dim>
				</port>
			</output>
		</layer>
		<layer id="364" name="in_first.weight122730296" type="Const" version="opset1">
			<data element_type="f16" offset="11802" shape="1,3,1,1" size="6"/>
			<output>
				<port id="0" names="in_first.weight" precision="FP16">
					<dim>1</dim>
					<dim>3</dim>
					<dim>1</dim>
					<dim>1</dim>
				</port>
			</output>
		</layer>
		<layer id="365" name="563/Ins_Norm/mul_" type="Multiply" version="opset1">
			<data auto_broadcast="numpy"/>
			<input>
				<port id="0">
					<dim>1</dim>
					<dim>3</dim>
					<dim>256</dim>
					<dim>128</dim>
				</port>
				<port id="1">
					<dim>1</dim>
					<dim>3</dim>
					<dim>1</dim>
					<dim>1</dim>
				</port>
			</input>
			<output>
				<port id="2" precision="FP16">
					<dim>1</dim>
					<dim>3</dim>
					<dim>256</dim>
					<dim>128</dim>
				</port>
			</output>
		</layer>
		<layer id="366" name="in_first.bias122930197" type="Const" version="opset1">
			<data element_type="f16" offset="11808" shape="1,3,1,1" size="6"/>
			<output>
				<port id="0" names="in_first.bias" precision="FP16">
					<dim>1</dim>
					<dim>3</dim>
					<dim>1</dim>
					<dim>1</dim>
				</port>
			</output>
		</layer>
		<layer id="367" name="563" type="Add" version="opset1">
			<data auto_broadcast="numpy"/>
			<input>
				<port id="0">
					<dim>1</dim>
					<dim>3</dim>
					<dim>256</dim>
					<dim>128</dim>
				</port>
				<port id="1">
					<dim>1</dim>
					<dim>3</dim>
					<dim>1</dim>
					<dim>1</dim>
				</port>
			</input>
			<output>
				<port id="2" names="563" precision="FP16">
					<dim>1</dim>
					<dim>3</dim>
					<dim>256</dim>
					<dim>128</dim>
				</port>
			</output>
		</layer>
		<layer id="368" name="564/fq_input_0" type="FakeQuantize" version="opset1">
			<data auto_broadcast="numpy" levels="256"/>
			<input>
				<port id="0">
					<dim>1</dim>
					<dim>3</dim>
					<dim>256</dim>
					<dim>128</dim>
				</port>
				<port id="1"/>
				<port id="2"/>
				<port id="3"/>
				<port id="4"/>
			</input>
			<output>
				<port id="5" precision="FP16">
					<dim>1</dim>
					<dim>3</dim>
					<dim>256</dim>
					<dim>128</dim>
				</port>
			</output>
		</layer>
		<layer id="369" name="conv1.conv.weight120815320/quantized1776332024" type="Const" version="opset1">
			<data element_type="i8" offset="11814" shape="48,3,7,7" size="7056"/>
			<output>
				<port id="0" precision="I8">
					<dim>48</dim>
					<dim>3</dim>
					<dim>7</dim>
					<dim>7</dim>
				</port>
			</output>
		</layer>
		<layer id="370" name="conv1.conv.weight120815320/quantized/to_f16" type="Convert" version="opset1">
			<data destination_type="f16"/>
			<input>
				<port id="0">
					<dim>48</dim>
					<dim>3</dim>
					<dim>7</dim>
					<dim>7</dim>
				</port>
			</input>
			<output>
				<port id="1" precision="FP16">
					<dim>48</dim>
					<dim>3</dim>
					<dim>7</dim>
					<dim>7</dim>
				</port>
			</output>
		</layer>
		<layer id="371" name="564/fq_weights_1/zero_point1777629615" type="Const" version="opset1">
			<data element_type="f16" offset="18870" shape="48,1,1,1" size="96"/>
			<output>
				<port id="0" precision="FP16">
					<dim>48</dim>
					<dim>1</dim>
					<dim>1</dim>
					<dim>1</dim>
				</port>
			</output>
		</layer>
		<layer id="372" name="564/fq_weights_1/minus_zp" type="Subtract" version="opset1">
			<data auto_broadcast="numpy"/>
			<input>
				<port id="0">
					<dim>48</dim>
					<dim>3</dim>
					<dim>7</dim>
					<dim>7</dim>
				</port>
				<port id="1">
					<dim>48</dim>
					<dim>1</dim>
					<dim>1</dim>
					<dim>1</dim>
				</port>
			</input>
			<output>
				<port id="2" precision="FP16">
					<dim>48</dim>
					<dim>3</dim>
					<dim>7</dim>
					<dim>7</dim>
				</port>
			</output>
		</layer>
		<layer id="373" name="564/fq_weights_1/scale1777132081" type="Const" version="opset1">
			<data element_type="f16" offset="18966" shape="48,1,1,1" size="96"/>
			<output>
				<port id="0" precision="FP16">
					<dim>48</dim>
					<dim>1</dim>
					<dim>1</dim>
					<dim>1</dim>
				</port>
			</output>
		</layer>
		<layer id="374" name="564/fq_weights_1/mulpiply_by_scale" type="Multiply" version="opset1">
			<data auto_broadcast="numpy"/>
			<input>
				<port id="0">
					<dim>48</dim>
					<dim>3</dim>
					<dim>7</dim>
					<dim>7</dim>
				</port>
				<port id="1">
					<dim>48</dim>
					<dim>1</dim>
					<dim>1</dim>
					<dim>1</dim>
				</port>
			</input>
			<output>
				<port id="2" precision="FP16">
					<dim>48</dim>
					<dim>3</dim>
					<dim>7</dim>
					<dim>7</dim>
				</port>
			</output>
		</layer>
		<layer id="375" name="564" type="Convolution" version="opset1">
			<data auto_pad="explicit" dilations="1,1" pads_begin="3,3" pads_end="3,3" strides="2,2"/>
			<input>
				<port id="0">
					<dim>1</dim>
					<dim>3</dim>
					<dim>256</dim>
					<dim>128</dim>
				</port>
				<port id="1">
					<dim>48</dim>
					<dim>3</dim>
					<dim>7</dim>
					<dim>7</dim>
				</port>
			</input>
			<output>
				<port id="2" names="564" precision="FP16">
					<dim>1</dim>
					<dim>48</dim>
					<dim>128</dim>
					<dim>64</dim>
				</port>
			</output>
		</layer>
		<layer id="376" name="564/add_" type="Add" version="opset1">
			<data auto_broadcast="numpy"/>
			<input>
				<port id="0">
					<dim>1</dim>
					<dim>48</dim>
					<dim>128</dim>
					<dim>64</dim>
				</port>
				<port id="1">
					<dim>1</dim>
					<dim>48</dim>
					<dim>1</dim>
					<dim>1</dim>
				</port>
			</input>
			<output>
				<port id="2" precision="FP16">
					<dim>1</dim>
					<dim>48</dim>
					<dim>128</dim>
					<dim>64</dim>
				</port>
			</output>
		</layer>
		<layer id="377" name="565/Rank/shape_of" type="ShapeOf" version="opset3">
			<data output_type="i64"/>
			<input>
				<port id="0">
					<dim>1</dim>
					<dim>48</dim>
					<dim>128</dim>
					<dim>64</dim>
				</port>
			</input>
			<output>
				<port id="1" precision="I64">
					<dim>4</dim>
				</port>
			</output>
		</layer>
		<layer id="378" name="565/Rank/rank_of" type="ShapeOf" version="opset3">
			<data output_type="i64"/>
			<input>
				<port id="0">
					<dim>4</dim>
				</port>
			</input>
			<output>
				<port id="1" precision="I64">
					<dim>1</dim>
				</port>
			</output>
		</layer>
		<layer id="379" name="565/Rank/0d_rank_of/value123631646" type="Const" version="opset1">
			<data element_type="i64" offset="11778" shape="1" size="8"/>
			<output>
				<port id="0" precision="I64">
					<dim>1</dim>
				</port>
			</output>
		</layer>
		<layer id="380" name="565/Rank" type="Squeeze" version="opset1">
			<input>
				<port id="0">
					<dim>1</dim>
				</port>
				<port id="1">
					<dim>1</dim>
				</port>
			</input>
			<output>
				<port id="2" precision="I64"/>
			</output>
		</layer>
		<layer id="381" name="565/Range" type="Range" version="opset4">
			<data output_type="i64"/>
			<input>
				<port id="0"/>
				<port id="1"/>
				<port id="2"/>
			</input>
			<output>
				<port id="3" precision="I64">
					<dim>2</dim>
				</port>
			</output>
		</layer>
		<layer id="382" name="4587459133212" type="Const" version="opset1">
			<data element_type="f16" offset="19062" shape="" size="2"/>
			<output>
				<port id="0" precision="FP16"/>
			</output>
		</layer>
		<layer id="383" name="4588459229825" type="Const" version="opset1">
			<data element_type="f16" offset="19064" shape="" size="2"/>
			<output>
				<port id="0" precision="FP16"/>
			</output>
		</layer>
		<layer id="384" name="4589459331931" type="Const" version="opset1">
			<data element_type="f16" offset="19062" shape="" size="2"/>
			<output>
				<port id="0" precision="FP16"/>
			</output>
		</layer>
		<layer id="385" name="4590459433170" type="Const" version="opset1">
			<data element_type="f16" offset="19064" shape="" size="2"/>
			<output>
				<port id="0" precision="FP16"/>
			</output>
		</layer>
		<layer id="386" name="565/Ins_Norm/MVN_/fq_input_0" type="FakeQuantize" version="opset1">
			<data auto_broadcast="numpy" levels="256"/>
			<input>
				<port id="0">
					<dim>1</dim>
					<dim>48</dim>
					<dim>128</dim>
					<dim>64</dim>
				</port>
				<port id="1"/>
				<port id="2"/>
				<port id="3"/>
				<port id="4"/>
			</input>
			<output>
				<port id="5" precision="FP16">
					<dim>1</dim>
					<dim>48</dim>
					<dim>128</dim>
					<dim>64</dim>
				</port>
			</output>
		</layer>
		<layer id="387" name="565/Ins_Norm/MVN_" type="MVN" version="opset6">
			<data eps="9.999999747378752e-06" eps_mode="inside_sqrt" normalize_variance="true"/>
			<input>
				<port id="0">
					<dim>1</dim>
					<dim>48</dim>
					<dim>128</dim>
					<dim>64</dim>
				</port>
				<port id="1">
					<dim>2</dim>
				</port>
			</input>
			<output>
				<port id="2" precision="FP16">
					<dim>1</dim>
					<dim>48</dim>
					<dim>128</dim>
					<dim>64</dim>
				</port>
			</output>
		</layer>
		<layer id="388" name="conv1.bn.weight124032969" type="Const" version="opset1">
			<data element_type="f16" offset="19066" shape="1,48,1,1" size="96"/>
			<output>
				<port id="0" names="conv1.bn.weight" precision="FP16">
					<dim>1</dim>
					<dim>48</dim>
					<dim>1</dim>
					<dim>1</dim>
				</port>
			</output>
		</layer>
		<layer id="389" name="565/Ins_Norm/mul_" type="Multiply" version="opset1">
			<data auto_broadcast="numpy"/>
			<input>
				<port id="0">
					<dim>1</dim>
					<dim>48</dim>
					<dim>128</dim>
					<dim>64</dim>
				</port>
				<port id="1">
					<dim>1</dim>
					<dim>48</dim>
					<dim>1</dim>
					<dim>1</dim>
				</port>
			</input>
			<output>
				<port id="2" precision="FP16">
					<dim>1</dim>
					<dim>48</dim>
					<dim>128</dim>
					<dim>64</dim>
				</port>
			</output>
		</layer>
		<layer id="390" name="conv1.bn.bias124232300" type="Const" version="opset1">
			<data element_type="f16" offset="19162" shape="1,48,1,1" size="96"/>
			<output>
				<port id="0" names="conv1.bn.bias" precision="FP16">
					<dim>1</dim>
					<dim>48</dim>
					<dim>1</dim>
					<dim>1</dim>
				</port>
			</output>
		</layer>
		<layer id="391" name="565" type="Add" version="opset1">
			<data auto_broadcast="numpy"/>
			<input>
				<port id="0">
					<dim>1</dim>
					<dim>48</dim>
					<dim>128</dim>
					<dim>64</dim>
				</port>
				<port id="1">
					<dim>1</dim>
					<dim>48</dim>
					<dim>1</dim>
					<dim>1</dim>
				</port>
			</input>
			<output>
				<port id="2" names="565" precision="FP16">
					<dim>1</dim>
					<dim>48</dim>
					<dim>128</dim>
					<dim>64</dim>
				</port>
			</output>
		</layer>
		<layer id="392" name="566" type="ReLU" version="opset1">
			<input>
				<port id="0">
					<dim>1</dim>
					<dim>48</dim>
					<dim>128</dim>
					<dim>64</dim>
				</port>
			</input>
			<output>
				<port id="1" names="566" precision="FP16">
					<dim>1</dim>
					<dim>48</dim>
					<dim>128</dim>
					<dim>64</dim>
				</port>
			</output>
		</layer>
		<layer id="393" name="567/fq_input_0" type="FakeQuantize" version="opset1">
			<data auto_broadcast="numpy" levels="256"/>
			<input>
				<port id="0">
					<dim>1</dim>
					<dim>48</dim>
					<dim>128</dim>
					<dim>64</dim>
				</port>
				<port id="1"/>
				<port id="2"/>
				<port id="3"/>
				<port id="4"/>
			</input>
			<output>
				<port id="5" precision="FP16">
					<dim>1</dim>
					<dim>48</dim>
					<dim>128</dim>
					<dim>64</dim>
				</port>
			</output>
		</layer>
		<layer id="394" name="567" type="MaxPool" version="opset1">
			<data auto_pad="explicit" kernel="3,3" pads_begin="1,1" pads_end="1,1" rounding_type="floor" strides="2,2"/>
			<input>
				<port id="0">
					<dim>1</dim>
					<dim>48</dim>
					<dim>128</dim>
					<dim>64</dim>
				</port>
			</input>
			<output>
				<port id="1" names="567" precision="FP16">
					<dim>1</dim>
					<dim>48</dim>
					<dim>64</dim>
					<dim>32</dim>
				</port>
			</output>
		</layer>
		<layer id="395" name="569/mean/Fused_Mul__copy125315339/quantized1896333626" type="Const" version="opset1">
			<data element_type="i8" offset="19258" shape="48,48,1,1" size="2304"/>
			<output>
				<port id="0" precision="I8">
					<dim>48</dim>
					<dim>48</dim>
					<dim>1</dim>
					<dim>1</dim>
				</port>
			</output>
		</layer>
		<layer id="396" name="569/mean/Fused_Mul__copy125315339/quantized/to_f16" type="Convert" version="opset1">
			<data destination_type="f16"/>
			<input>
				<port id="0">
					<dim>48</dim>
					<dim>48</dim>
					<dim>1</dim>
					<dim>1</dim>
				</port>
			</input>
			<output>
				<port id="1" precision="FP16">
					<dim>48</dim>
					<dim>48</dim>
					<dim>1</dim>
					<dim>1</dim>
				</port>
			</output>
		</layer>
		<layer id="397" name="568/fq_weights_1/zero_point1897633380" type="Const" version="opset1">
			<data element_type="f16" offset="21562" shape="48,1,1,1" size="96"/>
			<output>
				<port id="0" precision="FP16">
					<dim>48</dim>
					<dim>1</dim>
					<dim>1</dim>
					<dim>1</dim>
				</port>
			</output>
		</layer>
		<layer id="398" name="568/fq_weights_1/minus_zp" type="Subtract" version="opset1">
			<data auto_broadcast="numpy"/>
			<input>
				<port id="0">
					<dim>48</dim>
					<dim>48</dim>
					<dim>1</dim>
					<dim>1</dim>
				</port>
				<port id="1">
					<dim>48</dim>
					<dim>1</dim>
					<dim>1</dim>
					<dim>1</dim>
				</port>
			</input>
			<output>
				<port id="2" precision="FP16">
					<dim>48</dim>
					<dim>48</dim>
					<dim>1</dim>
					<dim>1</dim>
				</port>
			</output>
		</layer>
		<layer id="399" name="568/fq_weights_1/scale1897129426" type="Const" version="opset1">
			<data element_type="f16" offset="21658" shape="48,1,1,1" size="96"/>
			<output>
				<port id="0" precision="FP16">
					<dim>48</dim>
					<dim>1</dim>
					<dim>1</dim>
					<dim>1</dim>
				</port>
			</output>
		</layer>
		<layer id="400" name="568/fq_weights_1/mulpiply_by_scale" type="Multiply" version="opset1">
			<data auto_broadcast="numpy"/>
			<input>
				<port id="0">
					<dim>48</dim>
					<dim>48</dim>
					<dim>1</dim>
					<dim>1</dim>
				</port>
				<port id="1">
					<dim>48</dim>
					<dim>1</dim>
					<dim>1</dim>
					<dim>1</dim>
				</port>
			</input>
			<output>
				<port id="2" precision="FP16">
					<dim>48</dim>
					<dim>48</dim>
					<dim>1</dim>
					<dim>1</dim>
				</port>
			</output>
		</layer>
		<layer id="401" name="568" type="Convolution" version="opset1">
			<data auto_pad="explicit" dilations="1,1" pads_begin="0,0" pads_end="0,0" strides="1,1"/>
			<input>
				<port id="0">
					<dim>1</dim>
					<dim>48</dim>
					<dim>64</dim>
					<dim>32</dim>
				</port>
				<port id="1">
					<dim>48</dim>
					<dim>48</dim>
					<dim>1</dim>
					<dim>1</dim>
				</port>
			</input>
			<output>
				<port id="2" precision="FP16">
					<dim>1</dim>
					<dim>48</dim>
					<dim>64</dim>
					<dim>32</dim>
				</port>
			</output>
		</layer>
		<layer id="402" name="569/variance/Fused_Add_" type="Add" version="opset1">
			<data auto_broadcast="numpy"/>
			<input>
				<port id="0">
					<dim>1</dim>
					<dim>48</dim>
					<dim>64</dim>
					<dim>32</dim>
				</port>
				<port id="1">
					<dim>1</dim>
					<dim>48</dim>
					<dim>1</dim>
					<dim>1</dim>
				</port>
			</input>
			<output>
				<port id="2" names="569" precision="FP16">
					<dim>1</dim>
					<dim>48</dim>
					<dim>64</dim>
					<dim>32</dim>
				</port>
			</output>
		</layer>
		<layer id="403" name="570" type="ReLU" version="opset1">
			<input>
				<port id="0">
					<dim>1</dim>
					<dim>48</dim>
					<dim>64</dim>
					<dim>32</dim>
				</port>
			</input>
			<output>
				<port id="1" names="570" precision="FP16">
					<dim>1</dim>
					<dim>48</dim>
					<dim>64</dim>
					<dim>32</dim>
				</port>
			</output>
		</layer>
		<layer id="404" name="571/fq_input_0" type="FakeQuantize" version="opset1">
			<data auto_broadcast="numpy" levels="256"/>
			<input>
				<port id="0">
					<dim>1</dim>
					<dim>48</dim>
					<dim>64</dim>
					<dim>32</dim>
				</port>
				<port id="1"/>
				<port id="2"/>
				<port id="3"/>
				<port id="4"/>
			</input>
			<output>
				<port id="5" precision="FP16">
					<dim>1</dim>
					<dim>48</dim>
					<dim>64</dim>
					<dim>32</dim>
				</port>
			</output>
		</layer>
		<layer id="405" name="conv2.0.conv2a.conv1.weight125115337/quantized1793133413" type="Const" version="opset1">
			<data element_type="i8" offset="21754" shape="48,48,1,1" size="2304"/>
			<output>
				<port id="0" precision="I8">
					<dim>48</dim>
					<dim>48</dim>
					<dim>1</dim>
					<dim>1</dim>
				</port>
			</output>
		</layer>
		<layer id="406" name="conv2.0.conv2a.conv1.weight125115337/quantized/to_f16" type="Convert" version="opset1">
			<data destination_type="f16"/>
			<input>
				<port id="0">
					<dim>48</dim>
					<dim>48</dim>
					<dim>1</dim>
					<dim>1</dim>
				</port>
			</input>
			<output>
				<port id="1" precision="FP16">
					<dim>48</dim>
					<dim>48</dim>
					<dim>1</dim>
					<dim>1</dim>
				</port>
			</output>
		</layer>
		<layer id="407" name="571/fq_weights_1/zero_point1794432084" type="Const" version="opset1">
			<data element_type="f16" offset="24058" shape="48,1,1,1" size="96"/>
			<output>
				<port id="0" precision="FP16">
					<dim>48</dim>
					<dim>1</dim>
					<dim>1</dim>
					<dim>1</dim>
				</port>
			</output>
		</layer>
		<layer id="408" name="571/fq_weights_1/minus_zp" type="Subtract" version="opset1">
			<data auto_broadcast="numpy"/>
			<input>
				<port id="0">
					<dim>48</dim>
					<dim>48</dim>
					<dim>1</dim>
					<dim>1</dim>
				</port>
				<port id="1">
					<dim>48</dim>
					<dim>1</dim>
					<dim>1</dim>
					<dim>1</dim>
				</port>
			</input>
			<output>
				<port id="2" precision="FP16">
					<dim>48</dim>
					<dim>48</dim>
					<dim>1</dim>
					<dim>1</dim>
				</port>
			</output>
		</layer>
		<layer id="409" name="571/fq_weights_1/scale1793931709" type="Const" version="opset1">
			<data element_type="f16" offset="24154" shape="48,1,1,1" size="96"/>
			<output>
				<port id="0" precision="FP16">
					<dim>48</dim>
					<dim>1</dim>
					<dim>1</dim>
					<dim>1</dim>
				</port>
			</output>
		</layer>
		<layer id="410" name="571/fq_weights_1/mulpiply_by_scale" type="Multiply" version="opset1">
			<data auto_broadcast="numpy"/>
			<input>
				<port id="0">
					<dim>48</dim>
					<dim>48</dim>
					<dim>1</dim>
					<dim>1</dim>
				</port>
				<port id="1">
					<dim>48</dim>
					<dim>1</dim>
					<dim>1</dim>
					<dim>1</dim>
				</port>
			</input>
			<output>
				<port id="2" precision="FP16">
					<dim>48</dim>
					<dim>48</dim>
					<dim>1</dim>
					<dim>1</dim>
				</port>
			</output>
		</layer>
		<layer id="411" name="571" type="Convolution" version="opset1">
			<data auto_pad="explicit" dilations="1,1" pads_begin="0,0" pads_end="0,0" strides="1,1"/>
			<input>
				<port id="0">
					<dim>1</dim>
					<dim>48</dim>
					<dim>64</dim>
					<dim>32</dim>
				</port>
				<port id="1">
					<dim>48</dim>
					<dim>48</dim>
					<dim>1</dim>
					<dim>1</dim>
				</port>
			</input>
			<output>
				<port id="2" names="571" precision="FP16">
					<dim>1</dim>
					<dim>48</dim>
					<dim>64</dim>
					<dim>32</dim>
				</port>
			</output>
		</layer>
		<layer id="412" name="571/add_" type="Add" version="opset1">
			<data auto_broadcast="numpy"/>
			<input>
				<port id="0">
					<dim>1</dim>
					<dim>48</dim>
					<dim>64</dim>
					<dim>32</dim>
				</port>
				<port id="1">
					<dim>1</dim>
					<dim>48</dim>
					<dim>1</dim>
					<dim>1</dim>
				</port>
			</input>
			<output>
				<port id="2" precision="FP16">
					<dim>1</dim>
					<dim>48</dim>
					<dim>64</dim>
					<dim>32</dim>
				</port>
			</output>
		</layer>
		<layer id="413" name="572/fq_input_0" type="FakeQuantize" version="opset1">
			<data auto_broadcast="numpy" levels="256"/>
			<input>
				<port id="0">
					<dim>1</dim>
					<dim>48</dim>
					<dim>64</dim>
					<dim>32</dim>
				</port>
				<port id="1">
					<dim>1</dim>
					<dim>48</dim>
					<dim>1</dim>
					<dim>1</dim>
				</port>
				<port id="2">
					<dim>1</dim>
					<dim>48</dim>
					<dim>1</dim>
					<dim>1</dim>
				</port>
				<port id="3">
					<dim>1</dim>
					<dim>48</dim>
					<dim>1</dim>
					<dim>1</dim>
				</port>
				<port id="4">
					<dim>1</dim>
					<dim>48</dim>
					<dim>1</dim>
					<dim>1</dim>
				</port>
			</input>
			<output>
				<port id="5" precision="FP16">
					<dim>1</dim>
					<dim>48</dim>
					<dim>64</dim>
					<dim>32</dim>
				</port>
			</output>
		</layer>
		<layer id="414" name="24468/value2447030443" type="Const" version="opset1">
			<data element_type="i64" offset="24250" shape="5" size="40"/>
			<output>
				<port id="0" precision="I64">
					<dim>5</dim>
				</port>
			</output>
		</layer>
		<layer id="415" name="573/mean/Fused_Mul__copy125815340/quantized1848330107" type="Const" version="opset1">
			<data element_type="i8" offset="24290" shape="48,1,3,3" size="432"/>
			<output>
				<port id="0" precision="I8">
					<dim>48</dim>
					<dim>1</dim>
					<dim>3</dim>
					<dim>3</dim>
				</port>
			</output>
		</layer>
		<layer id="416" name="573/mean/Fused_Mul__copy125815340/quantized/to_f16" type="Convert" version="opset1">
			<data destination_type="f16"/>
			<input>
				<port id="0">
					<dim>48</dim>
					<dim>1</dim>
					<dim>3</dim>
					<dim>3</dim>
				</port>
			</input>
			<output>
				<port id="1" precision="FP16">
					<dim>48</dim>
					<dim>1</dim>
					<dim>3</dim>
					<dim>3</dim>
				</port>
			</output>
		</layer>
		<layer id="417" name="572/fq_weights_1/zero_point1849628604" type="Const" version="opset1">
			<data element_type="f16" offset="24722" shape="48,1,1,1" size="96"/>
			<output>
				<port id="0" precision="FP16">
					<dim>48</dim>
					<dim>1</dim>
					<dim>1</dim>
					<dim>1</dim>
				</port>
			</output>
		</layer>
		<layer id="418" name="572/fq_weights_1/minus_zp" type="Subtract" version="opset1">
			<data auto_broadcast="numpy"/>
			<input>
				<port id="0">
					<dim>48</dim>
					<dim>1</dim>
					<dim>3</dim>
					<dim>3</dim>
				</port>
				<port id="1">
					<dim>48</dim>
					<dim>1</dim>
					<dim>1</dim>
					<dim>1</dim>
				</port>
			</input>
			<output>
				<port id="2" precision="FP16">
					<dim>48</dim>
					<dim>1</dim>
					<dim>3</dim>
					<dim>3</dim>
				</port>
			</output>
		</layer>
		<layer id="419" name="572/fq_weights_1/scale1849130341" type="Const" version="opset1">
			<data element_type="f16" offset="24818" shape="48,1,1,1" size="96"/>
			<output>
				<port id="0" precision="FP16">
					<dim>48</dim>
					<dim>1</dim>
					<dim>1</dim>
					<dim>1</dim>
				</port>
			</output>
		</layer>
		<layer id="420" name="572/fq_weights_1/mulpiply_by_scale" type="Multiply" version="opset1">
			<data auto_broadcast="numpy"/>
			<input>
				<port id="0">
					<dim>48</dim>
					<dim>1</dim>
					<dim>3</dim>
					<dim>3</dim>
				</port>
				<port id="1">
					<dim>48</dim>
					<dim>1</dim>
					<dim>1</dim>
					<dim>1</dim>
				</port>
			</input>
			<output>
				<port id="2" precision="FP16">
					<dim>48</dim>
					<dim>1</dim>
					<dim>3</dim>
					<dim>3</dim>
				</port>
			</output>
		</layer>
		<layer id="421" name="24468" type="Reshape" version="opset1">
			<data special_zero="true"/>
			<input>
				<port id="0">
					<dim>48</dim>
					<dim>1</dim>
					<dim>3</dim>
					<dim>3</dim>
				</port>
				<port id="1">
					<dim>5</dim>
				</port>
			</input>
			<output>
				<port id="2" precision="FP16">
					<dim>48</dim>
					<dim>1</dim>
					<dim>1</dim>
					<dim>3</dim>
					<dim>3</dim>
				</port>
			</output>
		</layer>
		<layer id="422" name="572" type="GroupConvolution" version="opset1">
			<data auto_pad="explicit" dilations="1,1" pads_begin="1,1" pads_end="1,1" strides="1,1"/>
			<input>
				<port id="0">
					<dim>1</dim>
					<dim>48</dim>
					<dim>64</dim>
					<dim>32</dim>
				</port>
				<port id="1">
					<dim>48</dim>
					<dim>1</dim>
					<dim>1</dim>
					<dim>3</dim>
					<dim>3</dim>
				</port>
			</input>
			<output>
				<port id="2" precision="FP16">
					<dim>1</dim>
					<dim>48</dim>
					<dim>64</dim>
					<dim>32</dim>
				</port>
			</output>
		</layer>
		<layer id="423" name="573/variance/Fused_Add_" type="Add" version="opset1">
			<data auto_broadcast="numpy"/>
			<input>
				<port id="0">
					<dim>1</dim>
					<dim>48</dim>
					<dim>64</dim>
					<dim>32</dim>
				</port>
				<port id="1">
					<dim>1</dim>
					<dim>48</dim>
					<dim>1</dim>
					<dim>1</dim>
				</port>
			</input>
			<output>
				<port id="2" names="573" precision="FP16">
					<dim>1</dim>
					<dim>48</dim>
					<dim>64</dim>
					<dim>32</dim>
				</port>
			</output>
		</layer>
		<layer id="424" name="574" type="ReLU" version="opset1">
			<input>
				<port id="0">
					<dim>1</dim>
					<dim>48</dim>
					<dim>64</dim>
					<dim>32</dim>
				</port>
			</input>
			<output>
				<port id="1" names="574" precision="FP16">
					<dim>1</dim>
					<dim>48</dim>
					<dim>64</dim>
					<dim>32</dim>
				</port>
			</output>
		</layer>
		<layer id="425" name="611/reduce/fq_input_0" type="FakeQuantize" version="opset1">
			<data auto_broadcast="numpy" levels="256"/>
			<input>
				<port id="0">
					<dim>1</dim>
					<dim>48</dim>
					<dim>64</dim>
					<dim>32</dim>
				</port>
				<port id="1"/>
				<port id="2"/>
				<port id="3"/>
				<port id="4"/>
			</input>
			<output>
				<port id="5" precision="FP16">
					<dim>1</dim>
					<dim>48</dim>
					<dim>64</dim>
					<dim>32</dim>
				</port>
			</output>
		</layer>
		<layer id="426" name="1324126228973" type="Const" version="opset1">
			<data element_type="i64" offset="3806" shape="" size="8"/>
			<output>
				<port id="0" precision="I64"/>
			</output>
		</layer>
		<layer id="427" name="1326126328571" type="Const" version="opset1">
			<data element_type="i64" offset="3814" shape="" size="8"/>
			<output>
				<port id="0" precision="I64"/>
			</output>
		</layer>
		<layer id="428" name="611/input_rank/shape_of" type="ShapeOf" version="opset3">
			<data output_type="i64"/>
			<input>
				<port id="0">
					<dim>1</dim>
					<dim>48</dim>
					<dim>64</dim>
					<dim>32</dim>
				</port>
			</input>
			<output>
				<port id="1" precision="I64">
					<dim>4</dim>
				</port>
			</output>
		</layer>
		<layer id="429" name="611/input_rank/rank_of" type="ShapeOf" version="opset3">
			<data output_type="i64"/>
			<input>
				<port id="0">
					<dim>4</dim>
				</port>
			</input>
			<output>
				<port id="1" precision="I64">
					<dim>1</dim>
				</port>
			</output>
		</layer>
		<layer id="430" name="611/input_rank/0d_rank_of/value126629780" type="Const" version="opset1">
			<data element_type="i64" offset="11778" shape="1" size="8"/>
			<output>
				<port id="0" precision="I64">
					<dim>1</dim>
				</port>
			</output>
		</layer>
		<layer id="431" name="611/input_rank" type="Squeeze" version="opset1">
			<input>
				<port id="0">
					<dim>1</dim>
				</port>
				<port id="1">
					<dim>1</dim>
				</port>
			</input>
			<output>
				<port id="2" precision="I64"/>
			</output>
		</layer>
		<layer id="432" name="611/global_pooling_reduce_axis" type="Range" version="opset4">
			<data output_type="i64"/>
			<input>
				<port id="0"/>
				<port id="1"/>
				<port id="2"/>
			</input>
			<output>
				<port id="3" precision="I64">
					<dim>2</dim>
				</port>
			</output>
		</layer>
		<layer id="433" name="611/reduce" type="ReduceMean" version="opset1">
			<data keep_dims="true"/>
			<input>
				<port id="0">
					<dim>1</dim>
					<dim>48</dim>
					<dim>64</dim>
					<dim>32</dim>
				</port>
				<port id="1">
					<dim>2</dim>
				</port>
			</input>
			<output>
				<port id="2" names="611" precision="FP16">
					<dim>1</dim>
					<dim>48</dim>
					<dim>1</dim>
					<dim>1</dim>
				</port>
			</output>
		</layer>
		<layer id="434" name="conv2.0.gate.fc1.weight127033098" type="Const" version="opset1">
			<data element_type="f16" offset="24914" shape="3,48,1,1" size="288"/>
			<output>
				<port id="0" names="conv2.0.gate.fc1.weight" precision="FP16">
					<dim>3</dim>
					<dim>48</dim>
					<dim>1</dim>
					<dim>1</dim>
				</port>
			</output>
		</layer>
		<layer id="435" name="612/WithoutBiases" type="Convolution" version="opset1">
			<data auto_pad="explicit" dilations="1,1" pads_begin="0,0" pads_end="0,0" strides="1,1"/>
			<input>
				<port id="0">
					<dim>1</dim>
					<dim>48</dim>
					<dim>1</dim>
					<dim>1</dim>
				</port>
				<port id="1">
					<dim>3</dim>
					<dim>48</dim>
					<dim>1</dim>
					<dim>1</dim>
				</port>
			</input>
			<output>
				<port id="2" precision="FP16">
					<dim>1</dim>
					<dim>3</dim>
					<dim>1</dim>
					<dim>1</dim>
				</port>
			</output>
		</layer>
		<layer id="436" name="612/Dims13004127230218" type="Const" version="opset1">
			<data element_type="f16" offset="25202" shape="1,3,1,1" size="6"/>
			<output>
				<port id="0" precision="FP16">
					<dim>1</dim>
					<dim>3</dim>
					<dim>1</dim>
					<dim>1</dim>
				</port>
			</output>
		</layer>
		<layer id="437" name="612" type="Add" version="opset1">
			<data auto_broadcast="numpy"/>
			<input>
				<port id="0">
					<dim>1</dim>
					<dim>3</dim>
					<dim>1</dim>
					<dim>1</dim>
				</port>
				<port id="1">
					<dim>1</dim>
					<dim>3</dim>
					<dim>1</dim>
					<dim>1</dim>
				</port>
			</input>
			<output>
				<port id="2" names="612" precision="FP16">
					<dim>1</dim>
					<dim>3</dim>
					<dim>1</dim>
					<dim>1</dim>
				</port>
			</output>
		</layer>
		<layer id="438" name="613" type="ReLU" version="opset1">
			<input>
				<port id="0">
					<dim>1</dim>
					<dim>3</dim>
					<dim>1</dim>
					<dim>1</dim>
				</port>
			</input>
			<output>
				<port id="1" names="613" precision="FP16">
					<dim>1</dim>
					<dim>3</dim>
					<dim>1</dim>
					<dim>1</dim>
				</port>
			</output>
		</layer>
		<layer id="439" name="conv2.0.gate.fc2.weight127531637" type="Const" version="opset1">
			<data element_type="f16" offset="25208" shape="48,3,1,1" size="288"/>
			<output>
				<port id="0" names="conv2.0.gate.fc2.weight" precision="FP16">
					<dim>48</dim>
					<dim>3</dim>
					<dim>1</dim>
					<dim>1</dim>
				</port>
			</output>
		</layer>
		<layer id="440" name="614/WithoutBiases" type="Convolution" version="opset1">
			<data auto_pad="explicit" dilations="1,1" pads_begin="0,0" pads_end="0,0" strides="1,1"/>
			<input>
				<port id="0">
					<dim>1</dim>
					<dim>3</dim>
					<dim>1</dim>
					<dim>1</dim>
				</port>
				<port id="1">
					<dim>48</dim>
					<dim>3</dim>
					<dim>1</dim>
					<dim>1</dim>
				</port>
			</input>
			<output>
				<port id="2" precision="FP16">
					<dim>1</dim>
					<dim>48</dim>
					<dim>1</dim>
					<dim>1</dim>
				</port>
			</output>
		</layer>
		<layer id="441" name="614/Dims12914127730305" type="Const" version="opset1">
			<data element_type="f16" offset="25496" shape="1,48,1,1" size="96"/>
			<output>
				<port id="0" precision="FP16">
					<dim>1</dim>
					<dim>48</dim>
					<dim>1</dim>
					<dim>1</dim>
				</port>
			</output>
		</layer>
		<layer id="442" name="614" type="Add" version="opset1">
			<data auto_broadcast="numpy"/>
			<input>
				<port id="0">
					<dim>1</dim>
					<dim>48</dim>
					<dim>1</dim>
					<dim>1</dim>
				</port>
				<port id="1">
					<dim>1</dim>
					<dim>48</dim>
					<dim>1</dim>
					<dim>1</dim>
				</port>
			</input>
			<output>
				<port id="2" names="614" precision="FP16">
					<dim>1</dim>
					<dim>48</dim>
					<dim>1</dim>
					<dim>1</dim>
				</port>
			</output>
		</layer>
		<layer id="443" name="615" type="Sigmoid" version="opset1">
			<input>
				<port id="0">
					<dim>1</dim>
					<dim>48</dim>
					<dim>1</dim>
					<dim>1</dim>
				</port>
			</input>
			<output>
				<port id="1" names="615" precision="FP16">
					<dim>1</dim>
					<dim>48</dim>
					<dim>1</dim>
					<dim>1</dim>
				</port>
			</output>
		</layer>
		<layer id="444" name="616/fq_input_1" type="FakeQuantize" version="opset1">
			<data auto_broadcast="numpy" levels="256"/>
			<input>
				<port id="0">
					<dim>1</dim>
					<dim>48</dim>
					<dim>1</dim>
					<dim>1</dim>
				</port>
				<port id="1"/>
				<port id="2"/>
				<port id="3"/>
				<port id="4"/>
			</input>
			<output>
				<port id="5" precision="FP16">
					<dim>1</dim>
					<dim>48</dim>
					<dim>1</dim>
					<dim>1</dim>
				</port>
			</output>
		</layer>
		<layer id="445" name="616" type="Multiply" version="opset1">
			<data auto_broadcast="numpy"/>
			<input>
				<port id="0">
					<dim>1</dim>
					<dim>48</dim>
					<dim>64</dim>
					<dim>32</dim>
				</port>
				<port id="1">
					<dim>1</dim>
					<dim>48</dim>
					<dim>1</dim>
					<dim>1</dim>
				</port>
			</input>
			<output>
				<port id="2" names="616" precision="FP16">
					<dim>1</dim>
					<dim>48</dim>
					<dim>64</dim>
					<dim>32</dim>
				</port>
			</output>
		</layer>
		<layer id="446" name="623/fq_input_0" type="FakeQuantize" version="opset1">
			<data auto_broadcast="numpy" levels="256"/>
			<input>
				<port id="0">
					<dim>1</dim>
					<dim>48</dim>
					<dim>64</dim>
					<dim>32</dim>
				</port>
				<port id="1"/>
				<port id="2"/>
				<port id="3"/>
				<port id="4"/>
			</input>
			<output>
				<port id="5" precision="FP16">
					<dim>1</dim>
					<dim>48</dim>
					<dim>64</dim>
					<dim>32</dim>
				</port>
			</output>
		</layer>
		<layer id="447" name="5927593128538" type="Const" version="opset1">
			<data element_type="f16" offset="2824" shape="" size="2"/>
			<output>
				<port id="0" precision="FP16"/>
			</output>
		</layer>
		<layer id="448" name="5928593232237" type="Const" version="opset1">
			<data element_type="f16" offset="25592" shape="" size="2"/>
			<output>
				<port id="0" precision="FP16"/>
			</output>
		</layer>
		<layer id="449" name="5929593330776" type="Const" version="opset1">
			<data element_type="f16" offset="2824" shape="" size="2"/>
			<output>
				<port id="0" precision="FP16"/>
			</output>
		</layer>
		<layer id="450" name="5930593428490" type="Const" version="opset1">
			<data element_type="f16" offset="25592" shape="" size="2"/>
			<output>
				<port id="0" precision="FP16"/>
			</output>
		</layer>
		<layer id="451" name="8107811129633" type="Const" version="opset1">
			<data element_type="f16" offset="2824" shape="" size="2"/>
			<output>
				<port id="0" precision="FP16"/>
			</output>
		</layer>
		<layer id="452" name="8108811232057" type="Const" version="opset1">
			<data element_type="f16" offset="25594" shape="" size="2"/>
			<output>
				<port id="0" precision="FP16"/>
			</output>
		</layer>
		<layer id="453" name="8109811332426" type="Const" version="opset1">
			<data element_type="f16" offset="2824" shape="" size="2"/>
			<output>
				<port id="0" precision="FP16"/>
			</output>
		</layer>
		<layer id="454" name="8110811431970" type="Const" version="opset1">
			<data element_type="f16" offset="25594" shape="" size="2"/>
			<output>
				<port id="0" precision="FP16"/>
			</output>
		</layer>
		<layer id="455" name="5007501130962" type="Const" version="opset1">
			<data element_type="f16" offset="2824" shape="" size="2"/>
			<output>
				<port id="0" precision="FP16"/>
			</output>
		</layer>
		<layer id="456" name="5008501230560" type="Const" version="opset1">
			<data element_type="f16" offset="25596" shape="" size="2"/>
			<output>
				<port id="0" precision="FP16"/>
			</output>
		</layer>
		<layer id="457" name="5009501331373" type="Const" version="opset1">
			<data element_type="f16" offset="2824" shape="" size="2"/>
			<output>
				<port id="0" precision="FP16"/>
			</output>
		</layer>
		<layer id="458" name="5010501428364" type="Const" version="opset1">
			<data element_type="f16" offset="25596" shape="" size="2"/>
			<output>
				<port id="0" precision="FP16"/>
			</output>
		</layer>
		<layer id="459" name="data_add_2177721782128132537" type="Const" version="opset1">
			<data element_type="f16" offset="25598" shape="1,48,1,1" size="96"/>
			<output>
				<port id="0" precision="FP16">
					<dim>1</dim>
					<dim>48</dim>
					<dim>1</dim>
					<dim>1</dim>
				</port>
			</output>
		</layer>
		<layer id="460" name="7497750129237" type="Const" version="opset1">
			<data element_type="f16" offset="25694" shape="1,48,1,1" size="96"/>
			<output>
				<port id="0" precision="FP16">
					<dim>1</dim>
					<dim>48</dim>
					<dim>1</dim>
					<dim>1</dim>
				</port>
			</output>
		</layer>
		<layer id="461" name="7498750233023" type="Const" version="opset1">
			<data element_type="f16" offset="25790" shape="1,48,1,1" size="96"/>
			<output>
				<port id="0" precision="FP16">
					<dim>1</dim>
					<dim>48</dim>
					<dim>1</dim>
					<dim>1</dim>
				</port>
			</output>
		</layer>
		<layer id="462" name="7499750332177" type="Const" version="opset1">
			<data element_type="f16" offset="25694" shape="1,48,1,1" size="96"/>
			<output>
				<port id="0" precision="FP16">
					<dim>1</dim>
					<dim>48</dim>
					<dim>1</dim>
					<dim>1</dim>
				</port>
			</output>
		</layer>
		<layer id="463" name="7500750429039" type="Const" version="opset1">
			<data element_type="f16" offset="25790" shape="1,48,1,1" size="96"/>
			<output>
				<port id="0" precision="FP16">
					<dim>1</dim>
					<dim>48</dim>
					<dim>1</dim>
					<dim>1</dim>
				</port>
			</output>
		</layer>
		<layer id="464" name="2880288233233" type="Const" version="opset1">
			<data element_type="f16" offset="10790" shape="1,48,1,1" size="96"/>
			<output>
				<port id="0" precision="FP16">
					<dim>1</dim>
					<dim>48</dim>
					<dim>1</dim>
					<dim>1</dim>
				</port>
			</output>
		</layer>
		<layer id="465" name="4847485129543" type="Const" version="opset1">
			<data element_type="f16" offset="2824" shape="" size="2"/>
			<output>
				<port id="0" precision="FP16"/>
			</output>
		</layer>
		<layer id="466" name="4848485231739" type="Const" version="opset1">
			<data element_type="f16" offset="25886" shape="" size="2"/>
			<output>
				<port id="0" precision="FP16"/>
			</output>
		</layer>
		<layer id="467" name="4849485328910" type="Const" version="opset1">
			<data element_type="f16" offset="2824" shape="" size="2"/>
			<output>
				<port id="0" precision="FP16"/>
			</output>
		</layer>
		<layer id="468" name="4850485429201" type="Const" version="opset1">
			<data element_type="f16" offset="25886" shape="" size="2"/>
			<output>
				<port id="0" precision="FP16"/>
			</output>
		</layer>
		<layer id="469" name="data_add_2176921774128333785" type="Const" version="opset1">
			<data element_type="f16" offset="25888" shape="1,48,1,1" size="96"/>
			<output>
				<port id="0" precision="FP16">
					<dim>1</dim>
					<dim>48</dim>
					<dim>1</dim>
					<dim>1</dim>
				</port>
			</output>
		</layer>
		<layer id="470" name="6007601132228" type="Const" version="opset1">
			<data element_type="f16" offset="25984" shape="1,48,1,1" size="96"/>
			<output>
				<port id="0" precision="FP16">
					<dim>1</dim>
					<dim>48</dim>
					<dim>1</dim>
					<dim>1</dim>
				</port>
			</output>
		</layer>
		<layer id="471" name="6008601228478" type="Const" version="opset1">
			<data element_type="f16" offset="26080" shape="1,48,1,1" size="96"/>
			<output>
				<port id="0" precision="FP16">
					<dim>1</dim>
					<dim>48</dim>
					<dim>1</dim>
					<dim>1</dim>
				</port>
			</output>
		</layer>
		<layer id="472" name="6009601332189" type="Const" version="opset1">
			<data element_type="f16" offset="25984" shape="1,48,1,1" size="96"/>
			<output>
				<port id="0" precision="FP16">
					<dim>1</dim>
					<dim>48</dim>
					<dim>1</dim>
					<dim>1</dim>
				</port>
			</output>
		</layer>
		<layer id="473" name="6010601433653" type="Const" version="opset1">
			<data element_type="f16" offset="26080" shape="1,48,1,1" size="96"/>
			<output>
				<port id="0" precision="FP16">
					<dim>1</dim>
					<dim>48</dim>
					<dim>1</dim>
					<dim>1</dim>
				</port>
			</output>
		</layer>
		<layer id="474" name="2876287830425" type="Const" version="opset1">
			<data element_type="f16" offset="10790" shape="1,48,1,1" size="96"/>
			<output>
				<port id="0" precision="FP16">
					<dim>1</dim>
					<dim>48</dim>
					<dim>1</dim>
					<dim>1</dim>
				</port>
			</output>
		</layer>
		<layer id="475" name="conv2.0.conv2b.0.conv1.weight128415351/quantized1965933146" type="Const" version="opset1">
			<data element_type="i8" offset="26176" shape="48,48,1,1" size="2304"/>
			<output>
				<port id="0" precision="I8">
					<dim>48</dim>
					<dim>48</dim>
					<dim>1</dim>
					<dim>1</dim>
				</port>
			</output>
		</layer>
		<layer id="476" name="conv2.0.conv2b.0.conv1.weight128415351/quantized/to_f16" type="Convert" version="opset1">
			<data destination_type="f16"/>
			<input>
				<port id="0">
					<dim>48</dim>
					<dim>48</dim>
					<dim>1</dim>
					<dim>1</dim>
				</port>
			</input>
			<output>
				<port id="1" precision="FP16">
					<dim>48</dim>
					<dim>48</dim>
					<dim>1</dim>
					<dim>1</dim>
				</port>
			</output>
		</layer>
		<layer id="477" name="575/fq_weights_1/zero_point1967229018" type="Const" version="opset1">
			<data element_type="f16" offset="28480" shape="48,1,1,1" size="96"/>
			<output>
				<port id="0" precision="FP16">
					<dim>48</dim>
					<dim>1</dim>
					<dim>1</dim>
					<dim>1</dim>
				</port>
			</output>
		</layer>
		<layer id="478" name="575/fq_weights_1/minus_zp" type="Subtract" version="opset1">
			<data auto_broadcast="numpy"/>
			<input>
				<port id="0">
					<dim>48</dim>
					<dim>48</dim>
					<dim>1</dim>
					<dim>1</dim>
				</port>
				<port id="1">
					<dim>48</dim>
					<dim>1</dim>
					<dim>1</dim>
					<dim>1</dim>
				</port>
			</input>
			<output>
				<port id="2" precision="FP16">
					<dim>48</dim>
					<dim>48</dim>
					<dim>1</dim>
					<dim>1</dim>
				</port>
			</output>
		</layer>
		<layer id="479" name="575/fq_weights_1/scale1966729207" type="Const" version="opset1">
			<data element_type="f16" offset="28576" shape="48,1,1,1" size="96"/>
			<output>
				<port id="0" precision="FP16">
					<dim>48</dim>
					<dim>1</dim>
					<dim>1</dim>
					<dim>1</dim>
				</port>
			</output>
		</layer>
		<layer id="480" name="575/fq_weights_1/mulpiply_by_scale" type="Multiply" version="opset1">
			<data auto_broadcast="numpy"/>
			<input>
				<port id="0">
					<dim>48</dim>
					<dim>48</dim>
					<dim>1</dim>
					<dim>1</dim>
				</port>
				<port id="1">
					<dim>48</dim>
					<dim>1</dim>
					<dim>1</dim>
					<dim>1</dim>
				</port>
			</input>
			<output>
				<port id="2" precision="FP16">
					<dim>48</dim>
					<dim>48</dim>
					<dim>1</dim>
					<dim>1</dim>
				</port>
			</output>
		</layer>
		<layer id="481" name="575" type="Convolution" version="opset1">
			<data auto_pad="explicit" dilations="1,1" pads_begin="0,0" pads_end="0,0" strides="1,1"/>
			<input>
				<port id="0">
					<dim>1</dim>
					<dim>48</dim>
					<dim>64</dim>
					<dim>32</dim>
				</port>
				<port id="1">
					<dim>48</dim>
					<dim>48</dim>
					<dim>1</dim>
					<dim>1</dim>
				</port>
			</input>
			<output>
				<port id="2" names="575" precision="FP16">
					<dim>1</dim>
					<dim>48</dim>
					<dim>64</dim>
					<dim>32</dim>
				</port>
			</output>
		</layer>
		<layer id="482" name="575/add_" type="Add" version="opset1">
			<data auto_broadcast="numpy"/>
			<input>
				<port id="0">
					<dim>1</dim>
					<dim>48</dim>
					<dim>64</dim>
					<dim>32</dim>
				</port>
				<port id="1">
					<dim>1</dim>
					<dim>48</dim>
					<dim>1</dim>
					<dim>1</dim>
				</port>
			</input>
			<output>
				<port id="2" precision="FP16">
					<dim>1</dim>
					<dim>48</dim>
					<dim>64</dim>
					<dim>32</dim>
				</port>
			</output>
		</layer>
		<layer id="483" name="576/fq_input_0" type="FakeQuantize" version="opset1">
			<data auto_broadcast="numpy" levels="256"/>
			<input>
				<port id="0">
					<dim>1</dim>
					<dim>48</dim>
					<dim>64</dim>
					<dim>32</dim>
				</port>
				<port id="1">
					<dim>1</dim>
					<dim>48</dim>
					<dim>1</dim>
					<dim>1</dim>
				</port>
				<port id="2">
					<dim>1</dim>
					<dim>48</dim>
					<dim>1</dim>
					<dim>1</dim>
				</port>
				<port id="3">
					<dim>1</dim>
					<dim>48</dim>
					<dim>1</dim>
					<dim>1</dim>
				</port>
				<port id="4">
					<dim>1</dim>
					<dim>48</dim>
					<dim>1</dim>
					<dim>1</dim>
				</port>
			</input>
			<output>
				<port id="5" precision="FP16">
					<dim>1</dim>
					<dim>48</dim>
					<dim>64</dim>
					<dim>32</dim>
				</port>
			</output>
		</layer>
		<layer id="484" name="24404/value2440630896" type="Const" version="opset1">
			<data element_type="i64" offset="24250" shape="5" size="40"/>
			<output>
				<port id="0" precision="I64">
					<dim>5</dim>
				</port>
			</output>
		</layer>
		<layer id="485" name="577/mean/Fused_Mul__copy128615352/quantized1901131184" type="Const" version="opset1">
			<data element_type="i8" offset="28672" shape="48,1,3,3" size="432"/>
			<output>
				<port id="0" precision="I8">
					<dim>48</dim>
					<dim>1</dim>
					<dim>3</dim>
					<dim>3</dim>
				</port>
			</output>
		</layer>
		<layer id="486" name="577/mean/Fused_Mul__copy128615352/quantized/to_f16" type="Convert" version="opset1">
			<data destination_type="f16"/>
			<input>
				<port id="0">
					<dim>48</dim>
					<dim>1</dim>
					<dim>3</dim>
					<dim>3</dim>
				</port>
			</input>
			<output>
				<port id="1" precision="FP16">
					<dim>48</dim>
					<dim>1</dim>
					<dim>3</dim>
					<dim>3</dim>
				</port>
			</output>
		</layer>
		<layer id="487" name="576/fq_weights_1/zero_point1902429975" type="Const" version="opset1">
			<data element_type="f16" offset="29104" shape="48,1,1,1" size="96"/>
			<output>
				<port id="0" precision="FP16">
					<dim>48</dim>
					<dim>1</dim>
					<dim>1</dim>
					<dim>1</dim>
				</port>
			</output>
		</layer>
		<layer id="488" name="576/fq_weights_1/minus_zp" type="Subtract" version="opset1">
			<data auto_broadcast="numpy"/>
			<input>
				<port id="0">
					<dim>48</dim>
					<dim>1</dim>
					<dim>3</dim>
					<dim>3</dim>
				</port>
				<port id="1">
					<dim>48</dim>
					<dim>1</dim>
					<dim>1</dim>
					<dim>1</dim>
				</port>
			</input>
			<output>
				<port id="2" precision="FP16">
					<dim>48</dim>
					<dim>1</dim>
					<dim>3</dim>
					<dim>3</dim>
				</port>
			</output>
		</layer>
		<layer id="489" name="576/fq_weights_1/scale1901930491" type="Const" version="opset1">
			<data element_type="f16" offset="29200" shape="48,1,1,1" size="96"/>
			<output>
				<port id="0" precision="FP16">
					<dim>48</dim>
					<dim>1</dim>
					<dim>1</dim>
					<dim>1</dim>
				</port>
			</output>
		</layer>
		<layer id="490" name="576/fq_weights_1/mulpiply_by_scale" type="Multiply" version="opset1">
			<data auto_broadcast="numpy"/>
			<input>
				<port id="0">
					<dim>48</dim>
					<dim>1</dim>
					<dim>3</dim>
					<dim>3</dim>
				</port>
				<port id="1">
					<dim>48</dim>
					<dim>1</dim>
					<dim>1</dim>
					<dim>1</dim>
				</port>
			</input>
			<output>
				<port id="2" precision="FP16">
					<dim>48</dim>
					<dim>1</dim>
					<dim>3</dim>
					<dim>3</dim>
				</port>
			</output>
		</layer>
		<layer id="491" name="24404" type="Reshape" version="opset1">
			<data special_zero="true"/>
			<input>
				<port id="0">
					<dim>48</dim>
					<dim>1</dim>
					<dim>3</dim>
					<dim>3</dim>
				</port>
				<port id="1">
					<dim>5</dim>
				</port>
			</input>
			<output>
				<port id="2" precision="FP16">
					<dim>48</dim>
					<dim>1</dim>
					<dim>1</dim>
					<dim>3</dim>
					<dim>3</dim>
				</port>
			</output>
		</layer>
		<layer id="492" name="576" type="GroupConvolution" version="opset1">
			<data auto_pad="explicit" dilations="1,1" pads_begin="1,1" pads_end="1,1" strides="1,1"/>
			<input>
				<port id="0">
					<dim>1</dim>
					<dim>48</dim>
					<dim>64</dim>
					<dim>32</dim>
				</port>
				<port id="1">
					<dim>48</dim>
					<dim>1</dim>
					<dim>1</dim>
					<dim>3</dim>
					<dim>3</dim>
				</port>
			</input>
			<output>
				<port id="2" precision="FP16">
					<dim>1</dim>
					<dim>48</dim>
					<dim>64</dim>
					<dim>32</dim>
				</port>
			</output>
		</layer>
		<layer id="493" name="577/variance/Fused_Add_" type="Add" version="opset1">
			<data auto_broadcast="numpy"/>
			<input>
				<port id="0">
					<dim>1</dim>
					<dim>48</dim>
					<dim>64</dim>
					<dim>32</dim>
				</port>
				<port id="1">
					<dim>1</dim>
					<dim>48</dim>
					<dim>1</dim>
					<dim>1</dim>
				</port>
			</input>
			<output>
				<port id="2" names="577" precision="FP16">
					<dim>1</dim>
					<dim>48</dim>
					<dim>64</dim>
					<dim>32</dim>
				</port>
			</output>
		</layer>
		<layer id="494" name="578" type="ReLU" version="opset1">
			<input>
				<port id="0">
					<dim>1</dim>
					<dim>48</dim>
					<dim>64</dim>
					<dim>32</dim>
				</port>
			</input>
			<output>
				<port id="1" names="578" precision="FP16">
					<dim>1</dim>
					<dim>48</dim>
					<dim>64</dim>
					<dim>32</dim>
				</port>
			</output>
		</layer>
		<layer id="495" name="579/fq_input_0" type="FakeQuantize" version="opset1">
			<data auto_broadcast="numpy" levels="256"/>
			<input>
				<port id="0">
					<dim>1</dim>
					<dim>48</dim>
					<dim>64</dim>
					<dim>32</dim>
				</port>
				<port id="1"/>
				<port id="2"/>
				<port id="3"/>
				<port id="4"/>
			</input>
			<output>
				<port id="5" precision="FP16">
					<dim>1</dim>
					<dim>48</dim>
					<dim>64</dim>
					<dim>32</dim>
				</port>
			</output>
		</layer>
		<layer id="496" name="conv2.0.conv2b.1.conv1.weight128215349/quantized1814728481" type="Const" version="opset1">
			<data element_type="i8" offset="29296" shape="48,48,1,1" size="2304"/>
			<output>
				<port id="0" precision="I8">
					<dim>48</dim>
					<dim>48</dim>
					<dim>1</dim>
					<dim>1</dim>
				</port>
			</output>
		</layer>
		<layer id="497" name="conv2.0.conv2b.1.conv1.weight128215349/quantized/to_f16" type="Convert" version="opset1">
			<data destination_type="f16"/>
			<input>
				<port id="0">
					<dim>48</dim>
					<dim>48</dim>
					<dim>1</dim>
					<dim>1</dim>
				</port>
			</input>
			<output>
				<port id="1" precision="FP16">
					<dim>48</dim>
					<dim>48</dim>
					<dim>1</dim>
					<dim>1</dim>
				</port>
			</output>
		</layer>
		<layer id="498" name="579/fq_weights_1/zero_point1816032378" type="Const" version="opset1">
			<data element_type="f16" offset="31600" shape="48,1,1,1" size="96"/>
			<output>
				<port id="0" precision="FP16">
					<dim>48</dim>
					<dim>1</dim>
					<dim>1</dim>
					<dim>1</dim>
				</port>
			</output>
		</layer>
		<layer id="499" name="579/fq_weights_1/minus_zp" type="Subtract" version="opset1">
			<data auto_broadcast="numpy"/>
			<input>
				<port id="0">
					<dim>48</dim>
					<dim>48</dim>
					<dim>1</dim>
					<dim>1</dim>
				</port>
				<port id="1">
					<dim>48</dim>
					<dim>1</dim>
					<dim>1</dim>
					<dim>1</dim>
				</port>
			</input>
			<output>
				<port id="2" precision="FP16">
					<dim>48</dim>
					<dim>48</dim>
					<dim>1</dim>
					<dim>1</dim>
				</port>
			</output>
		</layer>
		<layer id="500" name="579/fq_weights_1/scale1815530209" type="Const" version="opset1">
			<data element_type="f16" offset="31696" shape="48,1,1,1" size="96"/>
			<output>
				<port id="0" precision="FP16">
					<dim>48</dim>
					<dim>1</dim>
					<dim>1</dim>
					<dim>1</dim>
				</port>
			</output>
		</layer>
		<layer id="501" name="579/fq_weights_1/mulpiply_by_scale" type="Multiply" version="opset1">
			<data auto_broadcast="numpy"/>
			<input>
				<port id="0">
					<dim>48</dim>
					<dim>48</dim>
					<dim>1</dim>
					<dim>1</dim>
				</port>
				<port id="1">
					<dim>48</dim>
					<dim>1</dim>
					<dim>1</dim>
					<dim>1</dim>
				</port>
			</input>
			<output>
				<port id="2" precision="FP16">
					<dim>48</dim>
					<dim>48</dim>
					<dim>1</dim>
					<dim>1</dim>
				</port>
			</output>
		</layer>
		<layer id="502" name="579" type="Convolution" version="opset1">
			<data auto_pad="explicit" dilations="1,1" pads_begin="0,0" pads_end="0,0" strides="1,1"/>
			<input>
				<port id="0">
					<dim>1</dim>
					<dim>48</dim>
					<dim>64</dim>
					<dim>32</dim>
				</port>
				<port id="1">
					<dim>48</dim>
					<dim>48</dim>
					<dim>1</dim>
					<dim>1</dim>
				</port>
			</input>
			<output>
				<port id="2" names="579" precision="FP16">
					<dim>1</dim>
					<dim>48</dim>
					<dim>64</dim>
					<dim>32</dim>
				</port>
			</output>
		</layer>
		<layer id="503" name="579/add_" type="Add" version="opset1">
			<data auto_broadcast="numpy"/>
			<input>
				<port id="0">
					<dim>1</dim>
					<dim>48</dim>
					<dim>64</dim>
					<dim>32</dim>
				</port>
				<port id="1">
					<dim>1</dim>
					<dim>48</dim>
					<dim>1</dim>
					<dim>1</dim>
				</port>
			</input>
			<output>
				<port id="2" precision="FP16">
					<dim>1</dim>
					<dim>48</dim>
					<dim>64</dim>
					<dim>32</dim>
				</port>
			</output>
		</layer>
		<layer id="504" name="580/fq_input_0" type="FakeQuantize" version="opset1">
			<data auto_broadcast="numpy" levels="256"/>
			<input>
				<port id="0">
					<dim>1</dim>
					<dim>48</dim>
					<dim>64</dim>
					<dim>32</dim>
				</port>
				<port id="1">
					<dim>1</dim>
					<dim>48</dim>
					<dim>1</dim>
					<dim>1</dim>
				</port>
				<port id="2">
					<dim>1</dim>
					<dim>48</dim>
					<dim>1</dim>
					<dim>1</dim>
				</port>
				<port id="3">
					<dim>1</dim>
					<dim>48</dim>
					<dim>1</dim>
					<dim>1</dim>
				</port>
				<port id="4">
					<dim>1</dim>
					<dim>48</dim>
					<dim>1</dim>
					<dim>1</dim>
				</port>
			</input>
			<output>
				<port id="5" precision="FP16">
					<dim>1</dim>
					<dim>48</dim>
					<dim>64</dim>
					<dim>32</dim>
				</port>
			</output>
		</layer>
		<layer id="505" name="24592/value2459432006" type="Const" version="opset1">
			<data element_type="i64" offset="24250" shape="5" size="40"/>
			<output>
				<port id="0" precision="I64">
					<dim>5</dim>
				</port>
			</output>
		</layer>
		<layer id="506" name="581/mean/Fused_Mul__copy129115353/quantized2069131871" type="Const" version="opset1">
			<data element_type="i8" offset="31792" shape="48,1,3,3" size="432"/>
			<output>
				<port id="0" precision="I8">
					<dim>48</dim>
					<dim>1</dim>
					<dim>3</dim>
					<dim>3</dim>
				</port>
			</output>
		</layer>
		<layer id="507" name="581/mean/Fused_Mul__copy129115353/quantized/to_f16" type="Convert" version="opset1">
			<data destination_type="f16"/>
			<input>
				<port id="0">
					<dim>48</dim>
					<dim>1</dim>
					<dim>3</dim>
					<dim>3</dim>
				</port>
			</input>
			<output>
				<port id="1" precision="FP16">
					<dim>48</dim>
					<dim>1</dim>
					<dim>3</dim>
					<dim>3</dim>
				</port>
			</output>
		</layer>
		<layer id="508" name="580/fq_weights_1/zero_point2070433770" type="Const" version="opset1">
			<data element_type="f16" offset="32224" shape="48,1,1,1" size="96"/>
			<output>
				<port id="0" precision="FP16">
					<dim>48</dim>
					<dim>1</dim>
					<dim>1</dim>
					<dim>1</dim>
				</port>
			</output>
		</layer>
		<layer id="509" name="580/fq_weights_1/minus_zp" type="Subtract" version="opset1">
			<data auto_broadcast="numpy"/>
			<input>
				<port id="0">
					<dim>48</dim>
					<dim>1</dim>
					<dim>3</dim>
					<dim>3</dim>
				</port>
				<port id="1">
					<dim>48</dim>
					<dim>1</dim>
					<dim>1</dim>
					<dim>1</dim>
				</port>
			</input>
			<output>
				<port id="2" precision="FP16">
					<dim>48</dim>
					<dim>1</dim>
					<dim>3</dim>
					<dim>3</dim>
				</port>
			</output>
		</layer>
		<layer id="510" name="580/fq_weights_1/scale2069928913" type="Const" version="opset1">
			<data element_type="f16" offset="32320" shape="48,1,1,1" size="96"/>
			<output>
				<port id="0" precision="FP16">
					<dim>48</dim>
					<dim>1</dim>
					<dim>1</dim>
					<dim>1</dim>
				</port>
			</output>
		</layer>
		<layer id="511" name="580/fq_weights_1/mulpiply_by_scale" type="Multiply" version="opset1">
			<data auto_broadcast="numpy"/>
			<input>
				<port id="0">
					<dim>48</dim>
					<dim>1</dim>
					<dim>3</dim>
					<dim>3</dim>
				</port>
				<port id="1">
					<dim>48</dim>
					<dim>1</dim>
					<dim>1</dim>
					<dim>1</dim>
				</port>
			</input>
			<output>
				<port id="2" precision="FP16">
					<dim>48</dim>
					<dim>1</dim>
					<dim>3</dim>
					<dim>3</dim>
				</port>
			</output>
		</layer>
		<layer id="512" name="24592" type="Reshape" version="opset1">
			<data special_zero="true"/>
			<input>
				<port id="0">
					<dim>48</dim>
					<dim>1</dim>
					<dim>3</dim>
					<dim>3</dim>
				</port>
				<port id="1">
					<dim>5</dim>
				</port>
			</input>
			<output>
				<port id="2" precision="FP16">
					<dim>48</dim>
					<dim>1</dim>
					<dim>1</dim>
					<dim>3</dim>
					<dim>3</dim>
				</port>
			</output>
		</layer>
		<layer id="513" name="580" type="GroupConvolution" version="opset1">
			<data auto_pad="explicit" dilations="1,1" pads_begin="1,1" pads_end="1,1" strides="1,1"/>
			<input>
				<port id="0">
					<dim>1</dim>
					<dim>48</dim>
					<dim>64</dim>
					<dim>32</dim>
				</port>
				<port id="1">
					<dim>48</dim>
					<dim>1</dim>
					<dim>1</dim>
					<dim>3</dim>
					<dim>3</dim>
				</port>
			</input>
			<output>
				<port id="2" precision="FP16">
					<dim>1</dim>
					<dim>48</dim>
					<dim>64</dim>
					<dim>32</dim>
				</port>
			</output>
		</layer>
		<layer id="514" name="581/variance/Fused_Add_" type="Add" version="opset1">
			<data auto_broadcast="numpy"/>
			<input>
				<port id="0">
					<dim>1</dim>
					<dim>48</dim>
					<dim>64</dim>
					<dim>32</dim>
				</port>
				<port id="1">
					<dim>1</dim>
					<dim>48</dim>
					<dim>1</dim>
					<dim>1</dim>
				</port>
			</input>
			<output>
				<port id="2" names="581" precision="FP16">
					<dim>1</dim>
					<dim>48</dim>
					<dim>64</dim>
					<dim>32</dim>
				</port>
			</output>
		</layer>
		<layer id="515" name="582" type="ReLU" version="opset1">
			<input>
				<port id="0">
					<dim>1</dim>
					<dim>48</dim>
					<dim>64</dim>
					<dim>32</dim>
				</port>
			</input>
			<output>
				<port id="1" names="582" precision="FP16">
					<dim>1</dim>
					<dim>48</dim>
					<dim>64</dim>
					<dim>32</dim>
				</port>
			</output>
		</layer>
		<layer id="516" name="617/reduce/fq_input_0" type="FakeQuantize" version="opset1">
			<data auto_broadcast="numpy" levels="256"/>
			<input>
				<port id="0">
					<dim>1</dim>
					<dim>48</dim>
					<dim>64</dim>
					<dim>32</dim>
				</port>
				<port id="1"/>
				<port id="2"/>
				<port id="3"/>
				<port id="4"/>
			</input>
			<output>
				<port id="5" precision="FP16">
					<dim>1</dim>
					<dim>48</dim>
					<dim>64</dim>
					<dim>32</dim>
				</port>
			</output>
		</layer>
		<layer id="517" name="1329129529153" type="Const" version="opset1">
			<data element_type="i64" offset="3806" shape="" size="8"/>
			<output>
				<port id="0" precision="I64"/>
			</output>
		</layer>
		<layer id="518" name="1331129632546" type="Const" version="opset1">
			<data element_type="i64" offset="3814" shape="" size="8"/>
			<output>
				<port id="0" precision="I64"/>
			</output>
		</layer>
		<layer id="519" name="617/input_rank/shape_of" type="ShapeOf" version="opset3">
			<data output_type="i64"/>
			<input>
				<port id="0">
					<dim>1</dim>
					<dim>48</dim>
					<dim>64</dim>
					<dim>32</dim>
				</port>
			</input>
			<output>
				<port id="1" precision="I64">
					<dim>4</dim>
				</port>
			</output>
		</layer>
		<layer id="520" name="617/input_rank/rank_of" type="ShapeOf" version="opset3">
			<data output_type="i64"/>
			<input>
				<port id="0">
					<dim>4</dim>
				</port>
			</input>
			<output>
				<port id="1" precision="I64">
					<dim>1</dim>
				</port>
			</output>
		</layer>
		<layer id="521" name="617/input_rank/0d_rank_of/value129931706" type="Const" version="opset1">
			<data element_type="i64" offset="11778" shape="1" size="8"/>
			<output>
				<port id="0" precision="I64">
					<dim>1</dim>
				</port>
			</output>
		</layer>
		<layer id="522" name="617/input_rank" type="Squeeze" version="opset1">
			<input>
				<port id="0">
					<dim>1</dim>
				</port>
				<port id="1">
					<dim>1</dim>
				</port>
			</input>
			<output>
				<port id="2" precision="I64"/>
			</output>
		</layer>
		<layer id="523" name="617/global_pooling_reduce_axis" type="Range" version="opset4">
			<data output_type="i64"/>
			<input>
				<port id="0"/>
				<port id="1"/>
				<port id="2"/>
			</input>
			<output>
				<port id="3" precision="I64">
					<dim>2</dim>
				</port>
			</output>
		</layer>
		<layer id="524" name="617/reduce" type="ReduceMean" version="opset1">
			<data keep_dims="true"/>
			<input>
				<port id="0">
					<dim>1</dim>
					<dim>48</dim>
					<dim>64</dim>
					<dim>32</dim>
				</port>
				<port id="1">
					<dim>2</dim>
				</port>
			</input>
			<output>
				<port id="2" names="617" precision="FP16">
					<dim>1</dim>
					<dim>48</dim>
					<dim>1</dim>
					<dim>1</dim>
				</port>
			</output>
		</layer>
		<layer id="525" name="conv2.0.gate.fc1.weight44599130332387" type="Const" version="opset1">
			<data element_type="f16" offset="24914" shape="3,48,1,1" size="288"/>
			<output>
				<port id="0" names="conv2.0.gate.fc1.weight" precision="FP16">
					<dim>3</dim>
					<dim>48</dim>
					<dim>1</dim>
					<dim>1</dim>
				</port>
			</output>
		</layer>
		<layer id="526" name="618/WithoutBiases" type="Convolution" version="opset1">
			<data auto_pad="explicit" dilations="1,1" pads_begin="0,0" pads_end="0,0" strides="1,1"/>
			<input>
				<port id="0">
					<dim>1</dim>
					<dim>48</dim>
					<dim>1</dim>
					<dim>1</dim>
				</port>
				<port id="1">
					<dim>3</dim>
					<dim>48</dim>
					<dim>1</dim>
					<dim>1</dim>
				</port>
			</input>
			<output>
				<port id="2" precision="FP16">
					<dim>1</dim>
					<dim>3</dim>
					<dim>1</dim>
					<dim>1</dim>
				</port>
			</output>
		</layer>
		<layer id="527" name="618/Dims12992130532687" type="Const" version="opset1">
			<data element_type="f16" offset="25202" shape="1,3,1,1" size="6"/>
			<output>
				<port id="0" precision="FP16">
					<dim>1</dim>
					<dim>3</dim>
					<dim>1</dim>
					<dim>1</dim>
				</port>
			</output>
		</layer>
		<layer id="528" name="618" type="Add" version="opset1">
			<data auto_broadcast="numpy"/>
			<input>
				<port id="0">
					<dim>1</dim>
					<dim>3</dim>
					<dim>1</dim>
					<dim>1</dim>
				</port>
				<port id="1">
					<dim>1</dim>
					<dim>3</dim>
					<dim>1</dim>
					<dim>1</dim>
				</port>
			</input>
			<output>
				<port id="2" names="618" precision="FP16">
					<dim>1</dim>
					<dim>3</dim>
					<dim>1</dim>
					<dim>1</dim>
				</port>
			</output>
		</layer>
		<layer id="529" name="619" type="ReLU" version="opset1">
			<input>
				<port id="0">
					<dim>1</dim>
					<dim>3</dim>
					<dim>1</dim>
					<dim>1</dim>
				</port>
			</input>
			<output>
				<port id="1" names="619" precision="FP16">
					<dim>1</dim>
					<dim>3</dim>
					<dim>1</dim>
					<dim>1</dim>
				</port>
			</output>
		</layer>
		<layer id="530" name="conv2.0.gate.fc2.weight43894130830818" type="Const" version="opset1">
			<data element_type="f16" offset="25208" shape="48,3,1,1" size="288"/>
			<output>
				<port id="0" names="conv2.0.gate.fc2.weight" precision="FP16">
					<dim>48</dim>
					<dim>3</dim>
					<dim>1</dim>
					<dim>1</dim>
				</port>
			</output>
		</layer>
		<layer id="531" name="620/WithoutBiases" type="Convolution" version="opset1">
			<data auto_pad="explicit" dilations="1,1" pads_begin="0,0" pads_end="0,0" strides="1,1"/>
			<input>
				<port id="0">
					<dim>1</dim>
					<dim>3</dim>
					<dim>1</dim>
					<dim>1</dim>
				</port>
				<port id="1">
					<dim>48</dim>
					<dim>3</dim>
					<dim>1</dim>
					<dim>1</dim>
				</port>
			</input>
			<output>
				<port id="2" precision="FP16">
					<dim>1</dim>
					<dim>48</dim>
					<dim>1</dim>
					<dim>1</dim>
				</port>
			</output>
		</layer>
		<layer id="532" name="620/Dims13016131032129" type="Const" version="opset1">
			<data element_type="f16" offset="25496" shape="1,48,1,1" size="96"/>
			<output>
				<port id="0" precision="FP16">
					<dim>1</dim>
					<dim>48</dim>
					<dim>1</dim>
					<dim>1</dim>
				</port>
			</output>
		</layer>
		<layer id="533" name="620" type="Add" version="opset1">
			<data auto_broadcast="numpy"/>
			<input>
				<port id="0">
					<dim>1</dim>
					<dim>48</dim>
					<dim>1</dim>
					<dim>1</dim>
				</port>
				<port id="1">
					<dim>1</dim>
					<dim>48</dim>
					<dim>1</dim>
					<dim>1</dim>
				</port>
			</input>
			<output>
				<port id="2" names="620" precision="FP16">
					<dim>1</dim>
					<dim>48</dim>
					<dim>1</dim>
					<dim>1</dim>
				</port>
			</output>
		</layer>
		<layer id="534" name="621" type="Sigmoid" version="opset1">
			<input>
				<port id="0">
					<dim>1</dim>
					<dim>48</dim>
					<dim>1</dim>
					<dim>1</dim>
				</port>
			</input>
			<output>
				<port id="1" names="621" precision="FP16">
					<dim>1</dim>
					<dim>48</dim>
					<dim>1</dim>
					<dim>1</dim>
				</port>
			</output>
		</layer>
		<layer id="535" name="622/fq_input_1" type="FakeQuantize" version="opset1">
			<data auto_broadcast="numpy" levels="256"/>
			<input>
				<port id="0">
					<dim>1</dim>
					<dim>48</dim>
					<dim>1</dim>
					<dim>1</dim>
				</port>
				<port id="1"/>
				<port id="2"/>
				<port id="3"/>
				<port id="4"/>
			</input>
			<output>
				<port id="5" precision="FP16">
					<dim>1</dim>
					<dim>48</dim>
					<dim>1</dim>
					<dim>1</dim>
				</port>
			</output>
		</layer>
		<layer id="536" name="622" type="Multiply" version="opset1">
			<data auto_broadcast="numpy"/>
			<input>
				<port id="0">
					<dim>1</dim>
					<dim>48</dim>
					<dim>64</dim>
					<dim>32</dim>
				</port>
				<port id="1">
					<dim>1</dim>
					<dim>48</dim>
					<dim>1</dim>
					<dim>1</dim>
				</port>
			</input>
			<output>
				<port id="2" names="622" precision="FP16">
					<dim>1</dim>
					<dim>48</dim>
					<dim>64</dim>
					<dim>32</dim>
				</port>
			</output>
		</layer>
		<layer id="537" name="623/fq_input_1" type="FakeQuantize" version="opset1">
			<data auto_broadcast="numpy" levels="256"/>
			<input>
				<port id="0">
…
		<edge from-layer="69" from-port="0" to-layer="2792" to-port="1"/>
		<edge from-layer="2792" from-port="2" to-layer="2793" to-port="0"/>
		<edge from-layer="2793" from-port="1" to-layer="2794" to-port="0"/>
		<edge from-layer="65" from-port="0" to-layer="2794" to-port="1"/>
		<edge from-layer="66" from-port="0" to-layer="2794" to-port="2"/>
		<edge from-layer="67" from-port="0" to-layer="2794" to-port="3"/>
		<edge from-layer="68" from-port="0" to-layer="2794" to-port="4"/>
		<edge from-layer="2795" from-port="0" to-layer="2796" to-port="0"/>
		<edge from-layer="2796" from-port="1" to-layer="2798" to-port="0"/>
		<edge from-layer="2797" from-port="0" to-layer="2798" to-port="1"/>
		<edge from-layer="2798" from-port="2" to-layer="2800" to-port="0"/>
		<edge from-layer="2799" from-port="0" to-layer="2800" to-port="1"/>
		<edge from-layer="2794" from-port="5" to-layer="2801" to-port="0"/>
		<edge from-layer="2800" from-port="2" to-layer="2801" to-port="1"/>
		<edge from-layer="2801" from-port="2" to-layer="2802" to-port="0"/>
		<edge from-layer="64" from-port="0" to-layer="2802" to-port="1"/>
		<edge from-layer="2802" from-port="2" to-layer="2803" to-port="0"/>
		<edge from-layer="60" from-port="0" to-layer="2803" to-port="1"/>
		<edge from-layer="61" from-port="0" to-layer="2803" to-port="2"/>
		<edge from-layer="62" from-port="0" to-layer="2803" to-port="3"/>
		<edge from-layer="63" from-port="0" to-layer="2803" to-port="4"/>
		<edge from-layer="2805" from-port="0" to-layer="2806" to-port="0"/>
		<edge from-layer="2806" from-port="1" to-layer="2808" to-port="0"/>
		<edge from-layer="2807" from-port="0" to-layer="2808" to-port="1"/>
		<edge from-layer="2808" from-port="2" to-layer="2810" to-port="0"/>
		<edge from-layer="2809" from-port="0" to-layer="2810" to-port="1"/>
		<edge from-layer="2810" from-port="2" to-layer="2811" to-port="0"/>
		<edge from-layer="2804" from-port="0" to-layer="2811" to-port="1"/>
		<edge from-layer="2803" from-port="5" to-layer="2812" to-port="0"/>
		<edge from-layer="2811" from-port="2" to-layer="2812" to-port="1"/>
		<edge from-layer="2812" from-port="2" to-layer="2813" to-port="0"/>
		<edge from-layer="59" from-port="0" to-layer="2813" to-port="1"/>
		<edge from-layer="2813" from-port="2" to-layer="2814" to-port="0"/>
		<edge from-layer="2814" from-port="1" to-layer="2815" to-port="0"/>
		<edge from-layer="55" from-port="0" to-layer="2815" to-port="1"/>
		<edge from-layer="56" from-port="0" to-layer="2815" to-port="2"/>
		<edge from-layer="57" from-port="0" to-layer="2815" to-port="3"/>
		<edge from-layer="58" from-port="0" to-layer="2815" to-port="4"/>
		<edge from-layer="2814" from-port="1" to-layer="2818" to-port="0"/>
		<edge from-layer="2818" from-port="1" to-layer="2819" to-port="0"/>
		<edge from-layer="2819" from-port="1" to-layer="2821" to-port="0"/>
		<edge from-layer="2820" from-port="0" to-layer="2821" to-port="1"/>
		<edge from-layer="2816" from-port="0" to-layer="2822" to-port="0"/>
		<edge from-layer="2821" from-port="2" to-layer="2822" to-port="1"/>
		<edge from-layer="2817" from-port="0" to-layer="2822" to-port="2"/>
		<edge from-layer="2815" from-port="5" to-layer="2823" to-port="0"/>
		<edge from-layer="2822" from-port="3" to-layer="2823" to-port="1"/>
		<edge from-layer="2823" from-port="2" to-layer="2824" to-port="0"/>
		<edge from-layer="51" from-port="0" to-layer="2824" to-port="1"/>
		<edge from-layer="52" from-port="0" to-layer="2824" to-port="2"/>
		<edge from-layer="53" from-port="0" to-layer="2824" to-port="3"/>
		<edge from-layer="54" from-port="0" to-layer="2824" to-port="4"/>
		<edge from-layer="2824" from-port="5" to-layer="2825" to-port="0"/>
		<edge from-layer="50" from-port="0" to-layer="2825" to-port="1"/>
		<edge from-layer="2825" from-port="2" to-layer="2826" to-port="0"/>
		<edge from-layer="2826" from-port="1" to-layer="2827" to-port="0"/>
		<edge from-layer="2827" from-port="1" to-layer="2829" to-port="0"/>
		<edge from-layer="2828" from-port="0" to-layer="2829" to-port="1"/>
		<edge from-layer="48" from-port="0" to-layer="2830" to-port="0"/>
		<edge from-layer="2829" from-port="2" to-layer="2830" to-port="1"/>
		<edge from-layer="49" from-port="0" to-layer="2830" to-port="2"/>
		<edge from-layer="2825" from-port="2" to-layer="2831" to-port="0"/>
		<edge from-layer="2830" from-port="3" to-layer="2831" to-port="1"/>
		<edge from-layer="2831" from-port="2" to-layer="2833" to-port="0"/>
		<edge from-layer="2832" from-port="0" to-layer="2833" to-port="1"/>
		<edge from-layer="2833" from-port="2" to-layer="2835" to-port="0"/>
		<edge from-layer="2834" from-port="0" to-layer="2835" to-port="1"/>
		<edge from-layer="2835" from-port="2" to-layer="2836" to-port="0"/>
		<edge from-layer="44" from-port="0" to-layer="2836" to-port="1"/>
		<edge from-layer="45" from-port="0" to-layer="2836" to-port="2"/>
		<edge from-layer="46" from-port="0" to-layer="2836" to-port="3"/>
		<edge from-layer="47" from-port="0" to-layer="2836" to-port="4"/>
		<edge from-layer="2823" from-port="2" to-layer="2837" to-port="0"/>
		<edge from-layer="2836" from-port="5" to-layer="2838" to-port="0"/>
		<edge from-layer="2837" from-port="1" to-layer="2838" to-port="1"/>
		<edge from-layer="2838" from-port="2" to-layer="2839" to-port="0"/>
		<edge from-layer="43" from-port="0" to-layer="2839" to-port="1"/>
		<edge from-layer="2839" from-port="2" to-layer="2841" to-port="0"/>
		<edge from-layer="2840" from-port="0" to-layer="2841" to-port="1"/>
		<edge from-layer="2841" from-port="2" to-layer="2842" to-port="0"/>
		<edge from-layer="2842" from-port="1" to-layer="2843" to-port="0"/>
		<edge from-layer="39" from-port="0" to-layer="2843" to-port="1"/>
		<edge from-layer="40" from-port="0" to-layer="2843" to-port="2"/>
		<edge from-layer="41" from-port="0" to-layer="2843" to-port="3"/>
		<edge from-layer="42" from-port="0" to-layer="2843" to-port="4"/>
		<edge from-layer="2815" from-port="5" to-layer="2844" to-port="0"/>
		<edge from-layer="2843" from-port="5" to-layer="2844" to-port="1"/>
		<edge from-layer="2844" from-port="2" to-layer="2845" to-port="0"/>
		<edge from-layer="35" from-port="0" to-layer="2845" to-port="1"/>
		<edge from-layer="36" from-port="0" to-layer="2845" to-port="2"/>
		<edge from-layer="37" from-port="0" to-layer="2845" to-port="3"/>
		<edge from-layer="38" from-port="0" to-layer="2845" to-port="4"/>
		<edge from-layer="2886" from-port="0" to-layer="2887" to-port="0"/>
		<edge from-layer="2887" from-port="1" to-layer="2889" to-port="0"/>
		<edge from-layer="2888" from-port="0" to-layer="2889" to-port="1"/>
		<edge from-layer="2889" from-port="2" to-layer="2891" to-port="0"/>
		<edge from-layer="2890" from-port="0" to-layer="2891" to-port="1"/>
		<edge from-layer="2794" from-port="5" to-layer="2892" to-port="0"/>
		<edge from-layer="2891" from-port="2" to-layer="2892" to-port="1"/>
		<edge from-layer="2892" from-port="2" to-layer="2893" to-port="0"/>
		<edge from-layer="2885" from-port="0" to-layer="2893" to-port="1"/>
		<edge from-layer="2893" from-port="2" to-layer="2894" to-port="0"/>
		<edge from-layer="2881" from-port="0" to-layer="2894" to-port="1"/>
		<edge from-layer="2882" from-port="0" to-layer="2894" to-port="2"/>
		<edge from-layer="2883" from-port="0" to-layer="2894" to-port="3"/>
		<edge from-layer="2884" from-port="0" to-layer="2894" to-port="4"/>
		<edge from-layer="2896" from-port="0" to-layer="2897" to-port="0"/>
		<edge from-layer="2897" from-port="1" to-layer="2899" to-port="0"/>
		<edge from-layer="2898" from-port="0" to-layer="2899" to-port="1"/>
		<edge from-layer="2899" from-port="2" to-layer="2901" to-port="0"/>
		<edge from-layer="2900" from-port="0" to-layer="2901" to-port="1"/>
		<edge from-layer="2901" from-port="2" to-layer="2902" to-port="0"/>
		<edge from-layer="2895" from-port="0" to-layer="2902" to-port="1"/>
		<edge from-layer="2894" from-port="5" to-layer="2903" to-port="0"/>
		<edge from-layer="2902" from-port="2" to-layer="2903" to-port="1"/>
		<edge from-layer="2903" from-port="2" to-layer="2904" to-port="0"/>
		<edge from-layer="2880" from-port="0" to-layer="2904" to-port="1"/>
		<edge from-layer="2904" from-port="2" to-layer="2905" to-port="0"/>
		<edge from-layer="2905" from-port="1" to-layer="2906" to-port="0"/>
		<edge from-layer="2876" from-port="0" to-layer="2906" to-port="1"/>
		<edge from-layer="2877" from-port="0" to-layer="2906" to-port="2"/>
		<edge from-layer="2878" from-port="0" to-layer="2906" to-port="3"/>
		<edge from-layer="2879" from-port="0" to-layer="2906" to-port="4"/>
		<edge from-layer="2907" from-port="0" to-layer="2908" to-port="0"/>
		<edge from-layer="2908" from-port="1" to-layer="2910" to-port="0"/>
		<edge from-layer="2909" from-port="0" to-layer="2910" to-port="1"/>
		<edge from-layer="2910" from-port="2" to-layer="2912" to-port="0"/>
		<edge from-layer="2911" from-port="0" to-layer="2912" to-port="1"/>
		<edge from-layer="2906" from-port="5" to-layer="2913" to-port="0"/>
		<edge from-layer="2912" from-port="2" to-layer="2913" to-port="1"/>
		<edge from-layer="2913" from-port="2" to-layer="2914" to-port="0"/>
		<edge from-layer="2875" from-port="0" to-layer="2914" to-port="1"/>
		<edge from-layer="2914" from-port="2" to-layer="2915" to-port="0"/>
		<edge from-layer="2871" from-port="0" to-layer="2915" to-port="1"/>
		<edge from-layer="2872" from-port="0" to-layer="2915" to-port="2"/>
		<edge from-layer="2873" from-port="0" to-layer="2915" to-port="3"/>
		<edge from-layer="2874" from-port="0" to-layer="2915" to-port="4"/>
		<edge from-layer="2917" from-port="0" to-layer="2918" to-port="0"/>
		<edge from-layer="2918" from-port="1" to-layer="2920" to-port="0"/>
		<edge from-layer="2919" from-port="0" to-layer="2920" to-port="1"/>
		<edge from-layer="2920" from-port="2" to-layer="2922" to-port="0"/>
		<edge from-layer="2921" from-port="0" to-layer="2922" to-port="1"/>
		<edge from-layer="2922" from-port="2" to-layer="2923" to-port="0"/>
		<edge from-layer="2916" from-port="0" to-layer="2923" to-port="1"/>
		<edge from-layer="2915" from-port="5" to-layer="2924" to-port="0"/>
		<edge from-layer="2923" from-port="2" to-layer="2924" to-port="1"/>
		<edge from-layer="2924" from-port="2" to-layer="2925" to-port="0"/>
		<edge from-layer="2870" from-port="0" to-layer="2925" to-port="1"/>
		<edge from-layer="2925" from-port="2" to-layer="2926" to-port="0"/>
		<edge from-layer="2926" from-port="1" to-layer="2927" to-port="0"/>
		<edge from-layer="2866" from-port="0" to-layer="2927" to-port="1"/>
		<edge from-layer="2867" from-port="0" to-layer="2927" to-port="2"/>
		<edge from-layer="2868" from-port="0" to-layer="2927" to-port="3"/>
		<edge from-layer="2869" from-port="0" to-layer="2927" to-port="4"/>
		<edge from-layer="2926" from-port="1" to-layer="2930" to-port="0"/>
		<edge from-layer="2930" from-port="1" to-layer="2931" to-port="0"/>
		<edge from-layer="2931" from-port="1" to-layer="2933" to-port="0"/>
		<edge from-layer="2932" from-port="0" to-layer="2933" to-port="1"/>
		<edge from-layer="2928" from-port="0" to-layer="2934" to-port="0"/>
		<edge from-layer="2933" from-port="2" to-layer="2934" to-port="1"/>
		<edge from-layer="2929" from-port="0" to-layer="2934" to-port="2"/>
		<edge from-layer="2927" from-port="5" to-layer="2935" to-port="0"/>
		<edge from-layer="2934" from-port="3" to-layer="2935" to-port="1"/>
		<edge from-layer="2935" from-port="2" to-layer="2936" to-port="0"/>
		<edge from-layer="2862" from-port="0" to-layer="2936" to-port="1"/>
		<edge from-layer="2863" from-port="0" to-layer="2936" to-port="2"/>
		<edge from-layer="2864" from-port="0" to-layer="2936" to-port="3"/>
		<edge from-layer="2865" from-port="0" to-layer="2936" to-port="4"/>
		<edge from-layer="2936" from-port="5" to-layer="2937" to-port="0"/>
		<edge from-layer="2861" from-port="0" to-layer="2937" to-port="1"/>
		<edge from-layer="2937" from-port="2" to-layer="2938" to-port="0"/>
		<edge from-layer="2938" from-port="1" to-layer="2939" to-port="0"/>
		<edge from-layer="2939" from-port="1" to-layer="2941" to-port="0"/>
		<edge from-layer="2940" from-port="0" to-layer="2941" to-port="1"/>
		<edge from-layer="2859" from-port="0" to-layer="2942" to-port="0"/>
		<edge from-layer="2941" from-port="2" to-layer="2942" to-port="1"/>
		<edge from-layer="2860" from-port="0" to-layer="2942" to-port="2"/>
		<edge from-layer="2937" from-port="2" to-layer="2943" to-port="0"/>
		<edge from-layer="2942" from-port="3" to-layer="2943" to-port="1"/>
		<edge from-layer="2943" from-port="2" to-layer="2945" to-port="0"/>
		<edge from-layer="2944" from-port="0" to-layer="2945" to-port="1"/>
		<edge from-layer="2945" from-port="2" to-layer="2947" to-port="0"/>
		<edge from-layer="2946" from-port="0" to-layer="2947" to-port="1"/>
		<edge from-layer="2947" from-port="2" to-layer="2948" to-port="0"/>
		<edge from-layer="2855" from-port="0" to-layer="2948" to-port="1"/>
		<edge from-layer="2856" from-port="0" to-layer="2948" to-port="2"/>
		<edge from-layer="2857" from-port="0" to-layer="2948" to-port="3"/>
		<edge from-layer="2858" from-port="0" to-layer="2948" to-port="4"/>
		<edge from-layer="2935" from-port="2" to-layer="2949" to-port="0"/>
		<edge from-layer="2948" from-port="5" to-layer="2950" to-port="0"/>
		<edge from-layer="2949" from-port="1" to-layer="2950" to-port="1"/>
		<edge from-layer="2950" from-port="2" to-layer="2951" to-port="0"/>
		<edge from-layer="2854" from-port="0" to-layer="2951" to-port="1"/>
		<edge from-layer="2951" from-port="2" to-layer="2953" to-port="0"/>
		<edge from-layer="2952" from-port="0" to-layer="2953" to-port="1"/>
		<edge from-layer="2953" from-port="2" to-layer="2954" to-port="0"/>
		<edge from-layer="2954" from-port="1" to-layer="2955" to-port="0"/>
		<edge from-layer="2850" from-port="0" to-layer="2955" to-port="1"/>
		<edge from-layer="2851" from-port="0" to-layer="2955" to-port="2"/>
		<edge from-layer="2852" from-port="0" to-layer="2955" to-port="3"/>
		<edge from-layer="2853" from-port="0" to-layer="2955" to-port="4"/>
		<edge from-layer="2927" from-port="5" to-layer="2956" to-port="0"/>
		<edge from-layer="2955" from-port="5" to-layer="2956" to-port="1"/>
		<edge from-layer="2956" from-port="2" to-layer="2957" to-port="0"/>
		<edge from-layer="2846" from-port="0" to-layer="2957" to-port="1"/>
		<edge from-layer="2847" from-port="0" to-layer="2957" to-port="2"/>
		<edge from-layer="2848" from-port="0" to-layer="2957" to-port="3"/>
		<edge from-layer="2849" from-port="0" to-layer="2957" to-port="4"/>
		<edge from-layer="2845" from-port="5" to-layer="2958" to-port="0"/>
		<edge from-layer="2957" from-port="5" to-layer="2958" to-port="1"/>
		<edge from-layer="2958" from-port="2" to-layer="2959" to-port="0"/>
		<edge from-layer="31" from-port="0" to-layer="2959" to-port="1"/>
		<edge from-layer="32" from-port="0" to-layer="2959" to-port="2"/>
		<edge from-layer="33" from-port="0" to-layer="2959" to-port="3"/>
		<edge from-layer="34" from-port="0" to-layer="2959" to-port="4"/>
		<edge from-layer="3010" from-port="0" to-layer="3011" to-port="0"/>
		<edge from-layer="3011" from-port="1" to-layer="3013" to-port="0"/>
		<edge from-layer="3012" from-port="0" to-layer="3013" to-port="1"/>
		<edge from-layer="3013" from-port="2" to-layer="3015" to-port="0"/>
		<edge from-layer="3014" from-port="0" to-layer="3015" to-port="1"/>
		<edge from-layer="2794" from-port="5" to-layer="3016" to-port="0"/>
		<edge from-layer="3015" from-port="2" to-layer="3016" to-port="1"/>
		<edge from-layer="3016" from-port="2" to-layer="3017" to-port="0"/>
		<edge from-layer="3009" from-port="0" to-layer="3017" to-port="1"/>
		<edge from-layer="3017" from-port="2" to-layer="3018" to-port="0"/>
		<edge from-layer="3005" from-port="0" to-layer="3018" to-port="1"/>
		<edge from-layer="3006" from-port="0" to-layer="3018" to-port="2"/>
		<edge from-layer="3007" from-port="0" to-layer="3018" to-port="3"/>
		<edge from-layer="3008" from-port="0" to-layer="3018" to-port="4"/>
		<edge from-layer="3020" from-port="0" to-layer="3021" to-port="0"/>
		<edge from-layer="3021" from-port="1" to-layer="3023" to-port="0"/>
		<edge from-layer="3022" from-port="0" to-layer="3023" to-port="1"/>
		<edge from-layer="3023" from-port="2" to-layer="3025" to-port="0"/>
		<edge from-layer="3024" from-port="0" to-layer="3025" to-port="1"/>
		<edge from-layer="3025" from-port="2" to-layer="3026" to-port="0"/>
		<edge from-layer="3019" from-port="0" to-layer="3026" to-port="1"/>
		<edge from-layer="3018" from-port="5" to-layer="3027" to-port="0"/>
		<edge from-layer="3026" from-port="2" to-layer="3027" to-port="1"/>
		<edge from-layer="3027" from-port="2" to-layer="3028" to-port="0"/>
		<edge from-layer="3004" from-port="0" to-layer="3028" to-port="1"/>
		<edge from-layer="3028" from-port="2" to-layer="3029" to-port="0"/>
		<edge from-layer="3029" from-port="1" to-layer="3030" to-port="0"/>
		<edge from-layer="3000" from-port="0" to-layer="3030" to-port="1"/>
		<edge from-layer="3001" from-port="0" to-layer="3030" to-port="2"/>
		<edge from-layer="3002" from-port="0" to-layer="3030" to-port="3"/>
		<edge from-layer="3003" from-port="0" to-layer="3030" to-port="4"/>
		<edge from-layer="3031" from-port="0" to-layer="3032" to-port="0"/>
		<edge from-layer="3032" from-port="1" to-layer="3034" to-port="0"/>
		<edge from-layer="3033" from-port="0" to-layer="3034" to-port="1"/>
		<edge from-layer="3034" from-port="2" to-layer="3036" to-port="0"/>
		<edge from-layer="3035" from-port="0" to-layer="3036" to-port="1"/>
		<edge from-layer="3030" from-port="5" to-layer="3037" to-port="0"/>
		<edge from-layer="3036" from-port="2" to-layer="3037" to-port="1"/>
		<edge from-layer="3037" from-port="2" to-layer="3038" to-port="0"/>
		<edge from-layer="2999" from-port="0" to-layer="3038" to-port="1"/>
		<edge from-layer="3038" from-port="2" to-layer="3039" to-port="0"/>
		<edge from-layer="2995" from-port="0" to-layer="3039" to-port="1"/>
		<edge from-layer="2996" from-port="0" to-layer="3039" to-port="2"/>
		<edge from-layer="2997" from-port="0" to-layer="3039" to-port="3"/>
		<edge from-layer="2998" from-port="0" to-layer="3039" to-port="4"/>
		<edge from-layer="3041" from-port="0" to-layer="3042" to-port="0"/>
		<edge from-layer="3042" from-port="1" to-layer="3044" to-port="0"/>
		<edge from-layer="3043" from-port="0" to-layer="3044" to-port="1"/>
		<edge from-layer="3044" from-port="2" to-layer="3046" to-port="0"/>
		<edge from-layer="3045" from-port="0" to-layer="3046" to-port="1"/>
		<edge from-layer="3046" from-port="2" to-layer="3047" to-port="0"/>
		<edge from-layer="3040" from-port="0" to-layer="3047" to-port="1"/>
		<edge from-layer="3039" from-port="5" to-layer="3048" to-port="0"/>
		<edge from-layer="3047" from-port="2" to-layer="3048" to-port="1"/>
		<edge from-layer="3048" from-port="2" to-layer="3049" to-port="0"/>
		<edge from-layer="2994" from-port="0" to-layer="3049" to-port="1"/>
		<edge from-layer="3049" from-port="2" to-layer="3050" to-port="0"/>
		<edge from-layer="3050" from-port="1" to-layer="3051" to-port="0"/>
		<edge from-layer="2990" from-port="0" to-layer="3051" to-port="1"/>
		<edge from-layer="2991" from-port="0" to-layer="3051" to-port="2"/>
		<edge from-layer="2992" from-port="0" to-layer="3051" to-port="3"/>
		<edge from-layer="2993" from-port="0" to-layer="3051" to-port="4"/>
		<edge from-layer="3052" from-port="0" to-layer="3053" to-port="0"/>
		<edge from-layer="3053" from-port="1" to-layer="3055" to-port="0"/>
		<edge from-layer="3054" from-port="0" to-layer="3055" to-port="1"/>
		<edge from-layer="3055" from-port="2" to-layer="3057" to-port="0"/>
		<edge from-layer="3056" from-port="0" to-layer="3057" to-port="1"/>
		<edge from-layer="3051" from-port="5" to-layer="3058" to-port="0"/>
		<edge from-layer="3057" from-port="2" to-layer="3058" to-port="1"/>
		<edge from-layer="3058" from-port="2" to-layer="3059" to-port="0"/>
		<edge from-layer="2989" from-port="0" to-layer="3059" to-port="1"/>
		<edge from-layer="3059" from-port="2" to-layer="3060" to-port="0"/>
		<edge from-layer="2985" from-port="0" to-layer="3060" to-port="1"/>
		<edge from-layer="2986" from-port="0" to-layer="3060" to-port="2"/>
		<edge from-layer="2987" from-port="0" to-layer="3060" to-port="3"/>
		<edge from-layer="2988" from-port="0" to-layer="3060" to-port="4"/>
		<edge from-layer="3062" from-port="0" to-layer="3063" to-port="0"/>
		<edge from-layer="3063" from-port="1" to-layer="3065" to-port="0"/>
		<edge from-layer="3064" from-port="0" to-layer="3065" to-port="1"/>
		<edge from-layer="3065" from-port="2" to-layer="3067" to-port="0"/>
		<edge from-layer="3066" from-port="0" to-layer="3067" to-port="1"/>
		<edge from-layer="3067" from-port="2" to-layer="3068" to-port="0"/>
		<edge from-layer="3061" from-port="0" to-layer="3068" to-port="1"/>
		<edge from-layer="3060" from-port="5" to-layer="3069" to-port="0"/>
		<edge from-layer="3068" from-port="2" to-layer="3069" to-port="1"/>
		<edge from-layer="3069" from-port="2" to-layer="3070" to-port="0"/>
		<edge from-layer="2984" from-port="0" to-layer="3070" to-port="1"/>
		<edge from-layer="3070" from-port="2" to-layer="3071" to-port="0"/>
		<edge from-layer="3071" from-port="1" to-layer="3072" to-port="0"/>
		<edge from-layer="2980" from-port="0" to-layer="3072" to-port="1"/>
		<edge from-layer="2981" from-port="0" to-layer="3072" to-port="2"/>
		<edge from-layer="2982" from-port="0" to-layer="3072" to-port="3"/>
		<edge from-layer="2983" from-port="0" to-layer="3072" to-port="4"/>
		<edge from-layer="3071" from-port="1" to-layer="3075" to-port="0"/>
		<edge from-layer="3075" from-port="1" to-layer="3076" to-port="0"/>
		<edge from-layer="3076" from-port="1" to-layer="3078" to-port="0"/>
		<edge from-layer="3077" from-port="0" to-layer="3078" to-port="1"/>
		<edge from-layer="3073" from-port="0" to-layer="3079" to-port="0"/>
		<edge from-layer="3078" from-port="2" to-layer="3079" to-port="1"/>
		<edge from-layer="3074" from-port="0" to-layer="3079" to-port="2"/>
		<edge from-layer="3072" from-port="5" to-layer="3080" to-port="0"/>
		<edge from-layer="3079" from-port="3" to-layer="3080" to-port="1"/>
		<edge from-layer="3080" from-port="2" to-layer="3081" to-port="0"/>
		<edge from-layer="2976" from-port="0" to-layer="3081" to-port="1"/>
		<edge from-layer="2977" from-port="0" to-layer="3081" to-port="2"/>
		<edge from-layer="2978" from-port="0" to-layer="3081" to-port="3"/>
		<edge from-layer="2979" from-port="0" to-layer="3081" to-port="4"/>
		<edge from-layer="3081" from-port="5" to-layer="3082" to-port="0"/>
		<edge from-layer="2975" from-port="0" to-layer="3082" to-port="1"/>
		<edge from-layer="3082" from-port="2" to-layer="3083" to-port="0"/>
		<edge from-layer="3083" from-port="1" to-layer="3084" to-port="0"/>
		<edge from-layer="3084" from-port="1" to-layer="3086" to-port="0"/>
		<edge from-layer="3085" from-port="0" to-layer="3086" to-port="1"/>
		<edge from-layer="2973" from-port="0" to-layer="3087" to-port="0"/>
		<edge from-layer="3086" from-port="2" to-layer="3087" to-port="1"/>
		<edge from-layer="2974" from-port="0" to-layer="3087" to-port="2"/>
		<edge from-layer="3082" from-port="2" to-layer="3088" to-port="0"/>
		<edge from-layer="3087" from-port="3" to-layer="3088" to-port="1"/>
		<edge from-layer="3088" from-port="2" to-layer="3090" to-port="0"/>
		<edge from-layer="3089" from-port="0" to-layer="3090" to-port="1"/>
		<edge from-layer="3090" from-port="2" to-layer="3092" to-port="0"/>
		<edge from-layer="3091" from-port="0" to-layer="3092" to-port="1"/>
		<edge from-layer="3092" from-port="2" to-layer="3093" to-port="0"/>
		<edge from-layer="2969" from-port="0" to-layer="3093" to-port="1"/>
		<edge from-layer="2970" from-port="0" to-layer="3093" to-port="2"/>
		<edge from-layer="2971" from-port="0" to-layer="3093" to-port="3"/>
		<edge from-layer="2972" from-port="0" to-layer="3093" to-port="4"/>
		<edge from-layer="3080" from-port="2" to-layer="3094" to-port="0"/>
		<edge from-layer="3093" from-port="5" to-layer="3095" to-port="0"/>
		<edge from-layer="3094" from-port="1" to-layer="3095" to-port="1"/>
		<edge from-layer="3095" from-port="2" to-layer="3096" to-port="0"/>
		<edge from-layer="2968" from-port="0" to-layer="3096" to-port="1"/>
		<edge from-layer="3096" from-port="2" to-layer="3098" to-port="0"/>
		<edge from-layer="3097" from-port="0" to-layer="3098" to-port="1"/>
		<edge from-layer="3098" from-port="2" to-layer="3099" to-port="0"/>
		<edge from-layer="3099" from-port="1" to-layer="3100" to-port="0"/>
		<edge from-layer="2964" from-port="0" to-layer="3100" to-port="1"/>
		<edge from-layer="2965" from-port="0" to-layer="3100" to-port="2"/>
		<edge from-layer="2966" from-port="0" to-layer="3100" to-port="3"/>
		<edge from-layer="2967" from-port="0" to-layer="3100" to-port="4"/>
		<edge from-layer="3072" from-port="5" to-layer="3101" to-port="0"/>
		<edge from-layer="3100" from-port="5" to-layer="3101" to-port="1"/>
		<edge from-layer="3101" from-port="2" to-layer="3102" to-port="0"/>
		<edge from-layer="2960" from-port="0" to-layer="3102" to-port="1"/>
		<edge from-layer="2961" from-port="0" to-layer="3102" to-port="2"/>
		<edge from-layer="2962" from-port="0" to-layer="3102" to-port="3"/>
		<edge from-layer="2963" from-port="0" to-layer="3102" to-port="4"/>
		<edge from-layer="2959" from-port="5" to-layer="3103" to-port="0"/>
		<edge from-layer="3102" from-port="5" to-layer="3103" to-port="1"/>
		<edge from-layer="3103" from-port="2" to-layer="3104" to-port="0"/>
		<edge from-layer="27" from-port="0" to-layer="3104" to-port="1"/>
		<edge from-layer="28" from-port="0" to-layer="3104" to-port="2"/>
		<edge from-layer="29" from-port="0" to-layer="3104" to-port="3"/>
		<edge from-layer="30" from-port="0" to-layer="3104" to-port="4"/>
		<edge from-layer="3165" from-port="0" to-layer="3166" to-port="0"/>
		<edge from-layer="3166" from-port="1" to-layer="3168" to-port="0"/>
		<edge from-layer="3167" from-port="0" to-layer="3168" to-port="1"/>
		<edge from-layer="3168" from-port="2" to-layer="3170" to-port="0"/>
		<edge from-layer="3169" from-port="0" to-layer="3170" to-port="1"/>
		<edge from-layer="2794" from-port="5" to-layer="3171" to-port="0"/>
		<edge from-layer="3170" from-port="2" to-layer="3171" to-port="1"/>
		<edge from-layer="3171" from-port="2" to-layer="3172" to-port="0"/>
		<edge from-layer="3164" from-port="0" to-layer="3172" to-port="1"/>
		<edge from-layer="3172" from-port="2" to-layer="3173" to-port="0"/>
		<edge from-layer="3160" from-port="0" to-layer="3173" to-port="1"/>
		<edge from-layer="3161" from-port="0" to-layer="3173" to-port="2"/>
		<edge from-layer="3162" from-port="0" to-layer="3173" to-port="3"/>
		<edge from-layer="3163" from-port="0" to-layer="3173" to-port="4"/>
		<edge from-layer="3175" from-port="0" to-layer="3176" to-port="0"/>
		<edge from-layer="3176" from-port="1" to-layer="3178" to-port="0"/>
		<edge from-layer="3177" from-port="0" to-layer="3178" to-port="1"/>
		<edge from-layer="3178" from-port="2" to-layer="3180" to-port="0"/>
		<edge from-layer="3179" from-port="0" to-layer="3180" to-port="1"/>
		<edge from-layer="3180" from-port="2" to-layer="3181" to-port="0"/>
		<edge from-layer="3174" from-port="0" to-layer="3181" to-port="1"/>
		<edge from-layer="3173" from-port="5" to-layer="3182" to-port="0"/>
		<edge from-layer="3181" from-port="2" to-layer="3182" to-port="1"/>
		<edge from-layer="3182" from-port="2" to-layer="3183" to-port="0"/>
		<edge from-layer="3159" from-port="0" to-layer="3183" to-port="1"/>
		<edge from-layer="3183" from-port="2" to-layer="3184" to-port="0"/>
		<edge from-layer="3184" from-port="1" to-layer="3185" to-port="0"/>
		<edge from-layer="3155" from-port="0" to-layer="3185" to-port="1"/>
		<edge from-layer="3156" from-port="0" to-layer="3185" to-port="2"/>
		<edge from-layer="3157" from-port="0" to-layer="3185" to-port="3"/>
		<edge from-layer="3158" from-port="0" to-layer="3185" to-port="4"/>
		<edge from-layer="3186" from-port="0" to-layer="3187" to-port="0"/>
		<edge from-layer="3187" from-port="1" to-layer="3189" to-port="0"/>
		<edge from-layer="3188" from-port="0" to-layer="3189" to-port="1"/>
		<edge from-layer="3189" from-port="2" to-layer="3191" to-port="0"/>
		<edge from-layer="3190" from-port="0" to-layer="3191" to-port="1"/>
		<edge from-layer="3185" from-port="5" to-layer="3192" to-port="0"/>
		<edge from-layer="3191" from-port="2" to-layer="3192" to-port="1"/>
		<edge from-layer="3192" from-port="2" to-layer="3193" to-port="0"/>
		<edge from-layer="3154" from-port="0" to-layer="3193" to-port="1"/>
		<edge from-layer="3193" from-port="2" to-layer="3194" to-port="0"/>
		<edge from-layer="3150" from-port="0" to-layer="3194" to-port="1"/>
		<edge from-layer="3151" from-port="0" to-layer="3194" to-port="2"/>
		<edge from-layer="3152" from-port="0" to-layer="3194" to-port="3"/>
		<edge from-layer="3153" from-port="0" to-layer="3194" to-port="4"/>
		<edge from-layer="3196" from-port="0" to-layer="3197" to-port="0"/>
		<edge from-layer="3197" from-port="1" to-layer="3199" to-port="0"/>
		<edge from-layer="3198" from-port="0" to-layer="3199" to-port="1"/>
		<edge from-layer="3199" from-port="2" to-layer="3201" to-port="0"/>
		<edge from-layer="3200" from-port="0" to-layer="3201" to-port="1"/>
		<edge from-layer="3201" from-port="2" to-layer="3202" to-port="0"/>
		<edge from-layer="3195" from-port="0" to-layer="3202" to-port="1"/>
		<edge from-layer="3194" from-port="5" to-layer="3203" to-port="0"/>
		<edge from-layer="3202" from-port="2" to-layer="3203" to-port="1"/>
		<edge from-layer="3203" from-port="2" to-layer="3204" to-port="0"/>
		<edge from-layer="3149" from-port="0" to-layer="3204" to-port="1"/>
		<edge from-layer="3204" from-port="2" to-layer="3205" to-port="0"/>
		<edge from-layer="3205" from-port="1" to-layer="3206" to-port="0"/>
		<edge from-layer="3145" from-port="0" to-layer="3206" to-port="1"/>
		<edge from-layer="3146" from-port="0" to-layer="3206" to-port="2"/>
		<edge from-layer="3147" from-port="0" to-layer="3206" to-port="3"/>
		<edge from-layer="3148" from-port="0" to-layer="3206" to-port="4"/>
		<edge from-layer="3207" from-port="0" to-layer="3208" to-port="0"/>
		<edge from-layer="3208" from-port="1" to-layer="3210" to-port="0"/>
		<edge from-layer="3209" from-port="0" to-layer="3210" to-port="1"/>
		<edge from-layer="3210" from-port="2" to-layer="3212" to-port="0"/>
		<edge from-layer="3211" from-port="0" to-layer="3212" to-port="1"/>
		<edge from-layer="3206" from-port="5" to-layer="3213" to-port="0"/>
		<edge from-layer="3212" from-port="2" to-layer="3213" to-port="1"/>
		<edge from-layer="3213" from-port="2" to-layer="3214" to-port="0"/>
		<edge from-layer="3144" from-port="0" to-layer="3214" to-port="1"/>
		<edge from-layer="3214" from-port="2" to-layer="3215" to-port="0"/>
		<edge from-layer="3140" from-port="0" to-layer="3215" to-port="1"/>
		<edge from-layer="3141" from-port="0" to-layer="3215" to-port="2"/>
		<edge from-layer="3142" from-port="0" to-layer="3215" to-port="3"/>
		<edge from-layer="3143" from-port="0" to-layer="3215" to-port="4"/>
		<edge from-layer="3217" from-port="0" to-layer="3218" to-port="0"/>
		<edge from-layer="3218" from-port="1" to-layer="3220" to-port="0"/>
		<edge from-layer="3219" from-port="0" to-layer="3220" to-port="1"/>
		<edge from-layer="3220" from-port="2" to-layer="3222" to-port="0"/>
		<edge from-layer="3221" from-port="0" to-layer="3222" to-port="1"/>
		<edge from-layer="3222" from-port="2" to-layer="3223" to-port="0"/>
		<edge from-layer="3216" from-port="0" to-layer="3223" to-port="1"/>
		<edge from-layer="3215" from-port="5" to-layer="3224" to-port="0"/>
		<edge from-layer="3223" from-port="2" to-layer="3224" to-port="1"/>
		<edge from-layer="3224" from-port="2" to-layer="3225" to-port="0"/>
		<edge from-layer="3139" from-port="0" to-layer="3225" to-port="1"/>
		<edge from-layer="3225" from-port="2" to-layer="3226" to-port="0"/>
		<edge from-layer="3226" from-port="1" to-layer="3227" to-port="0"/>
		<edge from-layer="3135" from-port="0" to-layer="3227" to-port="1"/>
		<edge from-layer="3136" from-port="0" to-layer="3227" to-port="2"/>
		<edge from-layer="3137" from-port="0" to-layer="3227" to-port="3"/>
		<edge from-layer="3138" from-port="0" to-layer="3227" to-port="4"/>
		<edge from-layer="3228" from-port="0" to-layer="3229" to-port="0"/>
		<edge from-layer="3229" from-port="1" to-layer="3231" to-port="0"/>
		<edge from-layer="3230" from-port="0" to-layer="3231" to-port="1"/>
		<edge from-layer="3231" from-port="2" to-layer="3233" to-port="0"/>
		<edge from-layer="3232" from-port="0" to-layer="3233" to-port="1"/>
		<edge from-layer="3227" from-port="5" to-layer="3234" to-port="0"/>
		<edge from-layer="3233" from-port="2" to-layer="3234" to-port="1"/>
		<edge from-layer="3234" from-port="2" to-layer="3235" to-port="0"/>
		<edge from-layer="3134" from-port="0" to-layer="3235" to-port="1"/>
		<edge from-layer="3235" from-port="2" to-layer="3236" to-port="0"/>
		<edge from-layer="3130" from-port="0" to-layer="3236" to-port="1"/>
		<edge from-layer="3131" from-port="0" to-layer="3236" to-port="2"/>
		<edge from-layer="3132" from-port="0" to-layer="3236" to-port="3"/>
		<edge from-layer="3133" from-port="0" to-layer="3236" to-port="4"/>
		<edge from-layer="3238" from-port="0" to-layer="3239" to-port="0"/>
		<edge from-layer="3239" from-port="1" to-layer="3241" to-port="0"/>
		<edge from-layer="3240" from-port="0" to-layer="3241" to-port="1"/>
		<edge from-layer="3241" from-port="2" to-layer="3243" to-port="0"/>
		<edge from-layer="3242" from-port="0" to-layer="3243" to-port="1"/>
		<edge from-layer="3243" from-port="2" to-layer="3244" to-port="0"/>
		<edge from-layer="3237" from-port="0" to-layer="3244" to-port="1"/>
		<edge from-layer="3236" from-port="5" to-layer="3245" to-port="0"/>
		<edge from-layer="3244" from-port="2" to-layer="3245" to-port="1"/>
		<edge from-layer="3245" from-port="2" to-layer="3246" to-port="0"/>
		<edge from-layer="3129" from-port="0" to-layer="3246" to-port="1"/>
		<edge from-layer="3246" from-port="2" to-layer="3247" to-port="0"/>
		<edge from-layer="3247" from-port="1" to-layer="3248" to-port="0"/>
		<edge from-layer="3125" from-port="0" to-layer="3248" to-port="1"/>
		<edge from-layer="3126" from-port="0" to-layer="3248" to-port="2"/>
		<edge from-layer="3127" from-port="0" to-layer="3248" to-port="3"/>
		<edge from-layer="3128" from-port="0" to-layer="3248" to-port="4"/>
		<edge from-layer="3247" from-port="1" to-layer="3251" to-port="0"/>
		<edge from-layer="3251" from-port="1" to-layer="3252" to-port="0"/>
		<edge from-layer="3252" from-port="1" to-layer="3254" to-port="0"/>
		<edge from-layer="3253" from-port="0" to-layer="3254" to-port="1"/>
		<edge from-layer="3249" from-port="0" to-layer="3255" to-port="0"/>
		<edge from-layer="3254" from-port="2" to-layer="3255" to-port="1"/>
		<edge from-layer="3250" from-port="0" to-layer="3255" to-port="2"/>
		<edge from-layer="3248" from-port="5" to-layer="3256" to-port="0"/>
		<edge from-layer="3255" from-port="3" to-layer="3256" to-port="1"/>
		<edge from-layer="3256" from-port="2" to-layer="3257" to-port="0"/>
		<edge from-layer="3121" from-port="0" to-layer="3257" to-port="1"/>
		<edge from-layer="3122" from-port="0" to-layer="3257" to-port="2"/>
		<edge from-layer="3123" from-port="0" to-layer="3257" to-port="3"/>
		<edge from-layer="3124" from-port="0" to-layer="3257" to-port="4"/>
		<edge from-layer="3257" from-port="5" to-layer="3258" to-port="0"/>
		<edge from-layer="3120" from-port="0" to-layer="3258" to-port="1"/>
		<edge from-layer="3258" from-port="2" to-layer="3259" to-port="0"/>
		<edge from-layer="3259" from-port="1" to-layer="3260" to-port="0"/>
		<edge from-layer="3260" from-port="1" to-layer="3262" to-port="0"/>
		<edge from-layer="3261" from-port="0" to-layer="3262" to-port="1"/>
		<edge from-layer="3118" from-port="0" to-layer="3263" to-port="0"/>
		<edge from-layer="3262" from-port="2" to-layer="3263" to-port="1"/>
		<edge from-layer="3119" from-port="0" to-layer="3263" to-port="2"/>
		<edge from-layer="3258" from-port="2" to-layer="3264" to-port="0"/>
		<edge from-layer="3263" from-port="3" to-layer="3264" to-port="1"/>
		<edge from-layer="3264" from-port="2" to-layer="3266" to-port="0"/>
		<edge from-layer="3265" from-port="0" to-layer="3266" to-port="1"/>
		<edge from-layer="3266" from-port="2" to-layer="3268" to-port="0"/>
		<edge from-layer="3267" from-port="0" to-layer="3268" to-port="1"/>
		<edge from-layer="3268" from-port="2" to-layer="3269" to-port="0"/>
		<edge from-layer="3114" from-port="0" to-layer="3269" to-port="1"/>
		<edge from-layer="3115" from-port="0" to-layer="3269" to-port="2"/>
		<edge from-layer="3116" from-port="0" to-layer="3269" to-port="3"/>
		<edge from-layer="3117" from-port="0" to-layer="3269" to-port="4"/>
		<edge from-layer="3256" from-port="2" to-layer="3270" to-port="0"/>
		<edge from-layer="3269" from-port="5" to-layer="3271" to-port="0"/>
		<edge from-layer="3270" from-port="1" to-layer="3271" to-port="1"/>
		<edge from-layer="3271" from-port="2" to-layer="3272" to-port="0"/>
		<edge from-layer="3113" from-port="0" to-layer="3272" to-port="1"/>
		<edge from-layer="3272" from-port="2" to-layer="3274" to-port="0"/>
		<edge from-layer="3273" from-port="0" to-layer="3274" to-port="1"/>
		<edge from-layer="3274" from-port="2" to-layer="3275" to-port="0"/>
		<edge from-layer="3275" from-port="1" to-layer="3276" to-port="0"/>
		<edge from-layer="3109" from-port="0" to-layer="3276" to-port="1"/>
		<edge from-layer="3110" from-port="0" to-layer="3276" to-port="2"/>
		<edge from-layer="3111" from-port="0" to-layer="3276" to-port="3"/>
		<edge from-layer="3112" from-port="0" to-layer="3276" to-port="4"/>
		<edge from-layer="3248" from-port="5" to-layer="3277" to-port="0"/>
		<edge from-layer="3276" from-port="5" to-layer="3277" to-port="1"/>
		<edge from-layer="3277" from-port="2" to-layer="3278" to-port="0"/>
		<edge from-layer="3105" from-port="0" to-layer="3278" to-port="1"/>
		<edge from-layer="3106" from-port="0" to-layer="3278" to-port="2"/>
		<edge from-layer="3107" from-port="0" to-layer="3278" to-port="3"/>
		<edge from-layer="3108" from-port="0" to-layer="3278" to-port="4"/>
		<edge from-layer="3104" from-port="5" to-layer="3279" to-port="0"/>
		<edge from-layer="3278" from-port="5" to-layer="3279" to-port="1"/>
		<edge from-layer="3279" from-port="2" to-layer="3280" to-port="0"/>
		<edge from-layer="23" from-port="0" to-layer="3280" to-port="1"/>
		<edge from-layer="24" from-port="0" to-layer="3280" to-port="2"/>
		<edge from-layer="25" from-port="0" to-layer="3280" to-port="3"/>
		<edge from-layer="26" from-port="0" to-layer="3280" to-port="4"/>
		<edge from-layer="3281" from-port="0" to-layer="3282" to-port="0"/>
		<edge from-layer="3282" from-port="1" to-layer="3284" to-port="0"/>
		<edge from-layer="3283" from-port="0" to-layer="3284" to-port="1"/>
		<edge from-layer="3284" from-port="2" to-layer="3286" to-port="0"/>
		<edge from-layer="3285" from-port="0" to-layer="3286" to-port="1"/>
		<edge from-layer="3280" from-port="5" to-layer="3287" to-port="0"/>
		<edge from-layer="3286" from-port="2" to-layer="3287" to-port="1"/>
		<edge from-layer="3287" from-port="2" to-layer="3288" to-port="0"/>
		<edge from-layer="22" from-port="0" to-layer="3288" to-port="1"/>
		<edge from-layer="3288" from-port="2" to-layer="3289" to-port="0"/>
		<edge from-layer="18" from-port="0" to-layer="3289" to-port="1"/>
		<edge from-layer="19" from-port="0" to-layer="3289" to-port="2"/>
		<edge from-layer="20" from-port="0" to-layer="3289" to-port="3"/>
		<edge from-layer="21" from-port="0" to-layer="3289" to-port="4"/>
		<edge from-layer="3289" from-port="5" to-layer="3290" to-port="0"/>
		<edge from-layer="2784" from-port="5" to-layer="3290" to-port="1"/>
		<edge from-layer="3290" from-port="2" to-layer="3291" to-port="0"/>
		<edge from-layer="3291" from-port="1" to-layer="3292" to-port="0"/>
		<edge from-layer="14" from-port="0" to-layer="3292" to-port="1"/>
		<edge from-layer="15" from-port="0" to-layer="3292" to-port="2"/>
		<edge from-layer="16" from-port="0" to-layer="3292" to-port="3"/>
		<edge from-layer="17" from-port="0" to-layer="3292" to-port="4"/>
		<edge from-layer="3293" from-port="0" to-layer="3294" to-port="0"/>
		<edge from-layer="3294" from-port="1" to-layer="3296" to-port="0"/>
		<edge from-layer="3295" from-port="0" to-layer="3296" to-port="1"/>
		<edge from-layer="3296" from-port="2" to-layer="3298" to-port="0"/>
		<edge from-layer="3297" from-port="0" to-layer="3298" to-port="1"/>
		<edge from-layer="3292" from-port="5" to-layer="3299" to-port="0"/>
		<edge from-layer="3298" from-port="2" to-layer="3299" to-port="1"/>
		<edge from-layer="3299" from-port="2" to-layer="3300" to-port="0"/>
		<edge from-layer="13" from-port="0" to-layer="3300" to-port="1"/>
		<edge from-layer="3300" from-port="2" to-layer="3301" to-port="0"/>
		<edge from-layer="3301" from-port="1" to-layer="3302" to-port="0"/>
		<edge from-layer="9" from-port="0" to-layer="3302" to-port="1"/>
		<edge from-layer="10" from-port="0" to-layer="3302" to-port="2"/>
		<edge from-layer="11" from-port="0" to-layer="3302" to-port="3"/>
		<edge from-layer="12" from-port="0" to-layer="3302" to-port="4"/>
		<edge from-layer="3304" from-port="0" to-layer="3305" to-port="0"/>
		<edge from-layer="3305" from-port="1" to-layer="3307" to-port="0"/>
		<edge from-layer="3306" from-port="0" to-layer="3307" to-port="1"/>
		<edge from-layer="3307" from-port="2" to-layer="3309" to-port="0"/>
		<edge from-layer="3308" from-port="0" to-layer="3309" to-port="1"/>
		<edge from-layer="3309" from-port="2" to-layer="3310" to-port="0"/>
		<edge from-layer="3303" from-port="0" to-layer="3310" to-port="1"/>
		<edge from-layer="3302" from-port="5" to-layer="3311" to-port="0"/>
		<edge from-layer="3310" from-port="2" to-layer="3311" to-port="1"/>
		<edge from-layer="3311" from-port="2" to-layer="3313" to-port="0"/>
		<edge from-layer="3312" from-port="0" to-layer="3313" to-port="1"/>
		<edge from-layer="3313" from-port="2" to-layer="3314" to-port="0"/>
		<edge from-layer="5" from-port="0" to-layer="3314" to-port="1"/>
		<edge from-layer="6" from-port="0" to-layer="3314" to-port="2"/>
		<edge from-layer="7" from-port="0" to-layer="3314" to-port="3"/>
		<edge from-layer="8" from-port="0" to-layer="3314" to-port="4"/>
		<edge from-layer="3313" from-port="2" to-layer="3316" to-port="0"/>
		<edge from-layer="3316" from-port="1" to-layer="3319" to-port="0"/>
		<edge from-layer="3317" from-port="0" to-layer="3319" to-port="1"/>
		<edge from-layer="3318" from-port="0" to-layer="3319" to-port="2"/>
		<edge from-layer="3319" from-port="3" to-layer="3320" to-port="0"/>
		<edge from-layer="3315" from-port="0" to-layer="3320" to-port="1"/>
		<edge from-layer="3320" from-port="2" to-layer="3322" to-port="0"/>
		<edge from-layer="3321" from-port="0" to-layer="3322" to-port="1"/>
		<edge from-layer="3314" from-port="5" to-layer="3323" to-port="0"/>
		<edge from-layer="3322" from-port="2" to-layer="3323" to-port="1"/>
		<edge from-layer="3324" from-port="0" to-layer="3325" to-port="0"/>
		<edge from-layer="3325" from-port="1" to-layer="3327" to-port="0"/>
		<edge from-layer="3326" from-port="0" to-layer="3327" to-port="1"/>
		<edge from-layer="3327" from-port="2" to-layer="3329" to-port="0"/>
		<edge from-layer="3328" from-port="0" to-layer="3329" to-port="1"/>
		<edge from-layer="3323" from-port="2" to-layer="3330" to-port="0"/>
		<edge from-layer="3329" from-port="2" to-layer="3330" to-port="1"/>
		<edge from-layer="3330" from-port="2" to-layer="3332" to-port="0"/>
		<edge from-layer="3331" from-port="0" to-layer="3332" to-port="1"/>
		<edge from-layer="3332" from-port="2" to-layer="3333" to-port="0"/>
		<edge from-layer="1" from-port="0" to-layer="3333" to-port="1"/>
		<edge from-layer="2" from-port="0" to-layer="3333" to-port="2"/>
		<edge from-layer="3" from-port="0" to-layer="3333" to-port="3"/>
		<edge from-layer="4" from-port="0" to-layer="3333" to-port="4"/>
		<edge from-layer="3323" from-port="2" to-layer="3335" to-port="0"/>
		<edge from-layer="3335" from-port="1" to-layer="3338" to-port="0"/>
		<edge from-layer="3336" from-port="0" to-layer="3338" to-port="1"/>
		<edge from-layer="3337" from-port="0" to-layer="3338" to-port="2"/>
		<edge from-layer="3338" from-port="3" to-layer="3339" to-port="0"/>
		<edge from-layer="3334" from-port="0" to-layer="3339" to-port="1"/>
		<edge from-layer="3339" from-port="2" to-layer="3342" to-port="0"/>
		<edge from-layer="3340" from-port="0" to-layer="3342" to-port="1"/>
		<edge from-layer="3341" from-port="0" to-layer="3342" to-port="2"/>
		<edge from-layer="3333" from-port="5" to-layer="3343" to-port="0"/>
		<edge from-layer="3342" from-port="3" to-layer="3343" to-port="1"/>
		<edge from-layer="3343" from-port="2" to-layer="3344" to-port="0"/>
		<edge from-layer="0" from-port="0" to-layer="3344" to-port="1"/>
		<edge from-layer="3344" from-port="2" to-layer="3346" to-port="0"/>
		<edge from-layer="3345" from-port="0" to-layer="3346" to-port="1"/>
		<edge from-layer="3346" from-port="2" to-layer="3348" to-port="0"/>
		<edge from-layer="3347" from-port="0" to-layer="3348" to-port="1"/>
		<edge from-layer="3348" from-port="2" to-layer="3350" to-port="0"/>
		<edge from-layer="3350" from-port="1" to-layer="3353" to-port="0"/>
		<edge from-layer="3351" from-port="0" to-layer="3353" to-port="1"/>
		<edge from-layer="3352" from-port="0" to-layer="3353" to-port="2"/>
		<edge from-layer="3353" from-port="3" to-layer="3354" to-port="0"/>
		<edge from-layer="3349" from-port="0" to-layer="3354" to-port="1"/>
		<edge from-layer="3354" from-port="2" to-layer="3356" to-port="0"/>
		<edge from-layer="3355" from-port="0" to-layer="3356" to-port="1"/>
		<edge from-layer="3348" from-port="2" to-layer="3357" to-port="0"/>
		<edge from-layer="3356" from-port="2" to-layer="3357" to-port="1"/>
		<edge from-layer="3357" from-port="2" to-layer="3358" to-port="0"/>
	</edges>
	<meta_data>
		<MO_version value="custom_HEAD_149c43044cb1e8ed8cd4f3f196b23f7b3f129a36"/>
		<cli_parameters>
			<caffe_parser_path value="DIR"/>
			<data_type value="FP16"/>
			<disable_nhwc_to_nchw value="False"/>
			<disable_omitting_optional value="False"/>
			<disable_resnet_optimization value="False"/>
			<disable_weights_compression value="False"/>
			<enable_concat_optimization value="False"/>
			<enable_flattening_nested_params value="False"/>
			<enable_ssd_gluoncv value="False"/>
			<extensions value="DIR"/>
			<framework value="onnx"/>
			<freeze_placeholder_with_value value="{}"/>
			<generate_deprecated_IR_V7 value="False"/>
			<input value="data"/>
			<input_model value="DIR/person-reidentification-retail-0286.onnx"/>
			<input_model_is_text value="False"/>
			<input_shape value="[1,3,256,128]"/>
			<k value="DIR/CustomLayersMapping.xml"/>
			<keep_shape_ops value="True"/>
			<legacy_ir_generation value="False"/>
			<legacy_mxnet_model value="False"/>
			<log_level value="ERROR"/>
			<mean_scale_values value="{'data': {'mean': array([123.675, 116.28 , 103.53 ]), 'scale': array([58.395, 57.12 , 57.375])}}"/>
			<mean_values value="data[123.675,116.28,103.53]"/>
			<model_name value="person-reidentification-retail-0286"/>
			<output value="['reid_embedding']"/>
			<output_dir value="DIR"/>
			<placeholder_data_types value="{}"/>
			<placeholder_shapes value="{'data': array([  1,   3, 256, 128])}"/>
			<progress value="False"/>
			<remove_memory value="False"/>
			<remove_output_softmax value="False"/>
			<reverse_input_channels value="True"/>
			<save_params_from_nd value="False"/>
			<scale_values value="data[58.395,57.12,57.375]"/>
			<silent value="False"/>
			<static_shape value="False"/>
			<stream_output value="False"/>
			<transform value=""/>
			<unset unset_cli_parameters="batch, counts, disable_fusing, disable_gfusing, finegrain_fusing, input_checkpoint, input_meta_graph, input_proto, input_symbol, mean_file, mean_file_offsets, move_to_preprocess, nd_prefix_name, pretrained_model_name, saved_model_dir, saved_model_tags, scale, tensorboard_logdir, tensorflow_custom_layer_libraries, tensorflow_custom_operations_config_update, tensorflow_object_detection_api_pipeline_config, tensorflow_use_custom_operations_config, transformations_config"/>
		</cli_parameters>
	</meta_data>
	<quantization_parameters>
		<config>{
		'compression': {
			'algorithms': [
				{
					'name': 'DefaultQuantization',
					'params': {
						'num_samples_for_tuning': 2000,
						'preset': 'performance',
						'stat_subset_size': 300,
						'use_layerwise_tuning': false
					}
				}
			],
			'dump_intermediate_model': true,
			'target_device': 'ANY'
		},
		'engine': {
			'models': [
				{
					'name': 'person-reidentification-retail-0286',
					'launchers': [
						{
							'framework': 'dlsdk',
							'adapter': 'reid',
							'device': 'CPU'
						}
					],
					'datasets': [
						{
							'name': 'market1501',
							'data_source': 'PATH',
							'annotation_conversion': {
								'converter': 'market1501_reid',
								'data_dir': 'PATH'
							},
							'annotation': 'PATH',
							'preprocessing': [
								{
									'type': 'resize',
									'dst_width': 128,
									'dst_height': 256,
									'use_pillow': true,
									'interpolation': 'BILINEAR'
								}
							],
							'metrics': [
								{
									'name': 'rank@1',
									'type': 'cmc',
									'top_k': 1
								},
								{
									'type': 'reid_map'
								}
							],
							'_command_line_mapping': {
								'data_dir': 'PATH'
							}
						}
					]
				}
			],
			'stat_requests_number': null,
			'eval_requests_number': null,
			'type': 'accuracy_checker'
		}
	}</config>
		<version value="1.0"/>
		<cli_params value="{'quantize': None, 'preset': None, 'model': None, 'weights': None, 'name': None, 'ac_config': None, 'max_drop': None, 'evaluate': False, 'output_dir': 'PATH', 'direct_dump': True, 'log_level': 'INFO', 'pbar': False, 'stream_output': False, 'keep_uncompressed_weights': False}"/>
	</quantization_parameters>
</net>
