<?xml version="1.0" ?>
<net name="ResMobNet_v4 (LReLU) with single SSD head" version="10">
	<layers>
		<layer id="0" name="3284328819830" type="Const" version="opset1">
			<data element_type="f16" offset="0" shape="" size="2"/>
			<output>
				<port id="0" precision="FP16"/>
			</output>
		</layer>
		<layer id="1" name="3285328922773" type="Const" version="opset1">
			<data element_type="f16" offset="2" shape="" size="2"/>
			<output>
				<port id="0" precision="FP16"/>
			</output>
		</layer>
		<layer id="2" name="3286329020898" type="Const" version="opset1">
			<data element_type="f16" offset="0" shape="" size="2"/>
			<output>
				<port id="0" precision="FP16"/>
			</output>
		</layer>
		<layer id="3" name="3287329120439" type="Const" version="opset1">
			<data element_type="f16" offset="2" shape="" size="2"/>
			<output>
				<port id="0" precision="FP16"/>
			</output>
		</layer>
		<layer id="4" name="4284428822554" type="Const" version="opset1">
			<data element_type="f16" offset="4" shape="" size="2"/>
			<output>
				<port id="0" precision="FP16"/>
			</output>
		</layer>
		<layer id="5" name="4285428922101" type="Const" version="opset1">
			<data element_type="f16" offset="6" shape="" size="2"/>
			<output>
				<port id="0" precision="FP16"/>
			</output>
		</layer>
		<layer id="6" name="4286429021780" type="Const" version="opset1">
			<data element_type="f16" offset="4" shape="" size="2"/>
			<output>
				<port id="0" precision="FP16"/>
			</output>
		</layer>
		<layer id="7" name="4287429120886" type="Const" version="opset1">
			<data element_type="f16" offset="6" shape="" size="2"/>
			<output>
				<port id="0" precision="FP16"/>
			</output>
		</layer>
		<layer id="8" name="5444544820604" type="Const" version="opset1">
			<data element_type="f16" offset="8" shape="" size="2"/>
			<output>
				<port id="0" precision="FP16"/>
			</output>
		</layer>
		<layer id="9" name="5445544919815" type="Const" version="opset1">
			<data element_type="f16" offset="10" shape="" size="2"/>
			<output>
				<port id="0" precision="FP16"/>
			</output>
		</layer>
		<layer id="10" name="5446545020175" type="Const" version="opset1">
			<data element_type="f16" offset="8" shape="" size="2"/>
			<output>
				<port id="0" precision="FP16"/>
			</output>
		</layer>
		<layer id="11" name="5447545122041" type="Const" version="opset1">
			<data element_type="f16" offset="10" shape="" size="2"/>
			<output>
				<port id="0" precision="FP16"/>
			</output>
		</layer>
		<layer id="12" name="2964296819803" type="Const" version="opset1">
			<data element_type="f16" offset="12" shape="" size="2"/>
			<output>
				<port id="0" precision="FP16"/>
			</output>
		</layer>
		<layer id="13" name="2965296922185" type="Const" version="opset1">
			<data element_type="f16" offset="14" shape="" size="2"/>
			<output>
				<port id="0" precision="FP16"/>
			</output>
		</layer>
		<layer id="14" name="2966297020562" type="Const" version="opset1">
			<data element_type="f16" offset="12" shape="" size="2"/>
			<output>
				<port id="0" precision="FP16"/>
			</output>
		</layer>
		<layer id="15" name="2967297122368" type="Const" version="opset1">
			<data element_type="f16" offset="14" shape="" size="2"/>
			<output>
				<port id="0" precision="FP16"/>
			</output>
		</layer>
		<layer id="16" name="5084508822452" type="Const" version="opset1">
			<data element_type="f16" offset="16" shape="" size="2"/>
			<output>
				<port id="0" precision="FP16"/>
			</output>
		</layer>
		<layer id="17" name="5085508920694" type="Const" version="opset1">
			<data element_type="f16" offset="18" shape="" size="2"/>
			<output>
				<port id="0" precision="FP16"/>
			</output>
		</layer>
		<layer id="18" name="5086509022689" type="Const" version="opset1">
			<data element_type="f16" offset="16" shape="" size="2"/>
			<output>
				<port id="0" precision="FP16"/>
			</output>
		</layer>
		<layer id="19" name="5087509122584" type="Const" version="opset1">
			<data element_type="f16" offset="18" shape="" size="2"/>
			<output>
				<port id="0" precision="FP16"/>
			</output>
		</layer>
		<layer id="20" name="2704270821135" type="Const" version="opset1">
			<data element_type="f16" offset="20" shape="" size="2"/>
			<output>
				<port id="0" precision="FP16"/>
			</output>
		</layer>
		<layer id="21" name="2705270921897" type="Const" version="opset1">
			<data element_type="f16" offset="22" shape="" size="2"/>
			<output>
				<port id="0" precision="FP16"/>
			</output>
		</layer>
		<layer id="22" name="2706271019395" type="Const" version="opset1">
			<data element_type="f16" offset="20" shape="" size="2"/>
			<output>
				<port id="0" precision="FP16"/>
			</output>
		</layer>
		<layer id="23" name="2707271122200" type="Const" version="opset1">
			<data element_type="f16" offset="22" shape="" size="2"/>
			<output>
				<port id="0" precision="FP16"/>
			</output>
		</layer>
		<layer id="24" name="3644364819641" type="Const" version="opset1">
			<data element_type="f16" offset="24" shape="" size="2"/>
			<output>
				<port id="0" precision="FP16"/>
			</output>
		</layer>
		<layer id="25" name="3645364922491" type="Const" version="opset1">
			<data element_type="f16" offset="26" shape="" size="2"/>
			<output>
				<port id="0" precision="FP16"/>
			</output>
		</layer>
		<layer id="26" name="3646365020877" type="Const" version="opset1">
			<data element_type="f16" offset="24" shape="" size="2"/>
			<output>
				<port id="0" precision="FP16"/>
			</output>
		</layer>
		<layer id="27" name="3647365121072" type="Const" version="opset1">
			<data element_type="f16" offset="26" shape="" size="2"/>
			<output>
				<port id="0" precision="FP16"/>
			</output>
		</layer>
		<layer id="28" name="4264426819806" type="Const" version="opset1">
			<data element_type="f16" offset="28" shape="" size="2"/>
			<output>
				<port id="0" precision="FP16"/>
			</output>
		</layer>
		<layer id="29" name="4265426922113" type="Const" version="opset1">
			<data element_type="f16" offset="30" shape="" size="2"/>
			<output>
				<port id="0" precision="FP16"/>
			</output>
		</layer>
		<layer id="30" name="4266427022503" type="Const" version="opset1">
			<data element_type="f16" offset="28" shape="" size="2"/>
			<output>
				<port id="0" precision="FP16"/>
			</output>
		</layer>
		<layer id="31" name="4267427119686" type="Const" version="opset1">
			<data element_type="f16" offset="30" shape="" size="2"/>
			<output>
				<port id="0" precision="FP16"/>
			</output>
		</layer>
		<layer id="32" name="3544354821201" type="Const" version="opset1">
			<data element_type="f16" offset="32" shape="" size="2"/>
			<output>
				<port id="0" precision="FP16"/>
			</output>
		</layer>
		<layer id="33" name="3545354922467" type="Const" version="opset1">
			<data element_type="f16" offset="34" shape="" size="2"/>
			<output>
				<port id="0" precision="FP16"/>
			</output>
		</layer>
		<layer id="34" name="3546355019728" type="Const" version="opset1">
			<data element_type="f16" offset="32" shape="" size="2"/>
			<output>
				<port id="0" precision="FP16"/>
			</output>
		</layer>
		<layer id="35" name="3547355122629" type="Const" version="opset1">
			<data element_type="f16" offset="34" shape="" size="2"/>
			<output>
				<port id="0" precision="FP16"/>
			</output>
		</layer>
		<layer id="36" name="4184418820538" type="Const" version="opset1">
			<data element_type="f16" offset="36" shape="" size="2"/>
			<output>
				<port id="0" precision="FP16"/>
			</output>
		</layer>
		<layer id="37" name="4185418922371" type="Const" version="opset1">
			<data element_type="f16" offset="38" shape="" size="2"/>
			<output>
				<port id="0" precision="FP16"/>
			</output>
		</layer>
		<layer id="38" name="4186419021999" type="Const" version="opset1">
			<data element_type="f16" offset="36" shape="" size="2"/>
			<output>
				<port id="0" precision="FP16"/>
			</output>
		</layer>
		<layer id="39" name="4187419121210" type="Const" version="opset1">
			<data element_type="f16" offset="38" shape="" size="2"/>
			<output>
				<port id="0" precision="FP16"/>
			</output>
		</layer>
		<layer id="40" name="2684268821042" type="Const" version="opset1">
			<data element_type="f16" offset="40" shape="" size="2"/>
			<output>
				<port id="0" precision="FP16"/>
			</output>
		</layer>
		<layer id="41" name="2685268921624" type="Const" version="opset1">
			<data element_type="f16" offset="42" shape="" size="2"/>
			<output>
				<port id="0" precision="FP16"/>
			</output>
		</layer>
		<layer id="42" name="2686269019476" type="Const" version="opset1">
			<data element_type="f16" offset="40" shape="" size="2"/>
			<output>
				<port id="0" precision="FP16"/>
			</output>
		</layer>
		<layer id="43" name="2687269119869" type="Const" version="opset1">
			<data element_type="f16" offset="42" shape="" size="2"/>
			<output>
				<port id="0" precision="FP16"/>
			</output>
		</layer>
		<layer id="44" name="3964396821630" type="Const" version="opset1">
			<data element_type="f16" offset="44" shape="" size="2"/>
			<output>
				<port id="0" precision="FP16"/>
			</output>
		</layer>
		<layer id="45" name="3965396921000" type="Const" version="opset1">
			<data element_type="f16" offset="46" shape="" size="2"/>
			<output>
				<port id="0" precision="FP16"/>
			</output>
		</layer>
		<layer id="46" name="3966397020868" type="Const" version="opset1">
			<data element_type="f16" offset="44" shape="" size="2"/>
			<output>
				<port id="0" precision="FP16"/>
			</output>
		</layer>
		<layer id="47" name="3967397119716" type="Const" version="opset1">
			<data element_type="f16" offset="46" shape="" size="2"/>
			<output>
				<port id="0" precision="FP16"/>
			</output>
		</layer>
		<layer id="48" name="3104310821618" type="Const" version="opset1">
			<data element_type="f16" offset="48" shape="" size="2"/>
			<output>
				<port id="0" precision="FP16"/>
			</output>
		</layer>
		<layer id="49" name="3105310921432" type="Const" version="opset1">
			<data element_type="f16" offset="50" shape="" size="2"/>
			<output>
				<port id="0" precision="FP16"/>
			</output>
		</layer>
		<layer id="50" name="3106311020412" type="Const" version="opset1">
			<data element_type="f16" offset="48" shape="" size="2"/>
			<output>
				<port id="0" precision="FP16"/>
			</output>
		</layer>
		<layer id="51" name="3107311119836" type="Const" version="opset1">
			<data element_type="f16" offset="50" shape="" size="2"/>
			<output>
				<port id="0" precision="FP16"/>
			</output>
		</layer>
		<layer id="52" name="3424342820193" type="Const" version="opset1">
			<data element_type="f16" offset="52" shape="" size="2"/>
			<output>
				<port id="0" precision="FP16"/>
			</output>
		</layer>
		<layer id="53" name="3425342920448" type="Const" version="opset1">
			<data element_type="f16" offset="54" shape="" size="2"/>
			<output>
				<port id="0" precision="FP16"/>
			</output>
		</layer>
		<layer id="54" name="3426343022800" type="Const" version="opset1">
			<data element_type="f16" offset="52" shape="" size="2"/>
			<output>
				<port id="0" precision="FP16"/>
			</output>
		</layer>
		<layer id="55" name="3427343119422" type="Const" version="opset1">
			<data element_type="f16" offset="54" shape="" size="2"/>
			<output>
				<port id="0" precision="FP16"/>
			</output>
		</layer>
		<layer id="56" name="4464446821750" type="Const" version="opset1">
			<data element_type="f16" offset="56" shape="" size="2"/>
			<output>
				<port id="0" precision="FP16"/>
			</output>
		</layer>
		<layer id="57" name="4465446919674" type="Const" version="opset1">
			<data element_type="f16" offset="58" shape="" size="2"/>
			<output>
				<port id="0" precision="FP16"/>
			</output>
		</layer>
		<layer id="58" name="4466447022569" type="Const" version="opset1">
			<data element_type="f16" offset="56" shape="" size="2"/>
			<output>
				<port id="0" precision="FP16"/>
			</output>
		</layer>
		<layer id="59" name="4467447120724" type="Const" version="opset1">
			<data element_type="f16" offset="58" shape="" size="2"/>
			<output>
				<port id="0" precision="FP16"/>
			</output>
		</layer>
		<layer id="60" name="4504450820118" type="Const" version="opset1">
			<data element_type="f16" offset="60" shape="" size="2"/>
			<output>
				<port id="0" precision="FP16"/>
			</output>
		</layer>
		<layer id="61" name="4505450922344" type="Const" version="opset1">
			<data element_type="f16" offset="62" shape="" size="2"/>
			<output>
				<port id="0" precision="FP16"/>
			</output>
		</layer>
		<layer id="62" name="4506451022254" type="Const" version="opset1">
			<data element_type="f16" offset="60" shape="" size="2"/>
			<output>
				<port id="0" precision="FP16"/>
			</output>
		</layer>
		<layer id="63" name="4507451120142" type="Const" version="opset1">
			<data element_type="f16" offset="62" shape="" size="2"/>
			<output>
				<port id="0" precision="FP16"/>
			</output>
		</layer>
		<layer id="64" name="4784478821858" type="Const" version="opset1">
			<data element_type="f16" offset="64" shape="" size="2"/>
			<output>
				<port id="0" precision="FP16"/>
			</output>
		</layer>
		<layer id="65" name="4785478921141" type="Const" version="opset1">
			<data element_type="f16" offset="66" shape="" size="2"/>
			<output>
				<port id="0" precision="FP16"/>
			</output>
		</layer>
		<layer id="66" name="4786479020904" type="Const" version="opset1">
			<data element_type="f16" offset="64" shape="" size="2"/>
			<output>
				<port id="0" precision="FP16"/>
			</output>
		</layer>
		<layer id="67" name="4787479122665" type="Const" version="opset1">
			<data element_type="f16" offset="66" shape="" size="2"/>
			<output>
				<port id="0" precision="FP16"/>
			</output>
		</layer>
		<layer id="68" name="4664466822413" type="Const" version="opset1">
			<data element_type="f16" offset="68" shape="" size="2"/>
			<output>
				<port id="0" precision="FP16"/>
			</output>
		</layer>
		<layer id="69" name="4665466922935" type="Const" version="opset1">
			<data element_type="f16" offset="70" shape="" size="2"/>
			<output>
				<port id="0" precision="FP16"/>
			</output>
		</layer>
		<layer id="70" name="4666467021552" type="Const" version="opset1">
			<data element_type="f16" offset="68" shape="" size="2"/>
			<output>
				<port id="0" precision="FP16"/>
			</output>
		</layer>
		<layer id="71" name="4667467121786" type="Const" version="opset1">
			<data element_type="f16" offset="70" shape="" size="2"/>
			<output>
				<port id="0" precision="FP16"/>
			</output>
		</layer>
		<layer id="72" name="3824382821882" type="Const" version="opset1">
			<data element_type="f16" offset="72" shape="" size="2"/>
			<output>
				<port id="0" precision="FP16"/>
			</output>
		</layer>
		<layer id="73" name="3825382921681" type="Const" version="opset1">
			<data element_type="f16" offset="74" shape="" size="2"/>
			<output>
				<port id="0" precision="FP16"/>
			</output>
		</layer>
		<layer id="74" name="3826383022695" type="Const" version="opset1">
			<data element_type="f16" offset="72" shape="" size="2"/>
			<output>
				<port id="0" precision="FP16"/>
			</output>
		</layer>
		<layer id="75" name="3827383122338" type="Const" version="opset1">
			<data element_type="f16" offset="74" shape="" size="2"/>
			<output>
				<port id="0" precision="FP16"/>
			</output>
		</layer>
		<layer id="76" name="4024402821510" type="Const" version="opset1">
			<data element_type="f16" offset="76" shape="" size="2"/>
			<output>
				<port id="0" precision="FP16"/>
			</output>
		</layer>
		<layer id="77" name="4025402920178" type="Const" version="opset1">
			<data element_type="f16" offset="78" shape="" size="2"/>
			<output>
				<port id="0" precision="FP16"/>
			</output>
		</layer>
		<layer id="78" name="4026403019695" type="Const" version="opset1">
			<data element_type="f16" offset="76" shape="" size="2"/>
			<output>
				<port id="0" precision="FP16"/>
			</output>
		</layer>
		<layer id="79" name="4027403121276" type="Const" version="opset1">
			<data element_type="f16" offset="78" shape="" size="2"/>
			<output>
				<port id="0" precision="FP16"/>
			</output>
		</layer>
		<layer id="80" name="2624262820919" type="Const" version="opset1">
			<data element_type="f16" offset="80" shape="" size="2"/>
			<output>
				<port id="0" precision="FP16"/>
			</output>
		</layer>
		<layer id="81" name="2625262919911" type="Const" version="opset1">
			<data element_type="f16" offset="82" shape="" size="2"/>
			<output>
				<port id="0" precision="FP16"/>
			</output>
		</layer>
		<layer id="82" name="2626263020259" type="Const" version="opset1">
			<data element_type="f16" offset="80" shape="" size="2"/>
			<output>
				<port id="0" precision="FP16"/>
			</output>
		</layer>
		<layer id="83" name="2627263122752" type="Const" version="opset1">
			<data element_type="f16" offset="82" shape="" size="2"/>
			<output>
				<port id="0" precision="FP16"/>
			</output>
		</layer>
		<layer id="84" name="3404340820913" type="Const" version="opset1">
			<data element_type="f16" offset="84" shape="" size="2"/>
			<output>
				<port id="0" precision="FP16"/>
			</output>
		</layer>
		<layer id="85" name="3405340921429" type="Const" version="opset1">
			<data element_type="f16" offset="86" shape="" size="2"/>
			<output>
				<port id="0" precision="FP16"/>
			</output>
		</layer>
		<layer id="86" name="3406341021609" type="Const" version="opset1">
			<data element_type="f16" offset="84" shape="" size="2"/>
			<output>
				<port id="0" precision="FP16"/>
			</output>
		</layer>
		<layer id="87" name="3407341122446" type="Const" version="opset1">
			<data element_type="f16" offset="86" shape="" size="2"/>
			<output>
				<port id="0" precision="FP16"/>
			</output>
		</layer>
		<layer id="88" name="4404440822530" type="Const" version="opset1">
			<data element_type="f16" offset="88" shape="" size="2"/>
			<output>
				<port id="0" precision="FP16"/>
			</output>
		</layer>
		<layer id="89" name="4405440921777" type="Const" version="opset1">
			<data element_type="f16" offset="90" shape="" size="2"/>
			<output>
				<port id="0" precision="FP16"/>
			</output>
		</layer>
		<layer id="90" name="4406441021564" type="Const" version="opset1">
			<data element_type="f16" offset="88" shape="" size="2"/>
			<output>
				<port id="0" precision="FP16"/>
			</output>
		</layer>
		<layer id="91" name="4407441121870" type="Const" version="opset1">
			<data element_type="f16" offset="90" shape="" size="2"/>
			<output>
				<port id="0" precision="FP16"/>
			</output>
		</layer>
		<layer id="92" name="5204520822269" type="Const" version="opset1">
			<data element_type="f16" offset="92" shape="" size="2"/>
			<output>
				<port id="0" precision="FP16"/>
			</output>
		</layer>
		<layer id="93" name="5205520922212" type="Const" version="opset1">
			<data element_type="f16" offset="94" shape="" size="2"/>
			<output>
				<port id="0" precision="FP16"/>
			</output>
		</layer>
		<layer id="94" name="5206521022803" type="Const" version="opset1">
			<data element_type="f16" offset="92" shape="" size="2"/>
			<output>
				<port id="0" precision="FP16"/>
			</output>
		</layer>
		<layer id="95" name="5207521121507" type="Const" version="opset1">
			<data element_type="f16" offset="94" shape="" size="2"/>
			<output>
				<port id="0" precision="FP16"/>
			</output>
		</layer>
		<layer id="96" name="4944494822152" type="Const" version="opset1">
			<data element_type="f16" offset="96" shape="" size="2"/>
			<output>
				<port id="0" precision="FP16"/>
			</output>
		</layer>
		<layer id="97" name="4945494919998" type="Const" version="opset1">
			<data element_type="f16" offset="98" shape="" size="2"/>
			<output>
				<port id="0" precision="FP16"/>
			</output>
		</layer>
		<layer id="98" name="4946495021855" type="Const" version="opset1">
			<data element_type="f16" offset="96" shape="" size="2"/>
			<output>
				<port id="0" precision="FP16"/>
			</output>
		</layer>
		<layer id="99" name="4947495121708" type="Const" version="opset1">
			<data element_type="f16" offset="98" shape="" size="2"/>
			<output>
				<port id="0" precision="FP16"/>
			</output>
		</layer>
		<layer id="100" name="4484448821936" type="Const" version="opset1">
			<data element_type="f16" offset="100" shape="" size="2"/>
			<output>
				<port id="0" precision="FP16"/>
			</output>
		</layer>
		<layer id="101" name="4485448922644" type="Const" version="opset1">
			<data element_type="f16" offset="102" shape="" size="2"/>
			<output>
				<port id="0" precision="FP16"/>
			</output>
		</layer>
		<layer id="102" name="4486449019917" type="Const" version="opset1">
			<data element_type="f16" offset="100" shape="" size="2"/>
			<output>
				<port id="0" precision="FP16"/>
			</output>
		</layer>
		<layer id="103" name="4487449119587" type="Const" version="opset1">
			<data element_type="f16" offset="102" shape="" size="2"/>
			<output>
				<port id="0" precision="FP16"/>
			</output>
		</layer>
		<layer id="104" name="2744274822863" type="Const" version="opset1">
			<data element_type="f16" offset="104" shape="" size="2"/>
			<output>
				<port id="0" precision="FP16"/>
			</output>
		</layer>
		<layer id="105" name="2745274921102" type="Const" version="opset1">
			<data element_type="f16" offset="106" shape="" size="2"/>
			<output>
				<port id="0" precision="FP16"/>
			</output>
		</layer>
		<layer id="106" name="2746275020253" type="Const" version="opset1">
			<data element_type="f16" offset="104" shape="" size="2"/>
			<output>
				<port id="0" precision="FP16"/>
			</output>
		</layer>
		<layer id="107" name="2747275121492" type="Const" version="opset1">
			<data element_type="f16" offset="106" shape="" size="2"/>
			<output>
				<port id="0" precision="FP16"/>
			</output>
		</layer>
		<layer id="108" name="4444444819962" type="Const" version="opset1">
			<data element_type="f16" offset="108" shape="" size="2"/>
			<output>
				<port id="0" precision="FP16"/>
			</output>
		</layer>
		<layer id="109" name="4445444920199" type="Const" version="opset1">
			<data element_type="f16" offset="110" shape="" size="2"/>
			<output>
				<port id="0" precision="FP16"/>
			</output>
		</layer>
		<layer id="110" name="4446445022824" type="Const" version="opset1">
			<data element_type="f16" offset="108" shape="" size="2"/>
			<output>
				<port id="0" precision="FP16"/>
			</output>
		</layer>
		<layer id="111" name="4447445119440" type="Const" version="opset1">
			<data element_type="f16" offset="110" shape="" size="2"/>
			<output>
				<port id="0" precision="FP16"/>
			</output>
		</layer>
		<layer id="112" name="2904290821645" type="Const" version="opset1">
			<data element_type="f16" offset="112" shape="" size="2"/>
			<output>
				<port id="0" precision="FP16"/>
			</output>
		</layer>
		<layer id="113" name="2905290920598" type="Const" version="opset1">
			<data element_type="f16" offset="114" shape="" size="2"/>
			<output>
				<port id="0" precision="FP16"/>
			</output>
		</layer>
		<layer id="114" name="2906291022980" type="Const" version="opset1">
			<data element_type="f16" offset="112" shape="" size="2"/>
			<output>
				<port id="0" precision="FP16"/>
			</output>
		</layer>
		<layer id="115" name="2907291122245" type="Const" version="opset1">
			<data element_type="f16" offset="114" shape="" size="2"/>
			<output>
				<port id="0" precision="FP16"/>
			</output>
		</layer>
		<layer id="116" name="5044504820001" type="Const" version="opset1">
			<data element_type="f16" offset="116" shape="" size="2"/>
			<output>
				<port id="0" precision="FP16"/>
			</output>
		</layer>
		<layer id="117" name="5045504922119" type="Const" version="opset1">
			<data element_type="f16" offset="118" shape="" size="2"/>
			<output>
				<port id="0" precision="FP16"/>
			</output>
		</layer>
		<layer id="118" name="5046505019875" type="Const" version="opset1">
			<data element_type="f16" offset="116" shape="" size="2"/>
			<output>
				<port id="0" precision="FP16"/>
			</output>
		</layer>
		<layer id="119" name="5047505120280" type="Const" version="opset1">
			<data element_type="f16" offset="118" shape="" size="2"/>
			<output>
				<port id="0" precision="FP16"/>
			</output>
		</layer>
		<layer id="120" name="5024502822506" type="Const" version="opset1">
			<data element_type="f16" offset="120" shape="" size="2"/>
			<output>
				<port id="0" precision="FP16"/>
			</output>
		</layer>
		<layer id="121" name="5025502922287" type="Const" version="opset1">
			<data element_type="f16" offset="122" shape="" size="2"/>
			<output>
				<port id="0" precision="FP16"/>
			</output>
		</layer>
		<layer id="122" name="5026503020586" type="Const" version="opset1">
			<data element_type="f16" offset="120" shape="" size="2"/>
			<output>
				<port id="0" precision="FP16"/>
			</output>
		</layer>
		<layer id="123" name="5027503119461" type="Const" version="opset1">
			<data element_type="f16" offset="122" shape="" size="2"/>
			<output>
				<port id="0" precision="FP16"/>
			</output>
		</layer>
		<layer id="124" name="5404540821597" type="Const" version="opset1">
			<data element_type="f16" offset="124" shape="" size="2"/>
			<output>
				<port id="0" precision="FP16"/>
			</output>
		</layer>
		<layer id="125" name="5405540920799" type="Const" version="opset1">
			<data element_type="f16" offset="126" shape="" size="2"/>
			<output>
				<port id="0" precision="FP16"/>
			</output>
		</layer>
		<layer id="126" name="5406541022485" type="Const" version="opset1">
			<data element_type="f16" offset="124" shape="" size="2"/>
			<output>
				<port id="0" precision="FP16"/>
			</output>
		</layer>
		<layer id="127" name="5407541122536" type="Const" version="opset1">
			<data element_type="f16" offset="126" shape="" size="2"/>
			<output>
				<port id="0" precision="FP16"/>
			</output>
		</layer>
		<layer id="128" name="4964496821996" type="Const" version="opset1">
			<data element_type="f16" offset="128" shape="" size="2"/>
			<output>
				<port id="0" precision="FP16"/>
			</output>
		</layer>
		<layer id="129" name="4965496922401" type="Const" version="opset1">
			<data element_type="f16" offset="130" shape="" size="2"/>
			<output>
				<port id="0" precision="FP16"/>
			</output>
		</layer>
		<layer id="130" name="4966497020568" type="Const" version="opset1">
			<data element_type="f16" offset="128" shape="" size="2"/>
			<output>
				<port id="0" precision="FP16"/>
			</output>
		</layer>
		<layer id="131" name="4967497122734" type="Const" version="opset1">
			<data element_type="f16" offset="130" shape="" size="2"/>
			<output>
				<port id="0" precision="FP16"/>
			</output>
		</layer>
		<layer id="132" name="5304530820634" type="Const" version="opset1">
			<data element_type="f16" offset="132" shape="" size="2"/>
			<output>
				<port id="0" precision="FP16"/>
			</output>
		</layer>
		<layer id="133" name="5305530919428" type="Const" version="opset1">
			<data element_type="f16" offset="134" shape="" size="2"/>
			<output>
				<port id="0" precision="FP16"/>
			</output>
		</layer>
		<layer id="134" name="5306531021435" type="Const" version="opset1">
			<data element_type="f16" offset="132" shape="" size="2"/>
			<output>
				<port id="0" precision="FP16"/>
			</output>
		</layer>
		<layer id="135" name="5307531121369" type="Const" version="opset1">
			<data element_type="f16" offset="134" shape="" size="2"/>
			<output>
				<port id="0" precision="FP16"/>
			</output>
		</layer>
		<layer id="136" name="2724272819872" type="Const" version="opset1">
			<data element_type="f16" offset="136" shape="" size="2"/>
			<output>
				<port id="0" precision="FP16"/>
			</output>
		</layer>
		<layer id="137" name="2725272921912" type="Const" version="opset1">
			<data element_type="f16" offset="138" shape="" size="2"/>
			<output>
				<port id="0" precision="FP16"/>
			</output>
		</layer>
		<layer id="138" name="2726273022416" type="Const" version="opset1">
			<data element_type="f16" offset="136" shape="" size="2"/>
			<output>
				<port id="0" precision="FP16"/>
			</output>
		</layer>
		<layer id="139" name="2727273122437" type="Const" version="opset1">
			<data element_type="f16" offset="138" shape="" size="2"/>
			<output>
				<port id="0" precision="FP16"/>
			</output>
		</layer>
		<layer id="140" name="3324332819809" type="Const" version="opset1">
			<data element_type="f16" offset="140" shape="" size="2"/>
			<output>
				<port id="0" precision="FP16"/>
			</output>
		</layer>
		<layer id="141" name="3325332922389" type="Const" version="opset1">
			<data element_type="f16" offset="142" shape="" size="2"/>
			<output>
				<port id="0" precision="FP16"/>
			</output>
		</layer>
		<layer id="142" name="3326333020481" type="Const" version="opset1">
			<data element_type="f16" offset="140" shape="" size="2"/>
			<output>
				<port id="0" precision="FP16"/>
			</output>
		</layer>
		<layer id="143" name="3327333120748" type="Const" version="opset1">
			<data element_type="f16" offset="142" shape="" size="2"/>
			<output>
				<port id="0" precision="FP16"/>
			</output>
		</layer>
		<layer id="144" name="4004400822971" type="Const" version="opset1">
			<data element_type="f16" offset="144" shape="" size="2"/>
			<output>
				<port id="0" precision="FP16"/>
			</output>
		</layer>
		<layer id="145" name="4005400921327" type="Const" version="opset1">
			<data element_type="f16" offset="146" shape="" size="2"/>
			<output>
				<port id="0" precision="FP16"/>
			</output>
		</layer>
		<layer id="146" name="4006401020685" type="Const" version="opset1">
			<data element_type="f16" offset="144" shape="" size="2"/>
			<output>
				<port id="0" precision="FP16"/>
			</output>
		</layer>
		<layer id="147" name="4007401120556" type="Const" version="opset1">
			<data element_type="f16" offset="146" shape="" size="2"/>
			<output>
				<port id="0" precision="FP16"/>
			</output>
		</layer>
		<layer id="148" name="4764476820811" type="Const" version="opset1">
			<data element_type="f16" offset="148" shape="" size="2"/>
			<output>
				<port id="0" precision="FP16"/>
			</output>
		</layer>
		<layer id="149" name="4765476921228" type="Const" version="opset1">
			<data element_type="f16" offset="150" shape="" size="2"/>
			<output>
				<port id="0" precision="FP16"/>
			</output>
		</layer>
		<layer id="150" name="4766477020508" type="Const" version="opset1">
			<data element_type="f16" offset="148" shape="" size="2"/>
			<output>
				<port id="0" precision="FP16"/>
			</output>
		</layer>
		<layer id="151" name="4767477120679" type="Const" version="opset1">
			<data element_type="f16" offset="150" shape="" size="2"/>
			<output>
				<port id="0" precision="FP16"/>
			</output>
		</layer>
		<layer id="152" name="2824282819434" type="Const" version="opset1">
			<data element_type="f16" offset="152" shape="" size="2"/>
			<output>
				<port id="0" precision="FP16"/>
			</output>
		</layer>
		<layer id="153" name="2825282922851" type="Const" version="opset1">
			<data element_type="f16" offset="154" shape="" size="2"/>
			<output>
				<port id="0" precision="FP16"/>
			</output>
		</layer>
		<layer id="154" name="2826283021987" type="Const" version="opset1">
			<data element_type="f16" offset="152" shape="" size="2"/>
			<output>
				<port id="0" precision="FP16"/>
			</output>
		</layer>
		<layer id="155" name="2827283122194" type="Const" version="opset1">
			<data element_type="f16" offset="154" shape="" size="2"/>
			<output>
				<port id="0" precision="FP16"/>
			</output>
		</layer>
		<layer id="156" name="4064406822764" type="Const" version="opset1">
			<data element_type="f16" offset="156" shape="" size="2"/>
			<output>
				<port id="0" precision="FP16"/>
			</output>
		</layer>
		<layer id="157" name="4065406921414" type="Const" version="opset1">
			<data element_type="f16" offset="158" shape="" size="2"/>
			<output>
				<port id="0" precision="FP16"/>
			</output>
		</layer>
		<layer id="158" name="4066407019647" type="Const" version="opset1">
			<data element_type="f16" offset="156" shape="" size="2"/>
			<output>
				<port id="0" precision="FP16"/>
			</output>
		</layer>
		<layer id="159" name="4067407121186" type="Const" version="opset1">
			<data element_type="f16" offset="158" shape="" size="2"/>
			<output>
				<port id="0" precision="FP16"/>
			</output>
		</layer>
		<layer id="160" name="2984298821153" type="Const" version="opset1">
			<data element_type="f16" offset="160" shape="" size="2"/>
			<output>
				<port id="0" precision="FP16"/>
			</output>
		</layer>
		<layer id="161" name="2985298920082" type="Const" version="opset1">
			<data element_type="f16" offset="162" shape="" size="2"/>
			<output>
				<port id="0" precision="FP16"/>
			</output>
		</layer>
		<layer id="162" name="2986299020013" type="Const" version="opset1">
			<data element_type="f16" offset="160" shape="" size="2"/>
			<output>
				<port id="0" precision="FP16"/>
			</output>
		</layer>
		<layer id="163" name="2987299122623" type="Const" version="opset1">
			<data element_type="f16" offset="162" shape="" size="2"/>
			<output>
				<port id="0" precision="FP16"/>
			</output>
		</layer>
		<layer id="164" name="data" type="Parameter" version="opset1">
			<data element_type="f16" shape="1,3,320,544"/>
			<output>
				<port id="0" names="data" precision="FP16">
					<dim>1</dim>
					<dim>3</dim>
					<dim>320</dim>
					<dim>544</dim>
				</port>
			</output>
		</layer>
		<layer id="165" name="data_mul_2364474720739" type="Const" version="opset1">
			<data element_type="f16" offset="164" shape="1,3,1,1" size="6"/>
			<output>
				<port id="0" precision="FP16">
					<dim>1</dim>
					<dim>3</dim>
					<dim>1</dim>
					<dim>1</dim>
				</port>
			</output>
		</layer>
		<layer id="166" name="data/norm/bn/mean/Fused_Mul_" type="Multiply" version="opset1">
			<data auto_broadcast="numpy"/>
			<input>
				<port id="0">
					<dim>1</dim>
					<dim>3</dim>
					<dim>320</dim>
					<dim>544</dim>
				</port>
				<port id="1">
					<dim>1</dim>
					<dim>3</dim>
					<dim>1</dim>
					<dim>1</dim>
				</port>
			</input>
			<output>
				<port id="2" precision="FP16">
					<dim>1</dim>
					<dim>3</dim>
					<dim>320</dim>
					<dim>544</dim>
				</port>
			</output>
		</layer>
		<layer id="167" name="data_add_2364674920346" type="Const" version="opset1">
			<data element_type="f16" offset="170" shape="1,3,1,1" size="6"/>
			<output>
				<port id="0" precision="FP16">
					<dim>1</dim>
					<dim>3</dim>
					<dim>1</dim>
					<dim>1</dim>
				</port>
			</output>
		</layer>
		<layer id="168" name="data/norm/bn/variance/Fused_Add_" type="Add" version="opset1">
			<data auto_broadcast="numpy"/>
			<input>
				<port id="0">
					<dim>1</dim>
					<dim>3</dim>
					<dim>320</dim>
					<dim>544</dim>
				</port>
				<port id="1">
					<dim>1</dim>
					<dim>3</dim>
					<dim>1</dim>
					<dim>1</dim>
				</port>
			</input>
			<output>
				<port id="2" names="data/norm/bn" precision="FP16">
					<dim>1</dim>
					<dim>3</dim>
					<dim>320</dim>
					<dim>544</dim>
				</port>
			</output>
		</layer>
		<layer id="169" name="init_block1/dim_inc/conv/fq_input_0" type="FakeQuantize" version="opset1">
			<data auto_broadcast="numpy" levels="256"/>
			<input>
				<port id="0">
					<dim>1</dim>
					<dim>3</dim>
					<dim>320</dim>
					<dim>544</dim>
				</port>
				<port id="1"/>
				<port id="2"/>
				<port id="3"/>
				<port id="4"/>
			</input>
			<output>
				<port id="5" precision="FP16">
					<dim>1</dim>
					<dim>3</dim>
					<dim>320</dim>
					<dim>544</dim>
				</port>
			</output>
		</layer>
		<layer id="170" name="init_block1/dim_inc/bn/mean/Fused_Mul__copy75110080/quantized1156020379" type="Const" version="opset1">
			<data element_type="i8" offset="176" shape="32,3,3,3" size="864"/>
			<output>
				<port id="0" precision="I8">
					<dim>32</dim>
					<dim>3</dim>
					<dim>3</dim>
					<dim>3</dim>
				</port>
			</output>
		</layer>
		<layer id="171" name="init_block1/dim_inc/bn/mean/Fused_Mul__copy75110080/quantized/to_f16" type="Convert" version="opset1">
			<data destination_type="f16"/>
			<input>
				<port id="0">
					<dim>32</dim>
					<dim>3</dim>
					<dim>3</dim>
					<dim>3</dim>
				</port>
			</input>
			<output>
				<port id="1" precision="FP16">
					<dim>32</dim>
					<dim>3</dim>
					<dim>3</dim>
					<dim>3</dim>
				</port>
			</output>
		</layer>
		<layer id="172" name="init_block1/dim_inc/conv/fq_weights_1/zero_point1157320874" type="Const" version="opset1">
			<data element_type="f16" offset="1040" shape="32,1,1,1" size="64"/>
			<output>
				<port id="0" precision="FP16">
					<dim>32</dim>
					<dim>1</dim>
					<dim>1</dim>
					<dim>1</dim>
				</port>
			</output>
		</layer>
		<layer id="173" name="init_block1/dim_inc/conv/fq_weights_1/minus_zp" type="Subtract" version="opset1">
			<data auto_broadcast="numpy"/>
			<input>
				<port id="0">
					<dim>32</dim>
					<dim>3</dim>
					<dim>3</dim>
					<dim>3</dim>
				</port>
				<port id="1">
					<dim>32</dim>
					<dim>1</dim>
					<dim>1</dim>
					<dim>1</dim>
				</port>
			</input>
			<output>
				<port id="2" precision="FP16">
					<dim>32</dim>
					<dim>3</dim>
					<dim>3</dim>
					<dim>3</dim>
				</port>
			</output>
		</layer>
		<layer id="174" name="init_block1/dim_inc/conv/fq_weights_1/scale1156821582" type="Const" version="opset1">
			<data element_type="f16" offset="1104" shape="32,1,1,1" size="64"/>
			<output>
				<port id="0" precision="FP16">
					<dim>32</dim>
					<dim>1</dim>
					<dim>1</dim>
					<dim>1</dim>
				</port>
			</output>
		</layer>
		<layer id="175" name="init_block1/dim_inc/conv/fq_weights_1/mulpiply_by_scale" type="Multiply" version="opset1">
			<data auto_broadcast="numpy"/>
			<input>
				<port id="0">
					<dim>32</dim>
					<dim>3</dim>
					<dim>3</dim>
					<dim>3</dim>
				</port>
				<port id="1">
					<dim>32</dim>
					<dim>1</dim>
					<dim>1</dim>
					<dim>1</dim>
				</port>
			</input>
			<output>
				<port id="2" precision="FP16">
					<dim>32</dim>
					<dim>3</dim>
					<dim>3</dim>
					<dim>3</dim>
				</port>
			</output>
		</layer>
		<layer id="176" name="init_block1/dim_inc/conv" type="Convolution" version="opset1">
			<data auto_pad="explicit" dilations="1,1" pads_begin="1,1" pads_end="1,1" strides="2,2"/>
			<input>
				<port id="0">
					<dim>1</dim>
					<dim>3</dim>
					<dim>320</dim>
					<dim>544</dim>
				</port>
				<port id="1">
					<dim>32</dim>
					<dim>3</dim>
					<dim>3</dim>
					<dim>3</dim>
				</port>
			</input>
			<output>
				<port id="2" precision="FP16">
					<dim>1</dim>
					<dim>32</dim>
					<dim>160</dim>
					<dim>272</dim>
				</port>
			</output>
		</layer>
		<layer id="177" name="data_add_236492365475319752" type="Const" version="opset1">
			<data element_type="f16" offset="1168" shape="1,32,1,1" size="64"/>
			<output>
				<port id="0" precision="FP16">
					<dim>1</dim>
					<dim>32</dim>
					<dim>1</dim>
					<dim>1</dim>
				</port>
			</output>
		</layer>
		<layer id="178" name="init_block1/dim_inc/bn/variance/Fused_Add_" type="Add" version="opset1">
			<data auto_broadcast="numpy"/>
			<input>
				<port id="0">
					<dim>1</dim>
					<dim>32</dim>
					<dim>160</dim>
					<dim>272</dim>
				</port>
				<port id="1">
					<dim>1</dim>
					<dim>32</dim>
					<dim>1</dim>
					<dim>1</dim>
				</port>
			</input>
			<output>
				<port id="2" names="init_block1/dim_inc/conv" precision="FP16">
					<dim>1</dim>
					<dim>32</dim>
					<dim>160</dim>
					<dim>272</dim>
				</port>
			</output>
		</layer>
		<layer id="179" name="init_block1/dim_inc/fn" type="ReLU" version="opset1">
			<input>
				<port id="0">
					<dim>1</dim>
					<dim>32</dim>
					<dim>160</dim>
					<dim>272</dim>
				</port>
			</input>
			<output>
				<port id="1" names="init_block1/dim_inc/conv" precision="FP16">
					<dim>1</dim>
					<dim>32</dim>
					<dim>160</dim>
					<dim>272</dim>
				</port>
			</output>
		</layer>
		<layer id="180" name="bottleneck1_1/add/fq_input_0" type="FakeQuantize" version="opset1">
			<data auto_broadcast="numpy" levels="256"/>
			<input>
				<port id="0">
					<dim>1</dim>
					<dim>32</dim>
					<dim>160</dim>
					<dim>272</dim>
				</port>
				<port id="1"/>
				<port id="2"/>
				<port id="3"/>
				<port id="4"/>
			</input>
			<output>
				<port id="5" precision="FP16">
					<dim>1</dim>
					<dim>32</dim>
					<dim>160</dim>
					<dim>272</dim>
				</port>
			</output>
		</layer>
		<layer id="181" name="4074407821579" type="Const" version="opset1">
			<data element_type="f16" offset="1232" shape="" size="2"/>
			<output>
				<port id="0" precision="FP16"/>
			</output>
		</layer>
		<layer id="182" name="4075407920544" type="Const" version="opset1">
			<data element_type="f16" offset="1234" shape="" size="2"/>
			<output>
				<port id="0" precision="FP16"/>
			</output>
		</layer>
		<layer id="183" name="4076408020457" type="Const" version="opset1">
			<data element_type="f16" offset="1232" shape="" size="2"/>
			<output>
				<port id="0" precision="FP16"/>
			</output>
		</layer>
		<layer id="184" name="4077408119959" type="Const" version="opset1">
			<data element_type="f16" offset="1234" shape="" size="2"/>
			<output>
				<port id="0" precision="FP16"/>
			</output>
		</layer>
		<layer id="185" name="5484548819965" type="Const" version="opset1">
			<data element_type="f16" offset="1236" shape="" size="2"/>
			<output>
				<port id="0" precision="FP16"/>
			</output>
		</layer>
		<layer id="186" name="5485548920790" type="Const" version="opset1">
			<data element_type="f16" offset="1238" shape="" size="2"/>
			<output>
				<port id="0" precision="FP16"/>
			</output>
		</layer>
		<layer id="187" name="5486549020364" type="Const" version="opset1">
			<data element_type="f16" offset="1236" shape="" size="2"/>
			<output>
				<port id="0" precision="FP16"/>
			</output>
		</layer>
		<layer id="188" name="5487549119788" type="Const" version="opset1">
			<data element_type="f16" offset="1238" shape="" size="2"/>
			<output>
				<port id="0" precision="FP16"/>
			</output>
		</layer>
		<layer id="189" name="3844384820577" type="Const" version="opset1">
			<data element_type="f16" offset="1240" shape="1,8,1,1" size="16"/>
			<output>
				<port id="0" precision="FP16">
					<dim>1</dim>
					<dim>8</dim>
					<dim>1</dim>
					<dim>1</dim>
				</port>
			</output>
		</layer>
		<layer id="190" name="3845384920994" type="Const" version="opset1">
			<data element_type="f16" offset="1256" shape="1,8,1,1" size="16"/>
			<output>
				<port id="0" precision="FP16">
					<dim>1</dim>
					<dim>8</dim>
					<dim>1</dim>
					<dim>1</dim>
				</port>
			</output>
		</layer>
		<layer id="191" name="3846385019611" type="Const" version="opset1">
			<data element_type="f16" offset="1240" shape="1,8,1,1" size="16"/>
			<output>
				<port id="0" precision="FP16">
					<dim>1</dim>
					<dim>8</dim>
					<dim>1</dim>
					<dim>1</dim>
				</port>
			</output>
		</layer>
		<layer id="192" name="3847385119518" type="Const" version="opset1">
			<data element_type="f16" offset="1256" shape="1,8,1,1" size="16"/>
			<output>
				<port id="0" precision="FP16">
					<dim>1</dim>
					<dim>8</dim>
					<dim>1</dim>
					<dim>1</dim>
				</port>
			</output>
		</layer>
		<layer id="193" name="bottleneck1_1/dim_red/bn/mean/Fused_Mul__copy75610082/quantized1376820805" type="Const" version="opset1">
			<data element_type="i8" offset="1272" shape="8,32,1,1" size="256"/>
			<output>
				<port id="0" precision="I8">
					<dim>8</dim>
					<dim>32</dim>
					<dim>1</dim>
					<dim>1</dim>
				</port>
			</output>
		</layer>
		<layer id="194" name="bottleneck1_1/dim_red/bn/mean/Fused_Mul__copy75610082/quantized/to_f16" type="Convert" version="opset1">
			<data destination_type="f16"/>
			<input>
				<port id="0">
					<dim>8</dim>
					<dim>32</dim>
					<dim>1</dim>
					<dim>1</dim>
				</port>
			</input>
			<output>
				<port id="1" precision="FP16">
					<dim>8</dim>
					<dim>32</dim>
					<dim>1</dim>
					<dim>1</dim>
				</port>
			</output>
		</layer>
		<layer id="195" name="bottleneck1_1/dim_red/conv/fq_weights_1/zero_point1378120046" type="Const" version="opset1">
			<data element_type="f16" offset="1528" shape="8,1,1,1" size="16"/>
			<output>
				<port id="0" precision="FP16">
					<dim>8</dim>
					<dim>1</dim>
					<dim>1</dim>
					<dim>1</dim>
				</port>
			</output>
		</layer>
		<layer id="196" name="bottleneck1_1/dim_red/conv/fq_weights_1/minus_zp" type="Subtract" version="opset1">
			<data auto_broadcast="numpy"/>
			<input>
				<port id="0">
					<dim>8</dim>
					<dim>32</dim>
					<dim>1</dim>
					<dim>1</dim>
				</port>
				<port id="1">
					<dim>8</dim>
					<dim>1</dim>
					<dim>1</dim>
					<dim>1</dim>
				</port>
			</input>
			<output>
				<port id="2" precision="FP16">
					<dim>8</dim>
					<dim>32</dim>
					<dim>1</dim>
					<dim>1</dim>
				</port>
			</output>
		</layer>
		<layer id="197" name="bottleneck1_1/dim_red/conv/fq_weights_1/scale1377620769" type="Const" version="opset1">
			<data element_type="f16" offset="1544" shape="8,1,1,1" size="16"/>
			<output>
				<port id="0" precision="FP16">
					<dim>8</dim>
					<dim>1</dim>
					<dim>1</dim>
					<dim>1</dim>
				</port>
			</output>
		</layer>
		<layer id="198" name="bottleneck1_1/dim_red/conv/fq_weights_1/mulpiply_by_scale" type="Multiply" version="opset1">
			<data auto_broadcast="numpy"/>
			<input>
				<port id="0">
					<dim>8</dim>
					<dim>32</dim>
					<dim>1</dim>
					<dim>1</dim>
				</port>
				<port id="1">
					<dim>8</dim>
					<dim>1</dim>
					<dim>1</dim>
					<dim>1</dim>
				</port>
			</input>
			<output>
				<port id="2" precision="FP16">
					<dim>8</dim>
					<dim>32</dim>
					<dim>1</dim>
					<dim>1</dim>
				</port>
			</output>
		</layer>
		<layer id="199" name="bottleneck1_1/dim_red/conv" type="Convolution" version="opset1">
			<data auto_pad="explicit" dilations="1,1" pads_begin="0,0" pads_end="0,0" strides="1,1"/>
			<input>
				<port id="0">
					<dim>1</dim>
					<dim>32</dim>
					<dim>160</dim>
					<dim>272</dim>
				</port>
				<port id="1">
					<dim>8</dim>
					<dim>32</dim>
					<dim>1</dim>
					<dim>1</dim>
				</port>
			</input>
			<output>
				<port id="2" precision="FP16">
					<dim>1</dim>
					<dim>8</dim>
					<dim>160</dim>
					<dim>272</dim>
				</port>
			</output>
		</layer>
		<layer id="200" name="data_add_236572366275820892" type="Const" version="opset1">
			<data element_type="f16" offset="1560" shape="1,8,1,1" size="16"/>
			<output>
				<port id="0" precision="FP16">
					<dim>1</dim>
					<dim>8</dim>
					<dim>1</dim>
					<dim>1</dim>
				</port>
			</output>
		</layer>
		<layer id="201" name="bottleneck1_1/dim_red/bn/variance/Fused_Add_" type="Add" version="opset1">
			<data auto_broadcast="numpy"/>
			<input>
				<port id="0">
					<dim>1</dim>
					<dim>8</dim>
					<dim>160</dim>
					<dim>272</dim>
				</port>
				<port id="1">
					<dim>1</dim>
					<dim>8</dim>
					<dim>1</dim>
					<dim>1</dim>
				</port>
			</input>
			<output>
				<port id="2" names="bottleneck1_1/dim_red/conv" precision="FP16">
					<dim>1</dim>
					<dim>8</dim>
					<dim>160</dim>
					<dim>272</dim>
				</port>
			</output>
		</layer>
		<layer id="202" name="bottleneck1_1/dim_red/fn/weights3078040028760" type="Const" version="opset1">
			<data element_type="f32" offset="1576" shape="1" size="4"/>
			<output>
				<port id="0" precision="FP32">
					<dim>1</dim>
				</port>
			</output>
		</layer>
		<layer id="203" name="bottleneck1_1/dim_red/fn" type="PReLU" version="opset1">
			<input>
				<port id="0">
					<dim>1</dim>
					<dim>8</dim>
					<dim>160</dim>
					<dim>272</dim>
				</port>
				<port id="1">
					<dim>1</dim>
				</port>
			</input>
			<output>
				<port id="2" names="bottleneck1_1/dim_red/conv" precision="FP16">
					<dim>1</dim>
					<dim>8</dim>
					<dim>160</dim>
					<dim>272</dim>
				</port>
			</output>
		</layer>
		<layer id="204" name="bottleneck1_1/inner/dw1/conv/fq_input_0" type="FakeQuantize" version="opset1">
			<data auto_broadcast="numpy" levels="256"/>
			<input>
				<port id="0">
					<dim>1</dim>
					<dim>8</dim>
					<dim>160</dim>
					<dim>272</dim>
				</port>
				<port id="1">
					<dim>1</dim>
					<dim>8</dim>
					<dim>1</dim>
					<dim>1</dim>
				</port>
				<port id="2">
					<dim>1</dim>
					<dim>8</dim>
					<dim>1</dim>
					<dim>1</dim>
				</port>
				<port id="3">
					<dim>1</dim>
					<dim>8</dim>
					<dim>1</dim>
					<dim>1</dim>
				</port>
				<port id="4">
					<dim>1</dim>
					<dim>8</dim>
					<dim>1</dim>
					<dim>1</dim>
				</port>
			</input>
			<output>
				<port id="5" precision="FP16">
					<dim>1</dim>
					<dim>8</dim>
					<dim>160</dim>
					<dim>272</dim>
				</port>
			</output>
		</layer>
		<layer id="205" name="16855/value1685720643" type="Const" version="opset1">
			<data element_type="i64" offset="1580" shape="5" size="40"/>
			<output>
				<port id="0" precision="I64">
					<dim>5</dim>
				</port>
			</output>
		</layer>
		<layer id="206" name="bottleneck1_1/inner/dw1/bn/mean/Fused_Mul__copy76210085/quantized1374422218" type="Const" version="opset1">
			<data element_type="i8" offset="1620" shape="8,1,3,3" size="72"/>
			<output>
				<port id="0" precision="I8">
					<dim>8</dim>
					<dim>1</dim>
					<dim>3</dim>
					<dim>3</dim>
				</port>
			</output>
		</layer>
		<layer id="207" name="bottleneck1_1/inner/dw1/bn/mean/Fused_Mul__copy76210085/quantized/to_f16" type="Convert" version="opset1">
			<data destination_type="f16"/>
			<input>
				<port id="0">
					<dim>8</dim>
					<dim>1</dim>
					<dim>3</dim>
					<dim>3</dim>
				</port>
			</input>
			<output>
				<port id="1" precision="FP16">
					<dim>8</dim>
					<dim>1</dim>
					<dim>3</dim>
					<dim>3</dim>
				</port>
			</output>
		</layer>
		<layer id="208" name="bottleneck1_1/inner/dw1/conv/fq_weights_1/zero_point1375719575" type="Const" version="opset1">
			<data element_type="f16" offset="1692" shape="8,1,1,1" size="16"/>
			<output>
				<port id="0" precision="FP16">
					<dim>8</dim>
					<dim>1</dim>
					<dim>1</dim>
					<dim>1</dim>
				</port>
			</output>
		</layer>
		<layer id="209" name="bottleneck1_1/inner/dw1/conv/fq_weights_1/minus_zp" type="Subtract" version="opset1">
			<data auto_broadcast="numpy"/>
			<input>
				<port id="0">
					<dim>8</dim>
					<dim>1</dim>
					<dim>3</dim>
					<dim>3</dim>
				</port>
				<port id="1">
					<dim>8</dim>
					<dim>1</dim>
					<dim>1</dim>
					<dim>1</dim>
				</port>
			</input>
			<output>
				<port id="2" precision="FP16">
					<dim>8</dim>
					<dim>1</dim>
					<dim>3</dim>
					<dim>3</dim>
				</port>
			</output>
		</layer>
		<layer id="210" name="bottleneck1_1/inner/dw1/conv/fq_weights_1/scale1375220715" type="Const" version="opset1">
			<data element_type="f16" offset="1708" shape="8,1,1,1" size="16"/>
			<output>
				<port id="0" precision="FP16">
					<dim>8</dim>
					<dim>1</dim>
					<dim>1</dim>
					<dim>1</dim>
				</port>
			</output>
		</layer>
		<layer id="211" name="bottleneck1_1/inner/dw1/conv/fq_weights_1/mulpiply_by_scale" type="Multiply" version="opset1">
			<data auto_broadcast="numpy"/>
			<input>
				<port id="0">
					<dim>8</dim>
					<dim>1</dim>
					<dim>3</dim>
					<dim>3</dim>
				</port>
				<port id="1">
					<dim>8</dim>
					<dim>1</dim>
					<dim>1</dim>
					<dim>1</dim>
				</port>
			</input>
			<output>
				<port id="2" precision="FP16">
					<dim>8</dim>
					<dim>1</dim>
					<dim>3</dim>
					<dim>3</dim>
				</port>
			</output>
		</layer>
		<layer id="212" name="16855" type="Reshape" version="opset1">
			<data special_zero="true"/>
			<input>
				<port id="0">
					<dim>8</dim>
					<dim>1</dim>
					<dim>3</dim>
					<dim>3</dim>
				</port>
				<port id="1">
					<dim>5</dim>
				</port>
			</input>
			<output>
				<port id="2" precision="FP16">
					<dim>8</dim>
					<dim>1</dim>
					<dim>1</dim>
					<dim>3</dim>
					<dim>3</dim>
				</port>
			</output>
		</layer>
		<layer id="213" name="bottleneck1_1/inner/dw1/conv" type="GroupConvolution" version="opset1">
			<data auto_pad="explicit" dilations="1,1" pads_begin="1,1" pads_end="1,1" strides="1,1"/>
			<input>
				<port id="0">
					<dim>1</dim>
					<dim>8</dim>
					<dim>160</dim>
					<dim>272</dim>
				</port>
				<port id="1">
					<dim>8</dim>
					<dim>1</dim>
					<dim>1</dim>
					<dim>3</dim>
					<dim>3</dim>
				</port>
			</input>
			<output>
				<port id="2" precision="FP16">
					<dim>1</dim>
					<dim>8</dim>
					<dim>160</dim>
					<dim>272</dim>
				</port>
			</output>
		</layer>
		<layer id="214" name="data_add_236652367076419749" type="Const" version="opset1">
			<data element_type="f16" offset="1724" shape="1,8,1,1" size="16"/>
			<output>
				<port id="0" precision="FP16">
					<dim>1</dim>
					<dim>8</dim>
					<dim>1</dim>
					<dim>1</dim>
				</port>
			</output>
		</layer>
		<layer id="215" name="bottleneck1_1/inner/dw1/bn/variance/Fused_Add_" type="Add" version="opset1">
			<data auto_broadcast="numpy"/>
			<input>
				<port id="0">
					<dim>1</dim>
					<dim>8</dim>
					<dim>160</dim>
					<dim>272</dim>
				</port>
				<port id="1">
					<dim>1</dim>
					<dim>8</dim>
					<dim>1</dim>
					<dim>1</dim>
				</port>
			</input>
			<output>
				<port id="2" names="bottleneck1_1/inner/dw1/conv" precision="FP16">
					<dim>1</dim>
					<dim>8</dim>
					<dim>160</dim>
					<dim>272</dim>
				</port>
			</output>
		</layer>
		<layer id="216" name="bottleneck1_1/inner/dw1/fn/weights3100440070766" type="Const" version="opset1">
			<data element_type="f32" offset="1576" shape="1" size="4"/>
			<output>
				<port id="0" precision="FP32">
					<dim>1</dim>
				</port>
			</output>
		</layer>
		<layer id="217" name="bottleneck1_1/inner/dw1/fn" type="PReLU" version="opset1">
			<input>
				<port id="0">
					<dim>1</dim>
					<dim>8</dim>
					<dim>160</dim>
					<dim>272</dim>
				</port>
				<port id="1">
					<dim>1</dim>
				</port>
			</input>
			<output>
				<port id="2" names="bottleneck1_1/inner/dw1/conv" precision="FP16">
					<dim>1</dim>
					<dim>8</dim>
					<dim>160</dim>
					<dim>272</dim>
				</port>
			</output>
		</layer>
		<layer id="218" name="bottleneck1_1/dim_inc/conv/fq_input_0" type="FakeQuantize" version="opset1">
			<data auto_broadcast="numpy" levels="256"/>
			<input>
				<port id="0">
					<dim>1</dim>
					<dim>8</dim>
					<dim>160</dim>
					<dim>272</dim>
				</port>
				<port id="1"/>
				<port id="2"/>
				<port id="3"/>
				<port id="4"/>
			</input>
			<output>
				<port id="5" precision="FP16">
					<dim>1</dim>
					<dim>8</dim>
					<dim>160</dim>
					<dim>272</dim>
				</port>
			</output>
		</layer>
		<layer id="219" name="bottleneck1_1/dim_inc/bn/mean/Fused_Mul__copy76810088/quantized1280822266" type="Const" version="opset1">
			<data element_type="i8" offset="1740" shape="32,8,1,1" size="256"/>
			<output>
				<port id="0" precision="I8">
					<dim>32</dim>
					<dim>8</dim>
					<dim>1</dim>
					<dim>1</dim>
				</port>
			</output>
		</layer>
		<layer id="220" name="bottleneck1_1/dim_inc/bn/mean/Fused_Mul__copy76810088/quantized/to_f16" type="Convert" version="opset1">
			<data destination_type="f16"/>
			<input>
				<port id="0">
					<dim>32</dim>
					<dim>8</dim>
					<dim>1</dim>
					<dim>1</dim>
				</port>
			</input>
			<output>
				<port id="1" precision="FP16">
					<dim>32</dim>
					<dim>8</dim>
					<dim>1</dim>
					<dim>1</dim>
				</port>
			</output>
		</layer>
		<layer id="221" name="bottleneck1_1/dim_inc/conv/fq_weights_1/zero_point1282122905" type="Const" version="opset1">
			<data element_type="f16" offset="1996" shape="32,1,1,1" size="64"/>
			<output>
				<port id="0" precision="FP16">
					<dim>32</dim>
					<dim>1</dim>
					<dim>1</dim>
					<dim>1</dim>
				</port>
			</output>
		</layer>
		<layer id="222" name="bottleneck1_1/dim_inc/conv/fq_weights_1/minus_zp" type="Subtract" version="opset1">
			<data auto_broadcast="numpy"/>
			<input>
				<port id="0">
					<dim>32</dim>
					<dim>8</dim>
					<dim>1</dim>
					<dim>1</dim>
				</port>
				<port id="1">
					<dim>32</dim>
					<dim>1</dim>
					<dim>1</dim>
					<dim>1</dim>
				</port>
			</input>
			<output>
				<port id="2" precision="FP16">
					<dim>32</dim>
					<dim>8</dim>
					<dim>1</dim>
					<dim>1</dim>
				</port>
			</output>
		</layer>
		<layer id="223" name="bottleneck1_1/dim_inc/conv/fq_weights_1/scale1281622482" type="Const" version="opset1">
			<data element_type="f16" offset="2060" shape="32,1,1,1" size="64"/>
			<output>
				<port id="0" precision="FP16">
					<dim>32</dim>
					<dim>1</dim>
					<dim>1</dim>
					<dim>1</dim>
				</port>
			</output>
		</layer>
		<layer id="224" name="bottleneck1_1/dim_inc/conv/fq_weights_1/mulpiply_by_scale" type="Multiply" version="opset1">
			<data auto_broadcast="numpy"/>
			<input>
				<port id="0">
					<dim>32</dim>
					<dim>8</dim>
					<dim>1</dim>
					<dim>1</dim>
				</port>
				<port id="1">
					<dim>32</dim>
					<dim>1</dim>
					<dim>1</dim>
					<dim>1</dim>
				</port>
			</input>
			<output>
				<port id="2" precision="FP16">
					<dim>32</dim>
					<dim>8</dim>
					<dim>1</dim>
					<dim>1</dim>
				</port>
			</output>
		</layer>
		<layer id="225" name="bottleneck1_1/dim_inc/conv" type="Convolution" version="opset1">
			<data auto_pad="explicit" dilations="1,1" pads_begin="0,0" pads_end="0,0" strides="1,1"/>
			<input>
				<port id="0">
					<dim>1</dim>
					<dim>8</dim>
					<dim>160</dim>
					<dim>272</dim>
				</port>
				<port id="1">
					<dim>32</dim>
					<dim>8</dim>
					<dim>1</dim>
					<dim>1</dim>
				</port>
			</input>
			<output>
				<port id="2" precision="FP16">
					<dim>1</dim>
					<dim>32</dim>
					<dim>160</dim>
					<dim>272</dim>
				</port>
			</output>
		</layer>
		<layer id="226" name="data_add_236732367877021738" type="Const" version="opset1">
			<data element_type="f16" offset="2124" shape="1,32,1,1" size="64"/>
			<output>
				<port id="0" precision="FP16">
					<dim>1</dim>
					<dim>32</dim>
					<dim>1</dim>
					<dim>1</dim>
				</port>
			</output>
		</layer>
		<layer id="227" name="bottleneck1_1/dim_inc/bn/variance/Fused_Add_" type="Add" version="opset1">
			<data auto_broadcast="numpy"/>
			<input>
				<port id="0">
					<dim>1</dim>
					<dim>32</dim>
					<dim>160</dim>
					<dim>272</dim>
				</port>
				<port id="1">
					<dim>1</dim>
					<dim>32</dim>
					<dim>1</dim>
					<dim>1</dim>
				</port>
			</input>
			<output>
				<port id="2" names="bottleneck1_1/dim_inc/conv" precision="FP16">
					<dim>1</dim>
					<dim>32</dim>
					<dim>160</dim>
					<dim>272</dim>
				</port>
			</output>
		</layer>
		<layer id="228" name="bottleneck1_1/add/fq_input_1" type="FakeQuantize" version="opset1">
			<data auto_broadcast="numpy" levels="256"/>
			<input>
				<port id="0">
					<dim>1</dim>
					<dim>32</dim>
					<dim>160</dim>
					<dim>272</dim>
				</port>
				<port id="1"/>
				<port id="2"/>
				<port id="3"/>
				<port id="4"/>
			</input>
			<output>
				<port id="5" precision="FP16">
					<dim>1</dim>
					<dim>32</dim>
					<dim>160</dim>
					<dim>272</dim>
				</port>
			</output>
		</layer>
		<layer id="229" name="bottleneck1_1/add" type="Add" version="opset1">
			<data auto_broadcast="numpy"/>
			<input>
				<port id="0">
					<dim>1</dim>
					<dim>32</dim>
					<dim>160</dim>
					<dim>272</dim>
				</port>
				<port id="1">
					<dim>1</dim>
					<dim>32</dim>
					<dim>160</dim>
					<dim>272</dim>
				</port>
			</input>
			<output>
				<port id="2" names="bottleneck1_1/add" precision="FP16">
					<dim>1</dim>
					<dim>32</dim>
					<dim>160</dim>
					<dim>272</dim>
				</port>
			</output>
		</layer>
		<layer id="230" name="bottleneck1_1/fn/weights3085240283773" type="Const" version="opset1">
			<data element_type="f32" offset="1576" shape="1" size="4"/>
			<output>
				<port id="0" precision="FP32">
					<dim>1</dim>
				</port>
			</output>
		</layer>
		<layer id="231" name="bottleneck1_1/fn" type="PReLU" version="opset1">
			<input>
				<port id="0">
					<dim>1</dim>
					<dim>32</dim>
					<dim>160</dim>
					<dim>272</dim>
				</port>
				<port id="1">
					<dim>1</dim>
				</port>
			</input>
			<output>
				<port id="2" names="bottleneck1_1/add" precision="FP16">
					<dim>1</dim>
					<dim>32</dim>
					<dim>160</dim>
					<dim>272</dim>
				</port>
			</output>
		</layer>
		<layer id="232" name="bottleneck1_2/add/fq_input_0" type="FakeQuantize" version="opset1">
			<data auto_broadcast="numpy" levels="256"/>
			<input>
				<port id="0">
					<dim>1</dim>
					<dim>32</dim>
					<dim>160</dim>
					<dim>272</dim>
				</port>
				<port id="1"/>
				<port id="2"/>
				<port id="3"/>
				<port id="4"/>
			</input>
			<output>
				<port id="5" precision="FP16">
					<dim>1</dim>
					<dim>32</dim>
					<dim>160</dim>
					<dim>272</dim>
				</port>
			</output>
		</layer>
		<layer id="233" name="2834283820706" type="Const" version="opset1">
			<data element_type="f16" offset="2188" shape="" size="2"/>
			<output>
				<port id="0" precision="FP16"/>
			</output>
		</layer>
		<layer id="234" name="2835283922026" type="Const" version="opset1">
			<data element_type="f16" offset="2190" shape="" size="2"/>
			<output>
				<port id="0" precision="FP16"/>
			</output>
		</layer>
		<layer id="235" name="2836284020475" type="Const" version="opset1">
			<data element_type="f16" offset="2188" shape="" size="2"/>
			<output>
				<port id="0" precision="FP16"/>
			</output>
		</layer>
		<layer id="236" name="2837284120844" type="Const" version="opset1">
			<data element_type="f16" offset="2190" shape="" size="2"/>
			<output>
				<port id="0" precision="FP16"/>
			</output>
		</layer>
		<layer id="237" name="3604360820832" type="Const" version="opset1">
			<data element_type="f16" offset="2192" shape="" size="2"/>
			<output>
				<port id="0" precision="FP16"/>
			</output>
		</layer>
		<layer id="238" name="3605360921774" type="Const" version="opset1">
			<data element_type="f16" offset="2194" shape="" size="2"/>
			<output>
				<port id="0" precision="FP16"/>
			</output>
		</layer>
		<layer id="239" name="3606361021057" type="Const" version="opset1">
			<data element_type="f16" offset="2192" shape="" size="2"/>
			<output>
				<port id="0" precision="FP16"/>
			</output>
		</layer>
		<layer id="240" name="3607361121939" type="Const" version="opset1">
			<data element_type="f16" offset="2194" shape="" size="2"/>
			<output>
				<port id="0" precision="FP16"/>
			</output>
		</layer>
		<layer id="241" name="4324432819458" type="Const" version="opset1">
			<data element_type="f16" offset="2196" shape="1,8,1,1" size="16"/>
			<output>
				<port id="0" precision="FP16">
					<dim>1</dim>
					<dim>8</dim>
					<dim>1</dim>
					<dim>1</dim>
				</port>
			</output>
		</layer>
		<layer id="242" name="4325432919383" type="Const" version="opset1">
			<data element_type="f16" offset="2212" shape="1,8,1,1" size="16"/>
			<output>
				<port id="0" precision="FP16">
					<dim>1</dim>
					<dim>8</dim>
					<dim>1</dim>
					<dim>1</dim>
				</port>
			</output>
		</layer>
		<layer id="243" name="4326433019566" type="Const" version="opset1">
			<data element_type="f16" offset="2196" shape="1,8,1,1" size="16"/>
			<output>
				<port id="0" precision="FP16">
					<dim>1</dim>
					<dim>8</dim>
					<dim>1</dim>
					<dim>1</dim>
				</port>
			</output>
		</layer>
		<layer id="244" name="4327433121792" type="Const" version="opset1">
			<data element_type="f16" offset="2212" shape="1,8,1,1" size="16"/>
			<output>
				<port id="0" precision="FP16">
					<dim>1</dim>
					<dim>8</dim>
					<dim>1</dim>
					<dim>1</dim>
				</port>
			</output>
		</layer>
		<layer id="245" name="bottleneck1_2/dim_red/bn/mean/Fused_Mul__copy77510091/quantized1273622236" type="Const" version="opset1">
			<data element_type="i8" offset="2228" shape="8,32,1,1" size="256"/>
			<output>
				<port id="0" precision="I8">
					<dim>8</dim>
					<dim>32</dim>
					<dim>1</dim>
					<dim>1</dim>
				</port>
			</output>
		</layer>
		<layer id="246" name="bottleneck1_2/dim_red/bn/mean/Fused_Mul__copy77510091/quantized/to_f16" type="Convert" version="opset1">
			<data destination_type="f16"/>
			<input>
				<port id="0">
					<dim>8</dim>
					<dim>32</dim>
					<dim>1</dim>
					<dim>1</dim>
				</port>
			</input>
			<output>
				<port id="1" precision="FP16">
					<dim>8</dim>
					<dim>32</dim>
					<dim>1</dim>
					<dim>1</dim>
				</port>
			</output>
		</layer>
		<layer id="247" name="bottleneck1_2/dim_red/conv/fq_weights_1/zero_point1274922707" type="Const" version="opset1">
			<data element_type="f16" offset="2484" shape="8,1,1,1" size="16"/>
			<output>
				<port id="0" precision="FP16">
					<dim>8</dim>
					<dim>1</dim>
					<dim>1</dim>
					<dim>1</dim>
				</port>
			</output>
		</layer>
		<layer id="248" name="bottleneck1_2/dim_red/conv/fq_weights_1/minus_zp" type="Subtract" version="opset1">
			<data auto_broadcast="numpy"/>
			<input>
				<port id="0">
					<dim>8</dim>
					<dim>32</dim>
					<dim>1</dim>
					<dim>1</dim>
				</port>
				<port id="1">
					<dim>8</dim>
					<dim>1</dim>
					<dim>1</dim>
					<dim>1</dim>
				</port>
			</input>
			<output>
				<port id="2" precision="FP16">
					<dim>8</dim>
					<dim>32</dim>
					<dim>1</dim>
					<dim>1</dim>
				</port>
			</output>
		</layer>
		<layer id="249" name="bottleneck1_2/dim_red/conv/fq_weights_1/scale1274420130" type="Const" version="opset1">
			<data element_type="f16" offset="2500" shape="8,1,1,1" size="16"/>
			<output>
				<port id="0" precision="FP16">
					<dim>8</dim>
					<dim>1</dim>
					<dim>1</dim>
					<dim>1</dim>
				</port>
			</output>
		</layer>
		<layer id="250" name="bottleneck1_2/dim_red/conv/fq_weights_1/mulpiply_by_scale" type="Multiply" version="opset1">
			<data auto_broadcast="numpy"/>
			<input>
				<port id="0">
					<dim>8</dim>
					<dim>32</dim>
					<dim>1</dim>
					<dim>1</dim>
				</port>
				<port id="1">
					<dim>8</dim>
					<dim>1</dim>
					<dim>1</dim>
					<dim>1</dim>
				</port>
			</input>
			<output>
				<port id="2" precision="FP16">
					<dim>8</dim>
					<dim>32</dim>
					<dim>1</dim>
					<dim>1</dim>
				</port>
			</output>
		</layer>
		<layer id="251" name="bottleneck1_2/dim_red/conv" type="Convolution" version="opset1">
			<data auto_pad="explicit" dilations="1,1" pads_begin="0,0" pads_end="0,0" strides="1,1"/>
			<input>
				<port id="0">
					<dim>1</dim>
					<dim>32</dim>
					<dim>160</dim>
					<dim>272</dim>
				</port>
				<port id="1">
					<dim>8</dim>
					<dim>32</dim>
					<dim>1</dim>
					<dim>1</dim>
				</port>
			</input>
			<output>
				<port id="2" precision="FP16">
					<dim>1</dim>
					<dim>8</dim>
					<dim>160</dim>
					<dim>272</dim>
				</port>
			</output>
		</layer>
		<layer id="252" name="data_add_236812368677719602" type="Const" version="opset1">
			<data element_type="f16" offset="2516" shape="1,8,1,1" size="16"/>
			<output>
				<port id="0" precision="FP16">
					<dim>1</dim>
					<dim>8</dim>
					<dim>1</dim>
					<dim>1</dim>
				</port>
			</output>
		</layer>
		<layer id="253" name="bottleneck1_2/dim_red/bn/variance/Fused_Add_" type="Add" version="opset1">
			<data auto_broadcast="numpy"/>
			<input>
				<port id="0">
					<dim>1</dim>
					<dim>8</dim>
					<dim>160</dim>
					<dim>272</dim>
				</port>
				<port id="1">
					<dim>1</dim>
					<dim>8</dim>
					<dim>1</dim>
					<dim>1</dim>
				</port>
			</input>
			<output>
				<port id="2" names="bottleneck1_2/dim_red/conv" precision="FP16">
					<dim>1</dim>
					<dim>8</dim>
					<dim>160</dim>
					<dim>272</dim>
				</port>
			</output>
		</layer>
		<layer id="254" name="bottleneck1_2/dim_red/fn/weights3083240265779" type="Const" version="opset1">
			<data element_type="f32" offset="1576" shape="1" size="4"/>
			<output>
				<port id="0" precision="FP32">
					<dim>1</dim>
				</port>
			</output>
		</layer>
		<layer id="255" name="bottleneck1_2/dim_red/fn" type="PReLU" version="opset1">
			<input>
				<port id="0">
					<dim>1</dim>
					<dim>8</dim>
					<dim>160</dim>
					<dim>272</dim>
				</port>
				<port id="1">
					<dim>1</dim>
				</port>
			</input>
			<output>
				<port id="2" names="bottleneck1_2/dim_red/conv" precision="FP16">
					<dim>1</dim>
					<dim>8</dim>
					<dim>160</dim>
					<dim>272</dim>
				</port>
			</output>
		</layer>
		<layer id="256" name="bottleneck1_2/inner/dw1/conv/fq_input_0" type="FakeQuantize" version="opset1">
			<data auto_broadcast="numpy" levels="256"/>
			<input>
				<port id="0">
					<dim>1</dim>
					<dim>8</dim>
					<dim>160</dim>
					<dim>272</dim>
				</port>
				<port id="1">
					<dim>1</dim>
					<dim>8</dim>
					<dim>1</dim>
					<dim>1</dim>
				</port>
				<port id="2">
					<dim>1</dim>
					<dim>8</dim>
					<dim>1</dim>
					<dim>1</dim>
				</port>
				<port id="3">
					<dim>1</dim>
					<dim>8</dim>
					<dim>1</dim>
					<dim>1</dim>
				</port>
				<port id="4">
					<dim>1</dim>
					<dim>8</dim>
					<dim>1</dim>
					<dim>1</dim>
				</port>
			</input>
			<output>
				<port id="5" precision="FP16">
					<dim>1</dim>
					<dim>8</dim>
					<dim>160</dim>
					<dim>272</dim>
				</port>
			</output>
		</layer>
		<layer id="257" name="16887/value1688920700" type="Const" version="opset1">
			<data element_type="i64" offset="1580" shape="5" size="40"/>
			<output>
				<port id="0" precision="I64">
					<dim>5</dim>
				</port>
			</output>
		</layer>
		<layer id="258" name="bottleneck1_2/inner/dw1/bn/mean/Fused_Mul__copy78110094/quantized1196822821" type="Const" version="opset1">
			<data element_type="i8" offset="2532" shape="8,1,3,3" size="72"/>
			<output>
				<port id="0" precision="I8">
					<dim>8</dim>
					<dim>1</dim>
					<dim>3</dim>
					<dim>3</dim>
				</port>
			</output>
		</layer>
		<layer id="259" name="bottleneck1_2/inner/dw1/bn/mean/Fused_Mul__copy78110094/quantized/to_f16" type="Convert" version="opset1">
			<data destination_type="f16"/>
			<input>
				<port id="0">
					<dim>8</dim>
					<dim>1</dim>
					<dim>3</dim>
					<dim>3</dim>
				</port>
			</input>
			<output>
				<port id="1" precision="FP16">
					<dim>8</dim>
					<dim>1</dim>
					<dim>3</dim>
					<dim>3</dim>
				</port>
			</output>
		</layer>
		<layer id="260" name="bottleneck1_2/inner/dw1/conv/fq_weights_1/zero_point1198120871" type="Const" version="opset1">
			<data element_type="f16" offset="2604" shape="8,1,1,1" size="16"/>
			<output>
				<port id="0" precision="FP16">
					<dim>8</dim>
					<dim>1</dim>
					<dim>1</dim>
					<dim>1</dim>
				</port>
			</output>
		</layer>
		<layer id="261" name="bottleneck1_2/inner/dw1/conv/fq_weights_1/minus_zp" type="Subtract" version="opset1">
			<data auto_broadcast="numpy"/>
			<input>
				<port id="0">
					<dim>8</dim>
					<dim>1</dim>
					<dim>3</dim>
					<dim>3</dim>
				</port>
				<port id="1">
					<dim>8</dim>
					<dim>1</dim>
					<dim>1</dim>
					<dim>1</dim>
				</port>
			</input>
			<output>
				<port id="2" precision="FP16">
					<dim>8</dim>
					<dim>1</dim>
					<dim>3</dim>
					<dim>3</dim>
				</port>
			</output>
		</layer>
		<layer id="262" name="bottleneck1_2/inner/dw1/conv/fq_weights_1/scale1197621684" type="Const" version="opset1">
			<data element_type="f16" offset="2620" shape="8,1,1,1" size="16"/>
			<output>
				<port id="0" precision="FP16">
					<dim>8</dim>
					<dim>1</dim>
					<dim>1</dim>
					<dim>1</dim>
				</port>
			</output>
		</layer>
		<layer id="263" name="bottleneck1_2/inner/dw1/conv/fq_weights_1/mulpiply_by_scale" type="Multiply" version="opset1">
			<data auto_broadcast="numpy"/>
			<input>
				<port id="0">
					<dim>8</dim>
					<dim>1</dim>
					<dim>3</dim>
					<dim>3</dim>
				</port>
				<port id="1">
					<dim>8</dim>
					<dim>1</dim>
					<dim>1</dim>
					<dim>1</dim>
				</port>
			</input>
			<output>
				<port id="2" precision="FP16">
					<dim>8</dim>
					<dim>1</dim>
					<dim>3</dim>
					<dim>3</dim>
				</port>
			</output>
		</layer>
		<layer id="264" name="16887" type="Reshape" version="opset1">
			<data special_zero="true"/>
			<input>
				<port id="0">
					<dim>8</dim>
					<dim>1</dim>
					<dim>3</dim>
					<dim>3</dim>
				</port>
				<port id="1">
					<dim>5</dim>
				</port>
			</input>
			<output>
				<port id="2" precision="FP16">
					<dim>8</dim>
					<dim>1</dim>
					<dim>1</dim>
					<dim>3</dim>
					<dim>3</dim>
				</port>
			</output>
		</layer>
		<layer id="265" name="bottleneck1_2/inner/dw1/conv" type="GroupConvolution" version="opset1">
			<data auto_pad="explicit" dilations="1,1" pads_begin="1,1" pads_end="1,1" strides="1,1"/>
			<input>
				<port id="0">
					<dim>1</dim>
					<dim>8</dim>
					<dim>160</dim>
					<dim>272</dim>
				</port>
				<port id="1">
					<dim>8</dim>
					<dim>1</dim>
					<dim>1</dim>
					<dim>3</dim>
					<dim>3</dim>
				</port>
			</input>
			<output>
				<port id="2" precision="FP16">
					<dim>1</dim>
					<dim>8</dim>
					<dim>160</dim>
					<dim>272</dim>
				</port>
			</output>
		</layer>
		<layer id="266" name="data_add_236892369478320910" type="Const" version="opset1">
			<data element_type="f16" offset="2636" shape="1,8,1,1" size="16"/>
			<output>
				<port id="0" precision="FP16">
					<dim>1</dim>
					<dim>8</dim>
					<dim>1</dim>
					<dim>1</dim>
				</port>
			</output>
		</layer>
		<layer id="267" name="bottleneck1_2/inner/dw1/bn/variance/Fused_Add_" type="Add" version="opset1">
			<data auto_broadcast="numpy"/>
			<input>
				<port id="0">
					<dim>1</dim>
					<dim>8</dim>
					<dim>160</dim>
					<dim>272</dim>
				</port>
				<port id="1">
					<dim>1</dim>
					<dim>8</dim>
					<dim>1</dim>
					<dim>1</dim>
				</port>
			</input>
			<output>
				<port id="2" names="bottleneck1_2/inner/dw1/conv" precision="FP16">
					<dim>1</dim>
					<dim>8</dim>
					<dim>160</dim>
					<dim>272</dim>
				</port>
			</output>
		</layer>
		<layer id="268" name="bottleneck1_2/inner/dw1/fn/weights3082440295785" type="Const" version="opset1">
			<data element_type="f32" offset="1576" shape="1" size="4"/>
			<output>
				<port id="0" precision="FP32">
					<dim>1</dim>
				</port>
			</output>
		</layer>
		<layer id="269" name="bottleneck1_2/inner/dw1/fn" type="PReLU" version="opset1">
			<input>
				<port id="0">
					<dim>1</dim>
					<dim>8</dim>
					<dim>160</dim>
					<dim>272</dim>
				</port>
				<port id="1">
					<dim>1</dim>
				</port>
			</input>
			<output>
				<port id="2" names="bottleneck1_2/inner/dw1/conv" precision="FP16">
					<dim>1</dim>
					<dim>8</dim>
					<dim>160</dim>
					<dim>272</dim>
				</port>
			</output>
		</layer>
		<layer id="270" name="bottleneck1_2/dim_inc/conv/fq_input_0" type="FakeQuantize" version="opset1">
			<data auto_broadcast="numpy" levels="256"/>
			<input>
				<port id="0">
					<dim>1</dim>
					<dim>8</dim>
					<dim>160</dim>
					<dim>272</dim>
				</port>
				<port id="1"/>
				<port id="2"/>
				<port id="3"/>
				<port id="4"/>
			</input>
			<output>
				<port id="5" precision="FP16">
					<dim>1</dim>
					<dim>8</dim>
					<dim>160</dim>
					<dim>272</dim>
				</port>
			</output>
		</layer>
		<layer id="271" name="bottleneck1_2/dim_inc/bn/mean/Fused_Mul__copy78710097/quantized1285621807" type="Const" version="opset1">
			<data element_type="i8" offset="2652" shape="32,8,1,1" size="256"/>
			<output>
				<port id="0" precision="I8">
					<dim>32</dim>
					<dim>8</dim>
					<dim>1</dim>
					<dim>1</dim>
				</port>
			</output>
		</layer>
		<layer id="272" name="bottleneck1_2/dim_inc/bn/mean/Fused_Mul__copy78710097/quantized/to_f16" type="Convert" version="opset1">
			<data destination_type="f16"/>
			<input>
				<port id="0">
					<dim>32</dim>
					<dim>8</dim>
					<dim>1</dim>
					<dim>1</dim>
				</port>
			</input>
			<output>
				<port id="1" precision="FP16">
					<dim>32</dim>
					<dim>8</dim>
					<dim>1</dim>
					<dim>1</dim>
				</port>
			</output>
		</layer>
		<layer id="273" name="bottleneck1_2/dim_inc/conv/fq_weights_1/zero_point1286920469" type="Const" version="opset1">
			<data element_type="f16" offset="2908" shape="32,1,1,1" size="64"/>
			<output>
				<port id="0" precision="FP16">
					<dim>32</dim>
					<dim>1</dim>
					<dim>1</dim>
					<dim>1</dim>
				</port>
			</output>
		</layer>
		<layer id="274" name="bottleneck1_2/dim_inc/conv/fq_weights_1/minus_zp" type="Subtract" version="opset1">
			<data auto_broadcast="numpy"/>
			<input>
				<port id="0">
					<dim>32</dim>
					<dim>8</dim>
					<dim>1</dim>
					<dim>1</dim>
				</port>
				<port id="1">
					<dim>32</dim>
					<dim>1</dim>
					<dim>1</dim>
					<dim>1</dim>
				</port>
			</input>
			<output>
				<port id="2" precision="FP16">
					<dim>32</dim>
					<dim>8</dim>
					<dim>1</dim>
					<dim>1</dim>
				</port>
			</output>
		</layer>
		<layer id="275" name="bottleneck1_2/dim_inc/conv/fq_weights_1/scale1286419986" type="Const" version="opset1">
			<data element_type="f16" offset="2972" shape="32,1,1,1" size="64"/>
			<output>
				<port id="0" precision="FP16">
					<dim>32</dim>
					<dim>1</dim>
					<dim>1</dim>
					<dim>1</dim>
				</port>
			</output>
		</layer>
		<layer id="276" name="bottleneck1_2/dim_inc/conv/fq_weights_1/mulpiply_by_scale" type="Multiply" version="opset1">
			<data auto_broadcast="numpy"/>
			<input>
				<port id="0">
					<dim>32</dim>
					<dim>8</dim>
					<dim>1</dim>
					<dim>1</dim>
				</port>
				<port id="1">
					<dim>32</dim>
					<dim>1</dim>
					<dim>1</dim>
					<dim>1</dim>
				</port>
			</input>
			<output>
				<port id="2" precision="FP16">
					<dim>32</dim>
					<dim>8</dim>
					<dim>1</dim>
					<dim>1</dim>
				</port>
			</output>
		</layer>
		<layer id="277" name="bottleneck1_2/dim_inc/conv" type="Convolution" version="opset1">
			<data auto_pad="explicit" dilations="1,1" pads_begin="0,0" pads_end="0,0" strides="1,1"/>
			<input>
				<port id="0">
					<dim>1</dim>
					<dim>8</dim>
					<dim>160</dim>
					<dim>272</dim>
				</port>
				<port id="1">
					<dim>32</dim>
					<dim>8</dim>
					<dim>1</dim>
					<dim>1</dim>
				</port>
			</input>
			<output>
				<port id="2" precision="FP16">
					<dim>1</dim>
					<dim>32</dim>
					<dim>160</dim>
					<dim>272</dim>
				</port>
			</output>
		</layer>
		<layer id="278" name="data_add_236972370278919596" type="Const" version="opset1">
			<data element_type="f16" offset="3036" shape="1,32,1,1" size="64"/>
			<output>
				<port id="0" precision="FP16">
					<dim>1</dim>
					<dim>32</dim>
					<dim>1</dim>
					<dim>1</dim>
				</port>
			</output>
		</layer>
		<layer id="279" name="bottleneck1_2/dim_inc/bn/variance/Fused_Add_" type="Add" version="opset1">
			<data auto_broadcast="numpy"/>
			<input>
				<port id="0">
					<dim>1</dim>
					<dim>32</dim>
					<dim>160</dim>
					<dim>272</dim>
				</port>
				<port id="1">
					<dim>1</dim>
					<dim>32</dim>
					<dim>1</dim>
					<dim>1</dim>
				</port>
			</input>
			<output>
				<port id="2" names="bottleneck1_2/dim_inc/conv" precision="FP16">
					<dim>1</dim>
					<dim>32</dim>
					<dim>160</dim>
					<dim>272</dim>
				</port>
			</output>
		</layer>
		<layer id="280" name="bottleneck1_2/add/fq_input_1" type="FakeQuantize" version="opset1">
			<data auto_broadcast="numpy" levels="256"/>
			<input>
				<port id="0">
					<dim>1</dim>
					<dim>32</dim>
					<dim>160</dim>
					<dim>272</dim>
				</port>
				<port id="1"/>
				<port id="2"/>
				<port id="3"/>
				<port id="4"/>
			</input>
			<output>
				<port id="5" precision="FP16">
					<dim>1</dim>
					<dim>32</dim>
					<dim>160</dim>
					<dim>272</dim>
				</port>
			</output>
		</layer>
		<layer id="281" name="bottleneck1_2/add" type="Add" version="opset1">
			<data auto_broadcast="numpy"/>
			<input>
				<port id="0">
					<dim>1</dim>
					<dim>32</dim>
					<dim>160</dim>
					<dim>272</dim>
				</port>
				<port id="1">
					<dim>1</dim>
					<dim>32</dim>
					<dim>160</dim>
					<dim>272</dim>
				</port>
			</input>
			<output>
				<port id="2" names="bottleneck1_2/add" precision="FP16">
					<dim>1</dim>
					<dim>32</dim>
					<dim>160</dim>
					<dim>272</dim>
				</port>
			</output>
		</layer>
		<layer id="282" name="bottleneck1_2/fn/weights3106840700792" type="Const" version="opset1">
			<data element_type="f32" offset="1576" shape="1" size="4"/>
			<output>
				<port id="0" precision="FP32">
					<dim>1</dim>
				</port>
			</output>
		</layer>
		<layer id="283" name="bottleneck1_2/fn" type="PReLU" version="opset1">
			<input>
				<port id="0">
					<dim>1</dim>
					<dim>32</dim>
					<dim>160</dim>
					<dim>272</dim>
				</port>
				<port id="1">
					<dim>1</dim>
				</port>
			</input>
			<output>
				<port id="2" names="bottleneck1_2/add" precision="FP16">
					<dim>1</dim>
					<dim>32</dim>
					<dim>160</dim>
					<dim>272</dim>
				</port>
			</output>
		</layer>
		<layer id="284" name="bottleneck1_3/add/fq_input_0" type="FakeQuantize" version="opset1">
			<data auto_broadcast="numpy" levels="256"/>
			<input>
				<port id="0">
					<dim>1</dim>
					<dim>32</dim>
					<dim>160</dim>
					<dim>272</dim>
				</port>
				<port id="1"/>
				<port id="2"/>
				<port id="3"/>
				<port id="4"/>
			</input>
			<output>
				<port id="5" precision="FP16">
					<dim>1</dim>
					<dim>32</dim>
					<dim>160</dim>
					<dim>272</dim>
				</port>
			</output>
		</layer>
		<layer id="285" name="4774477819857" type="Const" version="opset1">
			<data element_type="f16" offset="3100" shape="" size="2"/>
			<output>
				<port id="0" precision="FP16"/>
			</output>
		</layer>
		<layer id="286" name="4775477922080" type="Const" version="opset1">
			<data element_type="f16" offset="3102" shape="" size="2"/>
			<output>
				<port id="0" precision="FP16"/>
			</output>
		</layer>
		<layer id="287" name="4776478019659" type="Const" version="opset1">
			<data element_type="f16" offset="3100" shape="" size="2"/>
			<output>
				<port id="0" precision="FP16"/>
			</output>
		</layer>
		<layer id="288" name="4777478120052" type="Const" version="opset1">
			<data element_type="f16" offset="3102" shape="" size="2"/>
			<output>
				<port id="0" precision="FP16"/>
			</output>
		</layer>
		<layer id="289" name="2784278821840" type="Const" version="opset1">
			<data element_type="f16" offset="3104" shape="" size="2"/>
			<output>
				<port id="0" precision="FP16"/>
			</output>
		</layer>
		<layer id="290" name="2785278921474" type="Const" version="opset1">
			<data element_type="f16" offset="3106" shape="" size="2"/>
			<output>
				<port id="0" precision="FP16"/>
			</output>
		</layer>
		<layer id="291" name="2786279021399" type="Const" version="opset1">
			<data element_type="f16" offset="3104" shape="" size="2"/>
			<output>
				<port id="0" precision="FP16"/>
			</output>
		</layer>
		<layer id="292" name="2787279122146" type="Const" version="opset1">
			<data element_type="f16" offset="3106" shape="" size="2"/>
			<output>
				<port id="0" precision="FP16"/>
			</output>
		</layer>
		<layer id="293" name="2864286822065" type="Const" version="opset1">
			<data element_type="f16" offset="3108" shape="1,8,1,1" size="16"/>
			<output>
				<port id="0" precision="FP16">
					<dim>1</dim>
					<dim>8</dim>
					<dim>1</dim>
					<dim>1</dim>
				</port>
			</output>
		</layer>
		<layer id="294" name="2865286922521" type="Const" version="opset1">
			<data element_type="f16" offset="3124" shape="1,8,1,1" size="16"/>
			<output>
				<port id="0" precision="FP16">
					<dim>1</dim>
					<dim>8</dim>
					<dim>1</dim>
					<dim>1</dim>
				</port>
			</output>
		</layer>
		<layer id="295" name="2866287022917" type="Const" version="opset1">
			<data element_type="f16" offset="3108" shape="1,8,1,1" size="16"/>
			<output>
				<port id="0" precision="FP16">
					<dim>1</dim>
					<dim>8</dim>
					<dim>1</dim>
					<dim>1</dim>
				</port>
			</output>
		</layer>
		<layer id="296" name="2867287122137" type="Const" version="opset1">
			<data element_type="f16" offset="3124" shape="1,8,1,1" size="16"/>
			<output>
				<port id="0" precision="FP16">
					<dim>1</dim>
					<dim>8</dim>
					<dim>1</dim>
					<dim>1</dim>
				</port>
			</output>
		</layer>
		<layer id="297" name="bottleneck1_3/dim_red/bn/mean/Fused_Mul__copy79410100/quantized1420021693" type="Const" version="opset1">
			<data element_type="i8" offset="3140" shape="8,32,1,1" size="256"/>
			<output>
				<port id="0" precision="I8">
					<dim>8</dim>
					<dim>32</dim>
					<dim>1</dim>
					<dim>1</dim>
				</port>
			</output>
		</layer>
		<layer id="298" name="bottleneck1_3/dim_red/bn/mean/Fused_Mul__copy79410100/quantized/to_f16" type="Convert" version="opset1">
			<data destination_type="f16"/>
			<input>
				<port id="0">
					<dim>8</dim>
					<dim>32</dim>
					<dim>1</dim>
					<dim>1</dim>
				</port>
			</input>
			<output>
				<port id="1" precision="FP16">
					<dim>8</dim>
					<dim>32</dim>
					<dim>1</dim>
					<dim>1</dim>
				</port>
			</output>
		</layer>
		<layer id="299" name="bottleneck1_3/dim_red/conv/fq_weights_1/zero_point1421320478" type="Const" version="opset1">
			<data element_type="f16" offset="3396" shape="8,1,1,1" size="16"/>
			<output>
				<port id="0" precision="FP16">
					<dim>8</dim>
					<dim>1</dim>
					<dim>1</dim>
					<dim>1</dim>
				</port>
			</output>
		</layer>
		<layer id="300" name="bottleneck1_3/dim_red/conv/fq_weights_1/minus_zp" type="Subtract" version="opset1">
			<data auto_broadcast="numpy"/>
			<input>
				<port id="0">
					<dim>8</dim>
					<dim>32</dim>
					<dim>1</dim>
					<dim>1</dim>
				</port>
				<port id="1">
					<dim>8</dim>
					<dim>1</dim>
					<dim>1</dim>
					<dim>1</dim>
				</port>
			</input>
			<output>
				<port id="2" precision="FP16">
					<dim>8</dim>
					<dim>32</dim>
					<dim>1</dim>
					<dim>1</dim>
				</port>
			</output>
		</layer>
		<layer id="301" name="bottleneck1_3/dim_red/conv/fq_weights_1/scale1420819449" type="Const" version="opset1">
			<data element_type="f16" offset="3412" shape="8,1,1,1" size="16"/>
			<output>
				<port id="0" precision="FP16">
					<dim>8</dim>
					<dim>1</dim>
					<dim>1</dim>
					<dim>1</dim>
				</port>
			</output>
		</layer>
		<layer id="302" name="bottleneck1_3/dim_red/conv/fq_weights_1/mulpiply_by_scale" type="Multiply" version="opset1">
			<data auto_broadcast="numpy"/>
			<input>
				<port id="0">
					<dim>8</dim>
					<dim>32</dim>
					<dim>1</dim>
					<dim>1</dim>
				</port>
				<port id="1">
					<dim>8</dim>
					<dim>1</dim>
					<dim>1</dim>
					<dim>1</dim>
				</port>
			</input>
			<output>
				<port id="2" precision="FP16">
					<dim>8</dim>
					<dim>32</dim>
					<dim>1</dim>
					<dim>1</dim>
				</port>
			</output>
		</layer>
		<layer id="303" name="bottleneck1_3/dim_red/conv" type="Convolution" version="opset1">
			<data auto_pad="explicit" dilations="1,1" pads_begin="0,0" pads_end="0,0" strides="1,1"/>
			<input>
				<port id="0">
					<dim>1</dim>
					<dim>32</dim>
					<dim>160</dim>
					<dim>272</dim>
				</port>
				<port id="1">
					<dim>8</dim>
					<dim>32</dim>
					<dim>1</dim>
					<dim>1</dim>
				</port>
			</input>
			<output>
				<port id="2" precision="FP16">
					<dim>1</dim>
					<dim>8</dim>
					<dim>160</dim>
					<dim>272</dim>
				</port>
			</output>
		</layer>
		<layer id="304" name="data_add_237052371079621483" type="Const" version="opset1">
			<data element_type="f16" offset="3428" shape="1,8,1,1" size="16"/>
			<output>
				<port id="0" precision="FP16">
					<dim>1</dim>
					<dim>8</dim>
					<dim>1</dim>
					<dim>1</dim>
				</port>
			</output>
		</layer>
		<layer id="305" name="bottleneck1_3/dim_red/bn/variance/Fused_Add_" type="Add" version="opset1">
			<data auto_broadcast="numpy"/>
			<input>
				<port id="0">
					<dim>1</dim>
					<dim>8</dim>
					<dim>160</dim>
					<dim>272</dim>
				</port>
				<port id="1">
					<dim>1</dim>
					<dim>8</dim>
					<dim>1</dim>
					<dim>1</dim>
				</port>
			</input>
			<output>
				<port id="2" names="bottleneck1_3/dim_red/conv" precision="FP16">
					<dim>1</dim>
					<dim>8</dim>
					<dim>160</dim>
					<dim>272</dim>
				</port>
			</output>
		</layer>
		<layer id="306" name="bottleneck1_3/dim_red/fn/weights3116439665798" type="Const" version="opset1">
			<data element_type="f32" offset="1576" shape="1" size="4"/>
			<output>
				<port id="0" precision="FP32">
					<dim>1</dim>
				</port>
			</output>
		</layer>
		<layer id="307" name="bottleneck1_3/dim_red/fn" type="PReLU" version="opset1">
			<input>
				<port id="0">
					<dim>1</dim>
					<dim>8</dim>
					<dim>160</dim>
					<dim>272</dim>
				</port>
				<port id="1">
					<dim>1</dim>
				</port>
			</input>
			<output>
				<port id="2" names="bottleneck1_3/dim_red/conv" precision="FP16">
					<dim>1</dim>
					<dim>8</dim>
					<dim>160</dim>
					<dim>272</dim>
				</port>
			</output>
		</layer>
		<layer id="308" name="bottleneck1_3/inner/dw1/conv/fq_input_0" type="FakeQuantize" version="opset1">
			<data auto_broadcast="numpy" levels="256"/>
			<input>
				<port id="0">
					<dim>1</dim>
					<dim>8</dim>
					<dim>160</dim>
					<dim>272</dim>
				</port>
				<port id="1">
					<dim>1</dim>
					<dim>8</dim>
					<dim>1</dim>
					<dim>1</dim>
				</port>
				<port id="2">
					<dim>1</dim>
					<dim>8</dim>
					<dim>1</dim>
					<dim>1</dim>
				</port>
				<port id="3">
					<dim>1</dim>
					<dim>8</dim>
					<dim>1</dim>
					<dim>1</dim>
				</port>
				<port id="4">
					<dim>1</dim>
					<dim>8</dim>
					<dim>1</dim>
					<dim>1</dim>
				</port>
			</input>
			<output>
				<port id="5" precision="FP16">
					<dim>1</dim>
					<dim>8</dim>
					<dim>160</dim>
					<dim>272</dim>
				</port>
			</output>
		</layer>
		<layer id="309" name="16807/value1680921342" type="Const" version="opset1">
			<data element_type="i64" offset="1580" shape="5" size="40"/>
			<output>
				<port id="0" precision="I64">
					<dim>5</dim>
				</port>
			</output>
		</layer>
		<layer id="310" name="bottleneck1_3/inner/dw1/bn/mean/Fused_Mul__copy80010103/quantized1386420673" type="Const" version="opset1">
			<data element_type="i8" offset="3444" shape="8,1,3,3" size="72"/>
			<output>
				<port id="0" precision="I8">
					<dim>8</dim>
					<dim>1</dim>
					<dim>3</dim>
					<dim>3</dim>
				</port>
			</output>
		</layer>
		<layer id="311" name="bottleneck1_3/inner/dw1/bn/mean/Fused_Mul__copy80010103/quantized/to_f16" type="Convert" version="opset1">
			<data destination_type="f16"/>
			<input>
				<port id="0">
					<dim>8</dim>
					<dim>1</dim>
					<dim>3</dim>
					<dim>3</dim>
				</port>
			</input>
			<output>
				<port id="1" precision="FP16">
					<dim>8</dim>
					<dim>1</dim>
					<dim>3</dim>
					<dim>3</dim>
				</port>
			</output>
		</layer>
		<layer id="312" name="bottleneck1_3/inner/dw1/conv/fq_weights_1/zero_point1387720220" type="Const" version="opset1">
			<data element_type="f16" offset="3516" shape="8,1,1,1" size="16"/>
			<output>
				<port id="0" precision="FP16">
					<dim>8</dim>
					<dim>1</dim>
					<dim>1</dim>
					<dim>1</dim>
				</port>
			</output>
		</layer>
		<layer id="313" name="bottleneck1_3/inner/dw1/conv/fq_weights_1/minus_zp" type="Subtract" version="opset1">
			<data auto_broadcast="numpy"/>
			<input>
				<port id="0">
					<dim>8</dim>
					<dim>1</dim>
					<dim>3</dim>
					<dim>3</dim>
				</port>
				<port id="1">
					<dim>8</dim>
					<dim>1</dim>
					<dim>1</dim>
					<dim>1</dim>
				</port>
			</input>
			<output>
				<port id="2" precision="FP16">
					<dim>8</dim>
					<dim>1</dim>
					<dim>3</dim>
					<dim>3</dim>
				</port>
			</output>
		</layer>
		<layer id="314" name="bottleneck1_3/inner/dw1/conv/fq_weights_1/scale1387221195" type="Const" version="opset1">
			<data element_type="f16" offset="3532" shape="8,1,1,1" size="16"/>
			<output>
				<port id="0" precision="FP16">
					<dim>8</dim>
					<dim>1</dim>
					<dim>1</dim>
					<dim>1</dim>
				</port>
			</output>
		</layer>
		<layer id="315" name="bottleneck1_3/inner/dw1/conv/fq_weights_1/mulpiply_by_scale" type="Multiply" version="opset1">
			<data auto_broadcast="numpy"/>
			<input>
				<port id="0">
					<dim>8</dim>
					<dim>1</dim>
					<dim>3</dim>
					<dim>3</dim>
				</port>
				<port id="1">
					<dim>8</dim>
					<dim>1</dim>
					<dim>1</dim>
					<dim>1</dim>
				</port>
			</input>
			<output>
				<port id="2" precision="FP16">
					<dim>8</dim>
					<dim>1</dim>
					<dim>3</dim>
					<dim>3</dim>
				</port>
			</output>
		</layer>
		<layer id="316" name="16807" type="Reshape" version="opset1">
			<data special_zero="true"/>
			<input>
				<port id="0">
					<dim>8</dim>
					<dim>1</dim>
					<dim>3</dim>
					<dim>3</dim>
				</port>
				<port id="1">
					<dim>5</dim>
				</port>
			</input>
			<output>
				<port id="2" precision="FP16">
					<dim>8</dim>
					<dim>1</dim>
					<dim>1</dim>
					<dim>3</dim>
					<dim>3</dim>
				</port>
			</output>
		</layer>
		<layer id="317" name="bottleneck1_3/inner/dw1/conv" type="GroupConvolution" version="opset1">
			<data auto_pad="explicit" dilations="1,1" pads_begin="1,1" pads_end="1,1" strides="1,1"/>
			<input>
				<port id="0">
					<dim>1</dim>
					<dim>8</dim>
					<dim>160</dim>
					<dim>272</dim>
				</port>
				<port id="1">
					<dim>8</dim>
					<dim>1</dim>
					<dim>1</dim>
					<dim>3</dim>
					<dim>3</dim>
				</port>
			</input>
			<output>
				<port id="2" precision="FP16">
					<dim>1</dim>
					<dim>8</dim>
					<dim>160</dim>
					<dim>272</dim>
				</port>
			</output>
		</layer>
		<layer id="318" name="data_add_237132371880222077" type="Const" version="opset1">
			<data element_type="f16" offset="3548" shape="1,8,1,1" size="16"/>
			<output>
				<port id="0" precision="FP16">
					<dim>1</dim>
					<dim>8</dim>
					<dim>1</dim>
					<dim>1</dim>
				</port>
			</output>
		</layer>
		<layer id="319" name="bottleneck1_3/inner/dw1/bn/variance/Fused_Add_" type="Add" version="opset1">
			<data auto_broadcast="numpy"/>
			<input>
				<port id="0">
					<dim>1</dim>
					<dim>8</dim>
					<dim>160</dim>
					<dim>272</dim>
				</port>
				<port id="1">
					<dim>1</dim>
					<dim>8</dim>
					<dim>1</dim>
					<dim>1</dim>
				</port>
			</input>
			<output>
				<port id="2" names="bottleneck1_3/inner/dw1/conv" precision="FP16">
					<dim>1</dim>
					<dim>8</dim>
					<dim>160</dim>
					<dim>272</dim>
				</port>
			</output>
		</layer>
		<layer id="320" name="bottleneck1_3/inner/dw1/fn/weights3087239692804" type="Const" version="opset1">
			<data element_type="f32" offset="1576" shape="1" size="4"/>
			<output>
				<port id="0" precision="FP32">
					<dim>1</dim>
				</port>
			</output>
		</layer>
		<layer id="321" name="bottleneck1_3/inner/dw1/fn" type="PReLU" version="opset1">
			<input>
				<port id="0">
					<dim>1</dim>
					<dim>8</dim>
					<dim>160</dim>
					<dim>272</dim>
				</port>
				<port id="1">
					<dim>1</dim>
				</port>
			</input>
			<output>
				<port id="2" names="bottleneck1_3/inner/dw1/conv" precision="FP16">
					<dim>1</dim>
					<dim>8</dim>
					<dim>160</dim>
					<dim>272</dim>
				</port>
			</output>
		</layer>
		<layer id="322" name="bottleneck1_3/dim_inc/conv/fq_input_0" type="FakeQuantize" version="opset1">
			<data auto_broadcast="numpy" levels="256"/>
			<input>
				<port id="0">
					<dim>1</dim>
					<dim>8</dim>
					<dim>160</dim>
					<dim>272</dim>
				</port>
				<port id="1"/>
				<port id="2"/>
				<port id="3"/>
				<port id="4"/>
			</input>
			<output>
				<port id="5" precision="FP16">
					<dim>1</dim>
					<dim>8</dim>
					<dim>160</dim>
					<dim>272</dim>
				</port>
			</output>
		</layer>
		<layer id="323" name="bottleneck1_3/dim_inc/bn/mean/Fused_Mul__copy80610106/quantized1312021546" type="Const" version="opset1">
			<data element_type="i8" offset="3564" shape="32,8,1,1" size="256"/>
			<output>
				<port id="0" precision="I8">
					<dim>32</dim>
					<dim>8</dim>
					<dim>1</dim>
					<dim>1</dim>
				</port>
			</output>
		</layer>
		<layer id="324" name="bottleneck1_3/dim_inc/bn/mean/Fused_Mul__copy80610106/quantized/to_f16" type="Convert" version="opset1">
			<data destination_type="f16"/>
			<input>
				<port id="0">
					<dim>32</dim>
					<dim>8</dim>
					<dim>1</dim>
					<dim>1</dim>
				</port>
			</input>
			<output>
				<port id="1" precision="FP16">
					<dim>32</dim>
					<dim>8</dim>
					<dim>1</dim>
					<dim>1</dim>
				</port>
			</output>
		</layer>
		<layer id="325" name="bottleneck1_3/dim_inc/conv/fq_weights_1/zero_point1313321846" type="Const" version="opset1">
			<data element_type="f16" offset="3820" shape="32,1,1,1" size="64"/>
			<output>
				<port id="0" precision="FP16">
					<dim>32</dim>
					<dim>1</dim>
					<dim>1</dim>
					<dim>1</dim>
				</port>
			</output>
		</layer>
		<layer id="326" name="bottleneck1_3/dim_inc/conv/fq_weights_1/minus_zp" type="Subtract" version="opset1">
			<data auto_broadcast="numpy"/>
			<input>
				<port id="0">
					<dim>32</dim>
					<dim>8</dim>
					<dim>1</dim>
					<dim>1</dim>
				</port>
				<port id="1">
					<dim>32</dim>
					<dim>1</dim>
					<dim>1</dim>
					<dim>1</dim>
				</port>
			</input>
			<output>
				<port id="2" precision="FP16">
					<dim>32</dim>
					<dim>8</dim>
					<dim>1</dim>
					<dim>1</dim>
				</port>
			</output>
		</layer>
		<layer id="327" name="bottleneck1_3/dim_inc/conv/fq_weights_1/scale1312822020" type="Const" version="opset1">
			<data element_type="f16" offset="3884" shape="32,1,1,1" size="64"/>
			<output>
				<port id="0" precision="FP16">
					<dim>32</dim>
					<dim>1</dim>
					<dim>1</dim>
					<dim>1</dim>
				</port>
			</output>
		</layer>
		<layer id="328" name="bottleneck1_3/dim_inc/conv/fq_weights_1/mulpiply_by_scale" type="Multiply" version="opset1">
			<data auto_broadcast="numpy"/>
			<input>
				<port id="0">
					<dim>32</dim>
					<dim>8</dim>
					<dim>1</dim>
					<dim>1</dim>
				</port>
				<port id="1">
					<dim>32</dim>
					<dim>1</dim>
					<dim>1</dim>
					<dim>1</dim>
				</port>
			</input>
			<output>
				<port id="2" precision="FP16">
					<dim>32</dim>
					<dim>8</dim>
					<dim>1</dim>
					<dim>1</dim>
				</port>
			</output>
		</layer>
		<layer id="329" name="bottleneck1_3/dim_inc/conv" type="Convolution" version="opset1">
			<data auto_pad="explicit" dilations="1,1" pads_begin="0,0" pads_end="0,0" strides="1,1"/>
			<input>
				<port id="0">
					<dim>1</dim>
					<dim>8</dim>
					<dim>160</dim>
					<dim>272</dim>
				</port>
				<port id="1">
					<dim>32</dim>
					<dim>8</dim>
					<dim>1</dim>
					<dim>1</dim>
				</port>
			</input>
			<output>
				<port id="2" precision="FP16">
					<dim>1</dim>
					<dim>32</dim>
					<dim>160</dim>
					<dim>272</dim>
				</port>
			</output>
		</layer>
		<layer id="330" name="data_add_237212372680822044" type="Const" version="opset1">
			<data element_type="f16" offset="3948" shape="1,32,1,1" size="64"/>
			<output>
				<port id="0" precision="FP16">
					<dim>1</dim>
					<dim>32</dim>
					<dim>1</dim>
					<dim>1</dim>
				</port>
			</output>
		</layer>
		<layer id="331" name="bottleneck1_3/dim_inc/bn/variance/Fused_Add_" type="Add" version="opset1">
			<data auto_broadcast="numpy"/>
			<input>
				<port id="0">
					<dim>1</dim>
					<dim>32</dim>
					<dim>160</dim>
					<dim>272</dim>
				</port>
				<port id="1">
					<dim>1</dim>
					<dim>32</dim>
					<dim>1</dim>
					<dim>1</dim>
				</port>
			</input>
			<output>
				<port id="2" names="bottleneck1_3/dim_inc/conv" precision="FP16">
					<dim>1</dim>
					<dim>32</dim>
					<dim>160</dim>
					<dim>272</dim>
				</port>
			</output>
		</layer>
		<layer id="332" name="bottleneck1_3/add/fq_input_1" type="FakeQuantize" version="opset1">
			<data auto_broadcast="numpy" levels="256"/>
			<input>
				<port id="0">
					<dim>1</dim>
					<dim>32</dim>
					<dim>160</dim>
					<dim>272</dim>
				</port>
				<port id="1"/>
				<port id="2"/>
				<port id="3"/>
				<port id="4"/>
			</input>
			<output>
				<port id="5" precision="FP16">
					<dim>1</dim>
					<dim>32</dim>
					<dim>160</dim>
					<dim>272</dim>
				</port>
			</output>
		</layer>
		<layer id="333" name="bottleneck1_3/add" type="Add" version="opset1">
			<data auto_broadcast="numpy"/>
			<input>
				<port id="0">
					<dim>1</dim>
					<dim>32</dim>
					<dim>160</dim>
					<dim>272</dim>
				</port>
				<port id="1">
					<dim>1</dim>
					<dim>32</dim>
					<dim>160</dim>
					<dim>272</dim>
				</port>
			</input>
			<output>
				<port id="2" names="bottleneck1_3/add" precision="FP16">
					<dim>1</dim>
					<dim>32</dim>
					<dim>160</dim>
					<dim>272</dim>
				</port>
			</output>
		</layer>
		<layer id="334" name="bottleneck1_3/fn/weights3115639653811" type="Const" version="opset1">
			<data element_type="f32" offset="1576" shape="1" size="4"/>
			<output>
				<port id="0" precision="FP32">
					<dim>1</dim>
				</port>
			</output>
		</layer>
		<layer id="335" name="bottleneck1_3/fn" type="PReLU" version="opset1">
			<input>
				<port id="0">
					<dim>1</dim>
					<dim>32</dim>
					<dim>160</dim>
					<dim>272</dim>
				</port>
				<port id="1">
					<dim>1</dim>
				</port>
			</input>
			<output>
				<port id="2" names="bottleneck1_3/add" precision="FP16">
					<dim>1</dim>
					<dim>32</dim>
					<dim>160</dim>
					<dim>272</dim>
				</port>
			</output>
		</layer>
		<layer id="336" name="bottleneck1_4/add/fq_input_0" type="FakeQuantize" version="opset1">
			<data auto_broadcast="numpy" levels="256"/>
			<input>
				<port id="0">
					<dim>1</dim>
					<dim>32</dim>
					<dim>160</dim>
					<dim>272</dim>
				</port>
				<port id="1"/>
				<port id="2"/>
				<port id="3"/>
				<port id="4"/>
			</input>
			<output>
				<port id="5" precision="FP16">
					<dim>1</dim>
					<dim>32</dim>
					<dim>160</dim>
					<dim>272</dim>
				</port>
			</output>
		</layer>
		<layer id="337" name="4014401819608" type="Const" version="opset1">
			<data element_type="f16" offset="4012" shape="" size="2"/>
			<output>
				<port id="0" precision="FP16"/>
			</output>
		</layer>
		<layer id="338" name="4015401921417" type="Const" version="opset1">
			<data element_type="f16" offset="4014" shape="" size="2"/>
			<output>
				<port id="0" precision="FP16"/>
			</output>
		</layer>
		<layer id="339" name="4016402019419" type="Const" version="opset1">
			<data element_type="f16" offset="4012" shape="" size="2"/>
			<output>
				<port id="0" precision="FP16"/>
			</output>
		</layer>
		<layer id="340" name="4017402122053" type="Const" version="opset1">
			<data element_type="f16" offset="4014" shape="" size="2"/>
			<output>
				<port id="0" precision="FP16"/>
			</output>
		</layer>
		<layer id="341" name="5004500820823" type="Const" version="opset1">
			<data element_type="f16" offset="4016" shape="" size="2"/>
			<output>
				<port id="0" precision="FP16"/>
			</output>
		</layer>
		<layer id="342" name="5005500920274" type="Const" version="opset1">
			<data element_type="f16" offset="4018" shape="" size="2"/>
			<output>
				<port id="0" precision="FP16"/>
			</output>
		</layer>
		<layer id="343" name="5006501021309" type="Const" version="opset1">
			<data element_type="f16" offset="4016" shape="" size="2"/>
			<output>
				<port id="0" precision="FP16"/>
			</output>
		</layer>
		<layer id="344" name="5007501121627" type="Const" version="opset1">
			<data element_type="f16" offset="4018" shape="" size="2"/>
			<output>
				<port id="0" precision="FP16"/>
			</output>
		</layer>
		<layer id="345" name="3124312820454" type="Const" version="opset1">
			<data element_type="f16" offset="4020" shape="1,8,1,1" size="16"/>
			<output>
				<port id="0" precision="FP16">
					<dim>1</dim>
					<dim>8</dim>
					<dim>1</dim>
					<dim>1</dim>
				</port>
			</output>
		</layer>
		<layer id="346" name="3125312921702" type="Const" version="opset1">
			<data element_type="f16" offset="4036" shape="1,8,1,1" size="16"/>
			<output>
				<port id="0" precision="FP16">
					<dim>1</dim>
					<dim>8</dim>
					<dim>1</dim>
					<dim>1</dim>
				</port>
			</output>
		</layer>
		<layer id="347" name="3126313020085" type="Const" version="opset1">
			<data element_type="f16" offset="4020" shape="1,8,1,1" size="16"/>
			<output>
				<port id="0" precision="FP16">
					<dim>1</dim>
					<dim>8</dim>
					<dim>1</dim>
					<dim>1</dim>
				</port>
			</output>
		</layer>
		<layer id="348" name="3127313119653" type="Const" version="opset1">
			<data element_type="f16" offset="4036" shape="1,8,1,1" size="16"/>
			<output>
				<port id="0" precision="FP16">
					<dim>1</dim>
					<dim>8</dim>
					<dim>1</dim>
					<dim>1</dim>
				</port>
			</output>
		</layer>
		<layer id="349" name="bottleneck1_4/dim_red/bn/mean/Fused_Mul__copy81310109/quantized1278420061" type="Const" version="opset1">
			<data element_type="i8" offset="4052" shape="8,32,1,1" size="256"/>
			<output>
				<port id="0" precision="I8">
					<dim>8</dim>
					<dim>32</dim>
					<dim>1</dim>
					<dim>1</dim>
				</port>
			</output>
		</layer>
		<layer id="350" name="bottleneck1_4/dim_red/bn/mean/Fused_Mul__copy81310109/quantized/to_f16" type="Convert" version="opset1">
			<data destination_type="f16"/>
			<input>
				<port id="0">
					<dim>8</dim>
					<dim>32</dim>
					<dim>1</dim>
					<dim>1</dim>
				</port>
			</input>
			<output>
				<port id="1" precision="FP16">
					<dim>8</dim>
					<dim>32</dim>
					<dim>1</dim>
					<dim>1</dim>
				</port>
			</output>
		</layer>
		<layer id="351" name="bottleneck1_4/dim_red/conv/fq_weights_1/zero_point1279722296" type="Const" version="opset1">
			<data element_type="f16" offset="4308" shape="8,1,1,1" size="16"/>
			<output>
				<port id="0" precision="FP16">
					<dim>8</dim>
					<dim>1</dim>
					<dim>1</dim>
					<dim>1</dim>
				</port>
			</output>
		</layer>
		<layer id="352" name="bottleneck1_4/dim_red/conv/fq_weights_1/minus_zp" type="Subtract" version="opset1">
			<data auto_broadcast="numpy"/>
			<input>
				<port id="0">
					<dim>8</dim>
					<dim>32</dim>
					<dim>1</dim>
					<dim>1</dim>
				</port>
				<port id="1">
					<dim>8</dim>
					<dim>1</dim>
					<dim>1</dim>
					<dim>1</dim>
				</port>
			</input>
			<output>
				<port id="2" precision="FP16">
					<dim>8</dim>
					<dim>32</dim>
					<dim>1</dim>
					<dim>1</dim>
				</port>
			</output>
		</layer>
		<layer id="353" name="bottleneck1_4/dim_red/conv/fq_weights_1/scale1279221831" type="Const" version="opset1">
			<data element_type="f16" offset="4324" shape="8,1,1,1" size="16"/>
			<output>
				<port id="0" precision="FP16">
					<dim>8</dim>
					<dim>1</dim>
					<dim>1</dim>
					<dim>1</dim>
				</port>
			</output>
		</layer>
		<layer id="354" name="bottleneck1_4/dim_red/conv/fq_weights_1/mulpiply_by_scale" type="Multiply" version="opset1">
			<data auto_broadcast="numpy"/>
			<input>
				<port id="0">
					<dim>8</dim>
					<dim>32</dim>
					<dim>1</dim>
					<dim>1</dim>
				</port>
				<port id="1">
					<dim>8</dim>
					<dim>1</dim>
					<dim>1</dim>
					<dim>1</dim>
				</port>
			</input>
			<output>
				<port id="2" precision="FP16">
					<dim>8</dim>
					<dim>32</dim>
					<dim>1</dim>
					<dim>1</dim>
				</port>
			</output>
		</layer>
		<layer id="355" name="bottleneck1_4/dim_red/conv" type="Convolution" version="opset1">
			<data auto_pad="explicit" dilations="1,1" pads_begin="0,0" pads_end="0,0" strides="1,1"/>
			<input>
				<port id="0">
					<dim>1</dim>
					<dim>32</dim>
					<dim>160</dim>
					<dim>272</dim>
				</port>
				<port id="1">
					<dim>8</dim>
					<dim>32</dim>
					<dim>1</dim>
					<dim>1</dim>
				</port>
			</input>
			<output>
				<port id="2" precision="FP16">
					<dim>1</dim>
					<dim>8</dim>
					<dim>160</dim>
					<dim>272</dim>
				</port>
			</output>
		</layer>
		<layer id="356" name="data_add_237292373481520922" type="Const" version="opset1">
			<data element_type="f16" offset="4340" shape="1,8,1,1" size="16"/>
			<output>
				<port id="0" precision="FP16">
					<dim>1</dim>
					<dim>8</dim>
					<dim>1</dim>
					<dim>1</dim>
				</port>
			</output>
		</layer>
		<layer id="357" name="bottleneck1_4/dim_red/bn/variance/Fused_Add_" type="Add" version="opset1">
			<data auto_broadcast="numpy"/>
			<input>
				<port id="0">
					<dim>1</dim>
					<dim>8</dim>
					<dim>160</dim>
					<dim>272</dim>
				</port>
				<port id="1">
					<dim>1</dim>
					<dim>8</dim>
					<dim>1</dim>
					<dim>1</dim>
				</port>
			</input>
			<output>
				<port id="2" names="bottleneck1_4/dim_red/conv" precision="FP16">
					<dim>1</dim>
					<dim>8</dim>
					<dim>160</dim>
					<dim>272</dim>
				</port>
			</output>
		</layer>
		<layer id="358" name="bottleneck1_4/dim_red/fn/weights3094840595817" type="Const" version="opset1">
			<data element_type="f32" offset="1576" shape="1" size="4"/>
			<output>
				<port id="0" precision="FP32">
					<dim>1</dim>
				</port>
			</output>
		</layer>
		<layer id="359" name="bottleneck1_4/dim_red/fn" type="PReLU" version="opset1">
			<input>
				<port id="0">
					<dim>1</dim>
					<dim>8</dim>
					<dim>160</dim>
					<dim>272</dim>
				</port>
				<port id="1">
					<dim>1</dim>
				</port>
			</input>
			<output>
				<port id="2" names="bottleneck1_4/dim_red/conv" precision="FP16">
					<dim>1</dim>
					<dim>8</dim>
					<dim>160</dim>
					<dim>272</dim>
				</port>
			</output>
		</layer>
		<layer id="360" name="bottleneck1_4/inner/dw1/conv/fq_input_0" type="FakeQuantize" version="opset1">
			<data auto_broadcast="numpy" levels="256"/>
			<input>
				<port id="0">
					<dim>1</dim>
					<dim>8</dim>
					<dim>160</dim>
					<dim>272</dim>
				</port>
				<port id="1">
					<dim>1</dim>
					<dim>8</dim>
					<dim>1</dim>
					<dim>1</dim>
				</port>
				<port id="2">
					<dim>1</dim>
					<dim>8</dim>
					<dim>1</dim>
					<dim>1</dim>
				</port>
				<port id="3">
					<dim>1</dim>
					<dim>8</dim>
					<dim>1</dim>
					<dim>1</dim>
				</port>
				<port id="4">
					<dim>1</dim>
					<dim>8</dim>
					<dim>1</dim>
					<dim>1</dim>
				</port>
			</input>
			<output>
				<port id="5" precision="FP16">
					<dim>1</dim>
					<dim>8</dim>
					<dim>160</dim>
					<dim>272</dim>
				</port>
			</output>
		</layer>
		<layer id="361" name="16815/value1681722659" type="Const" version="opset1">
			<data element_type="i64" offset="1580" shape="5" size="40"/>
			<output>
				<port id="0" precision="I64">
					<dim>5</dim>
				</port>
			</output>
		</layer>
		<layer id="362" name="bottleneck1_4/inner/dw1/bn/mean/Fused_Mul__copy81910112/quantized1350421549" type="Const" version="opset1">
			<data element_type="i8" offset="4356" shape="8,1,3,3" size="72"/>
			<output>
				<port id="0" precision="I8">
					<dim>8</dim>
					<dim>1</dim>
					<dim>3</dim>
					<dim>3</dim>
				</port>
			</output>
		</layer>
		<layer id="363" name="bottleneck1_4/inner/dw1/bn/mean/Fused_Mul__copy81910112/quantized/to_f16" type="Convert" version="opset1">
			<data destination_type="f16"/>
			<input>
				<port id="0">
					<dim>8</dim>
					<dim>1</dim>
					<dim>3</dim>
					<dim>3</dim>
				</port>
			</input>
			<output>
				<port id="1" precision="FP16">
					<dim>8</dim>
					<dim>1</dim>
					<dim>3</dim>
					<dim>3</dim>
				</port>
			</output>
		</layer>
		<layer id="364" name="bottleneck1_4/inner/dw1/conv/fq_weights_1/zero_point1351721285" type="Const" version="opset1">
			<data element_type="f16" offset="4428" shape="8,1,1,1" size="16"/>
			<output>
				<port id="0" precision="FP16">
					<dim>8</dim>
					<dim>1</dim>
					<dim>1</dim>
					<dim>1</dim>
				</port>
			</output>
		</layer>
		<layer id="365" name="bottleneck1_4/inner/dw1/conv/fq_weights_1/minus_zp" type="Subtract" version="opset1">
			<data auto_broadcast="numpy"/>
			<input>
				<port id="0">
					<dim>8</dim>
					<dim>1</dim>
					<dim>3</dim>
					<dim>3</dim>
				</port>
				<port id="1">
					<dim>8</dim>
					<dim>1</dim>
					<dim>1</dim>
					<dim>1</dim>
				</port>
			</input>
			<output>
				<port id="2" precision="FP16">
					<dim>8</dim>
					<dim>1</dim>
					<dim>3</dim>
					<dim>3</dim>
				</port>
			</output>
		</layer>
		<layer id="366" name="bottleneck1_4/inner/dw1/conv/fq_weights_1/scale1351221033" type="Const" version="opset1">
			<data element_type="f16" offset="4444" shape="8,1,1,1" size="16"/>
			<output>
				<port id="0" precision="FP16">
					<dim>8</dim>
					<dim>1</dim>
					<dim>1</dim>
					<dim>1</dim>
				</port>
			</output>
		</layer>
		<layer id="367" name="bottleneck1_4/inner/dw1/conv/fq_weights_1/mulpiply_by_scale" type="Multiply" version="opset1">
			<data auto_broadcast="numpy"/>
			<input>
				<port id="0">
					<dim>8</dim>
					<dim>1</dim>
					<dim>3</dim>
					<dim>3</dim>
				</port>
				<port id="1">
					<dim>8</dim>
					<dim>1</dim>
					<dim>1</dim>
					<dim>1</dim>
				</port>
			</input>
			<output>
				<port id="2" precision="FP16">
					<dim>8</dim>
					<dim>1</dim>
					<dim>3</dim>
					<dim>3</dim>
				</port>
			</output>
		</layer>
		<layer id="368" name="16815" type="Reshape" version="opset1">
			<data special_zero="true"/>
			<input>
				<port id="0">
					<dim>8</dim>
					<dim>1</dim>
					<dim>3</dim>
					<dim>3</dim>
				</port>
				<port id="1">
					<dim>5</dim>
				</port>
			</input>
			<output>
				<port id="2" precision="FP16">
					<dim>8</dim>
					<dim>1</dim>
					<dim>1</dim>
					<dim>3</dim>
					<dim>3</dim>
				</port>
			</output>
		</layer>
		<layer id="369" name="bottleneck1_4/inner/dw1/conv" type="GroupConvolution" version="opset1">
			<data auto_pad="explicit" dilations="1,1" pads_begin="1,1" pads_end="1,1" strides="1,1"/>
			<input>
				<port id="0">
					<dim>1</dim>
					<dim>8</dim>
					<dim>160</dim>
					<dim>272</dim>
				</port>
				<port id="1">
					<dim>8</dim>
					<dim>1</dim>
					<dim>1</dim>
					<dim>3</dim>
					<dim>3</dim>
				</port>
			</input>
			<output>
				<port id="2" precision="FP16">
					<dim>1</dim>
					<dim>8</dim>
					<dim>160</dim>
					<dim>272</dim>
				</port>
			</output>
		</layer>
		<layer id="370" name="data_add_237372374282122335" type="Const" version="opset1">
			<data element_type="f16" offset="4460" shape="1,8,1,1" size="16"/>
			<output>
				<port id="0" precision="FP16">
					<dim>1</dim>
					<dim>8</dim>
					<dim>1</dim>
					<dim>1</dim>
				</port>
			</output>
		</layer>
		<layer id="371" name="bottleneck1_4/inner/dw1/bn/variance/Fused_Add_" type="Add" version="opset1">
			<data auto_broadcast="numpy"/>
			<input>
				<port id="0">
					<dim>1</dim>
					<dim>8</dim>
					<dim>160</dim>
					<dim>272</dim>
				</port>
				<port id="1">
					<dim>1</dim>
					<dim>8</dim>
					<dim>1</dim>
					<dim>1</dim>
				</port>
			</input>
			<output>
				<port id="2" names="bottleneck1_4/inner/dw1/conv" precision="FP16">
					<dim>1</dim>
					<dim>8</dim>
					<dim>160</dim>
					<dim>272</dim>
				</port>
			</output>
		</layer>
		<layer id="372" name="bottleneck1_4/inner/dw1/fn/weights3104439704823" type="Const" version="opset1">
			<data element_type="f32" offset="1576" shape="1" size="4"/>
			<output>
				<port id="0" precision="FP32">
					<dim>1</dim>
				</port>
			</output>
		</layer>
		<layer id="373" name="bottleneck1_4/inner/dw1/fn" type="PReLU" version="opset1">
			<input>
				<port id="0">
					<dim>1</dim>
					<dim>8</dim>
					<dim>160</dim>
					<dim>272</dim>
				</port>
				<port id="1">
					<dim>1</dim>
				</port>
			</input>
			<output>
				<port id="2" names="bottleneck1_4/inner/dw1/conv" precision="FP16">
					<dim>1</dim>
					<dim>8</dim>
					<dim>160</dim>
					<dim>272</dim>
				</port>
			</output>
		</layer>
		<layer id="374" name="bottleneck1_4/dim_inc/conv/fq_input_0" type="FakeQuantize" version="opset1">
			<data auto_broadcast="numpy" levels="256"/>
			<input>
				<port id="0">
					<dim>1</dim>
					<dim>8</dim>
					<dim>160</dim>
					<dim>272</dim>
				</port>
				<port id="1"/>
				<port id="2"/>
				<port id="3"/>
				<port id="4"/>
			</input>
			<output>
				<port id="5" precision="FP16">
					<dim>1</dim>
					<dim>8</dim>
					<dim>160</dim>
					<dim>272</dim>
				</port>
			</output>
		</layer>
		<layer id="375" name="bottleneck1_4/dim_inc/bn/mean/Fused_Mul__copy82510115/quantized1232820436" type="Const" version="opset1">
			<data element_type="i8" offset="4476" shape="32,8,1,1" size="256"/>
			<output>
				<port id="0" precision="I8">
					<dim>32</dim>
					<dim>8</dim>
					<dim>1</dim>
					<dim>1</dim>
				</port>
			</output>
		</layer>
		<layer id="376" name="bottleneck1_4/dim_inc/bn/mean/Fused_Mul__copy82510115/quantized/to_f16" type="Convert" version="opset1">
			<data destination_type="f16"/>
			<input>
				<port id="0">
					<dim>32</dim>
					<dim>8</dim>
					<dim>1</dim>
					<dim>1</dim>
				</port>
			</input>
			<output>
				<port id="1" precision="FP16">
					<dim>32</dim>
					<dim>8</dim>
					<dim>1</dim>
					<dim>1</dim>
				</port>
			</output>
		</layer>
		<layer id="377" name="bottleneck1_4/dim_inc/conv/fq_weights_1/zero_point1234119761" type="Const" version="opset1">
			<data element_type="f16" offset="4732" shape="32,1,1,1" size="64"/>
			<output>
				<port id="0" precision="FP16">
					<dim>32</dim>
					<dim>1</dim>
					<dim>1</dim>
					<dim>1</dim>
				</port>
			</output>
		</layer>
		<layer id="378" name="bottleneck1_4/dim_inc/conv/fq_weights_1/minus_zp" type="Subtract" version="opset1">
			<data auto_broadcast="numpy"/>
			<input>
				<port id="0">
					<dim>32</dim>
					<dim>8</dim>
					<dim>1</dim>
					<dim>1</dim>
				</port>
				<port id="1">
					<dim>32</dim>
					<dim>1</dim>
					<dim>1</dim>
					<dim>1</dim>
				</port>
			</input>
			<output>
				<port id="2" precision="FP16">
					<dim>32</dim>
					<dim>8</dim>
					<dim>1</dim>
					<dim>1</dim>
				</port>
			</output>
		</layer>
		<layer id="379" name="bottleneck1_4/dim_inc/conv/fq_weights_1/scale1233622032" type="Const" version="opset1">
			<data element_type="f16" offset="4796" shape="32,1,1,1" size="64"/>
			<output>
				<port id="0" precision="FP16">
					<dim>32</dim>
					<dim>1</dim>
					<dim>1</dim>
					<dim>1</dim>
				</port>
			</output>
		</layer>
		<layer id="380" name="bottleneck1_4/dim_inc/conv/fq_weights_1/mulpiply_by_scale" type="Multiply" version="opset1">
			<data auto_broadcast="numpy"/>
			<input>
				<port id="0">
					<dim>32</dim>
					<dim>8</dim>
					<dim>1</dim>
					<dim>1</dim>
				</port>
				<port id="1">
					<dim>32</dim>
					<dim>1</dim>
					<dim>1</dim>
					<dim>1</dim>
				</port>
			</input>
			<output>
				<port id="2" precision="FP16">
					<dim>32</dim>
					<dim>8</dim>
					<dim>1</dim>
					<dim>1</dim>
				</port>
			</output>
		</layer>
		<layer id="381" name="bottleneck1_4/dim_inc/conv" type="Convolution" version="opset1">
			<data auto_pad="explicit" dilations="1,1" pads_begin="0,0" pads_end="0,0" strides="1,1"/>
			<input>
				<port id="0">
					<dim>1</dim>
					<dim>8</dim>
					<dim>160</dim>
					<dim>272</dim>
				</port>
				<port id="1">
					<dim>32</dim>
					<dim>8</dim>
					<dim>1</dim>
					<dim>1</dim>
				</port>
			</input>
			<output>
				<port id="2" precision="FP16">
					<dim>1</dim>
					<dim>32</dim>
					<dim>160</dim>
					<dim>272</dim>
				</port>
			</output>
		</layer>
		<layer id="382" name="data_add_237452375082720163" type="Const" version="opset1">
			<data element_type="f16" offset="4860" shape="1,32,1,1" size="64"/>
			<output>
				<port id="0" precision="FP16">
					<dim>1</dim>
					<dim>32</dim>
					<dim>1</dim>
					<dim>1</dim>
				</port>
			</output>
		</layer>
		<layer id="383" name="bottleneck1_4/dim_inc/bn/variance/Fused_Add_" type="Add" version="opset1">
			<data auto_broadcast="numpy"/>
			<input>
				<port id="0">
					<dim>1</dim>
					<dim>32</dim>
					<dim>160</dim>
					<dim>272</dim>
				</port>
				<port id="1">
					<dim>1</dim>
					<dim>32</dim>
					<dim>1</dim>
					<dim>1</dim>
				</port>
			</input>
			<output>
				<port id="2" names="bottleneck1_4/dim_inc/conv" precision="FP16">
					<dim>1</dim>
					<dim>32</dim>
					<dim>160</dim>
					<dim>272</dim>
				</port>
			</output>
		</layer>
		<layer id="384" name="bottleneck1_4/add/fq_input_1" type="FakeQuantize" version="opset1">
			<data auto_broadcast="numpy" levels="256"/>
			<input>
				<port id="0">
					<dim>1</dim>
					<dim>32</dim>
					<dim>160</dim>
					<dim>272</dim>
				</port>
				<port id="1"/>
				<port id="2"/>
				<port id="3"/>
				<port id="4"/>
			</input>
			<output>
				<port id="5" precision="FP16">
					<dim>1</dim>
					<dim>32</dim>
					<dim>160</dim>
					<dim>272</dim>
				</port>
			</output>
		</layer>
		<layer id="385" name="bottleneck1_4/add" type="Add" version="opset1">
			<data auto_broadcast="numpy"/>
			<input>
				<port id="0">
					<dim>1</dim>
					<dim>32</dim>
					<dim>160</dim>
					<dim>272</dim>
				</port>
				<port id="1">
					<dim>1</dim>
					<dim>32</dim>
					<dim>160</dim>
					<dim>272</dim>
				</port>
			</input>
			<output>
				<port id="2" names="bottleneck1_4/add" precision="FP16">
					<dim>1</dim>
					<dim>32</dim>
					<dim>160</dim>
					<dim>272</dim>
				</port>
			</output>
		</layer>
		<layer id="386" name="bottleneck1_4/fn/weights3103640535830" type="Const" version="opset1">
			<data element_type="f32" offset="1576" shape="1" size="4"/>
			<output>
				<port id="0" precision="FP32">
					<dim>1</dim>
				</port>
			</output>
		</layer>
		<layer id="387" name="bottleneck1_4/fn" type="PReLU" version="opset1">
			<input>
				<port id="0">
					<dim>1</dim>
					<dim>32</dim>
					<dim>160</dim>
					<dim>272</dim>
				</port>
				<port id="1">
					<dim>1</dim>
				</port>
			</input>
			<output>
				<port id="2" names="bottleneck1_4/add" precision="FP16">
					<dim>1</dim>
					<dim>32</dim>
					<dim>160</dim>
					<dim>272</dim>
				</port>
			</output>
		</layer>
		<layer id="388" name="bottleneck2_0/dim_red/conv/fq_input_0" type="FakeQuantize" version="opset1">
			<data auto_broadcast="numpy" levels="256"/>
			<input>
				<port id="0">
					<dim>1</dim>
					<dim>32</dim>
					<dim>160</dim>
					<dim>272</dim>
				</port>
				<port id="1"/>
				<port id="2"/>
				<port id="3"/>
				<port id="4"/>
			</input>
			<output>
				<port id="5" precision="FP16">
					<dim>1</dim>
					<dim>32</dim>
					<dim>160</dim>
					<dim>272</dim>
				</port>
			</output>
		</layer>
		<layer id="389" name="bottleneck2_0/skip/pooling" type="MaxPool" version="opset1">
			<data auto_pad="explicit" kernel="2,2" pads_begin="0,0" pads_end="0,0" rounding_type="ceil" strides="2,2"/>
			<input>
				<port id="0">
					<dim>1</dim>
					<dim>32</dim>
					<dim>160</dim>
					<dim>272</dim>
				</port>
			</input>
			<output>
				<port id="1" names="bottleneck2_0/skip/pooling" precision="FP16">
					<dim>1</dim>
					<dim>32</dim>
					<dim>80</dim>
					<dim>136</dim>
				</port>
			</output>
		</layer>
		<layer id="390" name="bottleneck2_0/skip/bn/mean/Fused_Mul__copy83310118/quantized1230422248" type="Const" version="opset1">
			<data element_type="i8" offset="4924" shape="64,32,1,1" size="2048"/>
			<output>
				<port id="0" precision="I8">
					<dim>64</dim>
					<dim>32</dim>
					<dim>1</dim>
					<dim>1</dim>
				</port>
			</output>
		</layer>
		<layer id="391" name="bottleneck2_0/skip/bn/mean/Fused_Mul__copy83310118/quantized/to_f16" type="Convert" version="opset1">
			<data destination_type="f16"/>
			<input>
				<port id="0">
					<dim>64</dim>
					<dim>32</dim>
					<dim>1</dim>
					<dim>1</dim>
				</port>
			</input>
			<output>
				<port id="1" precision="FP16">
					<dim>64</dim>
					<dim>32</dim>
					<dim>1</dim>
					<dim>1</dim>
				</port>
			</output>
		</layer>
		<layer id="392" name="bottleneck2_0/skip/conv/fq_weights_1/zero_point1231721753" type="Const" version="opset1">
			<data element_type="f16" offset="6972" shape="64,1,1,1" size="128"/>
			<output>
				<port id="0" precision="FP16">
					<dim>64</dim>
					<dim>1</dim>
					<dim>1</dim>
					<dim>1</dim>
				</port>
			</output>
		</layer>
		<layer id="393" name="bottleneck2_0/skip/conv/fq_weights_1/minus_zp" type="Subtract" version="opset1">
			<data auto_broadcast="numpy"/>
			<input>
				<port id="0">
					<dim>64</dim>
					<dim>32</dim>
					<dim>1</dim>
					<dim>1</dim>
				</port>
				<port id="1">
					<dim>64</dim>
					<dim>1</dim>
					<dim>1</dim>
					<dim>1</dim>
				</port>
			</input>
			<output>
				<port id="2" precision="FP16">
					<dim>64</dim>
					<dim>32</dim>
					<dim>1</dim>
					<dim>1</dim>
				</port>
			</output>
		</layer>
		<layer id="394" name="bottleneck2_0/skip/conv/fq_weights_1/scale1231221261" type="Const" version="opset1">
			<data element_type="f16" offset="7100" shape="64,1,1,1" size="128"/>
			<output>
				<port id="0" precision="FP16">
					<dim>64</dim>
					<dim>1</dim>
					<dim>1</dim>
					<dim>1</dim>
				</port>
			</output>
		</layer>
		<layer id="395" name="bottleneck2_0/skip/conv/fq_weights_1/mulpiply_by_scale" type="Multiply" version="opset1">
			<data auto_broadcast="numpy"/>
			<input>
				<port id="0">
					<dim>64</dim>
					<dim>32</dim>
					<dim>1</dim>
					<dim>1</dim>
				</port>
				<port id="1">
					<dim>64</dim>
					<dim>1</dim>
					<dim>1</dim>
					<dim>1</dim>
				</port>
			</input>
			<output>
				<port id="2" precision="FP16">
					<dim>64</dim>
					<dim>32</dim>
					<dim>1</dim>
					<dim>1</dim>
				</port>
			</output>
		</layer>
		<layer id="396" name="bottleneck2_0/skip/conv" type="Convolution" version="opset1">
			<data auto_pad="explicit" dilations="1,1" pads_begin="0,0" pads_end="0,0" strides="1,1"/>
			<input>
				<port id="0">
					<dim>1</dim>
					<dim>32</dim>
					<dim>80</dim>
					<dim>136</dim>
				</port>
				<port id="1">
					<dim>64</dim>
					<dim>32</dim>
					<dim>1</dim>
					<dim>1</dim>
				</port>
			</input>
			<output>
				<port id="2" precision="FP16">
					<dim>1</dim>
					<dim>64</dim>
					<dim>80</dim>
					<dim>136</dim>
				</port>
			</output>
		</layer>
		<layer id="397" name="data_add_237532375883522425" type="Const" version="opset1">
			<data element_type="f16" offset="7228" shape="1,64,1,1" size="128"/>
			<output>
				<port id="0" precision="FP16">
					<dim>1</dim>
					<dim>64</dim>
					<dim>1</dim>
					<dim>1</dim>
				</port>
			</output>
		</layer>
		<layer id="398" name="bottleneck2_0/skip/bn/variance/Fused_Add_" type="Add" version="opset1">
			<data auto_broadcast="numpy"/>
			<input>
				<port id="0">
					<dim>1</dim>
					<dim>64</dim>
					<dim>80</dim>
					<dim>136</dim>
				</port>
				<port id="1">
					<dim>1</dim>
					<dim>64</dim>
					<dim>1</dim>
					<dim>1</dim>
				</port>
			</input>
			<output>
				<port id="2" names="bottleneck2_0/skip/conv" precision="FP16">
					<dim>1</dim>
					<dim>64</dim>
					<dim>80</dim>
					<dim>136</dim>
				</port>
			</output>
		</layer>
		<layer id="399" name="bottleneck2_0/add/fq_input_0" type="FakeQuantize" version="opset1">
			<data auto_broadcast="numpy" levels="256"/>
			<input>
				<port id="0">
					<dim>1</dim>
					<dim>64</dim>
					<dim>80</dim>
					<dim>136</dim>
				</port>
				<port id="1"/>
				<port id="2"/>
				<port id="3"/>
				<port id="4"/>
			</input>
			<output>
				<port id="5" precision="FP16">
					<dim>1</dim>
					<dim>64</dim>
					<dim>80</dim>
					<dim>136</dim>
				</port>
			</output>
		</layer>
		<layer id="400" name="2734273822632" type="Const" version="opset1">
			<data element_type="f16" offset="7356" shape="" size="2"/>
			<output>
				<port id="0" precision="FP16"/>
			</output>
		</layer>
		<layer id="401" name="2735273921387" type="Const" version="opset1">
			<data element_type="f16" offset="7358" shape="" size="2"/>
			<output>
				<port id="0" precision="FP16"/>
			</output>
		</layer>
		<layer id="402" name="2736274020394" type="Const" version="opset1">
			<data element_type="f16" offset="7356" shape="" size="2"/>
			<output>
				<port id="0" precision="FP16"/>
			</output>
		</layer>
		<layer id="403" name="2737274121651" type="Const" version="opset1">
			<data element_type="f16" offset="7358" shape="" size="2"/>
			<output>
				<port id="0" precision="FP16"/>
			</output>
		</layer>
		<layer id="404" name="5244524821498" type="Const" version="opset1">
			<data element_type="f16" offset="7360" shape="" size="2"/>
			<output>
				<port id="0" precision="FP16"/>
			</output>
		</layer>
		<layer id="405" name="5245524919710" type="Const" version="opset1">
			<data element_type="f16" offset="7362" shape="" size="2"/>
			<output>
				<port id="0" precision="FP16"/>
			</output>
		</layer>
		<layer id="406" name="5246525019878" type="Const" version="opset1">
			<data element_type="f16" offset="7360" shape="" size="2"/>
			<output>
				<port id="0" precision="FP16"/>
			</output>
		</layer>
		<layer id="407" name="5247525121837" type="Const" version="opset1">
			<data element_type="f16" offset="7362" shape="" size="2"/>
			<output>
				<port id="0" precision="FP16"/>
			</output>
		</layer>
		<layer id="408" name="2564256820559" type="Const" version="opset1">
			<data element_type="f16" offset="7364" shape="1,16,1,1" size="32"/>
			<output>
				<port id="0" precision="FP16">
					<dim>1</dim>
					<dim>16</dim>
					<dim>1</dim>
					<dim>1</dim>
				</port>
			</output>
		</layer>
		<layer id="409" name="2565256922602" type="Const" version="opset1">
			<data element_type="f16" offset="7396" shape="1,16,1,1" size="32"/>
			<output>
				<port id="0" precision="FP16">
					<dim>1</dim>
					<dim>16</dim>
					<dim>1</dim>
					<dim>1</dim>
				</port>
			</output>
		</layer>
		<layer id="410" name="2566257020511" type="Const" version="opset1">
			<data element_type="f16" offset="7364" shape="1,16,1,1" size="32"/>
			<output>
				<port id="0" precision="FP16">
					<dim>1</dim>
					<dim>16</dim>
					<dim>1</dim>
					<dim>1</dim>
				</port>
			</output>
		</layer>
		<layer id="411" name="2567257122908" type="Const" version="opset1">
			<data element_type="f16" offset="7396" shape="1,16,1,1" size="32"/>
			<output>
				<port id="0" precision="FP16">
					<dim>1</dim>
					<dim>16</dim>
					<dim>1</dim>
					<dim>1</dim>
				</port>
			</output>
		</layer>
		<layer id="412" name="bottleneck2_0/dim_red/bn/mean/Fused_Mul__copy83710120/quantized1213621963" type="Const" version="opset1">
			<data element_type="i8" offset="7428" shape="16,32,1,1" size="512"/>
			<output>
				<port id="0" precision="I8">
					<dim>16</dim>
					<dim>32</dim>
					<dim>1</dim>
					<dim>1</dim>
				</port>
			</output>
		</layer>
		<layer id="413" name="bottleneck2_0/dim_red/bn/mean/Fused_Mul__copy83710120/quantized/to_f16" type="Convert" version="opset1">
			<data destination_type="f16"/>
			<input>
				<port id="0">
					<dim>16</dim>
					<dim>32</dim>
					<dim>1</dim>
					<dim>1</dim>
				</port>
			</input>
			<output>
				<port id="1" precision="FP16">
					<dim>16</dim>
					<dim>32</dim>
					<dim>1</dim>
					<dim>1</dim>
				</port>
			</output>
		</layer>
		<layer id="414" name="bottleneck2_0/dim_red/conv/fq_weights_1/zero_point1214921390" type="Const" version="opset1">
			<data element_type="f16" offset="7940" shape="16,1,1,1" size="32"/>
			<output>
				<port id="0" precision="FP16">
					<dim>16</dim>
					<dim>1</dim>
					<dim>1</dim>
					<dim>1</dim>
				</port>
			</output>
		</layer>
		<layer id="415" name="bottleneck2_0/dim_red/conv/fq_weights_1/minus_zp" type="Subtract" version="opset1">
			<data auto_broadcast="numpy"/>
			<input>
				<port id="0">
					<dim>16</dim>
					<dim>32</dim>
					<dim>1</dim>
					<dim>1</dim>
				</port>
				<port id="1">
					<dim>16</dim>
					<dim>1</dim>
					<dim>1</dim>
					<dim>1</dim>
				</port>
			</input>
			<output>
				<port id="2" precision="FP16">
					<dim>16</dim>
					<dim>32</dim>
					<dim>1</dim>
					<dim>1</dim>
				</port>
			</output>
		</layer>
		<layer id="416" name="bottleneck2_0/dim_red/conv/fq_weights_1/scale1214419473" type="Const" version="opset1">
			<data element_type="f16" offset="7972" shape="16,1,1,1" size="32"/>
			<output>
				<port id="0" precision="FP16">
					<dim>16</dim>
					<dim>1</dim>
					<dim>1</dim>
					<dim>1</dim>
				</port>
			</output>
		</layer>
		<layer id="417" name="bottleneck2_0/dim_red/conv/fq_weights_1/mulpiply_by_scale" type="Multiply" version="opset1">
			<data auto_broadcast="numpy"/>
			<input>
				<port id="0">
					<dim>16</dim>
					<dim>32</dim>
					<dim>1</dim>
					<dim>1</dim>
				</port>
				<port id="1">
					<dim>16</dim>
					<dim>1</dim>
					<dim>1</dim>
					<dim>1</dim>
				</port>
			</input>
			<output>
				<port id="2" precision="FP16">
					<dim>16</dim>
					<dim>32</dim>
					<dim>1</dim>
					<dim>1</dim>
				</port>
			</output>
		</layer>
		<layer id="418" name="bottleneck2_0/dim_red/conv" type="Convolution" version="opset1">
			<data auto_pad="explicit" dilations="1,1" pads_begin="0,0" pads_end="0,0" strides="1,1"/>
			<input>
				<port id="0">
					<dim>1</dim>
					<dim>32</dim>
					<dim>160</dim>
					<dim>272</dim>
				</port>
				<port id="1">
					<dim>16</dim>
					<dim>32</dim>
					<dim>1</dim>
					<dim>1</dim>
				</port>
			</input>
			<output>
				<port id="2" precision="FP16">
					<dim>1</dim>
					<dim>16</dim>
					<dim>160</dim>
					<dim>272</dim>
				</port>
			</output>
		</layer>
		<layer id="419" name="data_add_237612376683920037" type="Const" version="opset1">
			<data element_type="f16" offset="8004" shape="1,16,1,1" size="32"/>
			<output>
				<port id="0" precision="FP16">
					<dim>1</dim>
					<dim>16</dim>
					<dim>1</dim>
					<dim>1</dim>
				</port>
			</output>
		</layer>
		<layer id="420" name="bottleneck2_0/dim_red/bn/variance/Fused_Add_" type="Add" version="opset1">
			<data auto_broadcast="numpy"/>
			<input>
				<port id="0">
					<dim>1</dim>
					<dim>16</dim>
					<dim>160</dim>
					<dim>272</dim>
				</port>
				<port id="1">
					<dim>1</dim>
					<dim>16</dim>
					<dim>1</dim>
					<dim>1</dim>
				</port>
			</input>
			<output>
				<port id="2" names="bottleneck2_0/dim_red/conv" precision="FP16">
					<dim>1</dim>
					<dim>16</dim>
					<dim>160</dim>
					<dim>272</dim>
				</port>
			</output>
		</layer>
		<layer id="421" name="bottleneck2_0/dim_red/fn/weights3109240148841" type="Const" version="opset1">
			<data element_type="f32" offset="1576" shape="1" size="4"/>
			<output>
				<port id="0" precision="FP32">
					<dim>1</dim>
				</port>
			</output>
		</layer>
		<layer id="422" name="bottleneck2_0/dim_red/fn" type="PReLU" version="opset1">
			<input>
				<port id="0">
					<dim>1</dim>
					<dim>16</dim>
					<dim>160</dim>
					<dim>272</dim>
				</port>
				<port id="1">
					<dim>1</dim>
				</port>
			</input>
			<output>
				<port id="2" names="bottleneck2_0/dim_red/conv" precision="FP16">
					<dim>1</dim>
					<dim>16</dim>
					<dim>160</dim>
					<dim>272</dim>
				</port>
			</output>
		</layer>
		<layer id="423" name="bottleneck2_0/inner/dw1/conv/fq_input_0" type="FakeQuantize" version="opset1">
			<data auto_broadcast="numpy" levels="256"/>
			<input>
				<port id="0">
					<dim>1</dim>
					<dim>16</dim>
					<dim>160</dim>
					<dim>272</dim>
				</port>
				<port id="1">
					<dim>1</dim>
					<dim>16</dim>
					<dim>1</dim>
					<dim>1</dim>
				</port>
				<port id="2">
					<dim>1</dim>
					<dim>16</dim>
					<dim>1</dim>
					<dim>1</dim>
				</port>
				<port id="3">
					<dim>1</dim>
					<dim>16</dim>
					<dim>1</dim>
					<dim>1</dim>
				</port>
				<port id="4">
					<dim>1</dim>
					<dim>16</dim>
					<dim>1</dim>
					<dim>1</dim>
				</port>
			</input>
			<output>
				<port id="5" precision="FP16">
					<dim>1</dim>
					<dim>16</dim>
					<dim>160</dim>
					<dim>272</dim>
				</port>
			</output>
		</layer>
		<layer id="424" name="16799/value1680122737" type="Const" version="opset1">
			<data element_type="i64" offset="8036" shape="5" size="40"/>
			<output>
				<port id="0" precision="I64">
					<dim>5</dim>
				</port>
			</output>
		</layer>
		<layer id="425" name="bottleneck2_0/inner/dw1/bn/mean/Fused_Mul__copy84310123/quantized1314419509" type="Const" version="opset1">
			<data element_type="i8" offset="8076" shape="16,1,3,3" size="144"/>
			<output>
				<port id="0" precision="I8">
					<dim>16</dim>
					<dim>1</dim>
					<dim>3</dim>
					<dim>3</dim>
				</port>
			</output>
		</layer>
		<layer id="426" name="bottleneck2_0/inner/dw1/bn/mean/Fused_Mul__copy84310123/quantized/to_f16" type="Convert" version="opset1">
			<data destination_type="f16"/>
			<input>
				<port id="0">
					<dim>16</dim>
					<dim>1</dim>
					<dim>3</dim>
					<dim>3</dim>
				</port>
			</input>
			<output>
				<port id="1" precision="FP16">
					<dim>16</dim>
					<dim>1</dim>
					<dim>3</dim>
					<dim>3</dim>
				</port>
			</output>
		</layer>
		<layer id="427" name="bottleneck2_0/inner/dw1/conv/fq_weights_1/zero_point1315720619" type="Const" version="opset1">
			<data element_type="f16" offset="8220" shape="16,1,1,1" size="32"/>
			<output>
				<port id="0" precision="FP16">
					<dim>16</dim>
					<dim>1</dim>
					<dim>1</dim>
					<dim>1</dim>
				</port>
			</output>
		</layer>
		<layer id="428" name="bottleneck2_0/inner/dw1/conv/fq_weights_1/minus_zp" type="Subtract" version="opset1">
			<data auto_broadcast="numpy"/>
			<input>
				<port id="0">
					<dim>16</dim>
					<dim>1</dim>
					<dim>3</dim>
					<dim>3</dim>
				</port>
				<port id="1">
					<dim>16</dim>
					<dim>1</dim>
					<dim>1</dim>
					<dim>1</dim>
				</port>
			</input>
			<output>
				<port id="2" precision="FP16">
					<dim>16</dim>
					<dim>1</dim>
					<dim>3</dim>
					<dim>3</dim>
				</port>
			</output>
		</layer>
		<layer id="429" name="bottleneck2_0/inner/dw1/conv/fq_weights_1/scale1315221030" type="Const" version="opset1">
			<data element_type="f16" offset="8252" shape="16,1,1,1" size="32"/>
			<output>
				<port id="0" precision="FP16">
					<dim>16</dim>
					<dim>1</dim>
					<dim>1</dim>
					<dim>1</dim>
				</port>
			</output>
		</layer>
		<layer id="430" name="bottleneck2_0/inner/dw1/conv/fq_weights_1/mulpiply_by_scale" type="Multiply" version="opset1">
			<data auto_broadcast="numpy"/>
			<input>
				<port id="0">
					<dim>16</dim>
					<dim>1</dim>
					<dim>3</dim>
					<dim>3</dim>
				</port>
				<port id="1">
					<dim>16</dim>
					<dim>1</dim>
					<dim>1</dim>
					<dim>1</dim>
				</port>
			</input>
			<output>
				<port id="2" precision="FP16">
					<dim>16</dim>
					<dim>1</dim>
					<dim>3</dim>
					<dim>3</dim>
				</port>
			</output>
		</layer>
		<layer id="431" name="16799" type="Reshape" version="opset1">
			<data special_zero="true"/>
			<input>
				<port id="0">
					<dim>16</dim>
					<dim>1</dim>
					<dim>3</dim>
					<dim>3</dim>
				</port>
				<port id="1">
					<dim>5</dim>
				</port>
			</input>
			<output>
				<port id="2" precision="FP16">
					<dim>16</dim>
					<dim>1</dim>
					<dim>1</dim>
					<dim>3</dim>
					<dim>3</dim>
				</port>
			</output>
		</layer>
		<layer id="432" name="bottleneck2_0/inner/dw1/conv" type="GroupConvolution" version="opset1">
			<data auto_pad="explicit" dilations="1,1" pads_begin="1,1" pads_end="1,1" strides="2,2"/>
			<input>
				<port id="0">
					<dim>1</dim>
					<dim>16</dim>
					<dim>160</dim>
					<dim>272</dim>
				</port>
				<port id="1">
					<dim>16</dim>
					<dim>1</dim>
					<dim>1</dim>
					<dim>3</dim>
					<dim>3</dim>
				</port>
			</input>
			<output>
				<port id="2" precision="FP16">
					<dim>1</dim>
					<dim>16</dim>
					<dim>80</dim>
					<dim>136</dim>
				</port>
			</output>
		</layer>
		<layer id="433" name="data_add_237692377484521879" type="Const" version="opset1">
			<data element_type="f16" offset="8284" shape="1,16,1,1" size="32"/>
			<output>
				<port id="0" precision="FP16">
					<dim>1</dim>
					<dim>16</dim>
					<dim>1</dim>
					<dim>1</dim>
				</port>
			</output>
		</layer>
		<layer id="434" name="bottleneck2_0/inner/dw1/bn/variance/Fused_Add_" type="Add" version="opset1">
			<data auto_broadcast="numpy"/>
			<input>
				<port id="0">
					<dim>1</dim>
					<dim>16</dim>
					<dim>80</dim>
					<dim>136</dim>
				</port>
				<port id="1">
					<dim>1</dim>
					<dim>16</dim>
					<dim>1</dim>
					<dim>1</dim>
				</port>
			</input>
			<output>
				<port id="2" names="bottleneck2_0/inner/dw1/conv" precision="FP16">
					<dim>1</dim>
					<dim>16</dim>
					<dim>80</dim>
					<dim>136</dim>
				</port>
			</output>
		</layer>
		<layer id="435" name="bottleneck2_0/inner/dw1/fn/weights3088440433847" type="Const" version="opset1">
			<data element_type="f32" offset="1576" shape="1" size="4"/>
			<output>
				<port id="0" precision="FP32">
					<dim>1</dim>
				</port>
			</output>
		</layer>
		<layer id="436" name="bottleneck2_0/inner/dw1/fn" type="PReLU" version="opset1">
			<input>
				<port id="0">
					<dim>1</dim>
					<dim>16</dim>
					<dim>80</dim>
					<dim>136</dim>
				</port>
				<port id="1">
					<dim>1</dim>
				</port>
			</input>
			<output>
				<port id="2" names="bottleneck2_0/inner/dw1/conv" precision="FP16">
					<dim>1</dim>
					<dim>16</dim>
					<dim>80</dim>
					<dim>136</dim>
				</port>
			</output>
		</layer>
		<layer id="437" name="bottleneck2_0/dim_inc/conv/fq_input_0" type="FakeQuantize" version="opset1">
			<data auto_broadcast="numpy" levels="256"/>
			<input>
				<port id="0">
					<dim>1</dim>
					<dim>16</dim>
					<dim>80</dim>
					<dim>136</dim>
				</port>
				<port id="1"/>
				<port id="2"/>
				<port id="3"/>
				<port id="4"/>
			</input>
			<output>
				<port id="5" precision="FP16">
					<dim>1</dim>
					<dim>16</dim>
					<dim>80</dim>
					<dim>136</dim>
				</port>
			</output>
		</layer>
		<layer id="438" name="bottleneck2_0/dim_inc/bn/mean/Fused_Mul__copy84910126/quantized1172822140" type="Const" version="opset1">
			<data element_type="i8" offset="8316" shape="64,16,1,1" size="1024"/>
			<output>
				<port id="0" precision="I8">
					<dim>64</dim>
					<dim>16</dim>
					<dim>1</dim>
					<dim>1</dim>
				</port>
			</output>
		</layer>
		<layer id="439" name="bottleneck2_0/dim_inc/bn/mean/Fused_Mul__copy84910126/quantized/to_f16" type="Convert" version="opset1">
			<data destination_type="f16"/>
			<input>
				<port id="0">
					<dim>64</dim>
					<dim>16</dim>
					<dim>1</dim>
					<dim>1</dim>
				</port>
			</input>
			<output>
				<port id="1" precision="FP16">
					<dim>64</dim>
					<dim>16</dim>
					<dim>1</dim>
					<dim>1</dim>
				</port>
			</output>
		</layer>
		<layer id="440" name="bottleneck2_0/dim_inc/conv/fq_weights_1/zero_point1174120334" type="Const" version="opset1">
			<data element_type="f16" offset="9340" shape="64,1,1,1" size="128"/>
			<output>
				<port id="0" precision="FP16">
					<dim>64</dim>
					<dim>1</dim>
					<dim>1</dim>
					<dim>1</dim>
				</port>
			</output>
		</layer>
		<layer id="441" name="bottleneck2_0/dim_inc/conv/fq_weights_1/minus_zp" type="Subtract" version="opset1">
			<data auto_broadcast="numpy"/>
			<input>
				<port id="0">
					<dim>64</dim>
					<dim>16</dim>
					<dim>1</dim>
					<dim>1</dim>
				</port>
				<port id="1">
					<dim>64</dim>
					<dim>1</dim>
					<dim>1</dim>
					<dim>1</dim>
				</port>
			</input>
			<output>
				<port id="2" precision="FP16">
					<dim>64</dim>
					<dim>16</dim>
					<dim>1</dim>
					<dim>1</dim>
				</port>
			</output>
		</layer>
		<layer id="442" name="bottleneck2_0/dim_inc/conv/fq_weights_1/scale1173620184" type="Const" version="opset1">
			<data element_type="f16" offset="9468" shape="64,1,1,1" size="128"/>
			<output>
				<port id="0" precision="FP16">
					<dim>64</dim>
					<dim>1</dim>
					<dim>1</dim>
					<dim>1</dim>
				</port>
			</output>
		</layer>
		<layer id="443" name="bottleneck2_0/dim_inc/conv/fq_weights_1/mulpiply_by_scale" type="Multiply" version="opset1">
			<data auto_broadcast="numpy"/>
			<input>
				<port id="0">
					<dim>64</dim>
					<dim>16</dim>
					<dim>1</dim>
					<dim>1</dim>
				</port>
				<port id="1">
					<dim>64</dim>
					<dim>1</dim>
					<dim>1</dim>
					<dim>1</dim>
				</port>
			</input>
			<output>
				<port id="2" precision="FP16">
					<dim>64</dim>
					<dim>16</dim>
					<dim>1</dim>
					<dim>1</dim>
				</port>
			</output>
		</layer>
		<layer id="444" name="bottleneck2_0/dim_inc/conv" type="Convolution" version="opset1">
			<data auto_pad="explicit" dilations="1,1" pads_begin="0,0" pads_end="0,0" strides="1,1"/>
			<input>
				<port id="0">
					<dim>1</dim>
					<dim>16</dim>
					<dim>80</dim>
					<dim>136</dim>
				</port>
				<port id="1">
					<dim>64</dim>
					<dim>16</dim>
					<dim>1</dim>
					<dim>1</dim>
				</port>
			</input>
			<output>
				<port id="2" precision="FP16">
					<dim>1</dim>
					<dim>64</dim>
					<dim>80</dim>
					<dim>136</dim>
				</port>
			</output>
		</layer>
		<layer id="445" name="data_add_237772378285120616" type="Const" version="opset1">
			<data element_type="f16" offset="9596" shape="1,64,1,1" size="128"/>
			<output>
				<port id="0" precision="FP16">
					<dim>1</dim>
					<dim>64</dim>
					<dim>1</dim>
					<dim>1</dim>
				</port>
			</output>
		</layer>
		<layer id="446" name="bottleneck2_0/dim_inc/bn/variance/Fused_Add_" type="Add" version="opset1">
			<data auto_broadcast="numpy"/>
			<input>
				<port id="0">
					<dim>1</dim>
					<dim>64</dim>
					<dim>80</dim>
					<dim>136</dim>
				</port>
				<port id="1">
					<dim>1</dim>
					<dim>64</dim>
					<dim>1</dim>
					<dim>1</dim>
				</port>
			</input>
			<output>
				<port id="2" names="bottleneck2_0/dim_inc/conv" precision="FP16">
					<dim>1</dim>
					<dim>64</dim>
					<dim>80</dim>
					<dim>136</dim>
				</port>
			</output>
		</layer>
		<layer id="447" name="bottleneck2_0/add/fq_input_1" type="FakeQuantize" version="opset1">
			<data auto_broadcast="numpy" levels="256"/>
			<input>
				<port id="0">
					<dim>1</dim>
					<dim>64</dim>
					<dim>80</dim>
					<dim>136</dim>
				</port>
				<port id="1"/>
				<port id="2"/>
				<port id="3"/>
				<port id="4"/>
			</input>
			<output>
				<port id="5" precision="FP16">
					<dim>1</dim>
					<dim>64</dim>
					<dim>80</dim>
					<dim>136</dim>
				</port>
			</output>
		</layer>
		<layer id="448" name="bottleneck2_0/add" type="Add" version="opset1">
			<data auto_broadcast="numpy"/>
			<input>
				<port id="0">
					<dim>1</dim>
					<dim>64</dim>
					<dim>80</dim>
					<dim>136</dim>
				</port>
				<port id="1">
					<dim>1</dim>
					<dim>64</dim>
					<dim>80</dim>
					<dim>136</dim>
				</port>
			</input>
			<output>
				<port id="2" names="bottleneck2_0/add" precision="FP16">
					<dim>1</dim>
					<dim>64</dim>
					<dim>80</dim>
					<dim>136</dim>
				</port>
			</output>
		</layer>
		<layer id="449" name="bottleneck2_0/fn/weights3105639815854" type="Const" version="opset1">
			<data element_type="f32" offset="1576" shape="1" size="4"/>
			<output>
				<port id="0" precision="FP32">
					<dim>1</dim>
				</port>
			</output>
		</layer>
		<layer id="450" name="bottleneck2_0/fn" type="PReLU" version="opset1">
			<input>
				<port id="0">
					<dim>1</dim>
					<dim>64</dim>
					<dim>80</dim>
					<dim>136</dim>
				</port>
				<port id="1">
					<dim>1</dim>
				</port>
			</input>
			<output>
				<port id="2" names="bottleneck2_0/add" precision="FP16">
					<dim>1</dim>
					<dim>64</dim>
					<dim>80</dim>
					<dim>136</dim>
				</port>
			</output>
		</layer>
		<layer id="451" name="bottleneck2_1/add/fq_input_0" type="FakeQuantize" version="opset1">
			<data auto_broadcast="numpy" levels="256"/>
			<input>
				<port id="0">
					<dim>1</dim>
					<dim>64</dim>
					<dim>80</dim>
					<dim>136</dim>
				</port>
				<port id="1"/>
				<port id="2"/>
				<port id="3"/>
				<port id="4"/>
			</input>
			<output>
				<port id="5" precision="FP16">
					<dim>1</dim>
					<dim>64</dim>
					<dim>80</dim>
					<dim>136</dim>
				</port>
			</output>
		</layer>
		<layer id="452" name="5314531820286" type="Const" version="opset1">
			<data element_type="f16" offset="9724" shape="" size="2"/>
			<output>
				<port id="0" precision="FP16"/>
			</output>
		</layer>
		<layer id="453" name="5315531919620" type="Const" version="opset1">
			<data element_type="f16" offset="9726" shape="" size="2"/>
			<output>
				<port id="0" precision="FP16"/>
			</output>
		</layer>
		<layer id="454" name="5316532021444" type="Const" version="opset1">
			<data element_type="f16" offset="9724" shape="" size="2"/>
			<output>
				<port id="0" precision="FP16"/>
			</output>
		</layer>
		<layer id="455" name="5317532122701" type="Const" version="opset1">
			<data element_type="f16" offset="9726" shape="" size="2"/>
			<output>
				<port id="0" precision="FP16"/>
			</output>
		</layer>
		<layer id="456" name="5424542822068" type="Const" version="opset1">
			<data element_type="f16" offset="9728" shape="" size="2"/>
			<output>
				<port id="0" precision="FP16"/>
			</output>
		</layer>
		<layer id="457" name="5425542920760" type="Const" version="opset1">
			<data element_type="f16" offset="9730" shape="" size="2"/>
			<output>
				<port id="0" precision="FP16"/>
			</output>
		</layer>
		<layer id="458" name="5426543021957" type="Const" version="opset1">
			<data element_type="f16" offset="9728" shape="" size="2"/>
			<output>
				<port id="0" precision="FP16"/>
			</output>
		</layer>
		<layer id="459" name="5427543119944" type="Const" version="opset1">
			<data element_type="f16" offset="9730" shape="" size="2"/>
			<output>
				<port id="0" precision="FP16"/>
			</output>
		</layer>
		<layer id="460" name="3864386820688" type="Const" version="opset1">
			<data element_type="f16" offset="9732" shape="1,16,1,1" size="32"/>
			<output>
				<port id="0" precision="FP16">
					<dim>1</dim>
					<dim>16</dim>
…
		<edge from-layer="1545" from-port="2" to-layer="1546" to-port="1"/>
		<edge from-layer="1546" from-port="2" to-layer="1548" to-port="0"/>
		<edge from-layer="1547" from-port="0" to-layer="1548" to-port="1"/>
		<edge from-layer="1548" from-port="2" to-layer="1550" to-port="0"/>
		<edge from-layer="1549" from-port="0" to-layer="1550" to-port="1"/>
		<edge from-layer="1550" from-port="2" to-layer="1551" to-port="0"/>
		<edge from-layer="1518" from-port="0" to-layer="1551" to-port="1"/>
		<edge from-layer="1519" from-port="0" to-layer="1551" to-port="2"/>
		<edge from-layer="1520" from-port="0" to-layer="1551" to-port="3"/>
		<edge from-layer="1521" from-port="0" to-layer="1551" to-port="4"/>
		<edge from-layer="1552" from-port="0" to-layer="1553" to-port="0"/>
		<edge from-layer="1553" from-port="1" to-layer="1555" to-port="0"/>
		<edge from-layer="1554" from-port="0" to-layer="1555" to-port="1"/>
		<edge from-layer="1555" from-port="2" to-layer="1557" to-port="0"/>
		<edge from-layer="1556" from-port="0" to-layer="1557" to-port="1"/>
		<edge from-layer="1551" from-port="5" to-layer="1558" to-port="0"/>
		<edge from-layer="1557" from-port="2" to-layer="1558" to-port="1"/>
		<edge from-layer="1558" from-port="2" to-layer="1560" to-port="0"/>
		<edge from-layer="1559" from-port="0" to-layer="1560" to-port="1"/>
		<edge from-layer="1560" from-port="2" to-layer="1561" to-port="0"/>
		<edge from-layer="1514" from-port="0" to-layer="1561" to-port="1"/>
		<edge from-layer="1515" from-port="0" to-layer="1561" to-port="2"/>
		<edge from-layer="1516" from-port="0" to-layer="1561" to-port="3"/>
		<edge from-layer="1517" from-port="0" to-layer="1561" to-port="4"/>
		<edge from-layer="1513" from-port="5" to-layer="1562" to-port="0"/>
		<edge from-layer="1561" from-port="5" to-layer="1562" to-port="1"/>
		<edge from-layer="1562" from-port="2" to-layer="1564" to-port="0"/>
		<edge from-layer="1563" from-port="0" to-layer="1564" to-port="1"/>
		<edge from-layer="1564" from-port="2" to-layer="1565" to-port="0"/>
		<edge from-layer="40" from-port="0" to-layer="1565" to-port="1"/>
		<edge from-layer="41" from-port="0" to-layer="1565" to-port="2"/>
		<edge from-layer="42" from-port="0" to-layer="1565" to-port="3"/>
		<edge from-layer="43" from-port="0" to-layer="1565" to-port="4"/>
		<edge from-layer="1578" from-port="0" to-layer="1579" to-port="0"/>
		<edge from-layer="1579" from-port="1" to-layer="1581" to-port="0"/>
		<edge from-layer="1580" from-port="0" to-layer="1581" to-port="1"/>
		<edge from-layer="1581" from-port="2" to-layer="1583" to-port="0"/>
		<edge from-layer="1582" from-port="0" to-layer="1583" to-port="1"/>
		<edge from-layer="1565" from-port="5" to-layer="1584" to-port="0"/>
		<edge from-layer="1583" from-port="2" to-layer="1584" to-port="1"/>
		<edge from-layer="1584" from-port="2" to-layer="1586" to-port="0"/>
		<edge from-layer="1585" from-port="0" to-layer="1586" to-port="1"/>
		<edge from-layer="1586" from-port="2" to-layer="1588" to-port="0"/>
		<edge from-layer="1587" from-port="0" to-layer="1588" to-port="1"/>
		<edge from-layer="1588" from-port="2" to-layer="1589" to-port="0"/>
		<edge from-layer="1574" from-port="0" to-layer="1589" to-port="1"/>
		<edge from-layer="1575" from-port="0" to-layer="1589" to-port="2"/>
		<edge from-layer="1576" from-port="0" to-layer="1589" to-port="3"/>
		<edge from-layer="1577" from-port="0" to-layer="1589" to-port="4"/>
		<edge from-layer="1591" from-port="0" to-layer="1592" to-port="0"/>
		<edge from-layer="1592" from-port="1" to-layer="1594" to-port="0"/>
		<edge from-layer="1593" from-port="0" to-layer="1594" to-port="1"/>
		<edge from-layer="1594" from-port="2" to-layer="1596" to-port="0"/>
		<edge from-layer="1595" from-port="0" to-layer="1596" to-port="1"/>
		<edge from-layer="1596" from-port="2" to-layer="1597" to-port="0"/>
		<edge from-layer="1590" from-port="0" to-layer="1597" to-port="1"/>
		<edge from-layer="1589" from-port="5" to-layer="1598" to-port="0"/>
		<edge from-layer="1597" from-port="2" to-layer="1598" to-port="1"/>
		<edge from-layer="1598" from-port="2" to-layer="1600" to-port="0"/>
		<edge from-layer="1599" from-port="0" to-layer="1600" to-port="1"/>
		<edge from-layer="1600" from-port="2" to-layer="1602" to-port="0"/>
		<edge from-layer="1601" from-port="0" to-layer="1602" to-port="1"/>
		<edge from-layer="1602" from-port="2" to-layer="1603" to-port="0"/>
		<edge from-layer="1570" from-port="0" to-layer="1603" to-port="1"/>
		<edge from-layer="1571" from-port="0" to-layer="1603" to-port="2"/>
		<edge from-layer="1572" from-port="0" to-layer="1603" to-port="3"/>
		<edge from-layer="1573" from-port="0" to-layer="1603" to-port="4"/>
		<edge from-layer="1604" from-port="0" to-layer="1605" to-port="0"/>
		<edge from-layer="1605" from-port="1" to-layer="1607" to-port="0"/>
		<edge from-layer="1606" from-port="0" to-layer="1607" to-port="1"/>
		<edge from-layer="1607" from-port="2" to-layer="1609" to-port="0"/>
		<edge from-layer="1608" from-port="0" to-layer="1609" to-port="1"/>
		<edge from-layer="1603" from-port="5" to-layer="1610" to-port="0"/>
		<edge from-layer="1609" from-port="2" to-layer="1610" to-port="1"/>
		<edge from-layer="1610" from-port="2" to-layer="1612" to-port="0"/>
		<edge from-layer="1611" from-port="0" to-layer="1612" to-port="1"/>
		<edge from-layer="1612" from-port="2" to-layer="1613" to-port="0"/>
		<edge from-layer="1566" from-port="0" to-layer="1613" to-port="1"/>
		<edge from-layer="1567" from-port="0" to-layer="1613" to-port="2"/>
		<edge from-layer="1568" from-port="0" to-layer="1613" to-port="3"/>
		<edge from-layer="1569" from-port="0" to-layer="1613" to-port="4"/>
		<edge from-layer="1565" from-port="5" to-layer="1614" to-port="0"/>
		<edge from-layer="1613" from-port="5" to-layer="1614" to-port="1"/>
		<edge from-layer="1614" from-port="2" to-layer="1616" to-port="0"/>
		<edge from-layer="1615" from-port="0" to-layer="1616" to-port="1"/>
		<edge from-layer="1616" from-port="2" to-layer="1617" to-port="0"/>
		<edge from-layer="36" from-port="0" to-layer="1617" to-port="1"/>
		<edge from-layer="37" from-port="0" to-layer="1617" to-port="2"/>
		<edge from-layer="38" from-port="0" to-layer="1617" to-port="3"/>
		<edge from-layer="39" from-port="0" to-layer="1617" to-port="4"/>
		<edge from-layer="1630" from-port="0" to-layer="1631" to-port="0"/>
		<edge from-layer="1631" from-port="1" to-layer="1633" to-port="0"/>
		<edge from-layer="1632" from-port="0" to-layer="1633" to-port="1"/>
		<edge from-layer="1633" from-port="2" to-layer="1635" to-port="0"/>
		<edge from-layer="1634" from-port="0" to-layer="1635" to-port="1"/>
		<edge from-layer="1617" from-port="5" to-layer="1636" to-port="0"/>
		<edge from-layer="1635" from-port="2" to-layer="1636" to-port="1"/>
		<edge from-layer="1636" from-port="2" to-layer="1638" to-port="0"/>
		<edge from-layer="1637" from-port="0" to-layer="1638" to-port="1"/>
		<edge from-layer="1638" from-port="2" to-layer="1640" to-port="0"/>
		<edge from-layer="1639" from-port="0" to-layer="1640" to-port="1"/>
		<edge from-layer="1640" from-port="2" to-layer="1641" to-port="0"/>
		<edge from-layer="1626" from-port="0" to-layer="1641" to-port="1"/>
		<edge from-layer="1627" from-port="0" to-layer="1641" to-port="2"/>
		<edge from-layer="1628" from-port="0" to-layer="1641" to-port="3"/>
		<edge from-layer="1629" from-port="0" to-layer="1641" to-port="4"/>
		<edge from-layer="1643" from-port="0" to-layer="1644" to-port="0"/>
		<edge from-layer="1644" from-port="1" to-layer="1646" to-port="0"/>
		<edge from-layer="1645" from-port="0" to-layer="1646" to-port="1"/>
		<edge from-layer="1646" from-port="2" to-layer="1648" to-port="0"/>
		<edge from-layer="1647" from-port="0" to-layer="1648" to-port="1"/>
		<edge from-layer="1648" from-port="2" to-layer="1649" to-port="0"/>
		<edge from-layer="1642" from-port="0" to-layer="1649" to-port="1"/>
		<edge from-layer="1641" from-port="5" to-layer="1650" to-port="0"/>
		<edge from-layer="1649" from-port="2" to-layer="1650" to-port="1"/>
		<edge from-layer="1650" from-port="2" to-layer="1652" to-port="0"/>
		<edge from-layer="1651" from-port="0" to-layer="1652" to-port="1"/>
		<edge from-layer="1652" from-port="2" to-layer="1654" to-port="0"/>
		<edge from-layer="1653" from-port="0" to-layer="1654" to-port="1"/>
		<edge from-layer="1654" from-port="2" to-layer="1655" to-port="0"/>
		<edge from-layer="1622" from-port="0" to-layer="1655" to-port="1"/>
		<edge from-layer="1623" from-port="0" to-layer="1655" to-port="2"/>
		<edge from-layer="1624" from-port="0" to-layer="1655" to-port="3"/>
		<edge from-layer="1625" from-port="0" to-layer="1655" to-port="4"/>
		<edge from-layer="1656" from-port="0" to-layer="1657" to-port="0"/>
		<edge from-layer="1657" from-port="1" to-layer="1659" to-port="0"/>
		<edge from-layer="1658" from-port="0" to-layer="1659" to-port="1"/>
		<edge from-layer="1659" from-port="2" to-layer="1661" to-port="0"/>
		<edge from-layer="1660" from-port="0" to-layer="1661" to-port="1"/>
		<edge from-layer="1655" from-port="5" to-layer="1662" to-port="0"/>
		<edge from-layer="1661" from-port="2" to-layer="1662" to-port="1"/>
		<edge from-layer="1662" from-port="2" to-layer="1664" to-port="0"/>
		<edge from-layer="1663" from-port="0" to-layer="1664" to-port="1"/>
		<edge from-layer="1664" from-port="2" to-layer="1665" to-port="0"/>
		<edge from-layer="1618" from-port="0" to-layer="1665" to-port="1"/>
		<edge from-layer="1619" from-port="0" to-layer="1665" to-port="2"/>
		<edge from-layer="1620" from-port="0" to-layer="1665" to-port="3"/>
		<edge from-layer="1621" from-port="0" to-layer="1665" to-port="4"/>
		<edge from-layer="1617" from-port="5" to-layer="1666" to-port="0"/>
		<edge from-layer="1665" from-port="5" to-layer="1666" to-port="1"/>
		<edge from-layer="1666" from-port="2" to-layer="1668" to-port="0"/>
		<edge from-layer="1667" from-port="0" to-layer="1668" to-port="1"/>
		<edge from-layer="1668" from-port="2" to-layer="1669" to-port="0"/>
		<edge from-layer="32" from-port="0" to-layer="1669" to-port="1"/>
		<edge from-layer="33" from-port="0" to-layer="1669" to-port="2"/>
		<edge from-layer="34" from-port="0" to-layer="1669" to-port="3"/>
		<edge from-layer="35" from-port="0" to-layer="1669" to-port="4"/>
		<edge from-layer="1682" from-port="0" to-layer="1683" to-port="0"/>
		<edge from-layer="1683" from-port="1" to-layer="1685" to-port="0"/>
		<edge from-layer="1684" from-port="0" to-layer="1685" to-port="1"/>
		<edge from-layer="1685" from-port="2" to-layer="1687" to-port="0"/>
		<edge from-layer="1686" from-port="0" to-layer="1687" to-port="1"/>
		<edge from-layer="1669" from-port="5" to-layer="1688" to-port="0"/>
		<edge from-layer="1687" from-port="2" to-layer="1688" to-port="1"/>
		<edge from-layer="1688" from-port="2" to-layer="1690" to-port="0"/>
		<edge from-layer="1689" from-port="0" to-layer="1690" to-port="1"/>
		<edge from-layer="1690" from-port="2" to-layer="1692" to-port="0"/>
		<edge from-layer="1691" from-port="0" to-layer="1692" to-port="1"/>
		<edge from-layer="1692" from-port="2" to-layer="1693" to-port="0"/>
		<edge from-layer="1678" from-port="0" to-layer="1693" to-port="1"/>
		<edge from-layer="1679" from-port="0" to-layer="1693" to-port="2"/>
		<edge from-layer="1680" from-port="0" to-layer="1693" to-port="3"/>
		<edge from-layer="1681" from-port="0" to-layer="1693" to-port="4"/>
		<edge from-layer="1695" from-port="0" to-layer="1696" to-port="0"/>
		<edge from-layer="1696" from-port="1" to-layer="1698" to-port="0"/>
		<edge from-layer="1697" from-port="0" to-layer="1698" to-port="1"/>
		<edge from-layer="1698" from-port="2" to-layer="1700" to-port="0"/>
		<edge from-layer="1699" from-port="0" to-layer="1700" to-port="1"/>
		<edge from-layer="1700" from-port="2" to-layer="1701" to-port="0"/>
		<edge from-layer="1694" from-port="0" to-layer="1701" to-port="1"/>
		<edge from-layer="1693" from-port="5" to-layer="1702" to-port="0"/>
		<edge from-layer="1701" from-port="2" to-layer="1702" to-port="1"/>
		<edge from-layer="1702" from-port="2" to-layer="1704" to-port="0"/>
		<edge from-layer="1703" from-port="0" to-layer="1704" to-port="1"/>
		<edge from-layer="1704" from-port="2" to-layer="1706" to-port="0"/>
		<edge from-layer="1705" from-port="0" to-layer="1706" to-port="1"/>
		<edge from-layer="1706" from-port="2" to-layer="1707" to-port="0"/>
		<edge from-layer="1674" from-port="0" to-layer="1707" to-port="1"/>
		<edge from-layer="1675" from-port="0" to-layer="1707" to-port="2"/>
		<edge from-layer="1676" from-port="0" to-layer="1707" to-port="3"/>
		<edge from-layer="1677" from-port="0" to-layer="1707" to-port="4"/>
		<edge from-layer="1708" from-port="0" to-layer="1709" to-port="0"/>
		<edge from-layer="1709" from-port="1" to-layer="1711" to-port="0"/>
		<edge from-layer="1710" from-port="0" to-layer="1711" to-port="1"/>
		<edge from-layer="1711" from-port="2" to-layer="1713" to-port="0"/>
		<edge from-layer="1712" from-port="0" to-layer="1713" to-port="1"/>
		<edge from-layer="1707" from-port="5" to-layer="1714" to-port="0"/>
		<edge from-layer="1713" from-port="2" to-layer="1714" to-port="1"/>
		<edge from-layer="1714" from-port="2" to-layer="1716" to-port="0"/>
		<edge from-layer="1715" from-port="0" to-layer="1716" to-port="1"/>
		<edge from-layer="1716" from-port="2" to-layer="1717" to-port="0"/>
		<edge from-layer="1670" from-port="0" to-layer="1717" to-port="1"/>
		<edge from-layer="1671" from-port="0" to-layer="1717" to-port="2"/>
		<edge from-layer="1672" from-port="0" to-layer="1717" to-port="3"/>
		<edge from-layer="1673" from-port="0" to-layer="1717" to-port="4"/>
		<edge from-layer="1669" from-port="5" to-layer="1718" to-port="0"/>
		<edge from-layer="1717" from-port="5" to-layer="1718" to-port="1"/>
		<edge from-layer="1718" from-port="2" to-layer="1720" to-port="0"/>
		<edge from-layer="1719" from-port="0" to-layer="1720" to-port="1"/>
		<edge from-layer="1720" from-port="2" to-layer="1721" to-port="0"/>
		<edge from-layer="28" from-port="0" to-layer="1721" to-port="1"/>
		<edge from-layer="29" from-port="0" to-layer="1721" to-port="2"/>
		<edge from-layer="30" from-port="0" to-layer="1721" to-port="3"/>
		<edge from-layer="31" from-port="0" to-layer="1721" to-port="4"/>
		<edge from-layer="1734" from-port="0" to-layer="1735" to-port="0"/>
		<edge from-layer="1735" from-port="1" to-layer="1737" to-port="0"/>
		<edge from-layer="1736" from-port="0" to-layer="1737" to-port="1"/>
		<edge from-layer="1737" from-port="2" to-layer="1739" to-port="0"/>
		<edge from-layer="1738" from-port="0" to-layer="1739" to-port="1"/>
		<edge from-layer="1721" from-port="5" to-layer="1740" to-port="0"/>
		<edge from-layer="1739" from-port="2" to-layer="1740" to-port="1"/>
		<edge from-layer="1740" from-port="2" to-layer="1742" to-port="0"/>
		<edge from-layer="1741" from-port="0" to-layer="1742" to-port="1"/>
		<edge from-layer="1742" from-port="2" to-layer="1744" to-port="0"/>
		<edge from-layer="1743" from-port="0" to-layer="1744" to-port="1"/>
		<edge from-layer="1744" from-port="2" to-layer="1745" to-port="0"/>
		<edge from-layer="1730" from-port="0" to-layer="1745" to-port="1"/>
		<edge from-layer="1731" from-port="0" to-layer="1745" to-port="2"/>
		<edge from-layer="1732" from-port="0" to-layer="1745" to-port="3"/>
		<edge from-layer="1733" from-port="0" to-layer="1745" to-port="4"/>
		<edge from-layer="1747" from-port="0" to-layer="1748" to-port="0"/>
		<edge from-layer="1748" from-port="1" to-layer="1750" to-port="0"/>
		<edge from-layer="1749" from-port="0" to-layer="1750" to-port="1"/>
		<edge from-layer="1750" from-port="2" to-layer="1752" to-port="0"/>
		<edge from-layer="1751" from-port="0" to-layer="1752" to-port="1"/>
		<edge from-layer="1752" from-port="2" to-layer="1753" to-port="0"/>
		<edge from-layer="1746" from-port="0" to-layer="1753" to-port="1"/>
		<edge from-layer="1745" from-port="5" to-layer="1754" to-port="0"/>
		<edge from-layer="1753" from-port="2" to-layer="1754" to-port="1"/>
		<edge from-layer="1754" from-port="2" to-layer="1756" to-port="0"/>
		<edge from-layer="1755" from-port="0" to-layer="1756" to-port="1"/>
		<edge from-layer="1756" from-port="2" to-layer="1758" to-port="0"/>
		<edge from-layer="1757" from-port="0" to-layer="1758" to-port="1"/>
		<edge from-layer="1758" from-port="2" to-layer="1759" to-port="0"/>
		<edge from-layer="1726" from-port="0" to-layer="1759" to-port="1"/>
		<edge from-layer="1727" from-port="0" to-layer="1759" to-port="2"/>
		<edge from-layer="1728" from-port="0" to-layer="1759" to-port="3"/>
		<edge from-layer="1729" from-port="0" to-layer="1759" to-port="4"/>
		<edge from-layer="1760" from-port="0" to-layer="1761" to-port="0"/>
		<edge from-layer="1761" from-port="1" to-layer="1763" to-port="0"/>
		<edge from-layer="1762" from-port="0" to-layer="1763" to-port="1"/>
		<edge from-layer="1763" from-port="2" to-layer="1765" to-port="0"/>
		<edge from-layer="1764" from-port="0" to-layer="1765" to-port="1"/>
		<edge from-layer="1759" from-port="5" to-layer="1766" to-port="0"/>
		<edge from-layer="1765" from-port="2" to-layer="1766" to-port="1"/>
		<edge from-layer="1766" from-port="2" to-layer="1768" to-port="0"/>
		<edge from-layer="1767" from-port="0" to-layer="1768" to-port="1"/>
		<edge from-layer="1768" from-port="2" to-layer="1769" to-port="0"/>
		<edge from-layer="1722" from-port="0" to-layer="1769" to-port="1"/>
		<edge from-layer="1723" from-port="0" to-layer="1769" to-port="2"/>
		<edge from-layer="1724" from-port="0" to-layer="1769" to-port="3"/>
		<edge from-layer="1725" from-port="0" to-layer="1769" to-port="4"/>
		<edge from-layer="1721" from-port="5" to-layer="1770" to-port="0"/>
		<edge from-layer="1769" from-port="5" to-layer="1770" to-port="1"/>
		<edge from-layer="1770" from-port="2" to-layer="1772" to-port="0"/>
		<edge from-layer="1771" from-port="0" to-layer="1772" to-port="1"/>
		<edge from-layer="1772" from-port="2" to-layer="1773" to-port="0"/>
		<edge from-layer="24" from-port="0" to-layer="1773" to-port="1"/>
		<edge from-layer="25" from-port="0" to-layer="1773" to-port="2"/>
		<edge from-layer="26" from-port="0" to-layer="1773" to-port="3"/>
		<edge from-layer="27" from-port="0" to-layer="1773" to-port="4"/>
		<edge from-layer="1786" from-port="0" to-layer="1787" to-port="0"/>
		<edge from-layer="1787" from-port="1" to-layer="1789" to-port="0"/>
		<edge from-layer="1788" from-port="0" to-layer="1789" to-port="1"/>
		<edge from-layer="1789" from-port="2" to-layer="1791" to-port="0"/>
		<edge from-layer="1790" from-port="0" to-layer="1791" to-port="1"/>
		<edge from-layer="1773" from-port="5" to-layer="1792" to-port="0"/>
		<edge from-layer="1791" from-port="2" to-layer="1792" to-port="1"/>
		<edge from-layer="1792" from-port="2" to-layer="1794" to-port="0"/>
		<edge from-layer="1793" from-port="0" to-layer="1794" to-port="1"/>
		<edge from-layer="1794" from-port="2" to-layer="1796" to-port="0"/>
		<edge from-layer="1795" from-port="0" to-layer="1796" to-port="1"/>
		<edge from-layer="1796" from-port="2" to-layer="1797" to-port="0"/>
		<edge from-layer="1782" from-port="0" to-layer="1797" to-port="1"/>
		<edge from-layer="1783" from-port="0" to-layer="1797" to-port="2"/>
		<edge from-layer="1784" from-port="0" to-layer="1797" to-port="3"/>
		<edge from-layer="1785" from-port="0" to-layer="1797" to-port="4"/>
		<edge from-layer="1799" from-port="0" to-layer="1800" to-port="0"/>
		<edge from-layer="1800" from-port="1" to-layer="1802" to-port="0"/>
		<edge from-layer="1801" from-port="0" to-layer="1802" to-port="1"/>
		<edge from-layer="1802" from-port="2" to-layer="1804" to-port="0"/>
		<edge from-layer="1803" from-port="0" to-layer="1804" to-port="1"/>
		<edge from-layer="1804" from-port="2" to-layer="1805" to-port="0"/>
		<edge from-layer="1798" from-port="0" to-layer="1805" to-port="1"/>
		<edge from-layer="1797" from-port="5" to-layer="1806" to-port="0"/>
		<edge from-layer="1805" from-port="2" to-layer="1806" to-port="1"/>
		<edge from-layer="1806" from-port="2" to-layer="1808" to-port="0"/>
		<edge from-layer="1807" from-port="0" to-layer="1808" to-port="1"/>
		<edge from-layer="1808" from-port="2" to-layer="1810" to-port="0"/>
		<edge from-layer="1809" from-port="0" to-layer="1810" to-port="1"/>
		<edge from-layer="1810" from-port="2" to-layer="1811" to-port="0"/>
		<edge from-layer="1778" from-port="0" to-layer="1811" to-port="1"/>
		<edge from-layer="1779" from-port="0" to-layer="1811" to-port="2"/>
		<edge from-layer="1780" from-port="0" to-layer="1811" to-port="3"/>
		<edge from-layer="1781" from-port="0" to-layer="1811" to-port="4"/>
		<edge from-layer="1812" from-port="0" to-layer="1813" to-port="0"/>
		<edge from-layer="1813" from-port="1" to-layer="1815" to-port="0"/>
		<edge from-layer="1814" from-port="0" to-layer="1815" to-port="1"/>
		<edge from-layer="1815" from-port="2" to-layer="1817" to-port="0"/>
		<edge from-layer="1816" from-port="0" to-layer="1817" to-port="1"/>
		<edge from-layer="1811" from-port="5" to-layer="1818" to-port="0"/>
		<edge from-layer="1817" from-port="2" to-layer="1818" to-port="1"/>
		<edge from-layer="1818" from-port="2" to-layer="1820" to-port="0"/>
		<edge from-layer="1819" from-port="0" to-layer="1820" to-port="1"/>
		<edge from-layer="1820" from-port="2" to-layer="1821" to-port="0"/>
		<edge from-layer="1774" from-port="0" to-layer="1821" to-port="1"/>
		<edge from-layer="1775" from-port="0" to-layer="1821" to-port="2"/>
		<edge from-layer="1776" from-port="0" to-layer="1821" to-port="3"/>
		<edge from-layer="1777" from-port="0" to-layer="1821" to-port="4"/>
		<edge from-layer="1773" from-port="5" to-layer="1822" to-port="0"/>
		<edge from-layer="1821" from-port="5" to-layer="1822" to-port="1"/>
		<edge from-layer="1822" from-port="2" to-layer="1824" to-port="0"/>
		<edge from-layer="1823" from-port="0" to-layer="1824" to-port="1"/>
		<edge from-layer="1824" from-port="2" to-layer="1825" to-port="0"/>
		<edge from-layer="20" from-port="0" to-layer="1825" to-port="1"/>
		<edge from-layer="21" from-port="0" to-layer="1825" to-port="2"/>
		<edge from-layer="22" from-port="0" to-layer="1825" to-port="3"/>
		<edge from-layer="23" from-port="0" to-layer="1825" to-port="4"/>
		<edge from-layer="1838" from-port="0" to-layer="1839" to-port="0"/>
		<edge from-layer="1839" from-port="1" to-layer="1841" to-port="0"/>
		<edge from-layer="1840" from-port="0" to-layer="1841" to-port="1"/>
		<edge from-layer="1841" from-port="2" to-layer="1843" to-port="0"/>
		<edge from-layer="1842" from-port="0" to-layer="1843" to-port="1"/>
		<edge from-layer="1825" from-port="5" to-layer="1844" to-port="0"/>
		<edge from-layer="1843" from-port="2" to-layer="1844" to-port="1"/>
		<edge from-layer="1844" from-port="2" to-layer="1846" to-port="0"/>
		<edge from-layer="1845" from-port="0" to-layer="1846" to-port="1"/>
		<edge from-layer="1846" from-port="2" to-layer="1848" to-port="0"/>
		<edge from-layer="1847" from-port="0" to-layer="1848" to-port="1"/>
		<edge from-layer="1848" from-port="2" to-layer="1849" to-port="0"/>
		<edge from-layer="1834" from-port="0" to-layer="1849" to-port="1"/>
		<edge from-layer="1835" from-port="0" to-layer="1849" to-port="2"/>
		<edge from-layer="1836" from-port="0" to-layer="1849" to-port="3"/>
		<edge from-layer="1837" from-port="0" to-layer="1849" to-port="4"/>
		<edge from-layer="1851" from-port="0" to-layer="1852" to-port="0"/>
		<edge from-layer="1852" from-port="1" to-layer="1854" to-port="0"/>
		<edge from-layer="1853" from-port="0" to-layer="1854" to-port="1"/>
		<edge from-layer="1854" from-port="2" to-layer="1856" to-port="0"/>
		<edge from-layer="1855" from-port="0" to-layer="1856" to-port="1"/>
		<edge from-layer="1856" from-port="2" to-layer="1857" to-port="0"/>
		<edge from-layer="1850" from-port="0" to-layer="1857" to-port="1"/>
		<edge from-layer="1849" from-port="5" to-layer="1858" to-port="0"/>
		<edge from-layer="1857" from-port="2" to-layer="1858" to-port="1"/>
		<edge from-layer="1858" from-port="2" to-layer="1860" to-port="0"/>
		<edge from-layer="1859" from-port="0" to-layer="1860" to-port="1"/>
		<edge from-layer="1860" from-port="2" to-layer="1862" to-port="0"/>
		<edge from-layer="1861" from-port="0" to-layer="1862" to-port="1"/>
		<edge from-layer="1862" from-port="2" to-layer="1863" to-port="0"/>
		<edge from-layer="1830" from-port="0" to-layer="1863" to-port="1"/>
		<edge from-layer="1831" from-port="0" to-layer="1863" to-port="2"/>
		<edge from-layer="1832" from-port="0" to-layer="1863" to-port="3"/>
		<edge from-layer="1833" from-port="0" to-layer="1863" to-port="4"/>
		<edge from-layer="1864" from-port="0" to-layer="1865" to-port="0"/>
		<edge from-layer="1865" from-port="1" to-layer="1867" to-port="0"/>
		<edge from-layer="1866" from-port="0" to-layer="1867" to-port="1"/>
		<edge from-layer="1867" from-port="2" to-layer="1869" to-port="0"/>
		<edge from-layer="1868" from-port="0" to-layer="1869" to-port="1"/>
		<edge from-layer="1863" from-port="5" to-layer="1870" to-port="0"/>
		<edge from-layer="1869" from-port="2" to-layer="1870" to-port="1"/>
		<edge from-layer="1870" from-port="2" to-layer="1872" to-port="0"/>
		<edge from-layer="1871" from-port="0" to-layer="1872" to-port="1"/>
		<edge from-layer="1872" from-port="2" to-layer="1873" to-port="0"/>
		<edge from-layer="1826" from-port="0" to-layer="1873" to-port="1"/>
		<edge from-layer="1827" from-port="0" to-layer="1873" to-port="2"/>
		<edge from-layer="1828" from-port="0" to-layer="1873" to-port="3"/>
		<edge from-layer="1829" from-port="0" to-layer="1873" to-port="4"/>
		<edge from-layer="1825" from-port="5" to-layer="1874" to-port="0"/>
		<edge from-layer="1873" from-port="5" to-layer="1874" to-port="1"/>
		<edge from-layer="1874" from-port="2" to-layer="1876" to-port="0"/>
		<edge from-layer="1875" from-port="0" to-layer="1876" to-port="1"/>
		<edge from-layer="1876" from-port="2" to-layer="1877" to-port="0"/>
		<edge from-layer="16" from-port="0" to-layer="1877" to-port="1"/>
		<edge from-layer="17" from-port="0" to-layer="1877" to-port="2"/>
		<edge from-layer="18" from-port="0" to-layer="1877" to-port="3"/>
		<edge from-layer="19" from-port="0" to-layer="1877" to-port="4"/>
		<edge from-layer="1890" from-port="0" to-layer="1891" to-port="0"/>
		<edge from-layer="1891" from-port="1" to-layer="1893" to-port="0"/>
		<edge from-layer="1892" from-port="0" to-layer="1893" to-port="1"/>
		<edge from-layer="1893" from-port="2" to-layer="1895" to-port="0"/>
		<edge from-layer="1894" from-port="0" to-layer="1895" to-port="1"/>
		<edge from-layer="1877" from-port="5" to-layer="1896" to-port="0"/>
		<edge from-layer="1895" from-port="2" to-layer="1896" to-port="1"/>
		<edge from-layer="1896" from-port="2" to-layer="1898" to-port="0"/>
		<edge from-layer="1897" from-port="0" to-layer="1898" to-port="1"/>
		<edge from-layer="1898" from-port="2" to-layer="1900" to-port="0"/>
		<edge from-layer="1899" from-port="0" to-layer="1900" to-port="1"/>
		<edge from-layer="1900" from-port="2" to-layer="1901" to-port="0"/>
		<edge from-layer="1886" from-port="0" to-layer="1901" to-port="1"/>
		<edge from-layer="1887" from-port="0" to-layer="1901" to-port="2"/>
		<edge from-layer="1888" from-port="0" to-layer="1901" to-port="3"/>
		<edge from-layer="1889" from-port="0" to-layer="1901" to-port="4"/>
		<edge from-layer="1903" from-port="0" to-layer="1904" to-port="0"/>
		<edge from-layer="1904" from-port="1" to-layer="1906" to-port="0"/>
		<edge from-layer="1905" from-port="0" to-layer="1906" to-port="1"/>
		<edge from-layer="1906" from-port="2" to-layer="1908" to-port="0"/>
		<edge from-layer="1907" from-port="0" to-layer="1908" to-port="1"/>
		<edge from-layer="1908" from-port="2" to-layer="1909" to-port="0"/>
		<edge from-layer="1902" from-port="0" to-layer="1909" to-port="1"/>
		<edge from-layer="1901" from-port="5" to-layer="1910" to-port="0"/>
		<edge from-layer="1909" from-port="2" to-layer="1910" to-port="1"/>
		<edge from-layer="1910" from-port="2" to-layer="1912" to-port="0"/>
		<edge from-layer="1911" from-port="0" to-layer="1912" to-port="1"/>
		<edge from-layer="1912" from-port="2" to-layer="1914" to-port="0"/>
		<edge from-layer="1913" from-port="0" to-layer="1914" to-port="1"/>
		<edge from-layer="1914" from-port="2" to-layer="1915" to-port="0"/>
		<edge from-layer="1882" from-port="0" to-layer="1915" to-port="1"/>
		<edge from-layer="1883" from-port="0" to-layer="1915" to-port="2"/>
		<edge from-layer="1884" from-port="0" to-layer="1915" to-port="3"/>
		<edge from-layer="1885" from-port="0" to-layer="1915" to-port="4"/>
		<edge from-layer="1916" from-port="0" to-layer="1917" to-port="0"/>
		<edge from-layer="1917" from-port="1" to-layer="1919" to-port="0"/>
		<edge from-layer="1918" from-port="0" to-layer="1919" to-port="1"/>
		<edge from-layer="1919" from-port="2" to-layer="1921" to-port="0"/>
		<edge from-layer="1920" from-port="0" to-layer="1921" to-port="1"/>
		<edge from-layer="1915" from-port="5" to-layer="1922" to-port="0"/>
		<edge from-layer="1921" from-port="2" to-layer="1922" to-port="1"/>
		<edge from-layer="1922" from-port="2" to-layer="1924" to-port="0"/>
		<edge from-layer="1923" from-port="0" to-layer="1924" to-port="1"/>
		<edge from-layer="1924" from-port="2" to-layer="1925" to-port="0"/>
		<edge from-layer="1878" from-port="0" to-layer="1925" to-port="1"/>
		<edge from-layer="1879" from-port="0" to-layer="1925" to-port="2"/>
		<edge from-layer="1880" from-port="0" to-layer="1925" to-port="3"/>
		<edge from-layer="1881" from-port="0" to-layer="1925" to-port="4"/>
		<edge from-layer="1877" from-port="5" to-layer="1926" to-port="0"/>
		<edge from-layer="1925" from-port="5" to-layer="1926" to-port="1"/>
		<edge from-layer="1926" from-port="2" to-layer="1928" to-port="0"/>
		<edge from-layer="1927" from-port="0" to-layer="1928" to-port="1"/>
		<edge from-layer="1928" from-port="2" to-layer="1929" to-port="0"/>
		<edge from-layer="12" from-port="0" to-layer="1929" to-port="1"/>
		<edge from-layer="13" from-port="0" to-layer="1929" to-port="2"/>
		<edge from-layer="14" from-port="0" to-layer="1929" to-port="3"/>
		<edge from-layer="15" from-port="0" to-layer="1929" to-port="4"/>
		<edge from-layer="1942" from-port="0" to-layer="1943" to-port="0"/>
		<edge from-layer="1943" from-port="1" to-layer="1945" to-port="0"/>
		<edge from-layer="1944" from-port="0" to-layer="1945" to-port="1"/>
		<edge from-layer="1945" from-port="2" to-layer="1947" to-port="0"/>
		<edge from-layer="1946" from-port="0" to-layer="1947" to-port="1"/>
		<edge from-layer="1929" from-port="5" to-layer="1948" to-port="0"/>
		<edge from-layer="1947" from-port="2" to-layer="1948" to-port="1"/>
		<edge from-layer="1948" from-port="2" to-layer="1950" to-port="0"/>
		<edge from-layer="1949" from-port="0" to-layer="1950" to-port="1"/>
		<edge from-layer="1950" from-port="2" to-layer="1952" to-port="0"/>
		<edge from-layer="1951" from-port="0" to-layer="1952" to-port="1"/>
		<edge from-layer="1952" from-port="2" to-layer="1953" to-port="0"/>
		<edge from-layer="1938" from-port="0" to-layer="1953" to-port="1"/>
		<edge from-layer="1939" from-port="0" to-layer="1953" to-port="2"/>
		<edge from-layer="1940" from-port="0" to-layer="1953" to-port="3"/>
		<edge from-layer="1941" from-port="0" to-layer="1953" to-port="4"/>
		<edge from-layer="1955" from-port="0" to-layer="1956" to-port="0"/>
		<edge from-layer="1956" from-port="1" to-layer="1958" to-port="0"/>
		<edge from-layer="1957" from-port="0" to-layer="1958" to-port="1"/>
		<edge from-layer="1958" from-port="2" to-layer="1960" to-port="0"/>
		<edge from-layer="1959" from-port="0" to-layer="1960" to-port="1"/>
		<edge from-layer="1960" from-port="2" to-layer="1961" to-port="0"/>
		<edge from-layer="1954" from-port="0" to-layer="1961" to-port="1"/>
		<edge from-layer="1953" from-port="5" to-layer="1962" to-port="0"/>
		<edge from-layer="1961" from-port="2" to-layer="1962" to-port="1"/>
		<edge from-layer="1962" from-port="2" to-layer="1964" to-port="0"/>
		<edge from-layer="1963" from-port="0" to-layer="1964" to-port="1"/>
		<edge from-layer="1964" from-port="2" to-layer="1966" to-port="0"/>
		<edge from-layer="1965" from-port="0" to-layer="1966" to-port="1"/>
		<edge from-layer="1966" from-port="2" to-layer="1967" to-port="0"/>
		<edge from-layer="1934" from-port="0" to-layer="1967" to-port="1"/>
		<edge from-layer="1935" from-port="0" to-layer="1967" to-port="2"/>
		<edge from-layer="1936" from-port="0" to-layer="1967" to-port="3"/>
		<edge from-layer="1937" from-port="0" to-layer="1967" to-port="4"/>
		<edge from-layer="1968" from-port="0" to-layer="1969" to-port="0"/>
		<edge from-layer="1969" from-port="1" to-layer="1971" to-port="0"/>
		<edge from-layer="1970" from-port="0" to-layer="1971" to-port="1"/>
		<edge from-layer="1971" from-port="2" to-layer="1973" to-port="0"/>
		<edge from-layer="1972" from-port="0" to-layer="1973" to-port="1"/>
		<edge from-layer="1967" from-port="5" to-layer="1974" to-port="0"/>
		<edge from-layer="1973" from-port="2" to-layer="1974" to-port="1"/>
		<edge from-layer="1974" from-port="2" to-layer="1976" to-port="0"/>
		<edge from-layer="1975" from-port="0" to-layer="1976" to-port="1"/>
		<edge from-layer="1976" from-port="2" to-layer="1977" to-port="0"/>
		<edge from-layer="1930" from-port="0" to-layer="1977" to-port="1"/>
		<edge from-layer="1931" from-port="0" to-layer="1977" to-port="2"/>
		<edge from-layer="1932" from-port="0" to-layer="1977" to-port="3"/>
		<edge from-layer="1933" from-port="0" to-layer="1977" to-port="4"/>
		<edge from-layer="1929" from-port="5" to-layer="1978" to-port="0"/>
		<edge from-layer="1977" from-port="5" to-layer="1978" to-port="1"/>
		<edge from-layer="1978" from-port="2" to-layer="1980" to-port="0"/>
		<edge from-layer="1979" from-port="0" to-layer="1980" to-port="1"/>
		<edge from-layer="1980" from-port="2" to-layer="1981" to-port="0"/>
		<edge from-layer="8" from-port="0" to-layer="1981" to-port="1"/>
		<edge from-layer="9" from-port="0" to-layer="1981" to-port="2"/>
		<edge from-layer="10" from-port="0" to-layer="1981" to-port="3"/>
		<edge from-layer="11" from-port="0" to-layer="1981" to-port="4"/>
		<edge from-layer="1994" from-port="0" to-layer="1995" to-port="0"/>
		<edge from-layer="1995" from-port="1" to-layer="1997" to-port="0"/>
		<edge from-layer="1996" from-port="0" to-layer="1997" to-port="1"/>
		<edge from-layer="1997" from-port="2" to-layer="1999" to-port="0"/>
		<edge from-layer="1998" from-port="0" to-layer="1999" to-port="1"/>
		<edge from-layer="1981" from-port="5" to-layer="2000" to-port="0"/>
		<edge from-layer="1999" from-port="2" to-layer="2000" to-port="1"/>
		<edge from-layer="2000" from-port="2" to-layer="2002" to-port="0"/>
		<edge from-layer="2001" from-port="0" to-layer="2002" to-port="1"/>
		<edge from-layer="2002" from-port="2" to-layer="2004" to-port="0"/>
		<edge from-layer="2003" from-port="0" to-layer="2004" to-port="1"/>
		<edge from-layer="2004" from-port="2" to-layer="2005" to-port="0"/>
		<edge from-layer="1990" from-port="0" to-layer="2005" to-port="1"/>
		<edge from-layer="1991" from-port="0" to-layer="2005" to-port="2"/>
		<edge from-layer="1992" from-port="0" to-layer="2005" to-port="3"/>
		<edge from-layer="1993" from-port="0" to-layer="2005" to-port="4"/>
		<edge from-layer="2007" from-port="0" to-layer="2008" to-port="0"/>
		<edge from-layer="2008" from-port="1" to-layer="2010" to-port="0"/>
		<edge from-layer="2009" from-port="0" to-layer="2010" to-port="1"/>
		<edge from-layer="2010" from-port="2" to-layer="2012" to-port="0"/>
		<edge from-layer="2011" from-port="0" to-layer="2012" to-port="1"/>
		<edge from-layer="2012" from-port="2" to-layer="2013" to-port="0"/>
		<edge from-layer="2006" from-port="0" to-layer="2013" to-port="1"/>
		<edge from-layer="2005" from-port="5" to-layer="2014" to-port="0"/>
		<edge from-layer="2013" from-port="2" to-layer="2014" to-port="1"/>
		<edge from-layer="2014" from-port="2" to-layer="2016" to-port="0"/>
		<edge from-layer="2015" from-port="0" to-layer="2016" to-port="1"/>
		<edge from-layer="2016" from-port="2" to-layer="2018" to-port="0"/>
		<edge from-layer="2017" from-port="0" to-layer="2018" to-port="1"/>
		<edge from-layer="2018" from-port="2" to-layer="2019" to-port="0"/>
		<edge from-layer="1986" from-port="0" to-layer="2019" to-port="1"/>
		<edge from-layer="1987" from-port="0" to-layer="2019" to-port="2"/>
		<edge from-layer="1988" from-port="0" to-layer="2019" to-port="3"/>
		<edge from-layer="1989" from-port="0" to-layer="2019" to-port="4"/>
		<edge from-layer="2020" from-port="0" to-layer="2021" to-port="0"/>
		<edge from-layer="2021" from-port="1" to-layer="2023" to-port="0"/>
		<edge from-layer="2022" from-port="0" to-layer="2023" to-port="1"/>
		<edge from-layer="2023" from-port="2" to-layer="2025" to-port="0"/>
		<edge from-layer="2024" from-port="0" to-layer="2025" to-port="1"/>
		<edge from-layer="2019" from-port="5" to-layer="2026" to-port="0"/>
		<edge from-layer="2025" from-port="2" to-layer="2026" to-port="1"/>
		<edge from-layer="2026" from-port="2" to-layer="2028" to-port="0"/>
		<edge from-layer="2027" from-port="0" to-layer="2028" to-port="1"/>
		<edge from-layer="2028" from-port="2" to-layer="2029" to-port="0"/>
		<edge from-layer="1982" from-port="0" to-layer="2029" to-port="1"/>
		<edge from-layer="1983" from-port="0" to-layer="2029" to-port="2"/>
		<edge from-layer="1984" from-port="0" to-layer="2029" to-port="3"/>
		<edge from-layer="1985" from-port="0" to-layer="2029" to-port="4"/>
		<edge from-layer="1981" from-port="5" to-layer="2030" to-port="0"/>
		<edge from-layer="2029" from-port="5" to-layer="2030" to-port="1"/>
		<edge from-layer="2030" from-port="2" to-layer="2032" to-port="0"/>
		<edge from-layer="2031" from-port="0" to-layer="2032" to-port="1"/>
		<edge from-layer="2032" from-port="2" to-layer="2033" to-port="0"/>
		<edge from-layer="4" from-port="0" to-layer="2033" to-port="1"/>
		<edge from-layer="5" from-port="0" to-layer="2033" to-port="2"/>
		<edge from-layer="6" from-port="0" to-layer="2033" to-port="3"/>
		<edge from-layer="7" from-port="0" to-layer="2033" to-port="4"/>
		<edge from-layer="2046" from-port="0" to-layer="2047" to-port="0"/>
		<edge from-layer="2047" from-port="1" to-layer="2049" to-port="0"/>
		<edge from-layer="2048" from-port="0" to-layer="2049" to-port="1"/>
		<edge from-layer="2049" from-port="2" to-layer="2051" to-port="0"/>
		<edge from-layer="2050" from-port="0" to-layer="2051" to-port="1"/>
		<edge from-layer="2033" from-port="5" to-layer="2052" to-port="0"/>
		<edge from-layer="2051" from-port="2" to-layer="2052" to-port="1"/>
		<edge from-layer="2052" from-port="2" to-layer="2054" to-port="0"/>
		<edge from-layer="2053" from-port="0" to-layer="2054" to-port="1"/>
		<edge from-layer="2054" from-port="2" to-layer="2056" to-port="0"/>
		<edge from-layer="2055" from-port="0" to-layer="2056" to-port="1"/>
		<edge from-layer="2056" from-port="2" to-layer="2057" to-port="0"/>
		<edge from-layer="2042" from-port="0" to-layer="2057" to-port="1"/>
		<edge from-layer="2043" from-port="0" to-layer="2057" to-port="2"/>
		<edge from-layer="2044" from-port="0" to-layer="2057" to-port="3"/>
		<edge from-layer="2045" from-port="0" to-layer="2057" to-port="4"/>
		<edge from-layer="2059" from-port="0" to-layer="2060" to-port="0"/>
		<edge from-layer="2060" from-port="1" to-layer="2062" to-port="0"/>
		<edge from-layer="2061" from-port="0" to-layer="2062" to-port="1"/>
		<edge from-layer="2062" from-port="2" to-layer="2064" to-port="0"/>
		<edge from-layer="2063" from-port="0" to-layer="2064" to-port="1"/>
		<edge from-layer="2064" from-port="2" to-layer="2065" to-port="0"/>
		<edge from-layer="2058" from-port="0" to-layer="2065" to-port="1"/>
		<edge from-layer="2057" from-port="5" to-layer="2066" to-port="0"/>
		<edge from-layer="2065" from-port="2" to-layer="2066" to-port="1"/>
		<edge from-layer="2066" from-port="2" to-layer="2068" to-port="0"/>
		<edge from-layer="2067" from-port="0" to-layer="2068" to-port="1"/>
		<edge from-layer="2068" from-port="2" to-layer="2070" to-port="0"/>
		<edge from-layer="2069" from-port="0" to-layer="2070" to-port="1"/>
		<edge from-layer="2070" from-port="2" to-layer="2071" to-port="0"/>
		<edge from-layer="2038" from-port="0" to-layer="2071" to-port="1"/>
		<edge from-layer="2039" from-port="0" to-layer="2071" to-port="2"/>
		<edge from-layer="2040" from-port="0" to-layer="2071" to-port="3"/>
		<edge from-layer="2041" from-port="0" to-layer="2071" to-port="4"/>
		<edge from-layer="2072" from-port="0" to-layer="2073" to-port="0"/>
		<edge from-layer="2073" from-port="1" to-layer="2075" to-port="0"/>
		<edge from-layer="2074" from-port="0" to-layer="2075" to-port="1"/>
		<edge from-layer="2075" from-port="2" to-layer="2077" to-port="0"/>
		<edge from-layer="2076" from-port="0" to-layer="2077" to-port="1"/>
		<edge from-layer="2071" from-port="5" to-layer="2078" to-port="0"/>
		<edge from-layer="2077" from-port="2" to-layer="2078" to-port="1"/>
		<edge from-layer="2078" from-port="2" to-layer="2080" to-port="0"/>
		<edge from-layer="2079" from-port="0" to-layer="2080" to-port="1"/>
		<edge from-layer="2080" from-port="2" to-layer="2081" to-port="0"/>
		<edge from-layer="2034" from-port="0" to-layer="2081" to-port="1"/>
		<edge from-layer="2035" from-port="0" to-layer="2081" to-port="2"/>
		<edge from-layer="2036" from-port="0" to-layer="2081" to-port="3"/>
		<edge from-layer="2037" from-port="0" to-layer="2081" to-port="4"/>
		<edge from-layer="2033" from-port="5" to-layer="2082" to-port="0"/>
		<edge from-layer="2081" from-port="5" to-layer="2082" to-port="1"/>
		<edge from-layer="2082" from-port="2" to-layer="2084" to-port="0"/>
		<edge from-layer="2083" from-port="0" to-layer="2084" to-port="1"/>
		<edge from-layer="2084" from-port="2" to-layer="2085" to-port="0"/>
		<edge from-layer="0" from-port="0" to-layer="2085" to-port="1"/>
		<edge from-layer="1" from-port="0" to-layer="2085" to-port="2"/>
		<edge from-layer="2" from-port="0" to-layer="2085" to-port="3"/>
		<edge from-layer="3" from-port="0" to-layer="2085" to-port="4"/>
		<edge from-layer="2086" from-port="0" to-layer="2087" to-port="0"/>
		<edge from-layer="2087" from-port="1" to-layer="2089" to-port="0"/>
		<edge from-layer="2088" from-port="0" to-layer="2089" to-port="1"/>
		<edge from-layer="2089" from-port="2" to-layer="2091" to-port="0"/>
		<edge from-layer="2090" from-port="0" to-layer="2091" to-port="1"/>
		<edge from-layer="2085" from-port="5" to-layer="2092" to-port="0"/>
		<edge from-layer="2091" from-port="2" to-layer="2092" to-port="1"/>
		<edge from-layer="2092" from-port="2" to-layer="2094" to-port="0"/>
		<edge from-layer="2093" from-port="0" to-layer="2094" to-port="1"/>
		<edge from-layer="2094" from-port="2" to-layer="2096" to-port="0"/>
		<edge from-layer="2095" from-port="0" to-layer="2096" to-port="1"/>
		<edge from-layer="2096" from-port="2" to-layer="2098" to-port="0"/>
		<edge from-layer="2097" from-port="0" to-layer="2098" to-port="1"/>
		<edge from-layer="2099" from-port="0" to-layer="2100" to-port="0"/>
		<edge from-layer="2100" from-port="1" to-layer="2102" to-port="0"/>
		<edge from-layer="2101" from-port="0" to-layer="2102" to-port="1"/>
		<edge from-layer="2102" from-port="2" to-layer="2104" to-port="0"/>
		<edge from-layer="2103" from-port="0" to-layer="2104" to-port="1"/>
		<edge from-layer="2085" from-port="5" to-layer="2105" to-port="0"/>
		<edge from-layer="2104" from-port="2" to-layer="2105" to-port="1"/>
		<edge from-layer="2105" from-port="2" to-layer="2107" to-port="0"/>
		<edge from-layer="2106" from-port="0" to-layer="2107" to-port="1"/>
		<edge from-layer="2107" from-port="2" to-layer="2109" to-port="0"/>
		<edge from-layer="2108" from-port="0" to-layer="2109" to-port="1"/>
		<edge from-layer="2109" from-port="2" to-layer="2111" to-port="0"/>
		<edge from-layer="2110" from-port="0" to-layer="2111" to-port="1"/>
		<edge from-layer="2111" from-port="2" to-layer="2113" to-port="0"/>
		<edge from-layer="2112" from-port="0" to-layer="2113" to-port="1"/>
		<edge from-layer="2113" from-port="2" to-layer="2114" to-port="0"/>
		<edge from-layer="2114" from-port="1" to-layer="2116" to-port="0"/>
		<edge from-layer="2115" from-port="0" to-layer="2116" to-port="1"/>
		<edge from-layer="2084" from-port="2" to-layer="2117" to-port="0"/>
		<edge from-layer="2117" from-port="1" to-layer="2121" to-port="0"/>
		<edge from-layer="2118" from-port="0" to-layer="2121" to-port="1"/>
		<edge from-layer="2119" from-port="0" to-layer="2121" to-port="2"/>
		<edge from-layer="2120" from-port="0" to-layer="2121" to-port="3"/>
		<edge from-layer="164" from-port="0" to-layer="2122" to-port="0"/>
		<edge from-layer="2122" from-port="1" to-layer="2126" to-port="0"/>
		<edge from-layer="2123" from-port="0" to-layer="2126" to-port="1"/>
		<edge from-layer="2124" from-port="0" to-layer="2126" to-port="2"/>
		<edge from-layer="2125" from-port="0" to-layer="2126" to-port="3"/>
		<edge from-layer="2121" from-port="4" to-layer="2127" to-port="0"/>
		<edge from-layer="2126" from-port="4" to-layer="2127" to-port="1"/>
		<edge from-layer="2127" from-port="2" to-layer="2129" to-port="0"/>
		<edge from-layer="2128" from-port="0" to-layer="2129" to-port="1"/>
		<edge from-layer="2098" from-port="2" to-layer="2130" to-port="0"/>
		<edge from-layer="2116" from-port="2" to-layer="2130" to-port="1"/>
		<edge from-layer="2129" from-port="2" to-layer="2130" to-port="2"/>
		<edge from-layer="2130" from-port="3" to-layer="2131" to-port="0"/>
	</edges>
	<meta_data>
		<MO_version value="custom_HEAD_149c43044cb1e8ed8cd4f3f196b23f7b3f129a36"/>
		<cli_parameters>
			<caffe_parser_path value="DIR"/>
			<data_type value="FP16"/>
			<disable_nhwc_to_nchw value="False"/>
			<disable_omitting_optional value="False"/>
			<disable_resnet_optimization value="False"/>
			<disable_weights_compression value="False"/>
			<enable_concat_optimization value="False"/>
			<enable_flattening_nested_params value="False"/>
			<enable_ssd_gluoncv value="False"/>
			<extensions value="DIR"/>
			<framework value="caffe"/>
			<freeze_placeholder_with_value value="{}"/>
			<generate_deprecated_IR_V7 value="False"/>
			<input value="data"/>
			<input_model value="DIR/rmnet_lrelu_pd_ssd.caffemodel"/>
			<input_model_is_text value="False"/>
			<input_proto value="DIR/rmnet_lrelu_pd_ssd.prototxt"/>
			<input_shape value="[1,3,320,544]"/>
			<k value="DIR/CustomLayersMapping.xml"/>
			<keep_shape_ops value="True"/>
			<legacy_ir_generation value="False"/>
			<legacy_mxnet_model value="False"/>
			<log_level value="ERROR"/>
			<mean_scale_values value="{}"/>
			<mean_values value="()"/>
			<model_name value="person-detection-retail-0013"/>
			<output value="['detection_out']"/>
			<output_dir value="DIR"/>
			<placeholder_data_types value="{}"/>
			<placeholder_shapes value="{'data': array([  1,   3, 320, 544])}"/>
			<progress value="False"/>
			<remove_memory value="False"/>
			<remove_output_softmax value="False"/>
			<reverse_input_channels value="False"/>
			<save_params_from_nd value="False"/>
			<scale_values value="()"/>
			<silent value="False"/>
			<static_shape value="False"/>
			<stream_output value="False"/>
			<transform value=""/>
			<unset unset_cli_parameters="batch, counts, disable_fusing, disable_gfusing, finegrain_fusing, input_checkpoint, input_meta_graph, input_symbol, mean_file, mean_file_offsets, move_to_preprocess, nd_prefix_name, pretrained_model_name, saved_model_dir, saved_model_tags, scale, tensorboard_logdir, tensorflow_custom_layer_libraries, tensorflow_custom_operations_config_update, tensorflow_object_detection_api_pipeline_config, tensorflow_use_custom_operations_config, transformations_config"/>
		</cli_parameters>
	</meta_data>
	<quantization_parameters>
		<config>{
		'compression': {
			'algorithms': [
				{
					'name': 'DefaultQuantization',
					'params': {
						'num_samples_for_tuning': 2000,
						'preset': 'performance',
						'stat_subset_size': 300,
						'use_layerwise_tuning': false
					}
				}
			],
			'dump_intermediate_model': true,
			'target_device': 'ANY'
		},
		'engine': {
			'models': [
				{
					'name': 'person-detection-retail-0013',
					'launchers': [
						{
							'framework': 'dlsdk',
							'adapter': 'ssd',
							'device': 'CPU'
						}
					],
					'datasets': [
						{
							'name': 'person_detection',
							'data_source': 'PATH',
							'annotation_conversion': {
								'converter': 'datatang_street_subway',
								'annotation_file': 'PATH'
							},
							'annotation': 'PATH',
							'dataset_meta': 'PATH',
							'preprocessing': [
								{
									'type': 'resize',
									'dst_width': 544,
									'dst_height': 320
								}
							],
							'postprocessing': [
								{
									'type': 'resize_prediction_boxes'
								},
								{
									'type': 'filter',
									'apply_to': 'annotation',
									'height_range': 100,
									'aspect_ratio': '0.666, 5',
									'is_empty': true,
									'min_visibility': 'partially occluded'
								},
								{
									'type': 'filter',
									'apply_to': 'prediction',
									'height_range': 100,
									'is_empty': true,
									'aspect_ratio': '0.666, 5'
								}
							],
							'metrics': [
								{
									'type': 'map',
									'ignore_difficult': true,
									'include_boundaries': true,
									'allow_multiple_matches_per_ignored': false,
									'distinct_conf': false
								}
							],
							'_command_line_mapping': {
								'annotation_file': 'PATH'
							}
						}
					]
				}
			],
			'stat_requests_number': null,
			'eval_requests_number': null,
			'type': 'accuracy_checker'
		}
	}</config>
		<version value="1.0"/>
		<cli_params value="{'quantize': None, 'preset': None, 'model': None, 'weights': None, 'name': None, 'ac_config': None, 'max_drop': None, 'evaluate': False, 'output_dir': 'PATH', 'direct_dump': True, 'log_level': 'INFO', 'pbar': False, 'stream_output': False, 'keep_uncompressed_weights': False}"/>
	</quantization_parameters>
</net>
