<?xml version="1.0" ?>
<net name="person-reidentification-retail-0287" version="10">
	<layers>
		<layer id="0" name="data_mul_2232022324238733098" type="Const" version="opset1">
			<data element_type="f16" offset="0" shape="1,256,1" size="512"/>
			<output>
				<port id="0" precision="FP16">
					<dim>1</dim>
					<dim>256</dim>
					<dim>1</dim>
				</port>
			</output>
		</layer>
		<layer id="1" name="108181082231400" type="Const" version="opset1">
			<data element_type="f16" offset="512" shape="" size="2"/>
			<output>
				<port id="0" precision="FP16"/>
			</output>
		</layer>
		<layer id="2" name="108191082328745" type="Const" version="opset1">
			<data element_type="f16" offset="514" shape="" size="2"/>
			<output>
				<port id="0" precision="FP16"/>
			</output>
		</layer>
		<layer id="3" name="108201082432090" type="Const" version="opset1">
			<data element_type="f16" offset="512" shape="" size="2"/>
			<output>
				<port id="0" precision="FP16"/>
			</output>
		</layer>
		<layer id="4" name="108211082528394" type="Const" version="opset1">
			<data element_type="f16" offset="514" shape="" size="2"/>
			<output>
				<port id="0" precision="FP16"/>
			</output>
		</layer>
		<layer id="5" name="108081081229903" type="Const" version="opset1">
			<data element_type="f16" offset="516" shape="" size="2"/>
			<output>
				<port id="0" precision="FP16"/>
			</output>
		</layer>
		<layer id="6" name="108091081331550" type="Const" version="opset1">
			<data element_type="f16" offset="518" shape="" size="2"/>
			<output>
				<port id="0" precision="FP16"/>
			</output>
		</layer>
		<layer id="7" name="108101081429414" type="Const" version="opset1">
			<data element_type="f16" offset="516" shape="" size="2"/>
			<output>
				<port id="0" precision="FP16"/>
			</output>
		</layer>
		<layer id="8" name="108111081531163" type="Const" version="opset1">
			<data element_type="f16" offset="518" shape="" size="2"/>
			<output>
				<port id="0" precision="FP16"/>
			</output>
		</layer>
		<layer id="9" name="4887489130137" type="Const" version="opset1">
			<data element_type="f16" offset="520" shape="1,256,1,1" size="512"/>
			<output>
				<port id="0" precision="FP16">
					<dim>1</dim>
					<dim>256</dim>
					<dim>1</dim>
					<dim>1</dim>
				</port>
			</output>
		</layer>
		<layer id="10" name="4888489232342" type="Const" version="opset1">
			<data element_type="f16" offset="1032" shape="1,256,1,1" size="512"/>
			<output>
				<port id="0" precision="FP16">
					<dim>1</dim>
					<dim>256</dim>
					<dim>1</dim>
					<dim>1</dim>
				</port>
			</output>
		</layer>
		<layer id="11" name="4889489333344" type="Const" version="opset1">
			<data element_type="f16" offset="520" shape="1,256,1,1" size="512"/>
			<output>
				<port id="0" precision="FP16">
					<dim>1</dim>
					<dim>256</dim>
					<dim>1</dim>
					<dim>1</dim>
				</port>
			</output>
		</layer>
		<layer id="12" name="4890489430959" type="Const" version="opset1">
			<data element_type="f16" offset="1032" shape="1,256,1,1" size="512"/>
			<output>
				<port id="0" precision="FP16">
					<dim>1</dim>
					<dim>256</dim>
					<dim>1</dim>
					<dim>1</dim>
				</port>
			</output>
		</layer>
		<layer id="13" name="6717672129786" type="Const" version="opset1">
			<data element_type="f16" offset="1544" shape="" size="2"/>
			<output>
				<port id="0" precision="FP16"/>
			</output>
		</layer>
		<layer id="14" name="6718672232285" type="Const" version="opset1">
			<data element_type="f16" offset="1546" shape="" size="2"/>
			<output>
				<port id="0" precision="FP16"/>
			</output>
		</layer>
		<layer id="15" name="6719672332513" type="Const" version="opset1">
			<data element_type="f16" offset="1544" shape="" size="2"/>
			<output>
				<port id="0" precision="FP16"/>
			</output>
		</layer>
		<layer id="16" name="6720672429924" type="Const" version="opset1">
			<data element_type="f16" offset="1546" shape="" size="2"/>
			<output>
				<port id="0" precision="FP16"/>
			</output>
		</layer>
		<layer id="17" name="6877688133791" type="Const" version="opset1">
			<data element_type="f16" offset="1548" shape="" size="2"/>
			<output>
				<port id="0" precision="FP16"/>
			</output>
		</layer>
		<layer id="18" name="6878688230227" type="Const" version="opset1">
			<data element_type="f16" offset="1550" shape="" size="2"/>
			<output>
				<port id="0" precision="FP16"/>
			</output>
		</layer>
		<layer id="19" name="6879688330635" type="Const" version="opset1">
			<data element_type="f16" offset="1548" shape="" size="2"/>
			<output>
				<port id="0" precision="FP16"/>
			</output>
		</layer>
		<layer id="20" name="6880688428925" type="Const" version="opset1">
			<data element_type="f16" offset="1550" shape="" size="2"/>
			<output>
				<port id="0" precision="FP16"/>
			</output>
		</layer>
		<layer id="21" name="6047605130617" type="Const" version="opset1">
			<data element_type="f16" offset="1544" shape="" size="2"/>
			<output>
				<port id="0" precision="FP16"/>
			</output>
		</layer>
		<layer id="22" name="6048605230365" type="Const" version="opset1">
			<data element_type="f16" offset="1552" shape="" size="2"/>
			<output>
				<port id="0" precision="FP16"/>
			</output>
		</layer>
		<layer id="23" name="6049605328796" type="Const" version="opset1">
			<data element_type="f16" offset="1544" shape="" size="2"/>
			<output>
				<port id="0" precision="FP16"/>
			</output>
		</layer>
		<layer id="24" name="6050605431598" type="Const" version="opset1">
			<data element_type="f16" offset="1552" shape="" size="2"/>
			<output>
				<port id="0" precision="FP16"/>
			</output>
		</layer>
		<layer id="25" name="7217722129351" type="Const" version="opset1">
			<data element_type="f16" offset="1544" shape="" size="2"/>
			<output>
				<port id="0" precision="FP16"/>
			</output>
		</layer>
		<layer id="26" name="7218722233272" type="Const" version="opset1">
			<data element_type="f16" offset="1552" shape="" size="2"/>
			<output>
				<port id="0" precision="FP16"/>
			</output>
		</layer>
		<layer id="27" name="7219722329714" type="Const" version="opset1">
			<data element_type="f16" offset="1544" shape="" size="2"/>
			<output>
				<port id="0" precision="FP16"/>
			</output>
		</layer>
		<layer id="28" name="7220722432174" type="Const" version="opset1">
			<data element_type="f16" offset="1552" shape="" size="2"/>
			<output>
				<port id="0" precision="FP16"/>
			</output>
		</layer>
		<layer id="29" name="6347635129756" type="Const" version="opset1">
			<data element_type="f16" offset="1544" shape="" size="2"/>
			<output>
				<port id="0" precision="FP16"/>
			</output>
		</layer>
		<layer id="30" name="6348635231493" type="Const" version="opset1">
			<data element_type="f16" offset="1554" shape="" size="2"/>
			<output>
				<port id="0" precision="FP16"/>
			</output>
		</layer>
		<layer id="31" name="6349635330632" type="Const" version="opset1">
			<data element_type="f16" offset="1544" shape="" size="2"/>
			<output>
				<port id="0" precision="FP16"/>
			</output>
		</layer>
		<layer id="32" name="6350635433056" type="Const" version="opset1">
			<data element_type="f16" offset="1554" shape="" size="2"/>
			<output>
				<port id="0" precision="FP16"/>
			</output>
		</layer>
		<layer id="33" name="7277728131391" type="Const" version="opset1">
			<data element_type="f16" offset="1544" shape="" size="2"/>
			<output>
				<port id="0" precision="FP16"/>
			</output>
		</layer>
		<layer id="34" name="7278728233482" type="Const" version="opset1">
			<data element_type="f16" offset="1556" shape="" size="2"/>
			<output>
				<port id="0" precision="FP16"/>
			</output>
		</layer>
		<layer id="35" name="7279728332312" type="Const" version="opset1">
			<data element_type="f16" offset="1544" shape="" size="2"/>
			<output>
				<port id="0" precision="FP16"/>
			</output>
		</layer>
		<layer id="36" name="7280728431370" type="Const" version="opset1">
			<data element_type="f16" offset="1556" shape="" size="2"/>
			<output>
				<port id="0" precision="FP16"/>
			</output>
		</layer>
		<layer id="37" name="4917492131388" type="Const" version="opset1">
			<data element_type="f16" offset="1544" shape="" size="2"/>
			<output>
				<port id="0" precision="FP16"/>
			</output>
		</layer>
		<layer id="38" name="4918492228550" type="Const" version="opset1">
			<data element_type="f16" offset="1558" shape="" size="2"/>
			<output>
				<port id="0" precision="FP16"/>
			</output>
		</layer>
		<layer id="39" name="4919492333521" type="Const" version="opset1">
			<data element_type="f16" offset="1544" shape="" size="2"/>
			<output>
				<port id="0" precision="FP16"/>
			</output>
		</layer>
		<layer id="40" name="4920492433305" type="Const" version="opset1">
			<data element_type="f16" offset="1558" shape="" size="2"/>
			<output>
				<port id="0" precision="FP16"/>
			</output>
		</layer>
		<layer id="41" name="1069/Unsqueeze218731484" type="Const" version="opset1">
			<data element_type="f16" offset="1560" shape="1,64,1,1" size="128"/>
			<output>
				<port id="0" names="1069" precision="FP16">
					<dim>1</dim>
					<dim>64</dim>
					<dim>1</dim>
					<dim>1</dim>
				</port>
			</output>
		</layer>
		<layer id="42" name="107381074229054" type="Const" version="opset1">
			<data element_type="f16" offset="1688" shape="" size="2"/>
			<output>
				<port id="0" precision="FP16"/>
			</output>
		</layer>
		<layer id="43" name="107391074329468" type="Const" version="opset1">
			<data element_type="f16" offset="1690" shape="" size="2"/>
			<output>
				<port id="0" precision="FP16"/>
			</output>
		</layer>
		<layer id="44" name="107401074429072" type="Const" version="opset1">
			<data element_type="f16" offset="1688" shape="" size="2"/>
			<output>
				<port id="0" precision="FP16"/>
			</output>
		</layer>
		<layer id="45" name="107411074533359" type="Const" version="opset1">
			<data element_type="f16" offset="1690" shape="" size="2"/>
			<output>
				<port id="0" precision="FP16"/>
			</output>
		</layer>
		<layer id="46" name="1066/Range_input_port_0/value217330695" type="Const" version="opset1">
			<data element_type="i64" offset="1692" shape="" size="8"/>
			<output>
				<port id="0" precision="I64"/>
			</output>
		</layer>
		<layer id="47" name="1062217132984" type="Const" version="opset1">
			<data element_type="i64" offset="1700" shape="3" size="24"/>
			<output>
				<port id="0" names="1062" precision="I64">
					<dim>3</dim>
				</port>
			</output>
		</layer>
		<layer id="48" name="107281073232864" type="Const" version="opset1">
			<data element_type="f16" offset="1544" shape="" size="2"/>
			<output>
				<port id="0" precision="FP16"/>
			</output>
		</layer>
		<layer id="49" name="107291073332234" type="Const" version="opset1">
			<data element_type="f16" offset="1724" shape="" size="2"/>
			<output>
				<port id="0" precision="FP16"/>
			</output>
		</layer>
		<layer id="50" name="107301073430326" type="Const" version="opset1">
			<data element_type="f16" offset="1544" shape="" size="2"/>
			<output>
				<port id="0" precision="FP16"/>
			</output>
		</layer>
		<layer id="51" name="107311073532819" type="Const" version="opset1">
			<data element_type="f16" offset="1724" shape="" size="2"/>
			<output>
				<port id="0" precision="FP16"/>
			</output>
		</layer>
		<layer id="52" name="8107811131205" type="Const" version="opset1">
			<data element_type="f16" offset="1544" shape="" size="2"/>
			<output>
				<port id="0" precision="FP16"/>
			</output>
		</layer>
		<layer id="53" name="8108811229045" type="Const" version="opset1">
			<data element_type="f16" offset="1726" shape="" size="2"/>
			<output>
				<port id="0" precision="FP16"/>
			</output>
		</layer>
		<layer id="54" name="8109811331106" type="Const" version="opset1">
			<data element_type="f16" offset="1544" shape="" size="2"/>
			<output>
				<port id="0" precision="FP16"/>
			</output>
		</layer>
		<layer id="55" name="8110811429738" type="Const" version="opset1">
			<data element_type="f16" offset="1726" shape="" size="2"/>
			<output>
				<port id="0" precision="FP16"/>
			</output>
		</layer>
		<layer id="56" name="7937794129474" type="Const" version="opset1">
			<data element_type="f16" offset="1728" shape="1,64,1,1" size="128"/>
			<output>
				<port id="0" precision="FP16">
					<dim>1</dim>
					<dim>64</dim>
					<dim>1</dim>
					<dim>1</dim>
				</port>
			</output>
		</layer>
		<layer id="57" name="7938794232195" type="Const" version="opset1">
			<data element_type="f16" offset="1856" shape="1,64,1,1" size="128"/>
			<output>
				<port id="0" precision="FP16">
					<dim>1</dim>
					<dim>64</dim>
					<dim>1</dim>
					<dim>1</dim>
				</port>
			</output>
		</layer>
		<layer id="58" name="7939794330050" type="Const" version="opset1">
			<data element_type="f16" offset="1728" shape="1,64,1,1" size="128"/>
			<output>
				<port id="0" precision="FP16">
					<dim>1</dim>
					<dim>64</dim>
					<dim>1</dim>
					<dim>1</dim>
				</port>
			</output>
		</layer>
		<layer id="59" name="7940794430389" type="Const" version="opset1">
			<data element_type="f16" offset="1856" shape="1,64,1,1" size="128"/>
			<output>
				<port id="0" precision="FP16">
					<dim>1</dim>
					<dim>64</dim>
					<dim>1</dim>
					<dim>1</dim>
				</port>
			</output>
		</layer>
		<layer id="60" name="3072307431226" type="Const" version="opset1">
			<data element_type="f16" offset="1984" shape="1,64,1,1" size="128"/>
			<output>
				<port id="0" precision="FP16">
					<dim>1</dim>
					<dim>64</dim>
					<dim>1</dim>
					<dim>1</dim>
				</port>
			</output>
		</layer>
		<layer id="61" name="6767677128826" type="Const" version="opset1">
			<data element_type="f16" offset="1544" shape="" size="2"/>
			<output>
				<port id="0" precision="FP16"/>
			</output>
		</layer>
		<layer id="62" name="6768677229576" type="Const" version="opset1">
			<data element_type="f16" offset="2112" shape="" size="2"/>
			<output>
				<port id="0" precision="FP16"/>
			</output>
		</layer>
		<layer id="63" name="6769677329870" type="Const" version="opset1">
			<data element_type="f16" offset="1544" shape="" size="2"/>
			<output>
				<port id="0" precision="FP16"/>
			</output>
		</layer>
		<layer id="64" name="6770677429063" type="Const" version="opset1">
			<data element_type="f16" offset="2112" shape="" size="2"/>
			<output>
				<port id="0" precision="FP16"/>
			</output>
		</layer>
		<layer id="65" name="7837784130902" type="Const" version="opset1">
			<data element_type="f16" offset="1544" shape="" size="2"/>
			<output>
				<port id="0" precision="FP16"/>
			</output>
		</layer>
		<layer id="66" name="7838784229768" type="Const" version="opset1">
			<data element_type="f16" offset="2114" shape="" size="2"/>
			<output>
				<port id="0" precision="FP16"/>
			</output>
		</layer>
		<layer id="67" name="7839784332114" type="Const" version="opset1">
			<data element_type="f16" offset="1544" shape="" size="2"/>
			<output>
				<port id="0" precision="FP16"/>
			</output>
		</layer>
		<layer id="68" name="7840784432129" type="Const" version="opset1">
			<data element_type="f16" offset="2114" shape="" size="2"/>
			<output>
				<port id="0" precision="FP16"/>
			</output>
		</layer>
		<layer id="69" name="5937594128781" type="Const" version="opset1">
			<data element_type="f16" offset="2116" shape="" size="2"/>
			<output>
				<port id="0" precision="FP16"/>
			</output>
		</layer>
		<layer id="70" name="5938594232684" type="Const" version="opset1">
			<data element_type="f16" offset="2118" shape="" size="2"/>
			<output>
				<port id="0" precision="FP16"/>
			</output>
		</layer>
		<layer id="71" name="5939594328595" type="Const" version="opset1">
			<data element_type="f16" offset="2116" shape="" size="2"/>
			<output>
				<port id="0" precision="FP16"/>
			</output>
		</layer>
		<layer id="72" name="5940594432177" type="Const" version="opset1">
			<data element_type="f16" offset="2118" shape="" size="2"/>
			<output>
				<port id="0" precision="FP16"/>
			</output>
		</layer>
		<layer id="73" name="8017802133371" type="Const" version="opset1">
			<data element_type="f16" offset="1544" shape="" size="2"/>
			<output>
				<port id="0" precision="FP16"/>
			</output>
		</layer>
		<layer id="74" name="8018802228646" type="Const" version="opset1">
			<data element_type="f16" offset="2120" shape="" size="2"/>
			<output>
				<port id="0" precision="FP16"/>
			</output>
		</layer>
		<layer id="75" name="8019802329918" type="Const" version="opset1">
			<data element_type="f16" offset="1544" shape="" size="2"/>
			<output>
				<port id="0" precision="FP16"/>
			</output>
		</layer>
		<layer id="76" name="8020802429759" type="Const" version="opset1">
			<data element_type="f16" offset="2120" shape="" size="2"/>
			<output>
				<port id="0" precision="FP16"/>
			</output>
		</layer>
		<layer id="77" name="7897790129897" type="Const" version="opset1">
			<data element_type="f16" offset="1544" shape="" size="2"/>
			<output>
				<port id="0" precision="FP16"/>
			</output>
		</layer>
		<layer id="78" name="7898790229228" type="Const" version="opset1">
			<data element_type="f16" offset="2122" shape="" size="2"/>
			<output>
				<port id="0" precision="FP16"/>
			</output>
		</layer>
		<layer id="79" name="7899790329315" type="Const" version="opset1">
			<data element_type="f16" offset="1544" shape="" size="2"/>
			<output>
				<port id="0" precision="FP16"/>
			</output>
		</layer>
		<layer id="80" name="7900790429360" type="Const" version="opset1">
			<data element_type="f16" offset="2122" shape="" size="2"/>
			<output>
				<port id="0" precision="FP16"/>
			</output>
		</layer>
		<layer id="81" name="6937694132708" type="Const" version="opset1">
			<data element_type="f16" offset="1544" shape="" size="2"/>
			<output>
				<port id="0" precision="FP16"/>
			</output>
		</layer>
		<layer id="82" name="6938694233245" type="Const" version="opset1">
			<data element_type="f16" offset="2124" shape="" size="2"/>
			<output>
				<port id="0" precision="FP16"/>
			</output>
		</layer>
		<layer id="83" name="6939694332150" type="Const" version="opset1">
			<data element_type="f16" offset="1544" shape="" size="2"/>
			<output>
				<port id="0" precision="FP16"/>
			</output>
		</layer>
		<layer id="84" name="6940694428472" type="Const" version="opset1">
			<data element_type="f16" offset="2124" shape="" size="2"/>
			<output>
				<port id="0" precision="FP16"/>
			</output>
		</layer>
		<layer id="85" name="4967497132612" type="Const" version="opset1">
			<data element_type="f16" offset="1544" shape="" size="2"/>
			<output>
				<port id="0" precision="FP16"/>
			</output>
		</layer>
		<layer id="86" name="4968497231499" type="Const" version="opset1">
			<data element_type="f16" offset="2126" shape="" size="2"/>
			<output>
				<port id="0" precision="FP16"/>
			</output>
		</layer>
		<layer id="87" name="4969497329003" type="Const" version="opset1">
			<data element_type="f16" offset="1544" shape="" size="2"/>
			<output>
				<port id="0" precision="FP16"/>
			</output>
		</layer>
		<layer id="88" name="4970497430851" type="Const" version="opset1">
			<data element_type="f16" offset="2126" shape="" size="2"/>
			<output>
				<port id="0" precision="FP16"/>
			</output>
		</layer>
		<layer id="89" name="4527453132192" type="Const" version="opset1">
			<data element_type="f16" offset="1544" shape="" size="2"/>
			<output>
				<port id="0" precision="FP16"/>
			</output>
		</layer>
		<layer id="90" name="4528453233308" type="Const" version="opset1">
			<data element_type="f16" offset="2128" shape="" size="2"/>
			<output>
				<port id="0" precision="FP16"/>
			</output>
		</layer>
		<layer id="91" name="4529453328844" type="Const" version="opset1">
			<data element_type="f16" offset="1544" shape="" size="2"/>
			<output>
				<port id="0" precision="FP16"/>
			</output>
		</layer>
		<layer id="92" name="4530453428469" type="Const" version="opset1">
			<data element_type="f16" offset="2128" shape="" size="2"/>
			<output>
				<port id="0" precision="FP16"/>
			</output>
		</layer>
		<layer id="93" name="5957596130302" type="Const" version="opset1">
			<data element_type="f16" offset="1544" shape="" size="2"/>
			<output>
				<port id="0" precision="FP16"/>
			</output>
		</layer>
		<layer id="94" name="5958596232660" type="Const" version="opset1">
			<data element_type="f16" offset="2130" shape="" size="2"/>
			<output>
				<port id="0" precision="FP16"/>
			</output>
		</layer>
		<layer id="95" name="5959596331361" type="Const" version="opset1">
			<data element_type="f16" offset="1544" shape="" size="2"/>
			<output>
				<port id="0" precision="FP16"/>
			</output>
		</layer>
		<layer id="96" name="5960596431415" type="Const" version="opset1">
			<data element_type="f16" offset="2130" shape="" size="2"/>
			<output>
				<port id="0" precision="FP16"/>
			</output>
		</layer>
		<layer id="97" name="8227823128799" type="Const" version="opset1">
			<data element_type="f16" offset="2132" shape="1,64,1,1" size="128"/>
			<output>
				<port id="0" precision="FP16">
					<dim>1</dim>
					<dim>64</dim>
					<dim>1</dim>
					<dim>1</dim>
				</port>
			</output>
		</layer>
		<layer id="98" name="8228823233419" type="Const" version="opset1">
			<data element_type="f16" offset="2260" shape="1,64,1,1" size="128"/>
			<output>
				<port id="0" precision="FP16">
					<dim>1</dim>
					<dim>64</dim>
					<dim>1</dim>
					<dim>1</dim>
				</port>
			</output>
		</layer>
		<layer id="99" name="8229823331577" type="Const" version="opset1">
			<data element_type="f16" offset="2132" shape="1,64,1,1" size="128"/>
			<output>
				<port id="0" precision="FP16">
					<dim>1</dim>
					<dim>64</dim>
					<dim>1</dim>
					<dim>1</dim>
				</port>
			</output>
		</layer>
		<layer id="100" name="8230823428916" type="Const" version="opset1">
			<data element_type="f16" offset="2260" shape="1,64,1,1" size="128"/>
			<output>
				<port id="0" precision="FP16">
					<dim>1</dim>
					<dim>64</dim>
					<dim>1</dim>
					<dim>1</dim>
				</port>
			</output>
		</layer>
		<layer id="101" name="3032303428706" type="Const" version="opset1">
			<data element_type="f16" offset="1984" shape="1,64,1,1" size="128"/>
			<output>
				<port id="0" precision="FP16">
					<dim>1</dim>
					<dim>64</dim>
					<dim>1</dim>
					<dim>1</dim>
				</port>
			</output>
		</layer>
		<layer id="102" name="6407641130314" type="Const" version="opset1">
			<data element_type="f16" offset="1544" shape="" size="2"/>
			<output>
				<port id="0" precision="FP16"/>
			</output>
		</layer>
		<layer id="103" name="6408641231406" type="Const" version="opset1">
			<data element_type="f16" offset="2388" shape="" size="2"/>
			<output>
				<port id="0" precision="FP16"/>
			</output>
		</layer>
		<layer id="104" name="6409641332309" type="Const" version="opset1">
			<data element_type="f16" offset="1544" shape="" size="2"/>
			<output>
				<port id="0" precision="FP16"/>
			</output>
		</layer>
		<layer id="105" name="6410641429660" type="Const" version="opset1">
			<data element_type="f16" offset="2388" shape="" size="2"/>
			<output>
				<port id="0" precision="FP16"/>
			</output>
		</layer>
		<layer id="106" name="7457746131934" type="Const" version="opset1">
			<data element_type="f16" offset="1544" shape="" size="2"/>
			<output>
				<port id="0" precision="FP16"/>
			</output>
		</layer>
		<layer id="107" name="7458746229204" type="Const" version="opset1">
			<data element_type="f16" offset="2390" shape="" size="2"/>
			<output>
				<port id="0" precision="FP16"/>
			</output>
		</layer>
		<layer id="108" name="7459746329702" type="Const" version="opset1">
			<data element_type="f16" offset="1544" shape="" size="2"/>
			<output>
				<port id="0" precision="FP16"/>
			</output>
		</layer>
		<layer id="109" name="7460746431907" type="Const" version="opset1">
			<data element_type="f16" offset="2390" shape="" size="2"/>
			<output>
				<port id="0" precision="FP16"/>
			</output>
		</layer>
		<layer id="110" name="4347435129456" type="Const" version="opset1">
			<data element_type="f16" offset="1544" shape="" size="2"/>
			<output>
				<port id="0" precision="FP16"/>
			</output>
		</layer>
		<layer id="111" name="4348435228376" type="Const" version="opset1">
			<data element_type="f16" offset="2392" shape="" size="2"/>
			<output>
				<port id="0" precision="FP16"/>
			</output>
		</layer>
		<layer id="112" name="4349435332540" type="Const" version="opset1">
			<data element_type="f16" offset="1544" shape="" size="2"/>
			<output>
				<port id="0" precision="FP16"/>
			</output>
		</layer>
		<layer id="113" name="4350435433149" type="Const" version="opset1">
			<data element_type="f16" offset="2392" shape="" size="2"/>
			<output>
				<port id="0" precision="FP16"/>
			</output>
		</layer>
		<layer id="114" name="6387639128547" type="Const" version="opset1">
			<data element_type="f16" offset="1544" shape="" size="2"/>
			<output>
				<port id="0" precision="FP16"/>
			</output>
		</layer>
		<layer id="115" name="6388639233230" type="Const" version="opset1">
			<data element_type="f16" offset="2394" shape="" size="2"/>
			<output>
				<port id="0" precision="FP16"/>
			</output>
		</layer>
		<layer id="116" name="6389639330602" type="Const" version="opset1">
			<data element_type="f16" offset="1544" shape="" size="2"/>
			<output>
				<port id="0" precision="FP16"/>
			</output>
		</layer>
		<layer id="117" name="6390639433296" type="Const" version="opset1">
			<data element_type="f16" offset="2394" shape="" size="2"/>
			<output>
				<port id="0" precision="FP16"/>
			</output>
		</layer>
		<layer id="118" name="6917692132651" type="Const" version="opset1">
			<data element_type="f16" offset="2396" shape="" size="2"/>
			<output>
				<port id="0" precision="FP16"/>
			</output>
		</layer>
		<layer id="119" name="6918692233794" type="Const" version="opset1">
			<data element_type="f16" offset="2398" shape="" size="2"/>
			<output>
				<port id="0" precision="FP16"/>
			</output>
		</layer>
		<layer id="120" name="6919692329774" type="Const" version="opset1">
			<data element_type="f16" offset="2396" shape="" size="2"/>
			<output>
				<port id="0" precision="FP16"/>
			</output>
		</layer>
		<layer id="121" name="6920692430419" type="Const" version="opset1">
			<data element_type="f16" offset="2398" shape="" size="2"/>
			<output>
				<port id="0" precision="FP16"/>
			</output>
		</layer>
		<layer id="122" name="8117812132789" type="Const" version="opset1">
			<data element_type="f16" offset="1544" shape="" size="2"/>
			<output>
				<port id="0" precision="FP16"/>
			</output>
		</layer>
		<layer id="123" name="8118812229666" type="Const" version="opset1">
			<data element_type="f16" offset="2400" shape="" size="2"/>
			<output>
				<port id="0" precision="FP16"/>
			</output>
		</layer>
		<layer id="124" name="8119812330827" type="Const" version="opset1">
			<data element_type="f16" offset="1544" shape="" size="2"/>
			<output>
				<port id="0" precision="FP16"/>
			</output>
		</layer>
		<layer id="125" name="8120812429450" type="Const" version="opset1">
			<data element_type="f16" offset="2400" shape="" size="2"/>
			<output>
				<port id="0" precision="FP16"/>
			</output>
		</layer>
		<layer id="126" name="7197720130011" type="Const" version="opset1">
			<data element_type="f16" offset="1544" shape="" size="2"/>
			<output>
				<port id="0" precision="FP16"/>
			</output>
		</layer>
		<layer id="127" name="7198720233446" type="Const" version="opset1">
			<data element_type="f16" offset="2402" shape="" size="2"/>
			<output>
				<port id="0" precision="FP16"/>
			</output>
		</layer>
		<layer id="128" name="7199720329957" type="Const" version="opset1">
			<data element_type="f16" offset="1544" shape="" size="2"/>
			<output>
				<port id="0" precision="FP16"/>
			</output>
		</layer>
		<layer id="129" name="7200720430578" type="Const" version="opset1">
			<data element_type="f16" offset="2402" shape="" size="2"/>
			<output>
				<port id="0" precision="FP16"/>
			</output>
		</layer>
		<layer id="130" name="6657666132354" type="Const" version="opset1">
			<data element_type="f16" offset="1544" shape="" size="2"/>
			<output>
				<port id="0" precision="FP16"/>
			</output>
		</layer>
		<layer id="131" name="6658666229879" type="Const" version="opset1">
			<data element_type="f16" offset="2404" shape="" size="2"/>
			<output>
				<port id="0" precision="FP16"/>
			</output>
		</layer>
		<layer id="132" name="6659666332690" type="Const" version="opset1">
			<data element_type="f16" offset="1544" shape="" size="2"/>
			<output>
				<port id="0" precision="FP16"/>
			</output>
		</layer>
		<layer id="133" name="6660666430191" type="Const" version="opset1">
			<data element_type="f16" offset="2404" shape="" size="2"/>
			<output>
				<port id="0" precision="FP16"/>
			</output>
		</layer>
		<layer id="134" name="4537454131079" type="Const" version="opset1">
			<data element_type="f16" offset="1544" shape="" size="2"/>
			<output>
				<port id="0" precision="FP16"/>
			</output>
		</layer>
		<layer id="135" name="4538454232786" type="Const" version="opset1">
			<data element_type="f16" offset="2406" shape="" size="2"/>
			<output>
				<port id="0" precision="FP16"/>
			</output>
		</layer>
		<layer id="136" name="4539454330932" type="Const" version="opset1">
			<data element_type="f16" offset="1544" shape="" size="2"/>
			<output>
				<port id="0" precision="FP16"/>
			</output>
		</layer>
		<layer id="137" name="4540454431787" type="Const" version="opset1">
			<data element_type="f16" offset="2406" shape="" size="2"/>
			<output>
				<port id="0" precision="FP16"/>
			</output>
		</layer>
		<layer id="138" name="5577558132153" type="Const" version="opset1">
			<data element_type="f16" offset="1544" shape="" size="2"/>
			<output>
				<port id="0" precision="FP16"/>
			</output>
		</layer>
		<layer id="139" name="5578558229693" type="Const" version="opset1">
			<data element_type="f16" offset="2408" shape="" size="2"/>
			<output>
				<port id="0" precision="FP16"/>
			</output>
		</layer>
		<layer id="140" name="5579558332600" type="Const" version="opset1">
			<data element_type="f16" offset="1544" shape="" size="2"/>
			<output>
				<port id="0" precision="FP16"/>
			</output>
		</layer>
		<layer id="141" name="5580558430422" type="Const" version="opset1">
			<data element_type="f16" offset="2408" shape="" size="2"/>
			<output>
				<port id="0" precision="FP16"/>
			</output>
		</layer>
		<layer id="142" name="882/Unsqueeze181332813" type="Const" version="opset1">
			<data element_type="f16" offset="2410" shape="1,48,1,1" size="96"/>
			<output>
				<port id="0" names="882" precision="FP16">
					<dim>1</dim>
					<dim>48</dim>
					<dim>1</dim>
					<dim>1</dim>
				</port>
			</output>
		</layer>
		<layer id="143" name="109381094232582" type="Const" version="opset1">
			<data element_type="f16" offset="2506" shape="" size="2"/>
			<output>
				<port id="0" precision="FP16"/>
			</output>
		</layer>
		<layer id="144" name="109391094330338" type="Const" version="opset1">
			<data element_type="f16" offset="2508" shape="" size="2"/>
			<output>
				<port id="0" precision="FP16"/>
			</output>
		</layer>
		<layer id="145" name="109401094433467" type="Const" version="opset1">
			<data element_type="f16" offset="2506" shape="" size="2"/>
			<output>
				<port id="0" precision="FP16"/>
			</output>
		</layer>
		<layer id="146" name="109411094532996" type="Const" version="opset1">
			<data element_type="f16" offset="2508" shape="" size="2"/>
			<output>
				<port id="0" precision="FP16"/>
			</output>
		</layer>
		<layer id="147" name="879/Range_input_port_0/value179928487" type="Const" version="opset1">
			<data element_type="i64" offset="1692" shape="" size="8"/>
			<output>
				<port id="0" precision="I64"/>
			</output>
		</layer>
		<layer id="148" name="875179730455" type="Const" version="opset1">
			<data element_type="i64" offset="1700" shape="3" size="24"/>
			<output>
				<port id="0" names="875" precision="I64">
					<dim>3</dim>
				</port>
			</output>
		</layer>
		<layer id="149" name="109281093231964" type="Const" version="opset1">
			<data element_type="f16" offset="1544" shape="" size="2"/>
			<output>
				<port id="0" precision="FP16"/>
			</output>
		</layer>
		<layer id="150" name="109291093330737" type="Const" version="opset1">
			<data element_type="f16" offset="2510" shape="" size="2"/>
			<output>
				<port id="0" precision="FP16"/>
			</output>
		</layer>
		<layer id="151" name="109301093430866" type="Const" version="opset1">
			<data element_type="f16" offset="1544" shape="" size="2"/>
			<output>
				<port id="0" precision="FP16"/>
			</output>
		</layer>
		<layer id="152" name="109311093531172" type="Const" version="opset1">
			<data element_type="f16" offset="2510" shape="" size="2"/>
			<output>
				<port id="0" precision="FP16"/>
			</output>
		</layer>
		<layer id="153" name="6037604129996" type="Const" version="opset1">
			<data element_type="f16" offset="1544" shape="" size="2"/>
			<output>
				<port id="0" precision="FP16"/>
			</output>
		</layer>
		<layer id="154" name="6038604229255" type="Const" version="opset1">
			<data element_type="f16" offset="2118" shape="" size="2"/>
			<output>
				<port id="0" precision="FP16"/>
			</output>
		</layer>
		<layer id="155" name="6039604332624" type="Const" version="opset1">
			<data element_type="f16" offset="1544" shape="" size="2"/>
			<output>
				<port id="0" precision="FP16"/>
			</output>
		</layer>
		<layer id="156" name="6040604431658" type="Const" version="opset1">
			<data element_type="f16" offset="2118" shape="" size="2"/>
			<output>
				<port id="0" precision="FP16"/>
			</output>
		</layer>
		<layer id="157" name="5787579132681" type="Const" version="opset1">
			<data element_type="f16" offset="2512" shape="1,48,1,1" size="96"/>
			<output>
				<port id="0" precision="FP16">
					<dim>1</dim>
					<dim>48</dim>
					<dim>1</dim>
					<dim>1</dim>
				</port>
			</output>
		</layer>
		<layer id="158" name="5788579230740" type="Const" version="opset1">
			<data element_type="f16" offset="2608" shape="1,48,1,1" size="96"/>
			<output>
				<port id="0" precision="FP16">
					<dim>1</dim>
					<dim>48</dim>
					<dim>1</dim>
					<dim>1</dim>
				</port>
			</output>
		</layer>
		<layer id="159" name="5789579331703" type="Const" version="opset1">
			<data element_type="f16" offset="2512" shape="1,48,1,1" size="96"/>
			<output>
				<port id="0" precision="FP16">
					<dim>1</dim>
					<dim>48</dim>
					<dim>1</dim>
					<dim>1</dim>
				</port>
			</output>
		</layer>
		<layer id="160" name="5790579428445" type="Const" version="opset1">
			<data element_type="f16" offset="2608" shape="1,48,1,1" size="96"/>
			<output>
				<port id="0" precision="FP16">
					<dim>1</dim>
					<dim>48</dim>
					<dim>1</dim>
					<dim>1</dim>
				</port>
			</output>
		</layer>
		<layer id="161" name="2992299432162" type="Const" version="opset1">
			<data element_type="f16" offset="2704" shape="1,48,1,1" size="96"/>
			<output>
				<port id="0" precision="FP16">
					<dim>1</dim>
					<dim>48</dim>
					<dim>1</dim>
					<dim>1</dim>
				</port>
			</output>
		</layer>
		<layer id="162" name="5317532131592" type="Const" version="opset1">
			<data element_type="f16" offset="1544" shape="" size="2"/>
			<output>
				<port id="0" precision="FP16"/>
			</output>
		</layer>
		<layer id="163" name="5318532230998" type="Const" version="opset1">
			<data element_type="f16" offset="2800" shape="" size="2"/>
			<output>
				<port id="0" precision="FP16"/>
			</output>
		</layer>
		<layer id="164" name="5319532333671" type="Const" version="opset1">
			<data element_type="f16" offset="1544" shape="" size="2"/>
			<output>
				<port id="0" precision="FP16"/>
			</output>
		</layer>
		<layer id="165" name="5320532433638" type="Const" version="opset1">
			<data element_type="f16" offset="2800" shape="" size="2"/>
			<output>
				<port id="0" precision="FP16"/>
			</output>
		</layer>
		<layer id="166" name="5457546132453" type="Const" version="opset1">
			<data element_type="f16" offset="1544" shape="" size="2"/>
			<output>
				<port id="0" precision="FP16"/>
			</output>
		</layer>
		<layer id="167" name="5458546229267" type="Const" version="opset1">
			<data element_type="f16" offset="2802" shape="" size="2"/>
			<output>
				<port id="0" precision="FP16"/>
			</output>
		</layer>
		<layer id="168" name="5459546328532" type="Const" version="opset1">
			<data element_type="f16" offset="1544" shape="" size="2"/>
			<output>
				<port id="0" precision="FP16"/>
			</output>
		</layer>
		<layer id="169" name="5460546432324" type="Const" version="opset1">
			<data element_type="f16" offset="2802" shape="" size="2"/>
			<output>
				<port id="0" precision="FP16"/>
			</output>
		</layer>
		<layer id="170" name="8457846132507" type="Const" version="opset1">
			<data element_type="f16" offset="2804" shape="" size="2"/>
			<output>
				<port id="0" precision="FP16"/>
			</output>
		</layer>
		<layer id="171" name="8458846228853" type="Const" version="opset1">
			<data element_type="f16" offset="2806" shape="" size="2"/>
			<output>
				<port id="0" precision="FP16"/>
			</output>
		</layer>
		<layer id="172" name="8459846332531" type="Const" version="opset1">
			<data element_type="f16" offset="2804" shape="" size="2"/>
			<output>
				<port id="0" precision="FP16"/>
			</output>
		</layer>
		<layer id="173" name="8460846430968" type="Const" version="opset1">
			<data element_type="f16" offset="2806" shape="" size="2"/>
			<output>
				<port id="0" precision="FP16"/>
			</output>
		</layer>
		<layer id="174" name="4327433133143" type="Const" version="opset1">
			<data element_type="f16" offset="1544" shape="" size="2"/>
			<output>
				<port id="0" precision="FP16"/>
			</output>
		</layer>
		<layer id="175" name="4328433229855" type="Const" version="opset1">
			<data element_type="f16" offset="2808" shape="" size="2"/>
			<output>
				<port id="0" precision="FP16"/>
			</output>
		</layer>
		<layer id="176" name="4329433328457" type="Const" version="opset1">
			<data element_type="f16" offset="1544" shape="" size="2"/>
			<output>
				<port id="0" precision="FP16"/>
			</output>
		</layer>
		<layer id="177" name="4330433428652" type="Const" version="opset1">
			<data element_type="f16" offset="2808" shape="" size="2"/>
			<output>
				<port id="0" precision="FP16"/>
			</output>
		</layer>
		<layer id="178" name="5727573131010" type="Const" version="opset1">
			<data element_type="f16" offset="1544" shape="" size="2"/>
			<output>
				<port id="0" precision="FP16"/>
			</output>
		</layer>
		<layer id="179" name="5728573229486" type="Const" version="opset1">
			<data element_type="f16" offset="2810" shape="" size="2"/>
			<output>
				<port id="0" precision="FP16"/>
			</output>
		</layer>
		<layer id="180" name="5729573330218" type="Const" version="opset1">
			<data element_type="f16" offset="1544" shape="" size="2"/>
			<output>
				<port id="0" precision="FP16"/>
			</output>
		</layer>
		<layer id="181" name="5730573428760" type="Const" version="opset1">
			<data element_type="f16" offset="2810" shape="" size="2"/>
			<output>
				<port id="0" precision="FP16"/>
			</output>
		</layer>
		<layer id="182" name="5967597130824" type="Const" version="opset1">
			<data element_type="f16" offset="1544" shape="" size="2"/>
			<output>
				<port id="0" precision="FP16"/>
			</output>
		</layer>
		<layer id="183" name="5968597231688" type="Const" version="opset1">
			<data element_type="f16" offset="2812" shape="" size="2"/>
			<output>
				<port id="0" precision="FP16"/>
			</output>
		</layer>
		<layer id="184" name="5969597332024" type="Const" version="opset1">
			<data element_type="f16" offset="1544" shape="" size="2"/>
			<output>
				<port id="0" precision="FP16"/>
			</output>
		</layer>
		<layer id="185" name="5970597431895" type="Const" version="opset1">
			<data element_type="f16" offset="2812" shape="" size="2"/>
			<output>
				<port id="0" precision="FP16"/>
			</output>
		</layer>
		<layer id="186" name="5267527133326" type="Const" version="opset1">
			<data element_type="f16" offset="1544" shape="" size="2"/>
			<output>
				<port id="0" precision="FP16"/>
			</output>
		</layer>
		<layer id="187" name="5268527232615" type="Const" version="opset1">
			<data element_type="f16" offset="2814" shape="" size="2"/>
			<output>
				<port id="0" precision="FP16"/>
			</output>
		</layer>
		<layer id="188" name="5269527332729" type="Const" version="opset1">
			<data element_type="f16" offset="1544" shape="" size="2"/>
			<output>
				<port id="0" precision="FP16"/>
			</output>
		</layer>
		<layer id="189" name="5270527433554" type="Const" version="opset1">
			<data element_type="f16" offset="2814" shape="" size="2"/>
			<output>
				<port id="0" precision="FP16"/>
			</output>
		</layer>
		<layer id="190" name="6127613131547" type="Const" version="opset1">
			<data element_type="f16" offset="1544" shape="" size="2"/>
			<output>
				<port id="0" precision="FP16"/>
			</output>
		</layer>
		<layer id="191" name="6128613231892" type="Const" version="opset1">
			<data element_type="f16" offset="2816" shape="" size="2"/>
			<output>
				<port id="0" precision="FP16"/>
			</output>
		</layer>
		<layer id="192" name="6129613331013" type="Const" version="opset1">
			<data element_type="f16" offset="1544" shape="" size="2"/>
			<output>
				<port id="0" precision="FP16"/>
			</output>
		</layer>
		<layer id="193" name="6130613430062" type="Const" version="opset1">
			<data element_type="f16" offset="2816" shape="" size="2"/>
			<output>
				<port id="0" precision="FP16"/>
			</output>
		</layer>
		<layer id="194" name="4227423133746" type="Const" version="opset1">
			<data element_type="f16" offset="1544" shape="" size="2"/>
			<output>
				<port id="0" precision="FP16"/>
			</output>
		</layer>
		<layer id="195" name="4228423233269" type="Const" version="opset1">
			<data element_type="f16" offset="2818" shape="" size="2"/>
			<output>
				<port id="0" precision="FP16"/>
			</output>
		</layer>
		<layer id="196" name="4229423329375" type="Const" version="opset1">
			<data element_type="f16" offset="1544" shape="" size="2"/>
			<output>
				<port id="0" precision="FP16"/>
			</output>
		</layer>
		<layer id="197" name="4230423428484" type="Const" version="opset1">
			<data element_type="f16" offset="2818" shape="" size="2"/>
			<output>
				<port id="0" precision="FP16"/>
			</output>
		</layer>
		<layer id="198" name="8087809132648" type="Const" version="opset1">
			<data element_type="f16" offset="2820" shape="1,48,1,1" size="96"/>
			<output>
				<port id="0" precision="FP16">
					<dim>1</dim>
					<dim>48</dim>
					<dim>1</dim>
					<dim>1</dim>
				</port>
			</output>
		</layer>
		<layer id="199" name="8088809230656" type="Const" version="opset1">
			<data element_type="f16" offset="2916" shape="1,48,1,1" size="96"/>
			<output>
				<port id="0" precision="FP16">
					<dim>1</dim>
					<dim>48</dim>
					<dim>1</dim>
					<dim>1</dim>
				</port>
			</output>
		</layer>
		<layer id="200" name="8089809331511" type="Const" version="opset1">
			<data element_type="f16" offset="2820" shape="1,48,1,1" size="96"/>
			<output>
				<port id="0" precision="FP16">
					<dim>1</dim>
					<dim>48</dim>
					<dim>1</dim>
					<dim>1</dim>
				</port>
			</output>
		</layer>
		<layer id="201" name="8090809432726" type="Const" version="opset1">
			<data element_type="f16" offset="2916" shape="1,48,1,1" size="96"/>
			<output>
				<port id="0" precision="FP16">
					<dim>1</dim>
					<dim>48</dim>
					<dim>1</dim>
					<dim>1</dim>
				</port>
			</output>
		</layer>
		<layer id="202" name="2952295428619" type="Const" version="opset1">
			<data element_type="f16" offset="2704" shape="1,48,1,1" size="96"/>
			<output>
				<port id="0" precision="FP16">
					<dim>1</dim>
					<dim>48</dim>
					<dim>1</dim>
					<dim>1</dim>
				</port>
			</output>
		</layer>
		<layer id="203" name="5297530129432" type="Const" version="opset1">
			<data element_type="f16" offset="1544" shape="" size="2"/>
			<output>
				<port id="0" precision="FP16"/>
			</output>
		</layer>
		<layer id="204" name="5298530233095" type="Const" version="opset1">
			<data element_type="f16" offset="3012" shape="" size="2"/>
			<output>
				<port id="0" precision="FP16"/>
			</output>
		</layer>
		<layer id="205" name="5299530328859" type="Const" version="opset1">
			<data element_type="f16" offset="1544" shape="" size="2"/>
			<output>
				<port id="0" precision="FP16"/>
			</output>
		</layer>
		<layer id="206" name="5300530430836" type="Const" version="opset1">
			<data element_type="f16" offset="3012" shape="" size="2"/>
			<output>
				<port id="0" precision="FP16"/>
			</output>
		</layer>
		<layer id="207" name="8157816128685" type="Const" version="opset1">
			<data element_type="f16" offset="1544" shape="" size="2"/>
			<output>
				<port id="0" precision="FP16"/>
			</output>
		</layer>
		<layer id="208" name="8158816231502" type="Const" version="opset1">
			<data element_type="f16" offset="3014" shape="" size="2"/>
			<output>
				<port id="0" precision="FP16"/>
			</output>
		</layer>
		<layer id="209" name="8159816332792" type="Const" version="opset1">
			<data element_type="f16" offset="1544" shape="" size="2"/>
			<output>
				<port id="0" precision="FP16"/>
			</output>
		</layer>
		<layer id="210" name="8160816430092" type="Const" version="opset1">
			<data element_type="f16" offset="3014" shape="" size="2"/>
			<output>
				<port id="0" precision="FP16"/>
			</output>
		</layer>
		<layer id="211" name="7167717128700" type="Const" version="opset1">
			<data element_type="f16" offset="1544" shape="" size="2"/>
			<output>
				<port id="0" precision="FP16"/>
			</output>
		</layer>
		<layer id="212" name="7168717233242" type="Const" version="opset1">
			<data element_type="f16" offset="3016" shape="" size="2"/>
			<output>
				<port id="0" precision="FP16"/>
			</output>
		</layer>
		<layer id="213" name="7169717329582" type="Const" version="opset1">
			<data element_type="f16" offset="1544" shape="" size="2"/>
			<output>
				<port id="0" precision="FP16"/>
			</output>
		</layer>
		<layer id="214" name="7170717431034" type="Const" version="opset1">
			<data element_type="f16" offset="3016" shape="" size="2"/>
			<output>
				<port id="0" precision="FP16"/>
			</output>
		</layer>
		<layer id="215" name="4177418132279" type="Const" version="opset1">
			<data element_type="f16" offset="1544" shape="" size="2"/>
			<output>
				<port id="0" precision="FP16"/>
			</output>
		</layer>
		<layer id="216" name="4178418230626" type="Const" version="opset1">
			<data element_type="f16" offset="3018" shape="" size="2"/>
			<output>
				<port id="0" precision="FP16"/>
			</output>
		</layer>
		<layer id="217" name="4179418331334" type="Const" version="opset1">
			<data element_type="f16" offset="1544" shape="" size="2"/>
			<output>
				<port id="0" precision="FP16"/>
			</output>
		</layer>
		<layer id="218" name="4180418430356" type="Const" version="opset1">
			<data element_type="f16" offset="3018" shape="" size="2"/>
			<output>
				<port id="0" precision="FP16"/>
			</output>
		</layer>
		<layer id="219" name="6547655132900" type="Const" version="opset1">
			<data element_type="f16" offset="3020" shape="" size="2"/>
			<output>
				<port id="0" precision="FP16"/>
			</output>
		</layer>
		<layer id="220" name="6548655229525" type="Const" version="opset1">
			<data element_type="f16" offset="3022" shape="" size="2"/>
			<output>
				<port id="0" precision="FP16"/>
			</output>
		</layer>
		<layer id="221" name="6549655332732" type="Const" version="opset1">
			<data element_type="f16" offset="3020" shape="" size="2"/>
			<output>
				<port id="0" precision="FP16"/>
			</output>
		</layer>
		<layer id="222" name="6550655432516" type="Const" version="opset1">
			<data element_type="f16" offset="3022" shape="" size="2"/>
			<output>
				<port id="0" precision="FP16"/>
			</output>
		</layer>
		<layer id="223" name="6487649132570" type="Const" version="opset1">
			<data element_type="f16" offset="1544" shape="" size="2"/>
			<output>
				<port id="0" precision="FP16"/>
			</output>
		</layer>
		<layer id="224" name="6488649232552" type="Const" version="opset1">
			<data element_type="f16" offset="3024" shape="" size="2"/>
			<output>
				<port id="0" precision="FP16"/>
			</output>
		</layer>
		<layer id="225" name="6489649331130" type="Const" version="opset1">
			<data element_type="f16" offset="1544" shape="" size="2"/>
			<output>
				<port id="0" precision="FP16"/>
			</output>
		</layer>
		<layer id="226" name="6490649429969" type="Const" version="opset1">
			<data element_type="f16" offset="3024" shape="" size="2"/>
			<output>
				<port id="0" precision="FP16"/>
			</output>
		</layer>
		<layer id="227" name="6807681132429" type="Const" version="opset1">
			<data element_type="f16" offset="1544" shape="" size="2"/>
			<output>
				<port id="0" precision="FP16"/>
			</output>
		</layer>
		<layer id="228" name="6808681228538" type="Const" version="opset1">
			<data element_type="f16" offset="3026" shape="" size="2"/>
			<output>
				<port id="0" precision="FP16"/>
			</output>
		</layer>
		<layer id="229" name="6809681332705" type="Const" version="opset1">
			<data element_type="f16" offset="1544" shape="" size="2"/>
			<output>
				<port id="0" precision="FP16"/>
			</output>
		</layer>
		<layer id="230" name="6810681430641" type="Const" version="opset1">
			<data element_type="f16" offset="3026" shape="" size="2"/>
			<output>
				<port id="0" precision="FP16"/>
			</output>
		</layer>
		<layer id="231" name="7357736129030" type="Const" version="opset1">
			<data element_type="f16" offset="1544" shape="" size="2"/>
			<output>
				<port id="0" precision="FP16"/>
			</output>
		</layer>
		<layer id="232" name="7358736230812" type="Const" version="opset1">
			<data element_type="f16" offset="3028" shape="" size="2"/>
			<output>
				<port id="0" precision="FP16"/>
			</output>
		</layer>
		<layer id="233" name="7359736329318" type="Const" version="opset1">
			<data element_type="f16" offset="1544" shape="" size="2"/>
			<output>
				<port id="0" precision="FP16"/>
			</output>
		</layer>
		<layer id="234" name="7360736433575" type="Const" version="opset1">
			<data element_type="f16" offset="3028" shape="" size="2"/>
			<output>
				<port id="0" precision="FP16"/>
			</output>
		</layer>
		<layer id="235" name="5807581132564" type="Const" version="opset1">
			<data element_type="f16" offset="1544" shape="" size="2"/>
			<output>
				<port id="0" precision="FP16"/>
			</output>
		</layer>
		<layer id="236" name="5808581231148" type="Const" version="opset1">
			<data element_type="f16" offset="3030" shape="" size="2"/>
			<output>
				<port id="0" precision="FP16"/>
			</output>
		</layer>
		<layer id="237" name="5809581333740" type="Const" version="opset1">
			<data element_type="f16" offset="1544" shape="" size="2"/>
			<output>
				<port id="0" precision="FP16"/>
			</output>
		</layer>
		<layer id="238" name="5810581430521" type="Const" version="opset1">
			<data element_type="f16" offset="3030" shape="" size="2"/>
			<output>
				<port id="0" precision="FP16"/>
			</output>
		</layer>
		<layer id="239" name="7547755133101" type="Const" version="opset1">
			<data element_type="f16" offset="1544" shape="" size="2"/>
			<output>
				<port id="0" precision="FP16"/>
			</output>
		</layer>
		<layer id="240" name="7548755233383" type="Const" version="opset1">
			<data element_type="f16" offset="3032" shape="" size="2"/>
			<output>
				<port id="0" precision="FP16"/>
			</output>
		</layer>
		<layer id="241" name="7549755333356" type="Const" version="opset1">
			<data element_type="f16" offset="1544" shape="" size="2"/>
			<output>
				<port id="0" precision="FP16"/>
			</output>
		</layer>
		<layer id="242" name="7550755431580" type="Const" version="opset1">
			<data element_type="f16" offset="3032" shape="" size="2"/>
			<output>
				<port id="0" precision="FP16"/>
			</output>
		</layer>
		<layer id="243" name="695/Unsqueeze143932702" type="Const" version="opset1">
			<data element_type="f16" offset="3034" shape="1,32,1,1" size="64"/>
			<output>
				<port id="0" names="695" precision="FP16">
					<dim>1</dim>
					<dim>32</dim>
					<dim>1</dim>
					<dim>1</dim>
				</port>
			</output>
		</layer>
		<layer id="244" name="108581086231685" type="Const" version="opset1">
			<data element_type="f16" offset="3098" shape="" size="2"/>
			<output>
				<port id="0" precision="FP16"/>
			</output>
		</layer>
		<layer id="245" name="108591086329321" type="Const" version="opset1">
			<data element_type="f16" offset="3100" shape="" size="2"/>
			<output>
				<port id="0" precision="FP16"/>
			</output>
		</layer>
		<layer id="246" name="108601086432915" type="Const" version="opset1">
			<data element_type="f16" offset="3098" shape="" size="2"/>
			<output>
				<port id="0" precision="FP16"/>
			</output>
		</layer>
		<layer id="247" name="108611086531385" type="Const" version="opset1">
			<data element_type="f16" offset="3100" shape="" size="2"/>
			<output>
				<port id="0" precision="FP16"/>
			</output>
		</layer>
		<layer id="248" name="692/Range_input_port_0/value142532750" type="Const" version="opset1">
			<data element_type="i64" offset="1692" shape="" size="8"/>
			<output>
				<port id="0" precision="I64"/>
			</output>
		</layer>
		<layer id="249" name="688142329291" type="Const" version="opset1">
			<data element_type="i64" offset="1700" shape="3" size="24"/>
			<output>
				<port id="0" names="688" precision="I64">
					<dim>3</dim>
				</port>
			</output>
		</layer>
		<layer id="250" name="108481085230668" type="Const" version="opset1">
			<data element_type="f16" offset="1544" shape="" size="2"/>
			<output>
				<port id="0" precision="FP16"/>
			</output>
		</layer>
		<layer id="251" name="108491085330611" type="Const" version="opset1">
			<data element_type="f16" offset="3102" shape="" size="2"/>
			<output>
				<port id="0" precision="FP16"/>
			</output>
		</layer>
		<layer id="252" name="108501085431448" type="Const" version="opset1">
			<data element_type="f16" offset="1544" shape="" size="2"/>
			<output>
				<port id="0" precision="FP16"/>
			</output>
		</layer>
		<layer id="253" name="108511085529387" type="Const" version="opset1">
			<data element_type="f16" offset="3102" shape="" size="2"/>
			<output>
				<port id="0" precision="FP16"/>
			</output>
		</layer>
		<layer id="254" name="5857586131805" type="Const" version="opset1">
			<data element_type="f16" offset="1544" shape="" size="2"/>
			<output>
				<port id="0" precision="FP16"/>
			</output>
		</layer>
		<layer id="255" name="5858586230404" type="Const" version="opset1">
			<data element_type="f16" offset="3104" shape="" size="2"/>
			<output>
				<port id="0" precision="FP16"/>
			</output>
		</layer>
		<layer id="256" name="5859586331076" type="Const" version="opset1">
			<data element_type="f16" offset="1544" shape="" size="2"/>
			<output>
				<port id="0" precision="FP16"/>
			</output>
		</layer>
		<layer id="257" name="5860586430785" type="Const" version="opset1">
			<data element_type="f16" offset="3104" shape="" size="2"/>
			<output>
				<port id="0" precision="FP16"/>
			</output>
		</layer>
		<layer id="258" name="4847485129657" type="Const" version="opset1">
			<data element_type="f16" offset="3106" shape="1,32,1,1" size="64"/>
			<output>
				<port id="0" precision="FP16">
					<dim>1</dim>
					<dim>32</dim>
					<dim>1</dim>
					<dim>1</dim>
				</port>
			</output>
		</layer>
		<layer id="259" name="4848485229366" type="Const" version="opset1">
			<data element_type="f16" offset="3170" shape="1,32,1,1" size="64"/>
			<output>
				<port id="0" precision="FP16">
					<dim>1</dim>
					<dim>32</dim>
					<dim>1</dim>
					<dim>1</dim>
				</port>
			</output>
		</layer>
		<layer id="260" name="4849485328730" type="Const" version="opset1">
			<data element_type="f16" offset="3106" shape="1,32,1,1" size="64"/>
			<output>
				<port id="0" precision="FP16">
					<dim>1</dim>
					<dim>32</dim>
					<dim>1</dim>
					<dim>1</dim>
				</port>
			</output>
		</layer>
		<layer id="261" name="4850485433722" type="Const" version="opset1">
			<data element_type="f16" offset="3170" shape="1,32,1,1" size="64"/>
			<output>
				<port id="0" precision="FP16">
					<dim>1</dim>
					<dim>32</dim>
					<dim>1</dim>
					<dim>1</dim>
				</port>
			</output>
		</layer>
		<layer id="262" name="2912291432969" type="Const" version="opset1">
			<data element_type="f16" offset="3234" shape="1,32,1,1" size="64"/>
			<output>
				<port id="0" precision="FP16">
					<dim>1</dim>
					<dim>32</dim>
					<dim>1</dim>
					<dim>1</dim>
				</port>
			</output>
		</layer>
		<layer id="263" name="5077508128985" type="Const" version="opset1">
			<data element_type="f16" offset="1544" shape="" size="2"/>
			<output>
				<port id="0" precision="FP16"/>
			</output>
		</layer>
		<layer id="264" name="5078508233059" type="Const" version="opset1">
			<data element_type="f16" offset="3298" shape="" size="2"/>
			<output>
				<port id="0" precision="FP16"/>
			</output>
		</layer>
		<layer id="265" name="5079508331793" type="Const" version="opset1">
			<data element_type="f16" offset="1544" shape="" size="2"/>
			<output>
				<port id="0" precision="FP16"/>
			</output>
		</layer>
		<layer id="266" name="5080508431619" type="Const" version="opset1">
			<data element_type="f16" offset="3298" shape="" size="2"/>
			<output>
				<port id="0" precision="FP16"/>
			</output>
		</layer>
		<layer id="267" name="8207821132618" type="Const" version="opset1">
			<data element_type="f16" offset="1544" shape="" size="2"/>
			<output>
				<port id="0" precision="FP16"/>
			</output>
		</layer>
		<layer id="268" name="8208821230953" type="Const" version="opset1">
			<data element_type="f16" offset="3300" shape="" size="2"/>
			<output>
				<port id="0" precision="FP16"/>
			</output>
		</layer>
		<layer id="269" name="8209821332111" type="Const" version="opset1">
			<data element_type="f16" offset="1544" shape="" size="2"/>
			<output>
				<port id="0" precision="FP16"/>
			</output>
		</layer>
		<layer id="270" name="8210821430671" type="Const" version="opset1">
			<data element_type="f16" offset="3300" shape="" size="2"/>
			<output>
				<port id="0" precision="FP16"/>
			</output>
		</layer>
		<layer id="271" name="7037704132801" type="Const" version="opset1">
			<data element_type="f16" offset="3302" shape="" size="2"/>
			<output>
				<port id="0" precision="FP16"/>
			</output>
		</layer>
		<layer id="272" name="7038704233602" type="Const" version="opset1">
			<data element_type="f16" offset="3304" shape="" size="2"/>
			<output>
				<port id="0" precision="FP16"/>
			</output>
		</layer>
		<layer id="273" name="7039704328937" type="Const" version="opset1">
			<data element_type="f16" offset="3302" shape="" size="2"/>
			<output>
				<port id="0" precision="FP16"/>
			</output>
		</layer>
		<layer id="274" name="7040704432393" type="Const" version="opset1">
			<data element_type="f16" offset="3304" shape="" size="2"/>
			<output>
				<port id="0" precision="FP16"/>
			</output>
		</layer>
		<layer id="275" name="4597460133647" type="Const" version="opset1">
			<data element_type="f16" offset="1544" shape="" size="2"/>
			<output>
				<port id="0" precision="FP16"/>
			</output>
		</layer>
		<layer id="276" name="4598460229588" type="Const" version="opset1">
			<data element_type="f16" offset="3306" shape="" size="2"/>
			<output>
				<port id="0" precision="FP16"/>
			</output>
		</layer>
		<layer id="277" name="4599460333218" type="Const" version="opset1">
			<data element_type="f16" offset="1544" shape="" size="2"/>
			<output>
				<port id="0" precision="FP16"/>
			</output>
		</layer>
		<layer id="278" name="4600460430689" type="Const" version="opset1">
			<data element_type="f16" offset="3306" shape="" size="2"/>
			<output>
				<port id="0" precision="FP16"/>
			</output>
		</layer>
		<layer id="279" name="5627563132276" type="Const" version="opset1">
			<data element_type="f16" offset="1544" shape="" size="2"/>
			<output>
				<port id="0" precision="FP16"/>
			</output>
		</layer>
		<layer id="280" name="5628563230767" type="Const" version="opset1">
			<data element_type="f16" offset="3306" shape="" size="2"/>
			<output>
				<port id="0" precision="FP16"/>
			</output>
		</layer>
		<layer id="281" name="5629563331442" type="Const" version="opset1">
			<data element_type="f16" offset="1544" shape="" size="2"/>
			<output>
				<port id="0" precision="FP16"/>
			</output>
		</layer>
		<layer id="282" name="5630563430164" type="Const" version="opset1">
			<data element_type="f16" offset="3306" shape="" size="2"/>
			<output>
				<port id="0" precision="FP16"/>
			</output>
		</layer>
		<layer id="283" name="7317732133281" type="Const" version="opset1">
			<data element_type="f16" offset="1544" shape="" size="2"/>
			<output>
				<port id="0" precision="FP16"/>
			</output>
		</layer>
		<layer id="284" name="7318732229087" type="Const" version="opset1">
			<data element_type="f16" offset="3308" shape="" size="2"/>
			<output>
				<port id="0" precision="FP16"/>
			</output>
		</layer>
		<layer id="285" name="7319732332594" type="Const" version="opset1">
			<data element_type="f16" offset="1544" shape="" size="2"/>
			<output>
				<port id="0" precision="FP16"/>
			</output>
		</layer>
		<layer id="286" name="7320732430584" type="Const" version="opset1">
			<data element_type="f16" offset="3308" shape="" size="2"/>
			<output>
				<port id="0" precision="FP16"/>
			</output>
		</layer>
		<layer id="287" name="7997800129144" type="Const" version="opset1">
			<data element_type="f16" offset="1544" shape="" size="2"/>
			<output>
				<port id="0" precision="FP16"/>
			</output>
		</layer>
		<layer id="288" name="7998800230563" type="Const" version="opset1">
			<data element_type="f16" offset="3308" shape="" size="2"/>
			<output>
				<port id="0" precision="FP16"/>
			</output>
		</layer>
		<layer id="289" name="7999800330224" type="Const" version="opset1">
			<data element_type="f16" offset="1544" shape="" size="2"/>
			<output>
				<port id="0" precision="FP16"/>
			</output>
		</layer>
		<layer id="290" name="8000800428367" type="Const" version="opset1">
			<data element_type="f16" offset="3308" shape="" size="2"/>
			<output>
				<port id="0" precision="FP16"/>
			</output>
		</layer>
		<layer id="291" name="5067507133689" type="Const" version="opset1">
			<data element_type="f16" offset="1544" shape="" size="2"/>
			<output>
				<port id="0" precision="FP16"/>
			</output>
		</layer>
		<layer id="292" name="5068507232909" type="Const" version="opset1">
			<data element_type="f16" offset="3310" shape="" size="2"/>
			<output>
				<port id="0" precision="FP16"/>
			</output>
		</layer>
		<layer id="293" name="5069507331937" type="Const" version="opset1">
			<data element_type="f16" offset="1544" shape="" size="2"/>
			<output>
				<port id="0" precision="FP16"/>
			</output>
		</layer>
		<layer id="294" name="5070507428688" type="Const" version="opset1">
			<data element_type="f16" offset="3310" shape="" size="2"/>
			<output>
				<port id="0" precision="FP16"/>
			</output>
		</layer>
		<layer id="295" name="4277428131862" type="Const" version="opset1">
			<data element_type="f16" offset="1544" shape="" size="2"/>
			<output>
				<port id="0" precision="FP16"/>
			</output>
		</layer>
		<layer id="296" name="4278428230458" type="Const" version="opset1">
			<data element_type="f16" offset="3312" shape="" size="2"/>
			<output>
				<port id="0" precision="FP16"/>
			</output>
		</layer>
		<layer id="297" name="4279428329834" type="Const" version="opset1">
			<data element_type="f16" offset="1544" shape="" size="2"/>
			<output>
				<port id="0" precision="FP16"/>
			</output>
		</layer>
		<layer id="298" name="4280428428709" type="Const" version="opset1">
			<data element_type="f16" offset="3312" shape="" size="2"/>
			<output>
				<port id="0" precision="FP16"/>
			</output>
		</layer>
		<layer id="299" name="8397840133515" type="Const" version="opset1">
			<data element_type="f16" offset="3314" shape="1,32,1,1" size="64"/>
			<output>
				<port id="0" precision="FP16">
					<dim>1</dim>
					<dim>32</dim>
					<dim>1</dim>
					<dim>1</dim>
				</port>
			</output>
		</layer>
		<layer id="300" name="8398840232000" type="Const" version="opset1">
			<data element_type="f16" offset="3378" shape="1,32,1,1" size="64"/>
			<output>
				<port id="0" precision="FP16">
					<dim>1</dim>
					<dim>32</dim>
					<dim>1</dim>
					<dim>1</dim>
				</port>
			</output>
		</layer>
		<layer id="301" name="8399840330845" type="Const" version="opset1">
			<data element_type="f16" offset="3314" shape="1,32,1,1" size="64"/>
			<output>
				<port id="0" precision="FP16">
					<dim>1</dim>
					<dim>32</dim>
					<dim>1</dim>
					<dim>1</dim>
				</port>
			</output>
		</layer>
		<layer id="302" name="8400840431865" type="Const" version="opset1">
			<data element_type="f16" offset="3378" shape="1,32,1,1" size="64"/>
			<output>
				<port id="0" precision="FP16">
					<dim>1</dim>
					<dim>32</dim>
					<dim>1</dim>
					<dim>1</dim>
				</port>
			</output>
		</layer>
		<layer id="303" name="2872287431640" type="Const" version="opset1">
			<data element_type="f16" offset="3234" shape="1,32,1,1" size="64"/>
			<output>
				<port id="0" precision="FP16">
					<dim>1</dim>
					<dim>32</dim>
					<dim>1</dim>
					<dim>1</dim>
				</port>
			</output>
		</layer>
		<layer id="304" name="5997600132696" type="Const" version="opset1">
			<data element_type="f16" offset="1544" shape="" size="2"/>
			<output>
				<port id="0" precision="FP16"/>
			</output>
		</layer>
		<layer id="305" name="5998600231319" type="Const" version="opset1">
			<data element_type="f16" offset="3442" shape="" size="2"/>
			<output>
				<port id="0" precision="FP16"/>
			</output>
		</layer>
		<layer id="306" name="5999600331190" type="Const" version="opset1">
			<data element_type="f16" offset="1544" shape="" size="2"/>
			<output>
				<port id="0" precision="FP16"/>
			</output>
		</layer>
		<layer id="307" name="6000600429723" type="Const" version="opset1">
			<data element_type="f16" offset="3442" shape="" size="2"/>
			<output>
				<port id="0" precision="FP16"/>
			</output>
		</layer>
		<layer id="308" name="108281083233470" type="Const" version="opset1">
			<data element_type="f16" offset="1544" shape="" size="2"/>
			<output>
				<port id="0" precision="FP16"/>
			</output>
		</layer>
		<layer id="309" name="108291083331982" type="Const" version="opset1">
			<data element_type="f16" offset="3444" shape="" size="2"/>
			<output>
				<port id="0" precision="FP16"/>
			</output>
		</layer>
		<layer id="310" name="108301083432585" type="Const" version="opset1">
			<data element_type="f16" offset="1544" shape="" size="2"/>
			<output>
				<port id="0" precision="FP16"/>
			</output>
		</layer>
		<layer id="311" name="108311083528580" type="Const" version="opset1">
			<data element_type="f16" offset="3444" shape="" size="2"/>
			<output>
				<port id="0" precision="FP16"/>
			</output>
		</layer>
		<layer id="312" name="565/Range_input_port_0/value122529516" type="Const" version="opset1">
			<data element_type="i64" offset="1692" shape="" size="8"/>
			<output>
				<port id="0" precision="I64"/>
			</output>
		</layer>
		<layer id="313" name="2868287032381" type="Const" version="opset1">
			<data element_type="f16" offset="3234" shape="1,32,1,1" size="64"/>
			<output>
				<port id="0" precision="FP16">
					<dim>1</dim>
					<dim>32</dim>
					<dim>1</dim>
					<dim>1</dim>
				</port>
			</output>
		</layer>
		<layer id="314" name="5867587128787" type="Const" version="opset1">
			<data element_type="f16" offset="3446" shape="" size="2"/>
			<output>
				<port id="0" precision="FP16"/>
			</output>
		</layer>
		<layer id="315" name="5868587230368" type="Const" version="opset1">
			<data element_type="f16" offset="3448" shape="" size="2"/>
			<output>
				<port id="0" precision="FP16"/>
			</output>
		</layer>
		<layer id="316" name="5869587328502" type="Const" version="opset1">
			<data element_type="f16" offset="3446" shape="" size="2"/>
			<output>
				<port id="0" precision="FP16"/>
			</output>
		</layer>
		<layer id="317" name="5870587433461" type="Const" version="opset1">
			<data element_type="f16" offset="3448" shape="" size="2"/>
			<output>
				<port id="0" precision="FP16"/>
			</output>
		</layer>
		<layer id="318" name="563/Range_input_port_0/value121131109" type="Const" version="opset1">
			<data element_type="i64" offset="1692" shape="" size="8"/>
			<output>
				<port id="0" precision="I64"/>
			</output>
		</layer>
		<layer id="319" name="data" type="Parameter" version="opset1">
			<data element_type="f16" shape="1,3,256,128"/>
			<output>
				<port id="0" names="data" precision="FP16">
					<dim>1</dim>
					<dim>3</dim>
					<dim>256</dim>
					<dim>128</dim>
				</port>
			</output>
		</layer>
		<layer id="320" name="563/Rank/shape_of" type="ShapeOf" version="opset3">
			<data output_type="i64"/>
			<input>
				<port id="0">
					<dim>1</dim>
					<dim>3</dim>
					<dim>256</dim>
					<dim>128</dim>
				</port>
			</input>
			<output>
				<port id="1" precision="I64">
					<dim>4</dim>
				</port>
			</output>
		</layer>
		<layer id="321" name="563/Rank/rank_of" type="ShapeOf" version="opset3">
			<data output_type="i64"/>
			<input>
				<port id="0">
					<dim>4</dim>
				</port>
			</input>
			<output>
				<port id="1" precision="I64">
					<dim>1</dim>
				</port>
			</output>
		</layer>
		<layer id="322" name="563/Rank/0d_rank_of/value121433755" type="Const" version="opset1">
			<data element_type="i64" offset="3450" shape="1" size="8"/>
			<output>
				<port id="0" precision="I64">
					<dim>1</dim>
				</port>
			</output>
		</layer>
		<layer id="323" name="563/Rank" type="Squeeze" version="opset1">
			<input>
				<port id="0">
					<dim>1</dim>
				</port>
				<port id="1">
					<dim>1</dim>
				</port>
			</input>
			<output>
				<port id="2" precision="I64"/>
			</output>
		</layer>
		<layer id="324" name="563/Range_input_port_2/value121632717" type="Const" version="opset1">
			<data element_type="i64" offset="3458" shape="" size="8"/>
			<output>
				<port id="0" precision="I64"/>
			</output>
		</layer>
		<layer id="325" name="563/Range" type="Range" version="opset4">
			<data output_type="i64"/>
			<input>
				<port id="0"/>
				<port id="1"/>
				<port id="2"/>
			</input>
			<output>
				<port id="3" precision="I64">
					<dim>2</dim>
				</port>
			</output>
		</layer>
		<layer id="326" name="8177818132486" type="Const" version="opset1">
			<data element_type="f16" offset="3466" shape="" size="2"/>
			<output>
				<port id="0" precision="FP16"/>
			</output>
		</layer>
		<layer id="327" name="8178818229336" type="Const" version="opset1">
			<data element_type="f16" offset="3468" shape="" size="2"/>
			<output>
				<port id="0" precision="FP16"/>
			</output>
		</layer>
		<layer id="328" name="8179818332840" type="Const" version="opset1">
			<data element_type="f16" offset="3466" shape="" size="2"/>
			<output>
				<port id="0" precision="FP16"/>
			</output>
		</layer>
		<layer id="329" name="8180818429933" type="Const" version="opset1">
			<data element_type="f16" offset="3468" shape="" size="2"/>
			<output>
				<port id="0" precision="FP16"/>
			</output>
		</layer>
		<layer id="330" name="data/reverse_input_channels3963439638/Split_input_port_1/value3966844161120229219" type="Const" version="opset1">
			<data element_type="i64" offset="3458" shape="" size="8"/>
			<output>
				<port id="0" precision="I64"/>
			</output>
		</layer>
		<layer id="331" name="data/reverse_input_channels3963439638/Split" type="Split" version="opset1">
			<data num_splits="3"/>
			<input>
				<port id="0">
					<dim>1</dim>
					<dim>3</dim>
					<dim>256</dim>
					<dim>128</dim>
				</port>
				<port id="1"/>
			</input>
			<output>
				<port id="2" precision="FP16">
					<dim>1</dim>
					<dim>1</dim>
					<dim>256</dim>
					<dim>128</dim>
				</port>
				<port id="3" precision="FP16">
					<dim>1</dim>
					<dim>1</dim>
					<dim>256</dim>
					<dim>128</dim>
				</port>
				<port id="4" precision="FP16">
					<dim>1</dim>
					<dim>1</dim>
					<dim>256</dim>
					<dim>128</dim>
				</port>
			</output>
		</layer>
		<layer id="332" name="data/reverse_input_channels3963439638/Concat" type="Concat" version="opset1">
			<data axis="1"/>
			<input>
				<port id="0">
					<dim>1</dim>
					<dim>1</dim>
					<dim>256</dim>
					<dim>128</dim>
				</port>
				<port id="1">
					<dim>1</dim>
					<dim>1</dim>
					<dim>256</dim>
					<dim>128</dim>
				</port>
				<port id="2">
					<dim>1</dim>
					<dim>1</dim>
					<dim>256</dim>
					<dim>128</dim>
				</port>
			</input>
			<output>
				<port id="3" precision="FP16">
					<dim>1</dim>
					<dim>3</dim>
					<dim>256</dim>
					<dim>128</dim>
				</port>
			</output>
		</layer>
		<layer id="333" name="data_mul_21692120732963" type="Const" version="opset1">
			<data element_type="f16" offset="3470" shape="1,3,1,1" size="6"/>
			<output>
				<port id="0" precision="FP16">
					<dim>1</dim>
					<dim>3</dim>
					<dim>1</dim>
					<dim>1</dim>
				</port>
			</output>
		</layer>
		<layer id="334" name="data/scale/Fused_Mul_" type="Multiply" version="opset1">
			<data auto_broadcast="numpy"/>
			<input>
				<port id="0">
					<dim>1</dim>
					<dim>3</dim>
					<dim>256</dim>
					<dim>128</dim>
				</port>
				<port id="1">
					<dim>1</dim>
					<dim>3</dim>
					<dim>1</dim>
					<dim>1</dim>
				</port>
			</input>
			<output>
				<port id="2" precision="FP16">
					<dim>1</dim>
					<dim>3</dim>
					<dim>256</dim>
					<dim>128</dim>
				</port>
			</output>
		</layer>
		<layer id="335" name="data_add_21694120928349" type="Const" version="opset1">
			<data element_type="f16" offset="3476" shape="1,3,1,1" size="6"/>
			<output>
				<port id="0" precision="FP16">
					<dim>1</dim>
					<dim>3</dim>
					<dim>1</dim>
					<dim>1</dim>
				</port>
			</output>
		</layer>
		<layer id="336" name="data/mean/Fused_Add_" type="Add" version="opset1">
			<data auto_broadcast="numpy"/>
			<input>
				<port id="0">
					<dim>1</dim>
					<dim>3</dim>
					<dim>256</dim>
					<dim>128</dim>
				</port>
				<port id="1">
					<dim>1</dim>
					<dim>3</dim>
					<dim>1</dim>
					<dim>1</dim>
				</port>
			</input>
			<output>
				<port id="2" precision="FP16">
					<dim>1</dim>
					<dim>3</dim>
					<dim>256</dim>
					<dim>128</dim>
				</port>
			</output>
		</layer>
		<layer id="337" name="563/Ins_Norm/MVN_/fq_input_0" type="FakeQuantize" version="opset1">
			<data auto_broadcast="numpy" levels="256"/>
			<input>
				<port id="0">
					<dim>1</dim>
					<dim>3</dim>
					<dim>256</dim>
					<dim>128</dim>
				</port>
				<port id="1"/>
				<port id="2"/>
				<port id="3"/>
				<port id="4"/>
			</input>
			<output>
				<port id="5" precision="FP16">
					<dim>1</dim>
					<dim>3</dim>
					<dim>256</dim>
					<dim>128</dim>
				</port>
			</output>
		</layer>
		<layer id="338" name="563/Ins_Norm/MVN_" type="MVN" version="opset6">
			<data eps="9.999999747378752e-06" eps_mode="INSIDE_SQRT" normalize_variance="true"/>
			<input>
				<port id="0">
					<dim>1</dim>
					<dim>3</dim>
					<dim>256</dim>
					<dim>128</dim>
				</port>
				<port id="1">
					<dim>2</dim>
				</port>
			</input>
			<output>
				<port id="2" precision="FP16">
					<dim>1</dim>
					<dim>3</dim>
					<dim>256</dim>
					<dim>128</dim>
				</port>
			</output>
		</layer>
		<layer id="339" name="in_first.weight121928298" type="Const" version="opset1">
			<data element_type="f16" offset="3482" shape="1,3,1,1" size="6"/>
			<output>
				<port id="0" names="in_first.weight" precision="FP16">
					<dim>1</dim>
					<dim>3</dim>
					<dim>1</dim>
					<dim>1</dim>
				</port>
			</output>
		</layer>
		<layer id="340" name="563/Ins_Norm/mul_" type="Multiply" version="opset1">
			<data auto_broadcast="numpy"/>
			<input>
				<port id="0">
					<dim>1</dim>
					<dim>3</dim>
					<dim>256</dim>
					<dim>128</dim>
				</port>
				<port id="1">
					<dim>1</dim>
					<dim>3</dim>
					<dim>1</dim>
					<dim>1</dim>
				</port>
			</input>
			<output>
				<port id="2" precision="FP16">
					<dim>1</dim>
					<dim>3</dim>
					<dim>256</dim>
					<dim>128</dim>
				</port>
			</output>
		</layer>
		<layer id="341" name="in_first.bias122131583" type="Const" version="opset1">
			<data element_type="f16" offset="3488" shape="1,3,1,1" size="6"/>
			<output>
				<port id="0" names="in_first.bias" precision="FP16">
					<dim>1</dim>
					<dim>3</dim>
					<dim>1</dim>
					<dim>1</dim>
				</port>
			</output>
		</layer>
		<layer id="342" name="563" type="Add" version="opset1">
			<data auto_broadcast="numpy"/>
			<input>
				<port id="0">
					<dim>1</dim>
					<dim>3</dim>
					<dim>256</dim>
					<dim>128</dim>
				</port>
				<port id="1">
					<dim>1</dim>
					<dim>3</dim>
					<dim>1</dim>
					<dim>1</dim>
				</port>
			</input>
			<output>
				<port id="2" names="563" precision="FP16">
					<dim>1</dim>
					<dim>3</dim>
					<dim>256</dim>
					<dim>128</dim>
				</port>
			</output>
		</layer>
		<layer id="343" name="564/fq_input_0" type="FakeQuantize" version="opset1">
			<data auto_broadcast="numpy" levels="256"/>
			<input>
				<port id="0">
					<dim>1</dim>
					<dim>3</dim>
					<dim>256</dim>
					<dim>128</dim>
				</port>
				<port id="1"/>
				<port id="2"/>
				<port id="3"/>
				<port id="4"/>
			</input>
			<output>
				<port id="5" precision="FP16">
					<dim>1</dim>
					<dim>3</dim>
					<dim>256</dim>
					<dim>128</dim>
				</port>
			</output>
		</layer>
		<layer id="344" name="conv1.conv.weight122315321/quantized2057129354" type="Const" version="opset1">
			<data element_type="i8" offset="3494" shape="32,3,7,7" size="4704"/>
			<output>
				<port id="0" precision="I8">
					<dim>32</dim>
					<dim>3</dim>
					<dim>7</dim>
					<dim>7</dim>
				</port>
			</output>
		</layer>
		<layer id="345" name="conv1.conv.weight122315321/quantized/to_f16" type="Convert" version="opset1">
			<data destination_type="f16"/>
			<input>
				<port id="0">
					<dim>32</dim>
					<dim>3</dim>
					<dim>7</dim>
					<dim>7</dim>
				</port>
			</input>
			<output>
				<port id="1" precision="FP16">
					<dim>32</dim>
					<dim>3</dim>
					<dim>7</dim>
					<dim>7</dim>
				</port>
			</output>
		</layer>
		<layer id="346" name="564/fq_weights_1/zero_point2058431667" type="Const" version="opset1">
			<data element_type="f16" offset="8198" shape="32,1,1,1" size="64"/>
			<output>
				<port id="0" precision="FP16">
					<dim>32</dim>
					<dim>1</dim>
					<dim>1</dim>
					<dim>1</dim>
				</port>
			</output>
		</layer>
		<layer id="347" name="564/fq_weights_1/minus_zp" type="Subtract" version="opset1">
			<data auto_broadcast="numpy"/>
			<input>
				<port id="0">
					<dim>32</dim>
					<dim>3</dim>
					<dim>7</dim>
					<dim>7</dim>
				</port>
				<port id="1">
					<dim>32</dim>
					<dim>1</dim>
					<dim>1</dim>
					<dim>1</dim>
				</port>
			</input>
			<output>
				<port id="2" precision="FP16">
					<dim>32</dim>
					<dim>3</dim>
					<dim>7</dim>
					<dim>7</dim>
				</port>
			</output>
		</layer>
		<layer id="348" name="564/fq_weights_1/scale2057931553" type="Const" version="opset1">
			<data element_type="f16" offset="8262" shape="32,1,1,1" size="64"/>
			<output>
				<port id="0" precision="FP16">
					<dim>32</dim>
					<dim>1</dim>
					<dim>1</dim>
					<dim>1</dim>
				</port>
			</output>
		</layer>
		<layer id="349" name="564/fq_weights_1/mulpiply_by_scale" type="Multiply" version="opset1">
			<data auto_broadcast="numpy"/>
			<input>
				<port id="0">
					<dim>32</dim>
					<dim>3</dim>
					<dim>7</dim>
					<dim>7</dim>
				</port>
				<port id="1">
					<dim>32</dim>
					<dim>1</dim>
					<dim>1</dim>
					<dim>1</dim>
				</port>
			</input>
			<output>
				<port id="2" precision="FP16">
					<dim>32</dim>
					<dim>3</dim>
					<dim>7</dim>
					<dim>7</dim>
				</port>
			</output>
		</layer>
		<layer id="350" name="564" type="Convolution" version="opset1">
			<data auto_pad="explicit" dilations="1,1" pads_begin="3,3" pads_end="3,3" strides="2,2"/>
			<input>
				<port id="0">
					<dim>1</dim>
					<dim>3</dim>
					<dim>256</dim>
					<dim>128</dim>
				</port>
				<port id="1">
					<dim>32</dim>
					<dim>3</dim>
					<dim>7</dim>
					<dim>7</dim>
				</port>
			</input>
			<output>
				<port id="2" names="564" precision="FP16">
					<dim>1</dim>
					<dim>32</dim>
					<dim>128</dim>
					<dim>64</dim>
				</port>
			</output>
		</layer>
		<layer id="351" name="564/add_" type="Add" version="opset1">
			<data auto_broadcast="numpy"/>
			<input>
				<port id="0">
					<dim>1</dim>
					<dim>32</dim>
					<dim>128</dim>
					<dim>64</dim>
				</port>
				<port id="1">
					<dim>1</dim>
					<dim>32</dim>
					<dim>1</dim>
					<dim>1</dim>
				</port>
			</input>
			<output>
				<port id="2" precision="FP16">
					<dim>1</dim>
					<dim>32</dim>
					<dim>128</dim>
					<dim>64</dim>
				</port>
			</output>
		</layer>
		<layer id="352" name="565/Rank/shape_of" type="ShapeOf" version="opset3">
			<data output_type="i64"/>
			<input>
				<port id="0">
					<dim>1</dim>
					<dim>32</dim>
					<dim>128</dim>
					<dim>64</dim>
				</port>
			</input>
			<output>
				<port id="1" precision="I64">
					<dim>4</dim>
				</port>
			</output>
		</layer>
		<layer id="353" name="565/Rank/rank_of" type="ShapeOf" version="opset3">
			<data output_type="i64"/>
			<input>
				<port id="0">
					<dim>4</dim>
				</port>
			</input>
			<output>
				<port id="1" precision="I64">
					<dim>1</dim>
				</port>
			</output>
		</layer>
		<layer id="354" name="565/Rank/0d_rank_of/value122831112" type="Const" version="opset1">
			<data element_type="i64" offset="3450" shape="1" size="8"/>
			<output>
				<port id="0" precision="I64">
					<dim>1</dim>
				</port>
			</output>
		</layer>
		<layer id="355" name="565/Rank" type="Squeeze" version="opset1">
			<input>
				<port id="0">
					<dim>1</dim>
				</port>
				<port id="1">
					<dim>1</dim>
				</port>
			</input>
			<output>
				<port id="2" precision="I64"/>
			</output>
		</layer>
		<layer id="356" name="565/Range_input_port_2/value123029687" type="Const" version="opset1">
			<data element_type="i64" offset="3458" shape="" size="8"/>
			<output>
				<port id="0" precision="I64"/>
			</output>
		</layer>
		<layer id="357" name="565/Range" type="Range" version="opset4">
			<data output_type="i64"/>
			<input>
				<port id="0"/>
				<port id="1"/>
				<port id="2"/>
			</input>
			<output>
				<port id="3" precision="I64">
					<dim>2</dim>
				</port>
			</output>
		</layer>
		<layer id="358" name="4807481133725" type="Const" version="opset1">
			<data element_type="f16" offset="8326" shape="" size="2"/>
			<output>
				<port id="0" precision="FP16"/>
			</output>
		</layer>
		<layer id="359" name="4808481229618" type="Const" version="opset1">
			<data element_type="f16" offset="8328" shape="" size="2"/>
			<output>
				<port id="0" precision="FP16"/>
			</output>
		</layer>
		<layer id="360" name="4809481331991" type="Const" version="opset1">
			<data element_type="f16" offset="8326" shape="" size="2"/>
			<output>
				<port id="0" precision="FP16"/>
			</output>
		</layer>
		<layer id="361" name="4810481431028" type="Const" version="opset1">
			<data element_type="f16" offset="8328" shape="" size="2"/>
			<output>
				<port id="0" precision="FP16"/>
			</output>
		</layer>
		<layer id="362" name="565/Ins_Norm/MVN_/fq_input_0" type="FakeQuantize" version="opset1">
			<data auto_broadcast="numpy" levels="256"/>
			<input>
				<port id="0">
					<dim>1</dim>
					<dim>32</dim>
					<dim>128</dim>
					<dim>64</dim>
				</port>
				<port id="1"/>
				<port id="2"/>
				<port id="3"/>
				<port id="4"/>
			</input>
			<output>
				<port id="5" precision="FP16">
					<dim>1</dim>
					<dim>32</dim>
					<dim>128</dim>
					<dim>64</dim>
				</port>
			</output>
		</layer>
		<layer id="363" name="565/Ins_Norm/MVN_" type="MVN" version="opset6">
			<data eps="9.999999747378752e-06" eps_mode="INSIDE_SQRT" normalize_variance="true"/>
			<input>
				<port id="0">
					<dim>1</dim>
					<dim>32</dim>
					<dim>128</dim>
					<dim>64</dim>
				</port>
				<port id="1">
					<dim>2</dim>
				</port>
			</input>
			<output>
				<port id="2" precision="FP16">
					<dim>1</dim>
					<dim>32</dim>
					<dim>128</dim>
					<dim>64</dim>
				</port>
			</output>
		</layer>
		<layer id="364" name="conv1.bn.weight123332762" type="Const" version="opset1">
			<data element_type="f16" offset="8330" shape="1,32,1,1" size="64"/>
			<output>
				<port id="0" names="conv1.bn.weight" precision="FP16">
					<dim>1</dim>
					<dim>32</dim>
					<dim>1</dim>
					<dim>1</dim>
				</port>
			</output>
		</layer>
		<layer id="365" name="565/Ins_Norm/mul_" type="Multiply" version="opset1">
			<data auto_broadcast="numpy"/>
			<input>
				<port id="0">
					<dim>1</dim>
					<dim>32</dim>
					<dim>128</dim>
					<dim>64</dim>
				</port>
				<port id="1">
					<dim>1</dim>
					<dim>32</dim>
					<dim>1</dim>
					<dim>1</dim>
				</port>
			</input>
			<output>
				<port id="2" precision="FP16">
					<dim>1</dim>
					<dim>32</dim>
					<dim>128</dim>
					<dim>64</dim>
				</port>
			</output>
		</layer>
		<layer id="366" name="conv1.bn.bias123530782" type="Const" version="opset1">
			<data element_type="f16" offset="8394" shape="1,32,1,1" size="64"/>
			<output>
				<port id="0" names="conv1.bn.bias" precision="FP16">
					<dim>1</dim>
					<dim>32</dim>
					<dim>1</dim>
					<dim>1</dim>
				</port>
			</output>
		</layer>
		<layer id="367" name="565" type="Add" version="opset1">
			<data auto_broadcast="numpy"/>
			<input>
				<port id="0">
					<dim>1</dim>
					<dim>32</dim>
					<dim>128</dim>
					<dim>64</dim>
				</port>
				<port id="1">
					<dim>1</dim>
					<dim>32</dim>
					<dim>1</dim>
					<dim>1</dim>
				</port>
			</input>
			<output>
				<port id="2" names="565" precision="FP16">
					<dim>1</dim>
					<dim>32</dim>
					<dim>128</dim>
					<dim>64</dim>
				</port>
			</output>
		</layer>
		<layer id="368" name="566" type="ReLU" version="opset1">
			<input>
				<port id="0">
					<dim>1</dim>
					<dim>32</dim>
					<dim>128</dim>
					<dim>64</dim>
				</port>
			</input>
			<output>
				<port id="1" names="566" precision="FP16">
					<dim>1</dim>
					<dim>32</dim>
					<dim>128</dim>
					<dim>64</dim>
				</port>
			</output>
		</layer>
		<layer id="369" name="567/fq_input_0" type="FakeQuantize" version="opset1">
			<data auto_broadcast="numpy" levels="256"/>
			<input>
				<port id="0">
					<dim>1</dim>
					<dim>32</dim>
					<dim>128</dim>
					<dim>64</dim>
				</port>
				<port id="1"/>
				<port id="2"/>
				<port id="3"/>
				<port id="4"/>
			</input>
			<output>
				<port id="5" precision="FP16">
					<dim>1</dim>
					<dim>32</dim>
					<dim>128</dim>
					<dim>64</dim>
				</port>
			</output>
		</layer>
		<layer id="370" name="567" type="MaxPool" version="opset1">
			<data auto_pad="explicit" kernel="3,3" pads_begin="1,1" pads_end="1,1" rounding_type="floor" strides="2,2"/>
			<input>
				<port id="0">
					<dim>1</dim>
					<dim>32</dim>
					<dim>128</dim>
					<dim>64</dim>
				</port>
			</input>
			<output>
				<port id="1" names="567" precision="FP16">
					<dim>1</dim>
					<dim>32</dim>
					<dim>64</dim>
					<dim>32</dim>
				</port>
			</output>
		</layer>
		<layer id="371" name="569/mean/Fused_Mul__copy123915327/quantized2069131838" type="Const" version="opset1">
			<data element_type="i8" offset="8458" shape="32,32,1,1" size="1024"/>
			<output>
				<port id="0" precision="I8">
					<dim>32</dim>
					<dim>32</dim>
					<dim>1</dim>
					<dim>1</dim>
				</port>
			</output>
		</layer>
		<layer id="372" name="569/mean/Fused_Mul__copy123915327/quantized/to_f16" type="Convert" version="opset1">
			<data destination_type="f16"/>
			<input>
				<port id="0">
					<dim>32</dim>
					<dim>32</dim>
					<dim>1</dim>
					<dim>1</dim>
				</port>
			</input>
			<output>
				<port id="1" precision="FP16">
					<dim>32</dim>
					<dim>32</dim>
					<dim>1</dim>
					<dim>1</dim>
				</port>
			</output>
		</layer>
		<layer id="373" name="568/fq_weights_1/zero_point2070433734" type="Const" version="opset1">
			<data element_type="f16" offset="9482" shape="32,1,1,1" size="64"/>
			<output>
				<port id="0" precision="FP16">
					<dim>32</dim>
					<dim>1</dim>
					<dim>1</dim>
					<dim>1</dim>
				</port>
			</output>
		</layer>
		<layer id="374" name="568/fq_weights_1/minus_zp" type="Subtract" version="opset1">
			<data auto_broadcast="numpy"/>
			<input>
				<port id="0">
					<dim>32</dim>
					<dim>32</dim>
					<dim>1</dim>
					<dim>1</dim>
				</port>
				<port id="1">
					<dim>32</dim>
					<dim>1</dim>
					<dim>1</dim>
					<dim>1</dim>
				</port>
			</input>
			<output>
				<port id="2" precision="FP16">
					<dim>32</dim>
					<dim>32</dim>
					<dim>1</dim>
					<dim>1</dim>
				</port>
			</output>
		</layer>
		<layer id="375" name="568/fq_weights_1/scale2069931505" type="Const" version="opset1">
			<data element_type="f16" offset="9546" shape="32,1,1,1" size="64"/>
			<output>
				<port id="0" precision="FP16">
					<dim>32</dim>
					<dim>1</dim>
					<dim>1</dim>
					<dim>1</dim>
				</port>
			</output>
		</layer>
		<layer id="376" name="568/fq_weights_1/mulpiply_by_scale" type="Multiply" version="opset1">
			<data auto_broadcast="numpy"/>
			<input>
				<port id="0">
					<dim>32</dim>
					<dim>32</dim>
					<dim>1</dim>
					<dim>1</dim>
				</port>
				<port id="1">
					<dim>32</dim>
					<dim>1</dim>
					<dim>1</dim>
					<dim>1</dim>
				</port>
			</input>
			<output>
				<port id="2" precision="FP16">
					<dim>32</dim>
					<dim>32</dim>
					<dim>1</dim>
					<dim>1</dim>
				</port>
			</output>
		</layer>
		<layer id="377" name="568" type="Convolution" version="opset1">
			<data auto_pad="explicit" dilations="1,1" pads_begin="0,0" pads_end="0,0" strides="1,1"/>
			<input>
				<port id="0">
					<dim>1</dim>
					<dim>32</dim>
					<dim>64</dim>
					<dim>32</dim>
				</port>
				<port id="1">
					<dim>32</dim>
					<dim>32</dim>
					<dim>1</dim>
					<dim>1</dim>
				</port>
			</input>
			<output>
				<port id="2" precision="FP16">
					<dim>1</dim>
					<dim>32</dim>
					<dim>64</dim>
					<dim>32</dim>
				</port>
			</output>
		</layer>
		<layer id="378" name="data_add_2170521710124129339" type="Const" version="opset1">
			<data element_type="f16" offset="9610" shape="1,32,1,1" size="64"/>
			<output>
				<port id="0" precision="FP16">
					<dim>1</dim>
					<dim>32</dim>
					<dim>1</dim>
					<dim>1</dim>
				</port>
			</output>
		</layer>
		<layer id="379" name="569/variance/Fused_Add_" type="Add" version="opset1">
			<data auto_broadcast="numpy"/>
			<input>
				<port id="0">
					<dim>1</dim>
					<dim>32</dim>
					<dim>64</dim>
					<dim>32</dim>
				</port>
				<port id="1">
					<dim>1</dim>
					<dim>32</dim>
					<dim>1</dim>
					<dim>1</dim>
				</port>
			</input>
			<output>
				<port id="2" names="569" precision="FP16">
					<dim>1</dim>
					<dim>32</dim>
					<dim>64</dim>
					<dim>32</dim>
				</port>
			</output>
		</layer>
		<layer id="380" name="570" type="ReLU" version="opset1">
			<input>
				<port id="0">
					<dim>1</dim>
					<dim>32</dim>
					<dim>64</dim>
					<dim>32</dim>
				</port>
			</input>
			<output>
				<port id="1" names="570" precision="FP16">
					<dim>1</dim>
					<dim>32</dim>
					<dim>64</dim>
					<dim>32</dim>
				</port>
			</output>
		</layer>
		<layer id="381" name="571/fq_input_0" type="FakeQuantize" version="opset1">
			<data auto_broadcast="numpy" levels="256"/>
			<input>
				<port id="0">
					<dim>1</dim>
					<dim>32</dim>
					<dim>64</dim>
					<dim>32</dim>
				</port>
				<port id="1"/>
				<port id="2"/>
				<port id="3"/>
				<port id="4"/>
			</input>
			<output>
				<port id="5" precision="FP16">
					<dim>1</dim>
					<dim>32</dim>
					<dim>64</dim>
					<dim>32</dim>
				</port>
			</output>
		</layer>
		<layer id="382" name="conv2.0.conv2a.conv1.weight124415329/quantized1850730020" type="Const" version="opset1">
			<data element_type="i8" offset="9674" shape="32,32,1,1" size="1024"/>
			<output>
				<port id="0" precision="I8">
					<dim>32</dim>
					<dim>32</dim>
					<dim>1</dim>
					<dim>1</dim>
				</port>
			</output>
		</layer>
		<layer id="383" name="conv2.0.conv2a.conv1.weight124415329/quantized/to_f16" type="Convert" version="opset1">
			<data destination_type="f16"/>
			<input>
				<port id="0">
					<dim>32</dim>
					<dim>32</dim>
					<dim>1</dim>
					<dim>1</dim>
				</port>
			</input>
			<output>
				<port id="1" precision="FP16">
					<dim>32</dim>
					<dim>32</dim>
					<dim>1</dim>
					<dim>1</dim>
				</port>
			</output>
		</layer>
		<layer id="384" name="571/fq_weights_1/zero_point1852033782" type="Const" version="opset1">
			<data element_type="f16" offset="10698" shape="32,1,1,1" size="64"/>
			<output>
				<port id="0" precision="FP16">
					<dim>32</dim>
					<dim>1</dim>
					<dim>1</dim>
					<dim>1</dim>
				</port>
			</output>
		</layer>
		<layer id="385" name="571/fq_weights_1/minus_zp" type="Subtract" version="opset1">
			<data auto_broadcast="numpy"/>
			<input>
				<port id="0">
					<dim>32</dim>
					<dim>32</dim>
					<dim>1</dim>
					<dim>1</dim>
				</port>
				<port id="1">
					<dim>32</dim>
					<dim>1</dim>
					<dim>1</dim>
					<dim>1</dim>
				</port>
			</input>
			<output>
				<port id="2" precision="FP16">
					<dim>32</dim>
					<dim>32</dim>
					<dim>1</dim>
					<dim>1</dim>
				</port>
			</output>
		</layer>
		<layer id="386" name="571/fq_weights_1/scale1851529642" type="Const" version="opset1">
			<data element_type="f16" offset="10762" shape="32,1,1,1" size="64"/>
			<output>
				<port id="0" precision="FP16">
					<dim>32</dim>
					<dim>1</dim>
					<dim>1</dim>
					<dim>1</dim>
				</port>
			</output>
		</layer>
		<layer id="387" name="571/fq_weights_1/mulpiply_by_scale" type="Multiply" version="opset1">
			<data auto_broadcast="numpy"/>
			<input>
				<port id="0">
					<dim>32</dim>
					<dim>32</dim>
					<dim>1</dim>
					<dim>1</dim>
				</port>
				<port id="1">
					<dim>32</dim>
					<dim>1</dim>
					<dim>1</dim>
					<dim>1</dim>
				</port>
			</input>
			<output>
				<port id="2" precision="FP16">
					<dim>32</dim>
					<dim>32</dim>
					<dim>1</dim>
					<dim>1</dim>
				</port>
			</output>
		</layer>
		<layer id="388" name="571" type="Convolution" version="opset1">
			<data auto_pad="explicit" dilations="1,1" pads_begin="0,0" pads_end="0,0" strides="1,1"/>
			<input>
				<port id="0">
					<dim>1</dim>
					<dim>32</dim>
					<dim>64</dim>
					<dim>32</dim>
				</port>
				<port id="1">
					<dim>32</dim>
					<dim>32</dim>
					<dim>1</dim>
					<dim>1</dim>
				</port>
			</input>
			<output>
				<port id="2" names="571" precision="FP16">
					<dim>1</dim>
					<dim>32</dim>
					<dim>64</dim>
					<dim>32</dim>
				</port>
			</output>
		</layer>
		<layer id="389" name="571/add_" type="Add" version="opset1">
			<data auto_broadcast="numpy"/>
			<input>
				<port id="0">
					<dim>1</dim>
					<dim>32</dim>
					<dim>64</dim>
					<dim>32</dim>
				</port>
				<port id="1">
					<dim>1</dim>
					<dim>32</dim>
					<dim>1</dim>
					<dim>1</dim>
				</port>
			</input>
			<output>
				<port id="2" precision="FP16">
					<dim>1</dim>
					<dim>32</dim>
					<dim>64</dim>
					<dim>32</dim>
				</port>
			</output>
		</layer>
		<layer id="390" name="572/fq_input_0" type="FakeQuantize" version="opset1">
			<data auto_broadcast="numpy" levels="256"/>
			<input>
				<port id="0">
					<dim>1</dim>
					<dim>32</dim>
					<dim>64</dim>
					<dim>32</dim>
				</port>
				<port id="1">
					<dim>1</dim>
					<dim>32</dim>
					<dim>1</dim>
					<dim>1</dim>
				</port>
				<port id="2">
					<dim>1</dim>
					<dim>32</dim>
					<dim>1</dim>
					<dim>1</dim>
				</port>
				<port id="3">
					<dim>1</dim>
					<dim>32</dim>
					<dim>1</dim>
					<dim>1</dim>
				</port>
				<port id="4">
					<dim>1</dim>
					<dim>32</dim>
					<dim>1</dim>
					<dim>1</dim>
				</port>
			</input>
			<output>
				<port id="5" precision="FP16">
					<dim>1</dim>
					<dim>32</dim>
					<dim>64</dim>
					<dim>32</dim>
				</port>
			</output>
		</layer>
		<layer id="391" name="24408/value2441032249" type="Const" version="opset1">
			<data element_type="i64" offset="10826" shape="5" size="40"/>
			<output>
				<port id="0" precision="I64">
					<dim>5</dim>
				</port>
			</output>
		</layer>
		<layer id="392" name="573/mean/Fused_Mul__copy124615330/quantized2025933407" type="Const" version="opset1">
			<data element_type="i8" offset="10866" shape="32,1,3,3" size="288"/>
			<output>
				<port id="0" precision="I8">
					<dim>32</dim>
					<dim>1</dim>
					<dim>3</dim>
					<dim>3</dim>
				</port>
			</output>
		</layer>
		<layer id="393" name="573/mean/Fused_Mul__copy124615330/quantized/to_f16" type="Convert" version="opset1">
			<data destination_type="f16"/>
			<input>
				<port id="0">
					<dim>32</dim>
					<dim>1</dim>
					<dim>3</dim>
					<dim>3</dim>
				</port>
			</input>
			<output>
				<port id="1" precision="FP16">
					<dim>32</dim>
					<dim>1</dim>
					<dim>3</dim>
					<dim>3</dim>
				</port>
			</output>
		</layer>
		<layer id="394" name="572/fq_weights_1/zero_point2027232450" type="Const" version="opset1">
			<data element_type="f16" offset="11154" shape="32,1,1,1" size="64"/>
			<output>
				<port id="0" precision="FP16">
					<dim>32</dim>
					<dim>1</dim>
					<dim>1</dim>
					<dim>1</dim>
				</port>
			</output>
		</layer>
		<layer id="395" name="572/fq_weights_1/minus_zp" type="Subtract" version="opset1">
			<data auto_broadcast="numpy"/>
			<input>
				<port id="0">
					<dim>32</dim>
					<dim>1</dim>
					<dim>3</dim>
					<dim>3</dim>
				</port>
				<port id="1">
					<dim>32</dim>
					<dim>1</dim>
					<dim>1</dim>
					<dim>1</dim>
				</port>
			</input>
			<output>
				<port id="2" precision="FP16">
					<dim>32</dim>
					<dim>1</dim>
					<dim>3</dim>
					<dim>3</dim>
				</port>
			</output>
		</layer>
		<layer id="396" name="572/fq_weights_1/scale2026731613" type="Const" version="opset1">
			<data element_type="f16" offset="11218" shape="32,1,1,1" size="64"/>
			<output>
				<port id="0" precision="FP16">
					<dim>32</dim>
					<dim>1</dim>
					<dim>1</dim>
					<dim>1</dim>
				</port>
			</output>
		</layer>
		<layer id="397" name="572/fq_weights_1/mulpiply_by_scale" type="Multiply" version="opset1">
			<data auto_broadcast="numpy"/>
			<input>
				<port id="0">
					<dim>32</dim>
					<dim>1</dim>
					<dim>3</dim>
					<dim>3</dim>
				</port>
				<port id="1">
					<dim>32</dim>
					<dim>1</dim>
					<dim>1</dim>
					<dim>1</dim>
				</port>
			</input>
			<output>
				<port id="2" precision="FP16">
					<dim>32</dim>
					<dim>1</dim>
					<dim>3</dim>
					<dim>3</dim>
				</port>
			</output>
		</layer>
		<layer id="398" name="24408" type="Reshape" version="opset1">
			<data special_zero="true"/>
			<input>
				<port id="0">
					<dim>32</dim>
					<dim>1</dim>
					<dim>3</dim>
					<dim>3</dim>
				</port>
				<port id="1">
					<dim>5</dim>
				</port>
			</input>
			<output>
				<port id="2" precision="FP16">
					<dim>32</dim>
					<dim>1</dim>
					<dim>1</dim>
					<dim>3</dim>
					<dim>3</dim>
				</port>
			</output>
		</layer>
		<layer id="399" name="572" type="GroupConvolution" version="opset1">
			<data auto_pad="explicit" dilations="1,1" pads_begin="1,1" pads_end="1,1" strides="1,1"/>
			<input>
				<port id="0">
					<dim>1</dim>
					<dim>32</dim>
					<dim>64</dim>
					<dim>32</dim>
				</port>
				<port id="1">
					<dim>32</dim>
					<dim>1</dim>
					<dim>1</dim>
					<dim>3</dim>
					<dim>3</dim>
				</port>
			</input>
			<output>
				<port id="2" precision="FP16">
					<dim>1</dim>
					<dim>32</dim>
					<dim>64</dim>
					<dim>32</dim>
				</port>
			</output>
		</layer>
		<layer id="400" name="data_add_2178521790124829522" type="Const" version="opset1">
			<data element_type="f16" offset="11282" shape="1,32,1,1" size="64"/>
			<output>
				<port id="0" precision="FP16">
					<dim>1</dim>
					<dim>32</dim>
					<dim>1</dim>
					<dim>1</dim>
				</port>
			</output>
		</layer>
		<layer id="401" name="573/variance/Fused_Add_" type="Add" version="opset1">
			<data auto_broadcast="numpy"/>
			<input>
				<port id="0">
					<dim>1</dim>
					<dim>32</dim>
					<dim>64</dim>
					<dim>32</dim>
				</port>
				<port id="1">
					<dim>1</dim>
					<dim>32</dim>
					<dim>1</dim>
					<dim>1</dim>
				</port>
			</input>
			<output>
				<port id="2" names="573" precision="FP16">
					<dim>1</dim>
					<dim>32</dim>
					<dim>64</dim>
					<dim>32</dim>
				</port>
			</output>
		</layer>
		<layer id="402" name="574" type="ReLU" version="opset1">
			<input>
				<port id="0">
					<dim>1</dim>
					<dim>32</dim>
					<dim>64</dim>
					<dim>32</dim>
				</port>
			</input>
			<output>
				<port id="1" names="574" precision="FP16">
					<dim>1</dim>
					<dim>32</dim>
					<dim>64</dim>
					<dim>32</dim>
				</port>
			</output>
		</layer>
		<layer id="403" name="611/reduce/fq_input_0" type="FakeQuantize" version="opset1">
			<data auto_broadcast="numpy" levels="256"/>
			<input>
				<port id="0">
					<dim>1</dim>
					<dim>32</dim>
					<dim>64</dim>
					<dim>32</dim>
				</port>
				<port id="1"/>
				<port id="2"/>
				<port id="3"/>
				<port id="4"/>
			</input>
			<output>
				<port id="5" precision="FP16">
					<dim>1</dim>
					<dim>32</dim>
					<dim>64</dim>
					<dim>32</dim>
				</port>
			</output>
		</layer>
		<layer id="404" name="1324125133527" type="Const" version="opset1">
			<data element_type="i64" offset="1692" shape="" size="8"/>
			<output>
				<port id="0" precision="I64"/>
			</output>
		</layer>
		<layer id="405" name="611/input_rank/shape_of" type="ShapeOf" version="opset3">
			<data output_type="i64"/>
			<input>
				<port id="0">
					<dim>1</dim>
					<dim>32</dim>
					<dim>64</dim>
					<dim>32</dim>
				</port>
			</input>
			<output>
				<port id="1" precision="I64">
					<dim>4</dim>
				</port>
			</output>
		</layer>
		<layer id="406" name="611/input_rank/rank_of" type="ShapeOf" version="opset3">
			<data output_type="i64"/>
			<input>
				<port id="0">
					<dim>4</dim>
				</port>
			</input>
			<output>
				<port id="1" precision="I64">
					<dim>1</dim>
				</port>
			</output>
		</layer>
		<layer id="407" name="611/input_rank/0d_rank_of/value125433590" type="Const" version="opset1">
			<data element_type="i64" offset="3450" shape="1" size="8"/>
			<output>
				<port id="0" precision="I64">
					<dim>1</dim>
				</port>
			</output>
		</layer>
		<layer id="408" name="611/input_rank" type="Squeeze" version="opset1">
			<input>
				<port id="0">
					<dim>1</dim>
				</port>
				<port id="1">
					<dim>1</dim>
				</port>
			</input>
			<output>
				<port id="2" precision="I64"/>
			</output>
		</layer>
		<layer id="409" name="1326125629801" type="Const" version="opset1">
			<data element_type="i64" offset="3458" shape="" size="8"/>
			<output>
				<port id="0" precision="I64"/>
			</output>
		</layer>
		<layer id="410" name="611/global_pooling_reduce_axis" type="Range" version="opset4">
			<data output_type="i64"/>
			<input>
				<port id="0"/>
				<port id="1"/>
				<port id="2"/>
			</input>
			<output>
				<port id="3" precision="I64">
					<dim>2</dim>
				</port>
			</output>
		</layer>
		<layer id="411" name="611/reduce" type="ReduceMean" version="opset1">
			<data keep_dims="true"/>
			<input>
				<port id="0">
					<dim>1</dim>
					<dim>32</dim>
					<dim>64</dim>
					<dim>32</dim>
				</port>
				<port id="1">
					<dim>2</dim>
				</port>
			</input>
			<output>
				<port id="2" names="611" precision="FP16">
					<dim>1</dim>
					<dim>32</dim>
					<dim>1</dim>
					<dim>1</dim>
				</port>
			</output>
		</layer>
		<layer id="412" name="conv2.0.gate.fc1.weight44566125932204" type="Const" version="opset1">
			<data element_type="f16" offset="11346" shape="2,32,1,1" size="128"/>
			<output>
				<port id="0" names="conv2.0.gate.fc1.weight" precision="FP16">
					<dim>2</dim>
					<dim>32</dim>
					<dim>1</dim>
					<dim>1</dim>
				</port>
			</output>
		</layer>
		<layer id="413" name="612/WithoutBiases" type="Convolution" version="opset1">
			<data auto_pad="explicit" dilations="1,1" pads_begin="0,0" pads_end="0,0" strides="1,1"/>
			<input>
				<port id="0">
					<dim>1</dim>
					<dim>32</dim>
					<dim>1</dim>
					<dim>1</dim>
				</port>
				<port id="1">
					<dim>2</dim>
					<dim>32</dim>
					<dim>1</dim>
					<dim>1</dim>
				</port>
			</input>
			<output>
				<port id="2" precision="FP16">
					<dim>1</dim>
					<dim>2</dim>
					<dim>1</dim>
					<dim>1</dim>
				</port>
			</output>
		</layer>
		<layer id="414" name="612/Dims13004126131328" type="Const" version="opset1">
			<data element_type="f16" offset="11474" shape="1,2,1,1" size="4"/>
			<output>
				<port id="0" precision="FP16">
					<dim>1</dim>
					<dim>2</dim>
					<dim>1</dim>
					<dim>1</dim>
				</port>
			</output>
		</layer>
		<layer id="415" name="612" type="Add" version="opset1">
			<data auto_broadcast="numpy"/>
			<input>
				<port id="0">
					<dim>1</dim>
					<dim>2</dim>
					<dim>1</dim>
					<dim>1</dim>
				</port>
				<port id="1">
					<dim>1</dim>
					<dim>2</dim>
					<dim>1</dim>
					<dim>1</dim>
				</port>
			</input>
			<output>
				<port id="2" names="612" precision="FP16">
					<dim>1</dim>
					<dim>2</dim>
					<dim>1</dim>
					<dim>1</dim>
				</port>
			</output>
		</layer>
		<layer id="416" name="613" type="ReLU" version="opset1">
			<input>
				<port id="0">
					<dim>1</dim>
					<dim>2</dim>
					<dim>1</dim>
					<dim>1</dim>
				</port>
			</input>
			<output>
				<port id="1" names="613" precision="FP16">
					<dim>1</dim>
					<dim>2</dim>
					<dim>1</dim>
					<dim>1</dim>
				</port>
			</output>
		</layer>
		<layer id="417" name="conv2.0.gate.fc2.weight126431019" type="Const" version="opset1">
			<data element_type="f16" offset="11478" shape="32,2,1,1" size="128"/>
			<output>
				<port id="0" names="conv2.0.gate.fc2.weight" precision="FP16">
					<dim>32</dim>
					<dim>2</dim>
					<dim>1</dim>
					<dim>1</dim>
				</port>
			</output>
		</layer>
		<layer id="418" name="614/WithoutBiases" type="Convolution" version="opset1">
			<data auto_pad="explicit" dilations="1,1" pads_begin="0,0" pads_end="0,0" strides="1,1"/>
			<input>
				<port id="0">
					<dim>1</dim>
					<dim>2</dim>
					<dim>1</dim>
					<dim>1</dim>
				</port>
				<port id="1">
					<dim>32</dim>
					<dim>2</dim>
					<dim>1</dim>
					<dim>1</dim>
				</port>
			</input>
			<output>
				<port id="2" precision="FP16">
					<dim>1</dim>
					<dim>32</dim>
					<dim>1</dim>
					<dim>1</dim>
				</port>
			</output>
		</layer>
		<layer id="419" name="614/Dims13028126632522" type="Const" version="opset1">
			<data element_type="f16" offset="11606" shape="1,32,1,1" size="64"/>
			<output>
				<port id="0" precision="FP16">
					<dim>1</dim>
					<dim>32</dim>
					<dim>1</dim>
					<dim>1</dim>
				</port>
			</output>
		</layer>
		<layer id="420" name="614" type="Add" version="opset1">
			<data auto_broadcast="numpy"/>
			<input>
				<port id="0">
					<dim>1</dim>
					<dim>32</dim>
					<dim>1</dim>
					<dim>1</dim>
				</port>
				<port id="1">
					<dim>1</dim>
					<dim>32</dim>
					<dim>1</dim>
					<dim>1</dim>
				</port>
			</input>
			<output>
				<port id="2" names="614" precision="FP16">
					<dim>1</dim>
					<dim>32</dim>
					<dim>1</dim>
					<dim>1</dim>
				</port>
			</output>
		</layer>
		<layer id="421" name="615" type="Sigmoid" version="opset1">
			<input>
				<port id="0">
					<dim>1</dim>
					<dim>32</dim>
					<dim>1</dim>
					<dim>1</dim>
				</port>
			</input>
			<output>
				<port id="1" names="615" precision="FP16">
					<dim>1</dim>
					<dim>32</dim>
					<dim>1</dim>
					<dim>1</dim>
				</port>
			</output>
		</layer>
		<layer id="422" name="616/fq_input_1" type="FakeQuantize" version="opset1">
			<data auto_broadcast="numpy" levels="256"/>
			<input>
				<port id="0">
					<dim>1</dim>
					<dim>32</dim>
					<dim>1</dim>
					<dim>1</dim>
				</port>
				<port id="1"/>
				<port id="2"/>
				<port id="3"/>
				<port id="4"/>
			</input>
			<output>
				<port id="5" precision="FP16">
					<dim>1</dim>
					<dim>32</dim>
					<dim>1</dim>
					<dim>1</dim>
				</port>
			</output>
		</layer>
		<layer id="423" name="616" type="Multiply" version="opset1">
			<data auto_broadcast="numpy"/>
			<input>
				<port id="0">
					<dim>1</dim>
					<dim>32</dim>
					<dim>64</dim>
					<dim>32</dim>
				</port>
				<port id="1">
					<dim>1</dim>
					<dim>32</dim>
					<dim>1</dim>
					<dim>1</dim>
				</port>
			</input>
			<output>
				<port id="2" names="616" precision="FP16">
					<dim>1</dim>
					<dim>32</dim>
					<dim>64</dim>
					<dim>32</dim>
				</port>
			</output>
		</layer>
		<layer id="424" name="623/fq_input_0" type="FakeQuantize" version="opset1">
			<data auto_broadcast="numpy" levels="256"/>
			<input>
				<port id="0">
					<dim>1</dim>
					<dim>32</dim>
					<dim>64</dim>
					<dim>32</dim>
				</port>
				<port id="1"/>
				<port id="2"/>
				<port id="3"/>
				<port id="4"/>
			</input>
			<output>
				<port id="5" precision="FP16">
					<dim>1</dim>
					<dim>32</dim>
					<dim>64</dim>
					<dim>32</dim>
				</port>
			</output>
		</layer>
		<layer id="425" name="8007801130950" type="Const" version="opset1">
			<data element_type="f16" offset="1544" shape="" size="2"/>
			<output>
				<port id="0" precision="FP16"/>
			</output>
		</layer>
		<layer id="426" name="8008801232378" type="Const" version="opset1">
			<data element_type="f16" offset="11670" shape="" size="2"/>
			<output>
				<port id="0" precision="FP16"/>
			</output>
		</layer>
		<layer id="427" name="8009801331070" type="Const" version="opset1">
			<data element_type="f16" offset="1544" shape="" size="2"/>
			<output>
				<port id="0" precision="FP16"/>
			</output>
		</layer>
		<layer id="428" name="8010801428562" type="Const" version="opset1">
			<data element_type="f16" offset="11670" shape="" size="2"/>
			<output>
				<port id="0" precision="FP16"/>
			</output>
		</layer>
		<layer id="429" name="5207521129939" type="Const" version="opset1">
			<data element_type="f16" offset="1544" shape="" size="2"/>
			<output>
				<port id="0" precision="FP16"/>
			</output>
		</layer>
		<layer id="430" name="5208521228973" type="Const" version="opset1">
			<data element_type="f16" offset="11672" shape="" size="2"/>
			<output>
				<port id="0" precision="FP16"/>
			</output>
		</layer>
		<layer id="431" name="5209521330797" type="Const" version="opset1">
			<data element_type="f16" offset="1544" shape="" size="2"/>
			<output>
				<port id="0" precision="FP16"/>
			</output>
		</layer>
		<layer id="432" name="5210521433104" type="Const" version="opset1">
			<data element_type="f16" offset="11672" shape="" size="2"/>
			<output>
				<port id="0" precision="FP16"/>
			</output>
		</layer>
		<layer id="433" name="5007501128310" type="Const" version="opset1">
			<data element_type="f16" offset="1544" shape="" size="2"/>
			<output>
				<port id="0" precision="FP16"/>
			</output>
		</layer>
		<layer id="434" name="5008501230956" type="Const" version="opset1">
			<data element_type="f16" offset="11674" shape="" size="2"/>
			<output>
				<port id="0" precision="FP16"/>
			</output>
		</layer>
		<layer id="435" name="5009501333761" type="Const" version="opset1">
			<data element_type="f16" offset="1544" shape="" size="2"/>
			<output>
				<port id="0" precision="FP16"/>
			</output>
		</layer>
		<layer id="436" name="5010501433656" type="Const" version="opset1">
			<data element_type="f16" offset="11674" shape="" size="2"/>
			<output>
				<port id="0" precision="FP16"/>
			</output>
		</layer>
		<layer id="437" name="6447645131265" type="Const" version="opset1">
			<data element_type="f16" offset="11676" shape="1,32,1,1" size="64"/>
			<output>
				<port id="0" precision="FP16">
					<dim>1</dim>
					<dim>32</dim>
					<dim>1</dim>
					<dim>1</dim>
				</port>
			</output>
		</layer>
		<layer id="438" name="6448645230497" type="Const" version="opset1">
			<data element_type="f16" offset="11740" shape="1,32,1,1" size="64"/>
			<output>
				<port id="0" precision="FP16">
					<dim>1</dim>
					<dim>32</dim>
					<dim>1</dim>
					<dim>1</dim>
				</port>
			</output>
		</layer>
		<layer id="439" name="6449645329573" type="Const" version="opset1">
			<data element_type="f16" offset="11676" shape="1,32,1,1" size="64"/>
			<output>
				<port id="0" precision="FP16">
					<dim>1</dim>
					<dim>32</dim>
					<dim>1</dim>
					<dim>1</dim>
				</port>
			</output>
		</layer>
		<layer id="440" name="6450645431880" type="Const" version="opset1">
			<data element_type="f16" offset="11740" shape="1,32,1,1" size="64"/>
			<output>
				<port id="0" precision="FP16">
					<dim>1</dim>
					<dim>32</dim>
					<dim>1</dim>
					<dim>1</dim>
				</port>
			</output>
		</layer>
		<layer id="441" name="2880288232906" type="Const" version="opset1">
			<data element_type="f16" offset="3234" shape="1,32,1,1" size="64"/>
			<output>
				<port id="0" precision="FP16">
					<dim>1</dim>
					<dim>32</dim>
					<dim>1</dim>
					<dim>1</dim>
				</port>
			</output>
		</layer>
		<layer id="442" name="8247825133137" type="Const" version="opset1">
			<data element_type="f16" offset="1544" shape="" size="2"/>
			<output>
				<port id="0" precision="FP16"/>
			</output>
		</layer>
		<layer id="443" name="8248825230890" type="Const" version="opset1">
			<data element_type="f16" offset="11804" shape="" size="2"/>
			<output>
				<port id="0" precision="FP16"/>
			</output>
		</layer>
		<layer id="444" name="8249825333005" type="Const" version="opset1">
			<data element_type="f16" offset="1544" shape="" size="2"/>
			<output>
				<port id="0" precision="FP16"/>
			</output>
		</layer>
		<layer id="445" name="8250825432972" type="Const" version="opset1">
			<data element_type="f16" offset="11804" shape="" size="2"/>
			<output>
				<port id="0" precision="FP16"/>
			</output>
		</layer>
		<layer id="446" name="7177718131718" type="Const" version="opset1">
			<data element_type="f16" offset="11806" shape="1,32,1,1" size="64"/>
			<output>
				<port id="0" precision="FP16">
					<dim>1</dim>
					<dim>32</dim>
					<dim>1</dim>
					<dim>1</dim>
				</port>
			</output>
		</layer>
		<layer id="447" name="7178718232444" type="Const" version="opset1">
			<data element_type="f16" offset="11870" shape="1,32,1,1" size="64"/>
			<output>
				<port id="0" precision="FP16">
					<dim>1</dim>
					<dim>32</dim>
					<dim>1</dim>
					<dim>1</dim>
				</port>
			</output>
		</layer>
		<layer id="448" name="7179718332810" type="Const" version="opset1">
			<data element_type="f16" offset="11806" shape="1,32,1,1" size="64"/>
			<output>
				<port id="0" precision="FP16">
					<dim>1</dim>
					<dim>32</dim>
					<dim>1</dim>
					<dim>1</dim>
				</port>
			</output>
		</layer>
		<layer id="449" name="7180718431382" type="Const" version="opset1">
			<data element_type="f16" offset="11870" shape="1,32,1,1" size="64"/>
			<output>
				<port id="0" precision="FP16">
					<dim>1</dim>
					<dim>32</dim>
					<dim>1</dim>
					<dim>1</dim>
				</port>
			</output>
		</layer>
		<layer id="450" name="2876287833512" type="Const" version="opset1">
			<data element_type="f16" offset="3234" shape="1,32,1,1" size="64"/>
			<output>
				<port id="0" precision="FP16">
					<dim>1</dim>
					<dim>32</dim>
					<dim>1</dim>
					<dim>1</dim>
				</port>
			</output>
		</layer>
		<layer id="451" name="conv2.0.conv2b.0.conv1.weight127015339/quantized1867528922" type="Const" version="opset1">
			<data element_type="i8" offset="11934" shape="32,32,1,1" size="1024"/>
			<output>
				<port id="0" precision="I8">
					<dim>32</dim>
					<dim>32</dim>
					<dim>1</dim>
					<dim>1</dim>
				</port>
			</output>
		</layer>
		<layer id="452" name="conv2.0.conv2b.0.conv1.weight127015339/quantized/to_f16" type="Convert" version="opset1">
			<data destination_type="f16"/>
			<input>
				<port id="0">
					<dim>32</dim>
					<dim>32</dim>
					<dim>1</dim>
					<dim>1</dim>
				</port>
			</input>
			<output>
				<port id="1" precision="FP16">
					<dim>32</dim>
					<dim>32</dim>
					<dim>1</dim>
					<dim>1</dim>
				</port>
			</output>
		</layer>
		<layer id="453" name="575/fq_weights_1/zero_point1868828904" type="Const" version="opset1">
			<data element_type="f16" offset="12958" shape="32,1,1,1" size="64"/>
			<output>
				<port id="0" precision="FP16">
					<dim>32</dim>
					<dim>1</dim>
					<dim>1</dim>
					<dim>1</dim>
				</port>
			</output>
		</layer>
		<layer id="454" name="575/fq_weights_1/minus_zp" type="Subtract" version="opset1">
			<data auto_broadcast="numpy"/>
			<input>
				<port id="0">
					<dim>32</dim>
					<dim>32</dim>
					<dim>1</dim>
					<dim>1</dim>
				</port>
				<port id="1">
					<dim>32</dim>
					<dim>1</dim>
					<dim>1</dim>
					<dim>1</dim>
				</port>
			</input>
			<output>
				<port id="2" precision="FP16">
					<dim>32</dim>
					<dim>32</dim>
					<dim>1</dim>
					<dim>1</dim>
				</port>
			</output>
		</layer>
		<layer id="455" name="575/fq_weights_1/scale1868330974" type="Const" version="opset1">
			<data element_type="f16" offset="13022" shape="32,1,1,1" size="64"/>
			<output>
				<port id="0" precision="FP16">
					<dim>32</dim>
					<dim>1</dim>
					<dim>1</dim>
					<dim>1</dim>
				</port>
			</output>
		</layer>
		<layer id="456" name="575/fq_weights_1/mulpiply_by_scale" type="Multiply" version="opset1">
			<data auto_broadcast="numpy"/>
			<input>
				<port id="0">
					<dim>32</dim>
					<dim>32</dim>
					<dim>1</dim>
					<dim>1</dim>
				</port>
				<port id="1">
					<dim>32</dim>
					<dim>1</dim>
					<dim>1</dim>
					<dim>1</dim>
				</port>
			</input>
			<output>
				<port id="2" precision="FP16">
					<dim>32</dim>
					<dim>32</dim>
					<dim>1</dim>
					<dim>1</dim>
				</port>
			</output>
		</layer>
		<layer id="457" name="575" type="Convolution" version="opset1">
			<data auto_pad="explicit" dilations="1,1" pads_begin="0,0" pads_end="0,0" strides="1,1"/>
			<input>
				<port id="0">
					<dim>1</dim>
					<dim>32</dim>
					<dim>64</dim>
					<dim>32</dim>
				</port>
				<port id="1">
					<dim>32</dim>
					<dim>32</dim>
					<dim>1</dim>
					<dim>1</dim>
				</port>
			</input>
			<output>
				<port id="2" names="575" precision="FP16">
					<dim>1</dim>
					<dim>32</dim>
					<dim>64</dim>
					<dim>32</dim>
				</port>
			</output>
		</layer>
		<layer id="458" name="575/add_" type="Add" version="opset1">
			<data auto_broadcast="numpy"/>
			<input>
				<port id="0">
					<dim>1</dim>
					<dim>32</dim>
					<dim>64</dim>
					<dim>32</dim>
				</port>
				<port id="1">
					<dim>1</dim>
					<dim>32</dim>
					<dim>1</dim>
					<dim>1</dim>
				</port>
			</input>
			<output>
				<port id="2" precision="FP16">
					<dim>1</dim>
					<dim>32</dim>
					<dim>64</dim>
					<dim>32</dim>
				</port>
			</output>
		</layer>
		<layer id="459" name="576/fq_input_0" type="FakeQuantize" version="opset1">
			<data auto_broadcast="numpy" levels="256"/>
			<input>
				<port id="0">
					<dim>1</dim>
					<dim>32</dim>
					<dim>64</dim>
					<dim>32</dim>
				</port>
				<port id="1">
					<dim>1</dim>
					<dim>32</dim>
					<dim>1</dim>
					<dim>1</dim>
				</port>
				<port id="2">
					<dim>1</dim>
					<dim>32</dim>
					<dim>1</dim>
					<dim>1</dim>
				</port>
				<port id="3">
					<dim>1</dim>
					<dim>32</dim>
					<dim>1</dim>
					<dim>1</dim>
				</port>
				<port id="4">
					<dim>1</dim>
					<dim>32</dim>
					<dim>1</dim>
					<dim>1</dim>
				</port>
			</input>
			<output>
				<port id="5" precision="FP16">
					<dim>1</dim>
					<dim>32</dim>
					<dim>64</dim>
					<dim>32</dim>
				</port>
			</output>
		</layer>
		<layer id="460" name="24396/value2439829732" type="Const" version="opset1">
			<data element_type="i64" offset="10826" shape="5" size="40"/>
			<output>
				<port id="0" precision="I64">
					<dim>5</dim>
				</port>
			</output>
		</layer>
		<layer id="461" name="577/mean/Fused_Mul__copy127215340/quantized1985131544" type="Const" version="opset1">
			<data element_type="i8" offset="13086" shape="32,1,3,3" size="288"/>
			<output>
				<port id="0" precision="I8">
					<dim>32</dim>
					<dim>1</dim>
					<dim>3</dim>
					<dim>3</dim>
				</port>
			</output>
		</layer>
		<layer id="462" name="577/mean/Fused_Mul__copy127215340/quantized/to_f16" type="Convert" version="opset1">
			<data destination_type="f16"/>
			<input>
				<port id="0">
					<dim>32</dim>
					<dim>1</dim>
					<dim>3</dim>
					<dim>3</dim>
				</port>
			</input>
			<output>
				<port id="1" precision="FP16">
					<dim>32</dim>
					<dim>1</dim>
					<dim>3</dim>
					<dim>3</dim>
				</port>
			</output>
		</layer>
		<layer id="463" name="576/fq_weights_1/zero_point1986431529" type="Const" version="opset1">
			<data element_type="f16" offset="13374" shape="32,1,1,1" size="64"/>
			<output>
				<port id="0" precision="FP16">
					<dim>32</dim>
					<dim>1</dim>
					<dim>1</dim>
					<dim>1</dim>
				</port>
			</output>
		</layer>
		<layer id="464" name="576/fq_weights_1/minus_zp" type="Subtract" version="opset1">
			<data auto_broadcast="numpy"/>
			<input>
				<port id="0">
					<dim>32</dim>
					<dim>1</dim>
					<dim>3</dim>
					<dim>3</dim>
				</port>
				<port id="1">
					<dim>32</dim>
					<dim>1</dim>
					<dim>1</dim>
					<dim>1</dim>
				</port>
			</input>
			<output>
				<port id="2" precision="FP16">
					<dim>32</dim>
					<dim>1</dim>
					<dim>3</dim>
					<dim>3</dim>
				</port>
			</output>
		</layer>
		<layer id="465" name="576/fq_weights_1/scale1985930452" type="Const" version="opset1">
			<data element_type="f16" offset="13438" shape="32,1,1,1" size="64"/>
			<output>
				<port id="0" precision="FP16">
					<dim>32</dim>
					<dim>1</dim>
					<dim>1</dim>
					<dim>1</dim>
				</port>
			</output>
		</layer>
		<layer id="466" name="576/fq_weights_1/mulpiply_by_scale" type="Multiply" version="opset1">
			<data auto_broadcast="numpy"/>
			<input>
				<port id="0">
					<dim>32</dim>
					<dim>1</dim>
					<dim>3</dim>
					<dim>3</dim>
				</port>
				<port id="1">
					<dim>32</dim>
					<dim>1</dim>
					<dim>1</dim>
					<dim>1</dim>
				</port>
			</input>
			<output>
				<port id="2" precision="FP16">
					<dim>32</dim>
					<dim>1</dim>
					<dim>3</dim>
					<dim>3</dim>
				</port>
			</output>
		</layer>
		<layer id="467" name="24396" type="Reshape" version="opset1">
			<data special_zero="true"/>
			<input>
				<port id="0">
					<dim>32</dim>
					<dim>1</dim>
					<dim>3</dim>
					<dim>3</dim>
				</port>
				<port id="1">
					<dim>5</dim>
				</port>
			</input>
			<output>
				<port id="2" precision="FP16">
					<dim>32</dim>
					<dim>1</dim>
					<dim>1</dim>
					<dim>3</dim>
					<dim>3</dim>
				</port>
			</output>
		</layer>
		<layer id="468" name="576" type="GroupConvolution" version="opset1">
			<data auto_pad="explicit" dilations="1,1" pads_begin="1,1" pads_end="1,1" strides="1,1"/>
			<input>
				<port id="0">
					<dim>1</dim>
					<dim>32</dim>
					<dim>64</dim>
					<dim>32</dim>
				</port>
				<port id="1">
					<dim>32</dim>
					<dim>1</dim>
					<dim>1</dim>
					<dim>3</dim>
					<dim>3</dim>
				</port>
			</input>
			<output>
				<port id="2" precision="FP16">
					<dim>1</dim>
					<dim>32</dim>
					<dim>64</dim>
					<dim>32</dim>
				</port>
			</output>
		</layer>
		<layer id="469" name="data_add_2176921774127430905" type="Const" version="opset1">
			<data element_type="f16" offset="13502" shape="1,32,1,1" size="64"/>
			<output>
				<port id="0" precision="FP16">
					<dim>1</dim>
					<dim>32</dim>
					<dim>1</dim>
					<dim>1</dim>
				</port>
			</output>
		</layer>
		<layer id="470" name="577/variance/Fused_Add_" type="Add" version="opset1">
			<data auto_broadcast="numpy"/>
			<input>
				<port id="0">
					<dim>1</dim>
					<dim>32</dim>
					<dim>64</dim>
					<dim>32</dim>
				</port>
				<port id="1">
					<dim>1</dim>
					<dim>32</dim>
					<dim>1</dim>
					<dim>1</dim>
				</port>
			</input>
			<output>
				<port id="2" names="577" precision="FP16">
					<dim>1</dim>
					<dim>32</dim>
					<dim>64</dim>
					<dim>32</dim>
				</port>
			</output>
		</layer>
		<layer id="471" name="578" type="ReLU" version="opset1">
			<input>
				<port id="0">
					<dim>1</dim>
					<dim>32</dim>
					<dim>64</dim>
					<dim>32</dim>
				</port>
			</input>
			<output>
				<port id="1" names="578" precision="FP16">
					<dim>1</dim>
					<dim>32</dim>
					<dim>64</dim>
					<dim>32</dim>
				</port>
			</output>
		</layer>
		<layer id="472" name="579/fq_input_0" type="FakeQuantize" version="opset1">
			<data auto_broadcast="numpy" levels="256"/>
			<input>
				<port id="0">
					<dim>1</dim>
					<dim>32</dim>
					<dim>64</dim>
					<dim>32</dim>
				</port>
				<port id="1"/>
				<port id="2"/>
				<port id="3"/>
				<port id="4"/>
			</input>
			<output>
				<port id="5" precision="FP16">
					<dim>1</dim>
					<dim>32</dim>
					<dim>64</dim>
					<dim>32</dim>
				</port>
			</output>
		</layer>
		<layer id="473" name="conv2.0.conv2b.1.conv1.weight127715342/quantized2066732228" type="Const" version="opset1">
			<data element_type="i8" offset="13566" shape="32,32,1,1" size="1024"/>
			<output>
				<port id="0" precision="I8">
					<dim>32</dim>
					<dim>32</dim>
					<dim>1</dim>
					<dim>1</dim>
				</port>
			</output>
		</layer>
		<layer id="474" name="conv2.0.conv2b.1.conv1.weight127715342/quantized/to_f16" type="Convert" version="opset1">
			<data destination_type="f16"/>
			<input>
				<port id="0">
					<dim>32</dim>
					<dim>32</dim>
					<dim>1</dim>
					<dim>1</dim>
				</port>
			</input>
			<output>
				<port id="1" precision="FP16">
					<dim>32</dim>
					<dim>32</dim>
					<dim>1</dim>
					<dim>1</dim>
				</port>
			</output>
		</layer>
		<layer id="475" name="579/fq_weights_1/zero_point2068032252" type="Const" version="opset1">
			<data element_type="f16" offset="14590" shape="32,1,1,1" size="64"/>
			<output>
				<port id="0" precision="FP16">
					<dim>32</dim>
					<dim>1</dim>
					<dim>1</dim>
					<dim>1</dim>
				</port>
			</output>
		</layer>
		<layer id="476" name="579/fq_weights_1/minus_zp" type="Subtract" version="opset1">
			<data auto_broadcast="numpy"/>
			<input>
				<port id="0">
					<dim>32</dim>
					<dim>32</dim>
					<dim>1</dim>
					<dim>1</dim>
				</port>
				<port id="1">
					<dim>32</dim>
					<dim>1</dim>
					<dim>1</dim>
					<dim>1</dim>
				</port>
			</input>
			<output>
				<port id="2" precision="FP16">
					<dim>32</dim>
					<dim>32</dim>
					<dim>1</dim>
					<dim>1</dim>
				</port>
			</output>
		</layer>
		<layer id="477" name="579/fq_weights_1/scale2067529717" type="Const" version="opset1">
			<data element_type="f16" offset="14654" shape="32,1,1,1" size="64"/>
			<output>
				<port id="0" precision="FP16">
					<dim>32</dim>
					<dim>1</dim>
					<dim>1</dim>
					<dim>1</dim>
				</port>
			</output>
		</layer>
		<layer id="478" name="579/fq_weights_1/mulpiply_by_scale" type="Multiply" version="opset1">
			<data auto_broadcast="numpy"/>
			<input>
				<port id="0">
					<dim>32</dim>
					<dim>32</dim>
					<dim>1</dim>
					<dim>1</dim>
				</port>
				<port id="1">
					<dim>32</dim>
					<dim>1</dim>
					<dim>1</dim>
					<dim>1</dim>
				</port>
			</input>
			<output>
				<port id="2" precision="FP16">
					<dim>32</dim>
					<dim>32</dim>
					<dim>1</dim>
					<dim>1</dim>
				</port>
			</output>
		</layer>
		<layer id="479" name="579" type="Convolution" version="opset1">
			<data auto_pad="explicit" dilations="1,1" pads_begin="0,0" pads_end="0,0" strides="1,1"/>
			<input>
				<port id="0">
					<dim>1</dim>
					<dim>32</dim>
					<dim>64</dim>
					<dim>32</dim>
				</port>
				<port id="1">
					<dim>32</dim>
					<dim>32</dim>
					<dim>1</dim>
					<dim>1</dim>
				</port>
			</input>
			<output>
				<port id="2" names="579" precision="FP16">
					<dim>1</dim>
					<dim>32</dim>
					<dim>64</dim>
					<dim>32</dim>
				</port>
			</output>
		</layer>
		<layer id="480" name="579/add_" type="Add" version="opset1">
			<data auto_broadcast="numpy"/>
			<input>
				<port id="0">
					<dim>1</dim>
					<dim>32</dim>
					<dim>64</dim>
					<dim>32</dim>
				</port>
				<port id="1">
					<dim>1</dim>
					<dim>32</dim>
					<dim>1</dim>
					<dim>1</dim>
				</port>
			</input>
			<output>
				<port id="2" precision="FP16">
					<dim>1</dim>
					<dim>32</dim>
					<dim>64</dim>
					<dim>32</dim>
				</port>
			</output>
		</layer>
		<layer id="481" name="580/fq_input_0" type="FakeQuantize" version="opset1">
			<data auto_broadcast="numpy" levels="256"/>
			<input>
				<port id="0">
					<dim>1</dim>
					<dim>32</dim>
					<dim>64</dim>
					<dim>32</dim>
				</port>
				<port id="1">
					<dim>1</dim>
					<dim>32</dim>
					<dim>1</dim>
					<dim>1</dim>
				</port>
				<port id="2">
					<dim>1</dim>
					<dim>32</dim>
					<dim>1</dim>
					<dim>1</dim>
				</port>
				<port id="3">
					<dim>1</dim>
					<dim>32</dim>
					<dim>1</dim>
					<dim>1</dim>
				</port>
				<port id="4">
					<dim>1</dim>
					<dim>32</dim>
					<dim>1</dim>
					<dim>1</dim>
				</port>
			</input>
			<output>
				<port id="5" precision="FP16">
					<dim>1</dim>
					<dim>32</dim>
					<dim>64</dim>
					<dim>32</dim>
				</port>
			</output>
		</layer>
		<layer id="482" name="24520/value2452233122" type="Const" version="opset1">
			<data element_type="i64" offset="10826" shape="5" size="40"/>
			<output>
				<port id="0" precision="I64">
					<dim>5</dim>
				</port>
			</output>
		</layer>
		<layer id="483" name="581/mean/Fused_Mul__copy127915343/quantized2073931403" type="Const" version="opset1">
			<data element_type="i8" offset="14718" shape="32,1,3,3" size="288"/>
			<output>
				<port id="0" precision="I8">
					<dim>32</dim>
					<dim>1</dim>
					<dim>3</dim>
					<dim>3</dim>
				</port>
			</output>
		</layer>
		<layer id="484" name="581/mean/Fused_Mul__copy127915343/quantized/to_f16" type="Convert" version="opset1">
			<data destination_type="f16"/>
			<input>
				<port id="0">
					<dim>32</dim>
					<dim>1</dim>
					<dim>3</dim>
					<dim>3</dim>
				</port>
			</input>
			<output>
				<port id="1" precision="FP16">
					<dim>32</dim>
					<dim>1</dim>
					<dim>3</dim>
					<dim>3</dim>
				</port>
			</output>
		</layer>
		<layer id="485" name="580/fq_weights_1/zero_point2075228811" type="Const" version="opset1">
			<data element_type="f16" offset="15006" shape="32,1,1,1" size="64"/>
			<output>
				<port id="0" precision="FP16">
					<dim>32</dim>
					<dim>1</dim>
					<dim>1</dim>
					<dim>1</dim>
				</port>
			</output>
		</layer>
		<layer id="486" name="580/fq_weights_1/minus_zp" type="Subtract" version="opset1">
			<data auto_broadcast="numpy"/>
			<input>
				<port id="0">
					<dim>32</dim>
					<dim>1</dim>
					<dim>3</dim>
					<dim>3</dim>
				</port>
				<port id="1">
					<dim>32</dim>
					<dim>1</dim>
					<dim>1</dim>
					<dim>1</dim>
				</port>
			</input>
			<output>
				<port id="2" precision="FP16">
					<dim>32</dim>
					<dim>1</dim>
					<dim>3</dim>
					<dim>3</dim>
				</port>
			</output>
		</layer>
		<layer id="487" name="580/fq_weights_1/scale2074730158" type="Const" version="opset1">
			<data element_type="f16" offset="15070" shape="32,1,1,1" size="64"/>
			<output>
				<port id="0" precision="FP16">
					<dim>32</dim>
					<dim>1</dim>
					<dim>1</dim>
					<dim>1</dim>
				</port>
			</output>
		</layer>
		<layer id="488" name="580/fq_weights_1/mulpiply_by_scale" type="Multiply" version="opset1">
			<data auto_broadcast="numpy"/>
			<input>
				<port id="0">
					<dim>32</dim>
					<dim>1</dim>
					<dim>3</dim>
					<dim>3</dim>
				</port>
				<port id="1">
					<dim>32</dim>
					<dim>1</dim>
					<dim>1</dim>
					<dim>1</dim>
				</port>
			</input>
			<output>
				<port id="2" precision="FP16">
					<dim>32</dim>
					<dim>1</dim>
					<dim>3</dim>
					<dim>3</dim>
				</port>
			</output>
		</layer>
		<layer id="489" name="24520" type="Reshape" version="opset1">
			<data special_zero="true"/>
			<input>
				<port id="0">
					<dim>32</dim>
					<dim>1</dim>
					<dim>3</dim>
					<dim>3</dim>
				</port>
				<port id="1">
					<dim>5</dim>
				</port>
			</input>
			<output>
				<port id="2" precision="FP16">
					<dim>32</dim>
					<dim>1</dim>
					<dim>1</dim>
					<dim>3</dim>
					<dim>3</dim>
				</port>
			</output>
		</layer>
		<layer id="490" name="580" type="GroupConvolution" version="opset1">
			<data auto_pad="explicit" dilations="1,1" pads_begin="1,1" pads_end="1,1" strides="1,1"/>
			<input>
				<port id="0">
					<dim>1</dim>
					<dim>32</dim>
					<dim>64</dim>
					<dim>32</dim>
				</port>
				<port id="1">
					<dim>32</dim>
					<dim>1</dim>
					<dim>1</dim>
					<dim>3</dim>
					<dim>3</dim>
				</port>
			</input>
			<output>
				<port id="2" precision="FP16">
					<dim>1</dim>
					<dim>32</dim>
					<dim>64</dim>
					<dim>32</dim>
				</port>
			</output>
		</layer>
		<layer id="491" name="data_add_2177721782128133692" type="Const" version="opset1">
			<data element_type="f16" offset="15134" shape="1,32,1,1" size="64"/>
			<output>
				<port id="0" precision="FP16">
					<dim>1</dim>
					<dim>32</dim>
					<dim>1</dim>
					<dim>1</dim>
				</port>
			</output>
		</layer>
		<layer id="492" name="581/variance/Fused_Add_" type="Add" version="opset1">
			<data auto_broadcast="numpy"/>
			<input>
				<port id="0">
					<dim>1</dim>
					<dim>32</dim>
					<dim>64</dim>
					<dim>32</dim>
				</port>
				<port id="1">
					<dim>1</dim>
					<dim>32</dim>
					<dim>1</dim>
					<dim>1</dim>
				</port>
			</input>
			<output>
				<port id="2" names="581" precision="FP16">
					<dim>1</dim>
					<dim>32</dim>
					<dim>64</dim>
					<dim>32</dim>
				</port>
			</output>
		</layer>
		<layer id="493" name="582" type="ReLU" version="opset1">
			<input>
				<port id="0">
					<dim>1</dim>
					<dim>32</dim>
					<dim>64</dim>
					<dim>32</dim>
				</port>
			</input>
			<output>
				<port id="1" names="582" precision="FP16">
					<dim>1</dim>
					<dim>32</dim>
					<dim>64</dim>
					<dim>32</dim>
				</port>
			</output>
		</layer>
		<layer id="494" name="617/reduce/fq_input_0" type="FakeQuantize" version="opset1">
			<data auto_broadcast="numpy" levels="256"/>
			<input>
				<port id="0">
					<dim>1</dim>
					<dim>32</dim>
					<dim>64</dim>
					<dim>32</dim>
				</port>
				<port id="1"/>
				<port id="2"/>
				<port id="3"/>
				<port id="4"/>
			</input>
			<output>
				<port id="5" precision="FP16">
					<dim>1</dim>
					<dim>32</dim>
					<dim>64</dim>
					<dim>32</dim>
				</port>
			</output>
		</layer>
		<layer id="495" name="1329128432015" type="Const" version="opset1">
			<data element_type="i64" offset="1692" shape="" size="8"/>
			<output>
				<port id="0" precision="I64"/>
			</output>
		</layer>
		<layer id="496" name="617/input_rank/shape_of" type="ShapeOf" version="opset3">
			<data output_type="i64"/>
			<input>
				<port id="0">
					<dim>1</dim>
					<dim>32</dim>
					<dim>64</dim>
					<dim>32</dim>
				</port>
			</input>
			<output>
				<port id="1" precision="I64">
					<dim>4</dim>
				</port>
			</output>
		</layer>
		<layer id="497" name="617/input_rank/rank_of" type="ShapeOf" version="opset3">
			<data output_type="i64"/>
			<input>
				<port id="0">
					<dim>4</dim>
				</port>
			</input>
			<output>
				<port id="1" precision="I64">
					<dim>1</dim>
				</port>
			</output>
		</layer>
		<layer id="498" name="617/input_rank/0d_rank_of/value128733551" type="Const" version="opset1">
			<data element_type="i64" offset="3450" shape="1" size="8"/>
			<output>
				<port id="0" precision="I64">
					<dim>1</dim>
				</port>
			</output>
		</layer>
		<layer id="499" name="617/input_rank" type="Squeeze" version="opset1">
			<input>
				<port id="0">
					<dim>1</dim>
				</port>
				<port id="1">
					<dim>1</dim>
				</port>
			</input>
			<output>
				<port id="2" precision="I64"/>
			</output>
		</layer>
		<layer id="500" name="1331128929192" type="Const" version="opset1">
			<data element_type="i64" offset="3458" shape="" size="8"/>
			<output>
				<port id="0" precision="I64"/>
			</output>
		</layer>
		<layer id="501" name="617/global_pooling_reduce_axis" type="Range" version="opset4">
			<data output_type="i64"/>
			<input>
				<port id="0"/>
				<port id="1"/>
				<port id="2"/>
			</input>
			<output>
				<port id="3" precision="I64">
					<dim>2</dim>
				</port>
			</output>
		</layer>
		<layer id="502" name="617/reduce" type="ReduceMean" version="opset1">
			<data keep_dims="true"/>
			<input>
				<port id="0">
					<dim>1</dim>
					<dim>32</dim>
					<dim>64</dim>
					<dim>32</dim>
				</port>
				<port id="1">
					<dim>2</dim>
				</port>
			</input>
			<output>
				<port id="2" names="617" precision="FP16">
					<dim>1</dim>
					<dim>32</dim>
					<dim>1</dim>
					<dim>1</dim>
				</port>
			</output>
		</layer>
		<layer id="503" name="conv2.0.gate.fc1.weight44320129232633" type="Const" version="opset1">
			<data element_type="f16" offset="11346" shape="2,32,1,1" size="128"/>
			<output>
				<port id="0" names="conv2.0.gate.fc1.weight" precision="FP16">
					<dim>2</dim>
					<dim>32</dim>
					<dim>1</dim>
					<dim>1</dim>
				</port>
			</output>
		</layer>
		<layer id="504" name="618/WithoutBiases" type="Convolution" version="opset1">
			<data auto_pad="explicit" dilations="1,1" pads_begin="0,0" pads_end="0,0" strides="1,1"/>
			<input>
				<port id="0">
					<dim>1</dim>
					<dim>32</dim>
					<dim>1</dim>
					<dim>1</dim>
				</port>
				<port id="1">
					<dim>2</dim>
					<dim>32</dim>
					<dim>1</dim>
					<dim>1</dim>
				</port>
			</input>
			<output>
				<port id="2" precision="FP16">
					<dim>1</dim>
					<dim>2</dim>
					<dim>1</dim>
					<dim>1</dim>
				</port>
			</output>
		</layer>
		<layer id="505" name="618/Dims12944129429630" type="Const" version="opset1">
			<data element_type="f16" offset="11474" shape="1,2,1,1" size="4"/>
			<output>
				<port id="0" precision="FP16">
					<dim>1</dim>
					<dim>2</dim>
					<dim>1</dim>
					<dim>1</dim>
				</port>
			</output>
		</layer>
		<layer id="506" name="618" type="Add" version="opset1">
			<data auto_broadcast="numpy"/>
			<input>
				<port id="0">
					<dim>1</dim>
					<dim>2</dim>
					<dim>1</dim>
					<dim>1</dim>
				</port>
				<port id="1">
					<dim>1</dim>
					<dim>2</dim>
					<dim>1</dim>
					<dim>1</dim>
				</port>
			</input>
			<output>
				<port id="2" names="618" precision="FP16">
					<dim>1</dim>
					<dim>2</dim>
					<dim>1</dim>
					<dim>1</dim>
				</port>
			</output>
		</layer>
		<layer id="507" name="619" type="ReLU" version="opset1">
			<input>
				<port id="0">
					<dim>1</dim>
					<dim>2</dim>
					<dim>1</dim>
					<dim>1</dim>
				</port>
			</input>
			<output>
				<port id="1" names="619" precision="FP16">
					<dim>1</dim>
					<dim>2</dim>
					<dim>1</dim>
					<dim>1</dim>
				</port>
			</output>
		</layer>
		<layer id="508" name="conv2.0.gate.fc2.weight44287129733194" type="Const" version="opset1">
			<data element_type="f16" offset="11478" shape="32,2,1,1" size="128"/>
			<output>
				<port id="0" names="conv2.0.gate.fc2.weight" precision="FP16">
					<dim>32</dim>
					<dim>2</dim>
					<dim>1</dim>
					<dim>1</dim>
				</port>
			</output>
		</layer>
		<layer id="509" name="620/WithoutBiases" type="Convolution" version="opset1">
			<data auto_pad="explicit" dilations="1,1" pads_begin="0,0" pads_end="0,0" strides="1,1"/>
			<input>
				<port id="0">
					<dim>1</dim>
					<dim>2</dim>
					<dim>1</dim>
					<dim>1</dim>
				</port>
				<port id="1">
					<dim>32</dim>
					<dim>2</dim>
					<dim>1</dim>
					<dim>1</dim>
				</port>
			</input>
			<output>
				<port id="2" precision="FP16">
					<dim>1</dim>
					<dim>32</dim>
					<dim>1</dim>
					<dim>1</dim>
				</port>
			</output>
		</layer>
		<layer id="510" name="620/Dims12998129931139" type="Const" version="opset1">
			<data element_type="f16" offset="11606" shape="1,32,1,1" size="64"/>
			<output>
				<port id="0" precision="FP16">
					<dim>1</dim>
					<dim>32</dim>
					<dim>1</dim>
					<dim>1</dim>
				</port>
			</output>
		</layer>
		<layer id="511" name="620" type="Add" version="opset1">
			<data auto_broadcast="numpy"/>
			<input>
				<port id="0">
					<dim>1</dim>
					<dim>32</dim>
					<dim>1</dim>
					<dim>1</dim>
				</port>
				<port id="1">
					<dim>1</dim>
					<dim>32</dim>
					<dim>1</dim>
					<dim>1</dim>
				</port>
			</input>
			<output>
				<port id="2" names="620" precision="FP16">
					<dim>1</dim>
					<dim>32</dim>
					<dim>1</dim>
					<dim>1</dim>
				</port>
			</output>
		</layer>
		<layer id="512" name="621" type="Sigmoid" version="opset1">
			<input>
				<port id="0">
					<dim>1</dim>
					<dim>32</dim>
					<dim>1</dim>
					<dim>1</dim>
				</port>
			</input>
			<output>
				<port id="1" names="621" precision="FP16">
					<dim>1</dim>
					<dim>32</dim>
					<dim>1</dim>
					<dim>1</dim>
				</port>
			</output>
		</layer>
		<layer id="513" name="622/fq_input_1" type="FakeQuantize" version="opset1">
			<data auto_broadcast="numpy" levels="256"/>
			<input>
				<port id="0">
					<dim>1</dim>
					<dim>32</dim>
					<dim>1</dim>
					<dim>1</dim>
				</port>
				<port id="1"/>
				<port id="2"/>
				<port id="3"/>
				<port id="4"/>
			</input>
			<output>
				<port id="5" precision="FP16">
					<dim>1</dim>
					<dim>32</dim>
					<dim>1</dim>
					<dim>1</dim>
				</port>
			</output>
		</layer>
		<layer id="514" name="622" type="Multiply" version="opset1">
			<data auto_broadcast="numpy"/>
			<input>
				<port id="0">
					<dim>1</dim>
					<dim>32</dim>
					<dim>64</dim>
					<dim>32</dim>
				</port>
				<port id="1">
					<dim>1</dim>
					<dim>32</dim>
					<dim>1</dim>
					<dim>1</dim>
				</port>
			</input>
			<output>
				<port id="2" names="622" precision="FP16">
					<dim>1</dim>
					<dim>32</dim>
					<dim>64</dim>
					<dim>32</dim>
				</port>
			</output>
		</layer>
		<layer id="515" name="623/fq_input_1" type="FakeQuantize" version="opset1">
			<data auto_broadcast="numpy" levels="256"/>
			<input>
				<port id="0">
					<dim>1</dim>
					<dim>32</dim>
					<dim>64</dim>
					<dim>32</dim>
				</port>
				<port id="1"/>
				<port id="2"/>
				<port id="3"/>
				<port id="4"/>
			</input>
			<output>
				<port id="5" precision="FP16">
					<dim>1</dim>
					<dim>32</dim>
					<dim>64</dim>
					<dim>32</dim>
				</port>
			</output>
		</layer>
		<layer id="516" name="623" type="Add" version="opset1">
			<data auto_broadcast="numpy"/>
			<input>
				<port id="0">
					<dim>1</dim>
					<dim>32</dim>
					<dim>64</dim>
					<dim>32</dim>
				</port>
				<port id="1">
					<dim>1</dim>
					<dim>32</dim>
					<dim>64</dim>
					<dim>32</dim>
				</port>
			</input>
			<output>
				<port id="2" names="623" precision="FP16">
					<dim>1</dim>
					<dim>32</dim>
					<dim>64</dim>
					<dim>32</dim>
				</port>
			</output>
		</layer>
		<layer id="517" name="630/fq_input_0" type="FakeQuantize" version="opset1">
			<data auto_broadcast="numpy" levels="256"/>
			<input>
				<port id="0">
					<dim>1</dim>
					<dim>32</dim>
					<dim>64</dim>
					<dim>32</dim>
				</port>
				<port id="1"/>
				<port id="2"/>
				<port id="3"/>
				<port id="4"/>
			</input>
			<output>
				<port id="5" precision="FP16">
					<dim>1</dim>
					<dim>32</dim>
					<dim>64</dim>
					<dim>32</dim>
				</port>
			</output>
		</layer>
		<layer id="518" name="7327733131886" type="Const" version="opset1">
			<data element_type="f16" offset="1544" shape="" size="2"/>
			<output>
				<port id="0" precision="FP16"/>
			</output>
		</layer>
		<layer id="519" name="7328733232108" type="Const" version="opset1">
			<data element_type="f16" offset="15198" shape="" size="2"/>
			<output>
				<port id="0" precision="FP16"/>
			</output>
		</layer>
		<layer id="520" name="7329733328301" type="Const" version="opset1">
			<data element_type="f16" offset="1544" shape="" size="2"/>
			<output>
				<port id="0" precision="FP16"/>
			</output>
		</layer>
		<layer id="521" name="7330733431241" type="Const" version="opset1">
			<data element_type="f16" offset="15198" shape="" size="2"/>
			<output>
				<port id="0" precision="FP16"/>
			</output>
		</layer>
		<layer id="522" name="5447545133758" type="Const" version="opset1">
			<data element_type="f16" offset="1544" shape="" size="2"/>
			<output>
				<port id="0" precision="FP16"/>
			</output>
		</layer>
		<layer id="523" name="5448545230002" type="Const" version="opset1">
			<data element_type="f16" offset="15200" shape="" size="2"/>
			<output>
				<port id="0" precision="FP16"/>
			</output>
		</layer>
		<layer id="524" name="5449545331967" type="Const" version="opset1">
			<data element_type="f16" offset="1544" shape="" size="2"/>
			<output>
				<port id="0" precision="FP16"/>
			</output>
		</layer>
		<layer id="525" name="5450545433299" type="Const" version="opset1">
			<data element_type="f16" offset="15200" shape="" size="2"/>
			<output>
				<port id="0" precision="FP16"/>
			</output>
		</layer>
		<layer id="526" name="4217422132966" type="Const" version="opset1">
			<data element_type="f16" offset="1544" shape="" size="2"/>
			<output>
				<port id="0" precision="FP16"/>
			</output>
		</layer>
		<layer id="527" name="4218422231457" type="Const" version="opset1">
			<data element_type="f16" offset="15202" shape="" size="2"/>
			<output>
				<port id="0" precision="FP16"/>
			</output>
		</layer>
		<layer id="528" name="4219422332075" type="Const" version="opset1">
			<data element_type="f16" offset="1544" shape="" size="2"/>
			<output>
				<port id="0" precision="FP16"/>
			</output>
		</layer>
		<layer id="529" name="4220422429927" type="Const" version="opset1">
			<data element_type="f16" offset="15202" shape="" size="2"/>
			<output>
				<port id="0" precision="FP16"/>
			</output>
		</layer>
		<layer id="530" name="7687769132603" type="Const" version="opset1">
			<data element_type="f16" offset="15204" shape="1,32,1,1" size="64"/>
			<output>
				<port id="0" precision="FP16">
					<dim>1</dim>
					<dim>32</dim>
					<dim>1</dim>
					<dim>1</dim>
				</port>
			</output>
		</layer>
		<layer id="531" name="7688769229726" type="Const" version="opset1">
			<data element_type="f16" offset="15268" shape="1,32,1,1" size="64"/>
			<output>
				<port id="0" precision="FP16">
					<dim>1</dim>
					<dim>32</dim>
					<dim>1</dim>
					<dim>1</dim>
				</port>
			</output>
		</layer>
		<layer id="532" name="7689769330653" type="Const" version="opset1">
			<data element_type="f16" offset="15204" shape="1,32,1,1" size="64"/>
			<output>
				<port id="0" precision="FP16">
					<dim>1</dim>
					<dim>32</dim>
					<dim>1</dim>
					<dim>1</dim>
				</port>
			</output>
		</layer>
		<layer id="533" name="7690769433437" type="Const" version="opset1">
			<data element_type="f16" offset="15268" shape="1,32,1,1" size="64"/>
			<output>
				<port id="0" precision="FP16">
					<dim>1</dim>
					<dim>32</dim>
					<dim>1</dim>
					<dim>1</dim>
				</port>
			</output>
		</layer>
		<layer id="534" name="2892289430176" type="Const" version="opset1">
			<data element_type="f16" offset="3234" shape="1,32,1,1" size="64"/>
			<output>
				<port id="0" precision="FP16">
					<dim>1</dim>
					<dim>32</dim>
					<dim>1</dim>
					<dim>1</dim>
				</port>
			</output>
		</layer>
		<layer id="535" name="7117712132930" type="Const" version="opset1">
			<data element_type="f16" offset="1544" shape="" size="2"/>
			<output>
				<port id="0" precision="FP16"/>
			</output>
		</layer>
		<layer id="536" name="7118712228649" type="Const" version="opset1">
			<data element_type="f16" offset="15332" shape="" size="2"/>
			<output>
				<port id="0" precision="FP16"/>
			</output>
		</layer>
		<layer id="537" name="7119712330362" type="Const" version="opset1">
			<data element_type="f16" offset="1544" shape="" size="2"/>
			<output>
				<port id="0" precision="FP16"/>
			</output>
		</layer>
		<layer id="538" name="7120712433563" type="Const" version="opset1">
			<data element_type="f16" offset="15332" shape="" size="2"/>
			<output>
				<port id="0" precision="FP16"/>
			</output>
		</layer>
		<layer id="539" name="4747475132852" type="Const" version="opset1">
			<data element_type="f16" offset="15334" shape="1,32,1,1" size="64"/>
			<output>
				<port id="0" precision="FP16">
					<dim>1</dim>
					<dim>32</dim>
					<dim>1</dim>
					<dim>1</dim>
				</port>
			</output>
		</layer>
		<layer id="540" name="4748475231769" type="Const" version="opset1">
			<data element_type="f16" offset="15398" shape="1,32,1,1" size="64"/>
			<output>
				<port id="0" precision="FP16">
					<dim>1</dim>
					<dim>32</dim>
					<dim>1</dim>
					<dim>1</dim>
				</port>
			</output>
		</layer>
		<layer id="541" name="4749475328304" type="Const" version="opset1">
…
		<edge from-layer="2788" from-port="2" to-layer="2789" to-port="0"/>
		<edge from-layer="2789" from-port="1" to-layer="2790" to-port="0"/>
		<edge from-layer="61" from-port="0" to-layer="2790" to-port="1"/>
		<edge from-layer="62" from-port="0" to-layer="2790" to-port="2"/>
		<edge from-layer="63" from-port="0" to-layer="2790" to-port="3"/>
		<edge from-layer="64" from-port="0" to-layer="2790" to-port="4"/>
		<edge from-layer="2791" from-port="0" to-layer="2792" to-port="0"/>
		<edge from-layer="2792" from-port="1" to-layer="2794" to-port="0"/>
		<edge from-layer="2793" from-port="0" to-layer="2794" to-port="1"/>
		<edge from-layer="2794" from-port="2" to-layer="2796" to-port="0"/>
		<edge from-layer="2795" from-port="0" to-layer="2796" to-port="1"/>
		<edge from-layer="2790" from-port="5" to-layer="2797" to-port="0"/>
		<edge from-layer="2796" from-port="2" to-layer="2797" to-port="1"/>
		<edge from-layer="2797" from-port="2" to-layer="2798" to-port="0"/>
		<edge from-layer="60" from-port="0" to-layer="2798" to-port="1"/>
		<edge from-layer="2798" from-port="2" to-layer="2799" to-port="0"/>
		<edge from-layer="56" from-port="0" to-layer="2799" to-port="1"/>
		<edge from-layer="57" from-port="0" to-layer="2799" to-port="2"/>
		<edge from-layer="58" from-port="0" to-layer="2799" to-port="3"/>
		<edge from-layer="59" from-port="0" to-layer="2799" to-port="4"/>
		<edge from-layer="2801" from-port="0" to-layer="2802" to-port="0"/>
		<edge from-layer="2802" from-port="1" to-layer="2804" to-port="0"/>
		<edge from-layer="2803" from-port="0" to-layer="2804" to-port="1"/>
		<edge from-layer="2804" from-port="2" to-layer="2806" to-port="0"/>
		<edge from-layer="2805" from-port="0" to-layer="2806" to-port="1"/>
		<edge from-layer="2806" from-port="2" to-layer="2807" to-port="0"/>
		<edge from-layer="2800" from-port="0" to-layer="2807" to-port="1"/>
		<edge from-layer="2799" from-port="5" to-layer="2808" to-port="0"/>
		<edge from-layer="2807" from-port="2" to-layer="2808" to-port="1"/>
		<edge from-layer="2808" from-port="2" to-layer="2810" to-port="0"/>
		<edge from-layer="2809" from-port="0" to-layer="2810" to-port="1"/>
		<edge from-layer="2810" from-port="2" to-layer="2811" to-port="0"/>
		<edge from-layer="2811" from-port="1" to-layer="2812" to-port="0"/>
		<edge from-layer="52" from-port="0" to-layer="2812" to-port="1"/>
		<edge from-layer="53" from-port="0" to-layer="2812" to-port="2"/>
		<edge from-layer="54" from-port="0" to-layer="2812" to-port="3"/>
		<edge from-layer="55" from-port="0" to-layer="2812" to-port="4"/>
		<edge from-layer="2811" from-port="1" to-layer="2814" to-port="0"/>
		<edge from-layer="2814" from-port="1" to-layer="2815" to-port="0"/>
		<edge from-layer="2815" from-port="1" to-layer="2817" to-port="0"/>
		<edge from-layer="2816" from-port="0" to-layer="2817" to-port="1"/>
		<edge from-layer="2813" from-port="0" to-layer="2819" to-port="0"/>
		<edge from-layer="2817" from-port="2" to-layer="2819" to-port="1"/>
		<edge from-layer="2818" from-port="0" to-layer="2819" to-port="2"/>
		<edge from-layer="2812" from-port="5" to-layer="2820" to-port="0"/>
		<edge from-layer="2819" from-port="3" to-layer="2820" to-port="1"/>
		<edge from-layer="2820" from-port="2" to-layer="2821" to-port="0"/>
		<edge from-layer="48" from-port="0" to-layer="2821" to-port="1"/>
		<edge from-layer="49" from-port="0" to-layer="2821" to-port="2"/>
		<edge from-layer="50" from-port="0" to-layer="2821" to-port="3"/>
		<edge from-layer="51" from-port="0" to-layer="2821" to-port="4"/>
		<edge from-layer="2821" from-port="5" to-layer="2822" to-port="0"/>
		<edge from-layer="47" from-port="0" to-layer="2822" to-port="1"/>
		<edge from-layer="2822" from-port="2" to-layer="2823" to-port="0"/>
		<edge from-layer="2823" from-port="1" to-layer="2824" to-port="0"/>
		<edge from-layer="2824" from-port="1" to-layer="2826" to-port="0"/>
		<edge from-layer="2825" from-port="0" to-layer="2826" to-port="1"/>
		<edge from-layer="46" from-port="0" to-layer="2828" to-port="0"/>
		<edge from-layer="2826" from-port="2" to-layer="2828" to-port="1"/>
		<edge from-layer="2827" from-port="0" to-layer="2828" to-port="2"/>
		<edge from-layer="2822" from-port="2" to-layer="2829" to-port="0"/>
		<edge from-layer="2828" from-port="3" to-layer="2829" to-port="1"/>
		<edge from-layer="2829" from-port="2" to-layer="2831" to-port="0"/>
		<edge from-layer="2830" from-port="0" to-layer="2831" to-port="1"/>
		<edge from-layer="2831" from-port="2" to-layer="2833" to-port="0"/>
		<edge from-layer="2832" from-port="0" to-layer="2833" to-port="1"/>
		<edge from-layer="2833" from-port="2" to-layer="2834" to-port="0"/>
		<edge from-layer="42" from-port="0" to-layer="2834" to-port="1"/>
		<edge from-layer="43" from-port="0" to-layer="2834" to-port="2"/>
		<edge from-layer="44" from-port="0" to-layer="2834" to-port="3"/>
		<edge from-layer="45" from-port="0" to-layer="2834" to-port="4"/>
		<edge from-layer="2820" from-port="2" to-layer="2835" to-port="0"/>
		<edge from-layer="2834" from-port="5" to-layer="2836" to-port="0"/>
		<edge from-layer="2835" from-port="1" to-layer="2836" to-port="1"/>
		<edge from-layer="2836" from-port="2" to-layer="2837" to-port="0"/>
		<edge from-layer="41" from-port="0" to-layer="2837" to-port="1"/>
		<edge from-layer="2837" from-port="2" to-layer="2839" to-port="0"/>
		<edge from-layer="2838" from-port="0" to-layer="2839" to-port="1"/>
		<edge from-layer="2839" from-port="2" to-layer="2840" to-port="0"/>
		<edge from-layer="2840" from-port="1" to-layer="2841" to-port="0"/>
		<edge from-layer="37" from-port="0" to-layer="2841" to-port="1"/>
		<edge from-layer="38" from-port="0" to-layer="2841" to-port="2"/>
		<edge from-layer="39" from-port="0" to-layer="2841" to-port="3"/>
		<edge from-layer="40" from-port="0" to-layer="2841" to-port="4"/>
		<edge from-layer="2812" from-port="5" to-layer="2842" to-port="0"/>
		<edge from-layer="2841" from-port="5" to-layer="2842" to-port="1"/>
		<edge from-layer="2842" from-port="2" to-layer="2843" to-port="0"/>
		<edge from-layer="33" from-port="0" to-layer="2843" to-port="1"/>
		<edge from-layer="34" from-port="0" to-layer="2843" to-port="2"/>
		<edge from-layer="35" from-port="0" to-layer="2843" to-port="3"/>
		<edge from-layer="36" from-port="0" to-layer="2843" to-port="4"/>
		<edge from-layer="2881" from-port="0" to-layer="2882" to-port="0"/>
		<edge from-layer="2882" from-port="1" to-layer="2884" to-port="0"/>
		<edge from-layer="2883" from-port="0" to-layer="2884" to-port="1"/>
		<edge from-layer="2884" from-port="2" to-layer="2886" to-port="0"/>
		<edge from-layer="2885" from-port="0" to-layer="2886" to-port="1"/>
		<edge from-layer="2790" from-port="5" to-layer="2887" to-port="0"/>
		<edge from-layer="2886" from-port="2" to-layer="2887" to-port="1"/>
		<edge from-layer="2887" from-port="2" to-layer="2888" to-port="0"/>
		<edge from-layer="2880" from-port="0" to-layer="2888" to-port="1"/>
		<edge from-layer="2888" from-port="2" to-layer="2889" to-port="0"/>
		<edge from-layer="2876" from-port="0" to-layer="2889" to-port="1"/>
		<edge from-layer="2877" from-port="0" to-layer="2889" to-port="2"/>
		<edge from-layer="2878" from-port="0" to-layer="2889" to-port="3"/>
		<edge from-layer="2879" from-port="0" to-layer="2889" to-port="4"/>
		<edge from-layer="2891" from-port="0" to-layer="2892" to-port="0"/>
		<edge from-layer="2892" from-port="1" to-layer="2894" to-port="0"/>
		<edge from-layer="2893" from-port="0" to-layer="2894" to-port="1"/>
		<edge from-layer="2894" from-port="2" to-layer="2896" to-port="0"/>
		<edge from-layer="2895" from-port="0" to-layer="2896" to-port="1"/>
		<edge from-layer="2896" from-port="2" to-layer="2897" to-port="0"/>
		<edge from-layer="2890" from-port="0" to-layer="2897" to-port="1"/>
		<edge from-layer="2889" from-port="5" to-layer="2898" to-port="0"/>
		<edge from-layer="2897" from-port="2" to-layer="2898" to-port="1"/>
		<edge from-layer="2898" from-port="2" to-layer="2900" to-port="0"/>
		<edge from-layer="2899" from-port="0" to-layer="2900" to-port="1"/>
		<edge from-layer="2900" from-port="2" to-layer="2901" to-port="0"/>
		<edge from-layer="2901" from-port="1" to-layer="2902" to-port="0"/>
		<edge from-layer="2872" from-port="0" to-layer="2902" to-port="1"/>
		<edge from-layer="2873" from-port="0" to-layer="2902" to-port="2"/>
		<edge from-layer="2874" from-port="0" to-layer="2902" to-port="3"/>
		<edge from-layer="2875" from-port="0" to-layer="2902" to-port="4"/>
		<edge from-layer="2903" from-port="0" to-layer="2904" to-port="0"/>
		<edge from-layer="2904" from-port="1" to-layer="2906" to-port="0"/>
		<edge from-layer="2905" from-port="0" to-layer="2906" to-port="1"/>
		<edge from-layer="2906" from-port="2" to-layer="2908" to-port="0"/>
		<edge from-layer="2907" from-port="0" to-layer="2908" to-port="1"/>
		<edge from-layer="2902" from-port="5" to-layer="2909" to-port="0"/>
		<edge from-layer="2908" from-port="2" to-layer="2909" to-port="1"/>
		<edge from-layer="2909" from-port="2" to-layer="2910" to-port="0"/>
		<edge from-layer="2871" from-port="0" to-layer="2910" to-port="1"/>
		<edge from-layer="2910" from-port="2" to-layer="2911" to-port="0"/>
		<edge from-layer="2867" from-port="0" to-layer="2911" to-port="1"/>
		<edge from-layer="2868" from-port="0" to-layer="2911" to-port="2"/>
		<edge from-layer="2869" from-port="0" to-layer="2911" to-port="3"/>
		<edge from-layer="2870" from-port="0" to-layer="2911" to-port="4"/>
		<edge from-layer="2913" from-port="0" to-layer="2914" to-port="0"/>
		<edge from-layer="2914" from-port="1" to-layer="2916" to-port="0"/>
		<edge from-layer="2915" from-port="0" to-layer="2916" to-port="1"/>
		<edge from-layer="2916" from-port="2" to-layer="2918" to-port="0"/>
		<edge from-layer="2917" from-port="0" to-layer="2918" to-port="1"/>
		<edge from-layer="2918" from-port="2" to-layer="2919" to-port="0"/>
		<edge from-layer="2912" from-port="0" to-layer="2919" to-port="1"/>
		<edge from-layer="2911" from-port="5" to-layer="2920" to-port="0"/>
		<edge from-layer="2919" from-port="2" to-layer="2920" to-port="1"/>
		<edge from-layer="2920" from-port="2" to-layer="2922" to-port="0"/>
		<edge from-layer="2921" from-port="0" to-layer="2922" to-port="1"/>
		<edge from-layer="2922" from-port="2" to-layer="2923" to-port="0"/>
		<edge from-layer="2923" from-port="1" to-layer="2924" to-port="0"/>
		<edge from-layer="2863" from-port="0" to-layer="2924" to-port="1"/>
		<edge from-layer="2864" from-port="0" to-layer="2924" to-port="2"/>
		<edge from-layer="2865" from-port="0" to-layer="2924" to-port="3"/>
		<edge from-layer="2866" from-port="0" to-layer="2924" to-port="4"/>
		<edge from-layer="2923" from-port="1" to-layer="2926" to-port="0"/>
		<edge from-layer="2926" from-port="1" to-layer="2927" to-port="0"/>
		<edge from-layer="2927" from-port="1" to-layer="2929" to-port="0"/>
		<edge from-layer="2928" from-port="0" to-layer="2929" to-port="1"/>
		<edge from-layer="2925" from-port="0" to-layer="2931" to-port="0"/>
		<edge from-layer="2929" from-port="2" to-layer="2931" to-port="1"/>
		<edge from-layer="2930" from-port="0" to-layer="2931" to-port="2"/>
		<edge from-layer="2924" from-port="5" to-layer="2932" to-port="0"/>
		<edge from-layer="2931" from-port="3" to-layer="2932" to-port="1"/>
		<edge from-layer="2932" from-port="2" to-layer="2933" to-port="0"/>
		<edge from-layer="2859" from-port="0" to-layer="2933" to-port="1"/>
		<edge from-layer="2860" from-port="0" to-layer="2933" to-port="2"/>
		<edge from-layer="2861" from-port="0" to-layer="2933" to-port="3"/>
		<edge from-layer="2862" from-port="0" to-layer="2933" to-port="4"/>
		<edge from-layer="2933" from-port="5" to-layer="2934" to-port="0"/>
		<edge from-layer="2858" from-port="0" to-layer="2934" to-port="1"/>
		<edge from-layer="2934" from-port="2" to-layer="2935" to-port="0"/>
		<edge from-layer="2935" from-port="1" to-layer="2936" to-port="0"/>
		<edge from-layer="2936" from-port="1" to-layer="2938" to-port="0"/>
		<edge from-layer="2937" from-port="0" to-layer="2938" to-port="1"/>
		<edge from-layer="2857" from-port="0" to-layer="2940" to-port="0"/>
		<edge from-layer="2938" from-port="2" to-layer="2940" to-port="1"/>
		<edge from-layer="2939" from-port="0" to-layer="2940" to-port="2"/>
		<edge from-layer="2934" from-port="2" to-layer="2941" to-port="0"/>
		<edge from-layer="2940" from-port="3" to-layer="2941" to-port="1"/>
		<edge from-layer="2941" from-port="2" to-layer="2943" to-port="0"/>
		<edge from-layer="2942" from-port="0" to-layer="2943" to-port="1"/>
		<edge from-layer="2943" from-port="2" to-layer="2945" to-port="0"/>
		<edge from-layer="2944" from-port="0" to-layer="2945" to-port="1"/>
		<edge from-layer="2945" from-port="2" to-layer="2946" to-port="0"/>
		<edge from-layer="2853" from-port="0" to-layer="2946" to-port="1"/>
		<edge from-layer="2854" from-port="0" to-layer="2946" to-port="2"/>
		<edge from-layer="2855" from-port="0" to-layer="2946" to-port="3"/>
		<edge from-layer="2856" from-port="0" to-layer="2946" to-port="4"/>
		<edge from-layer="2932" from-port="2" to-layer="2947" to-port="0"/>
		<edge from-layer="2946" from-port="5" to-layer="2948" to-port="0"/>
		<edge from-layer="2947" from-port="1" to-layer="2948" to-port="1"/>
		<edge from-layer="2948" from-port="2" to-layer="2949" to-port="0"/>
		<edge from-layer="2852" from-port="0" to-layer="2949" to-port="1"/>
		<edge from-layer="2949" from-port="2" to-layer="2951" to-port="0"/>
		<edge from-layer="2950" from-port="0" to-layer="2951" to-port="1"/>
		<edge from-layer="2951" from-port="2" to-layer="2952" to-port="0"/>
		<edge from-layer="2952" from-port="1" to-layer="2953" to-port="0"/>
		<edge from-layer="2848" from-port="0" to-layer="2953" to-port="1"/>
		<edge from-layer="2849" from-port="0" to-layer="2953" to-port="2"/>
		<edge from-layer="2850" from-port="0" to-layer="2953" to-port="3"/>
		<edge from-layer="2851" from-port="0" to-layer="2953" to-port="4"/>
		<edge from-layer="2924" from-port="5" to-layer="2954" to-port="0"/>
		<edge from-layer="2953" from-port="5" to-layer="2954" to-port="1"/>
		<edge from-layer="2954" from-port="2" to-layer="2955" to-port="0"/>
		<edge from-layer="2844" from-port="0" to-layer="2955" to-port="1"/>
		<edge from-layer="2845" from-port="0" to-layer="2955" to-port="2"/>
		<edge from-layer="2846" from-port="0" to-layer="2955" to-port="3"/>
		<edge from-layer="2847" from-port="0" to-layer="2955" to-port="4"/>
		<edge from-layer="2843" from-port="5" to-layer="2956" to-port="0"/>
		<edge from-layer="2955" from-port="5" to-layer="2956" to-port="1"/>
		<edge from-layer="2956" from-port="2" to-layer="2957" to-port="0"/>
		<edge from-layer="29" from-port="0" to-layer="2957" to-port="1"/>
		<edge from-layer="30" from-port="0" to-layer="2957" to-port="2"/>
		<edge from-layer="31" from-port="0" to-layer="2957" to-port="3"/>
		<edge from-layer="32" from-port="0" to-layer="2957" to-port="4"/>
		<edge from-layer="3004" from-port="0" to-layer="3005" to-port="0"/>
		<edge from-layer="3005" from-port="1" to-layer="3007" to-port="0"/>
		<edge from-layer="3006" from-port="0" to-layer="3007" to-port="1"/>
		<edge from-layer="3007" from-port="2" to-layer="3009" to-port="0"/>
		<edge from-layer="3008" from-port="0" to-layer="3009" to-port="1"/>
		<edge from-layer="2790" from-port="5" to-layer="3010" to-port="0"/>
		<edge from-layer="3009" from-port="2" to-layer="3010" to-port="1"/>
		<edge from-layer="3010" from-port="2" to-layer="3011" to-port="0"/>
		<edge from-layer="3003" from-port="0" to-layer="3011" to-port="1"/>
		<edge from-layer="3011" from-port="2" to-layer="3012" to-port="0"/>
		<edge from-layer="2999" from-port="0" to-layer="3012" to-port="1"/>
		<edge from-layer="3000" from-port="0" to-layer="3012" to-port="2"/>
		<edge from-layer="3001" from-port="0" to-layer="3012" to-port="3"/>
		<edge from-layer="3002" from-port="0" to-layer="3012" to-port="4"/>
		<edge from-layer="3014" from-port="0" to-layer="3015" to-port="0"/>
		<edge from-layer="3015" from-port="1" to-layer="3017" to-port="0"/>
		<edge from-layer="3016" from-port="0" to-layer="3017" to-port="1"/>
		<edge from-layer="3017" from-port="2" to-layer="3019" to-port="0"/>
		<edge from-layer="3018" from-port="0" to-layer="3019" to-port="1"/>
		<edge from-layer="3019" from-port="2" to-layer="3020" to-port="0"/>
		<edge from-layer="3013" from-port="0" to-layer="3020" to-port="1"/>
		<edge from-layer="3012" from-port="5" to-layer="3021" to-port="0"/>
		<edge from-layer="3020" from-port="2" to-layer="3021" to-port="1"/>
		<edge from-layer="3021" from-port="2" to-layer="3023" to-port="0"/>
		<edge from-layer="3022" from-port="0" to-layer="3023" to-port="1"/>
		<edge from-layer="3023" from-port="2" to-layer="3024" to-port="0"/>
		<edge from-layer="3024" from-port="1" to-layer="3025" to-port="0"/>
		<edge from-layer="2995" from-port="0" to-layer="3025" to-port="1"/>
		<edge from-layer="2996" from-port="0" to-layer="3025" to-port="2"/>
		<edge from-layer="2997" from-port="0" to-layer="3025" to-port="3"/>
		<edge from-layer="2998" from-port="0" to-layer="3025" to-port="4"/>
		<edge from-layer="3026" from-port="0" to-layer="3027" to-port="0"/>
		<edge from-layer="3027" from-port="1" to-layer="3029" to-port="0"/>
		<edge from-layer="3028" from-port="0" to-layer="3029" to-port="1"/>
		<edge from-layer="3029" from-port="2" to-layer="3031" to-port="0"/>
		<edge from-layer="3030" from-port="0" to-layer="3031" to-port="1"/>
		<edge from-layer="3025" from-port="5" to-layer="3032" to-port="0"/>
		<edge from-layer="3031" from-port="2" to-layer="3032" to-port="1"/>
		<edge from-layer="3032" from-port="2" to-layer="3033" to-port="0"/>
		<edge from-layer="2994" from-port="0" to-layer="3033" to-port="1"/>
		<edge from-layer="3033" from-port="2" to-layer="3034" to-port="0"/>
		<edge from-layer="2990" from-port="0" to-layer="3034" to-port="1"/>
		<edge from-layer="2991" from-port="0" to-layer="3034" to-port="2"/>
		<edge from-layer="2992" from-port="0" to-layer="3034" to-port="3"/>
		<edge from-layer="2993" from-port="0" to-layer="3034" to-port="4"/>
		<edge from-layer="3036" from-port="0" to-layer="3037" to-port="0"/>
		<edge from-layer="3037" from-port="1" to-layer="3039" to-port="0"/>
		<edge from-layer="3038" from-port="0" to-layer="3039" to-port="1"/>
		<edge from-layer="3039" from-port="2" to-layer="3041" to-port="0"/>
		<edge from-layer="3040" from-port="0" to-layer="3041" to-port="1"/>
		<edge from-layer="3041" from-port="2" to-layer="3042" to-port="0"/>
		<edge from-layer="3035" from-port="0" to-layer="3042" to-port="1"/>
		<edge from-layer="3034" from-port="5" to-layer="3043" to-port="0"/>
		<edge from-layer="3042" from-port="2" to-layer="3043" to-port="1"/>
		<edge from-layer="3043" from-port="2" to-layer="3045" to-port="0"/>
		<edge from-layer="3044" from-port="0" to-layer="3045" to-port="1"/>
		<edge from-layer="3045" from-port="2" to-layer="3046" to-port="0"/>
		<edge from-layer="3046" from-port="1" to-layer="3047" to-port="0"/>
		<edge from-layer="2986" from-port="0" to-layer="3047" to-port="1"/>
		<edge from-layer="2987" from-port="0" to-layer="3047" to-port="2"/>
		<edge from-layer="2988" from-port="0" to-layer="3047" to-port="3"/>
		<edge from-layer="2989" from-port="0" to-layer="3047" to-port="4"/>
		<edge from-layer="3048" from-port="0" to-layer="3049" to-port="0"/>
		<edge from-layer="3049" from-port="1" to-layer="3051" to-port="0"/>
		<edge from-layer="3050" from-port="0" to-layer="3051" to-port="1"/>
		<edge from-layer="3051" from-port="2" to-layer="3053" to-port="0"/>
		<edge from-layer="3052" from-port="0" to-layer="3053" to-port="1"/>
		<edge from-layer="3047" from-port="5" to-layer="3054" to-port="0"/>
		<edge from-layer="3053" from-port="2" to-layer="3054" to-port="1"/>
		<edge from-layer="3054" from-port="2" to-layer="3055" to-port="0"/>
		<edge from-layer="2985" from-port="0" to-layer="3055" to-port="1"/>
		<edge from-layer="3055" from-port="2" to-layer="3056" to-port="0"/>
		<edge from-layer="2981" from-port="0" to-layer="3056" to-port="1"/>
		<edge from-layer="2982" from-port="0" to-layer="3056" to-port="2"/>
		<edge from-layer="2983" from-port="0" to-layer="3056" to-port="3"/>
		<edge from-layer="2984" from-port="0" to-layer="3056" to-port="4"/>
		<edge from-layer="3058" from-port="0" to-layer="3059" to-port="0"/>
		<edge from-layer="3059" from-port="1" to-layer="3061" to-port="0"/>
		<edge from-layer="3060" from-port="0" to-layer="3061" to-port="1"/>
		<edge from-layer="3061" from-port="2" to-layer="3063" to-port="0"/>
		<edge from-layer="3062" from-port="0" to-layer="3063" to-port="1"/>
		<edge from-layer="3063" from-port="2" to-layer="3064" to-port="0"/>
		<edge from-layer="3057" from-port="0" to-layer="3064" to-port="1"/>
		<edge from-layer="3056" from-port="5" to-layer="3065" to-port="0"/>
		<edge from-layer="3064" from-port="2" to-layer="3065" to-port="1"/>
		<edge from-layer="3065" from-port="2" to-layer="3067" to-port="0"/>
		<edge from-layer="3066" from-port="0" to-layer="3067" to-port="1"/>
		<edge from-layer="3067" from-port="2" to-layer="3068" to-port="0"/>
		<edge from-layer="3068" from-port="1" to-layer="3069" to-port="0"/>
		<edge from-layer="2977" from-port="0" to-layer="3069" to-port="1"/>
		<edge from-layer="2978" from-port="0" to-layer="3069" to-port="2"/>
		<edge from-layer="2979" from-port="0" to-layer="3069" to-port="3"/>
		<edge from-layer="2980" from-port="0" to-layer="3069" to-port="4"/>
		<edge from-layer="3068" from-port="1" to-layer="3071" to-port="0"/>
		<edge from-layer="3071" from-port="1" to-layer="3072" to-port="0"/>
		<edge from-layer="3072" from-port="1" to-layer="3074" to-port="0"/>
		<edge from-layer="3073" from-port="0" to-layer="3074" to-port="1"/>
		<edge from-layer="3070" from-port="0" to-layer="3076" to-port="0"/>
		<edge from-layer="3074" from-port="2" to-layer="3076" to-port="1"/>
		<edge from-layer="3075" from-port="0" to-layer="3076" to-port="2"/>
		<edge from-layer="3069" from-port="5" to-layer="3077" to-port="0"/>
		<edge from-layer="3076" from-port="3" to-layer="3077" to-port="1"/>
		<edge from-layer="3077" from-port="2" to-layer="3078" to-port="0"/>
		<edge from-layer="2973" from-port="0" to-layer="3078" to-port="1"/>
		<edge from-layer="2974" from-port="0" to-layer="3078" to-port="2"/>
		<edge from-layer="2975" from-port="0" to-layer="3078" to-port="3"/>
		<edge from-layer="2976" from-port="0" to-layer="3078" to-port="4"/>
		<edge from-layer="3078" from-port="5" to-layer="3079" to-port="0"/>
		<edge from-layer="2972" from-port="0" to-layer="3079" to-port="1"/>
		<edge from-layer="3079" from-port="2" to-layer="3080" to-port="0"/>
		<edge from-layer="3080" from-port="1" to-layer="3081" to-port="0"/>
		<edge from-layer="3081" from-port="1" to-layer="3083" to-port="0"/>
		<edge from-layer="3082" from-port="0" to-layer="3083" to-port="1"/>
		<edge from-layer="2971" from-port="0" to-layer="3085" to-port="0"/>
		<edge from-layer="3083" from-port="2" to-layer="3085" to-port="1"/>
		<edge from-layer="3084" from-port="0" to-layer="3085" to-port="2"/>
		<edge from-layer="3079" from-port="2" to-layer="3086" to-port="0"/>
		<edge from-layer="3085" from-port="3" to-layer="3086" to-port="1"/>
		<edge from-layer="3086" from-port="2" to-layer="3088" to-port="0"/>
		<edge from-layer="3087" from-port="0" to-layer="3088" to-port="1"/>
		<edge from-layer="3088" from-port="2" to-layer="3090" to-port="0"/>
		<edge from-layer="3089" from-port="0" to-layer="3090" to-port="1"/>
		<edge from-layer="3090" from-port="2" to-layer="3091" to-port="0"/>
		<edge from-layer="2967" from-port="0" to-layer="3091" to-port="1"/>
		<edge from-layer="2968" from-port="0" to-layer="3091" to-port="2"/>
		<edge from-layer="2969" from-port="0" to-layer="3091" to-port="3"/>
		<edge from-layer="2970" from-port="0" to-layer="3091" to-port="4"/>
		<edge from-layer="3077" from-port="2" to-layer="3092" to-port="0"/>
		<edge from-layer="3091" from-port="5" to-layer="3093" to-port="0"/>
		<edge from-layer="3092" from-port="1" to-layer="3093" to-port="1"/>
		<edge from-layer="3093" from-port="2" to-layer="3094" to-port="0"/>
		<edge from-layer="2966" from-port="0" to-layer="3094" to-port="1"/>
		<edge from-layer="3094" from-port="2" to-layer="3096" to-port="0"/>
		<edge from-layer="3095" from-port="0" to-layer="3096" to-port="1"/>
		<edge from-layer="3096" from-port="2" to-layer="3097" to-port="0"/>
		<edge from-layer="3097" from-port="1" to-layer="3098" to-port="0"/>
		<edge from-layer="2962" from-port="0" to-layer="3098" to-port="1"/>
		<edge from-layer="2963" from-port="0" to-layer="3098" to-port="2"/>
		<edge from-layer="2964" from-port="0" to-layer="3098" to-port="3"/>
		<edge from-layer="2965" from-port="0" to-layer="3098" to-port="4"/>
		<edge from-layer="3069" from-port="5" to-layer="3099" to-port="0"/>
		<edge from-layer="3098" from-port="5" to-layer="3099" to-port="1"/>
		<edge from-layer="3099" from-port="2" to-layer="3100" to-port="0"/>
		<edge from-layer="2958" from-port="0" to-layer="3100" to-port="1"/>
		<edge from-layer="2959" from-port="0" to-layer="3100" to-port="2"/>
		<edge from-layer="2960" from-port="0" to-layer="3100" to-port="3"/>
		<edge from-layer="2961" from-port="0" to-layer="3100" to-port="4"/>
		<edge from-layer="2957" from-port="5" to-layer="3101" to-port="0"/>
		<edge from-layer="3100" from-port="5" to-layer="3101" to-port="1"/>
		<edge from-layer="3101" from-port="2" to-layer="3102" to-port="0"/>
		<edge from-layer="25" from-port="0" to-layer="3102" to-port="1"/>
		<edge from-layer="26" from-port="0" to-layer="3102" to-port="2"/>
		<edge from-layer="27" from-port="0" to-layer="3102" to-port="3"/>
		<edge from-layer="28" from-port="0" to-layer="3102" to-port="4"/>
		<edge from-layer="3158" from-port="0" to-layer="3159" to-port="0"/>
		<edge from-layer="3159" from-port="1" to-layer="3161" to-port="0"/>
		<edge from-layer="3160" from-port="0" to-layer="3161" to-port="1"/>
		<edge from-layer="3161" from-port="2" to-layer="3163" to-port="0"/>
		<edge from-layer="3162" from-port="0" to-layer="3163" to-port="1"/>
		<edge from-layer="2790" from-port="5" to-layer="3164" to-port="0"/>
		<edge from-layer="3163" from-port="2" to-layer="3164" to-port="1"/>
		<edge from-layer="3164" from-port="2" to-layer="3165" to-port="0"/>
		<edge from-layer="3157" from-port="0" to-layer="3165" to-port="1"/>
		<edge from-layer="3165" from-port="2" to-layer="3166" to-port="0"/>
		<edge from-layer="3153" from-port="0" to-layer="3166" to-port="1"/>
		<edge from-layer="3154" from-port="0" to-layer="3166" to-port="2"/>
		<edge from-layer="3155" from-port="0" to-layer="3166" to-port="3"/>
		<edge from-layer="3156" from-port="0" to-layer="3166" to-port="4"/>
		<edge from-layer="3168" from-port="0" to-layer="3169" to-port="0"/>
		<edge from-layer="3169" from-port="1" to-layer="3171" to-port="0"/>
		<edge from-layer="3170" from-port="0" to-layer="3171" to-port="1"/>
		<edge from-layer="3171" from-port="2" to-layer="3173" to-port="0"/>
		<edge from-layer="3172" from-port="0" to-layer="3173" to-port="1"/>
		<edge from-layer="3173" from-port="2" to-layer="3174" to-port="0"/>
		<edge from-layer="3167" from-port="0" to-layer="3174" to-port="1"/>
		<edge from-layer="3166" from-port="5" to-layer="3175" to-port="0"/>
		<edge from-layer="3174" from-port="2" to-layer="3175" to-port="1"/>
		<edge from-layer="3175" from-port="2" to-layer="3177" to-port="0"/>
		<edge from-layer="3176" from-port="0" to-layer="3177" to-port="1"/>
		<edge from-layer="3177" from-port="2" to-layer="3178" to-port="0"/>
		<edge from-layer="3178" from-port="1" to-layer="3179" to-port="0"/>
		<edge from-layer="3149" from-port="0" to-layer="3179" to-port="1"/>
		<edge from-layer="3150" from-port="0" to-layer="3179" to-port="2"/>
		<edge from-layer="3151" from-port="0" to-layer="3179" to-port="3"/>
		<edge from-layer="3152" from-port="0" to-layer="3179" to-port="4"/>
		<edge from-layer="3180" from-port="0" to-layer="3181" to-port="0"/>
		<edge from-layer="3181" from-port="1" to-layer="3183" to-port="0"/>
		<edge from-layer="3182" from-port="0" to-layer="3183" to-port="1"/>
		<edge from-layer="3183" from-port="2" to-layer="3185" to-port="0"/>
		<edge from-layer="3184" from-port="0" to-layer="3185" to-port="1"/>
		<edge from-layer="3179" from-port="5" to-layer="3186" to-port="0"/>
		<edge from-layer="3185" from-port="2" to-layer="3186" to-port="1"/>
		<edge from-layer="3186" from-port="2" to-layer="3187" to-port="0"/>
		<edge from-layer="3148" from-port="0" to-layer="3187" to-port="1"/>
		<edge from-layer="3187" from-port="2" to-layer="3188" to-port="0"/>
		<edge from-layer="3144" from-port="0" to-layer="3188" to-port="1"/>
		<edge from-layer="3145" from-port="0" to-layer="3188" to-port="2"/>
		<edge from-layer="3146" from-port="0" to-layer="3188" to-port="3"/>
		<edge from-layer="3147" from-port="0" to-layer="3188" to-port="4"/>
		<edge from-layer="3190" from-port="0" to-layer="3191" to-port="0"/>
		<edge from-layer="3191" from-port="1" to-layer="3193" to-port="0"/>
		<edge from-layer="3192" from-port="0" to-layer="3193" to-port="1"/>
		<edge from-layer="3193" from-port="2" to-layer="3195" to-port="0"/>
		<edge from-layer="3194" from-port="0" to-layer="3195" to-port="1"/>
		<edge from-layer="3195" from-port="2" to-layer="3196" to-port="0"/>
		<edge from-layer="3189" from-port="0" to-layer="3196" to-port="1"/>
		<edge from-layer="3188" from-port="5" to-layer="3197" to-port="0"/>
		<edge from-layer="3196" from-port="2" to-layer="3197" to-port="1"/>
		<edge from-layer="3197" from-port="2" to-layer="3199" to-port="0"/>
		<edge from-layer="3198" from-port="0" to-layer="3199" to-port="1"/>
		<edge from-layer="3199" from-port="2" to-layer="3200" to-port="0"/>
		<edge from-layer="3200" from-port="1" to-layer="3201" to-port="0"/>
		<edge from-layer="3140" from-port="0" to-layer="3201" to-port="1"/>
		<edge from-layer="3141" from-port="0" to-layer="3201" to-port="2"/>
		<edge from-layer="3142" from-port="0" to-layer="3201" to-port="3"/>
		<edge from-layer="3143" from-port="0" to-layer="3201" to-port="4"/>
		<edge from-layer="3202" from-port="0" to-layer="3203" to-port="0"/>
		<edge from-layer="3203" from-port="1" to-layer="3205" to-port="0"/>
		<edge from-layer="3204" from-port="0" to-layer="3205" to-port="1"/>
		<edge from-layer="3205" from-port="2" to-layer="3207" to-port="0"/>
		<edge from-layer="3206" from-port="0" to-layer="3207" to-port="1"/>
		<edge from-layer="3201" from-port="5" to-layer="3208" to-port="0"/>
		<edge from-layer="3207" from-port="2" to-layer="3208" to-port="1"/>
		<edge from-layer="3208" from-port="2" to-layer="3209" to-port="0"/>
		<edge from-layer="3139" from-port="0" to-layer="3209" to-port="1"/>
		<edge from-layer="3209" from-port="2" to-layer="3210" to-port="0"/>
		<edge from-layer="3135" from-port="0" to-layer="3210" to-port="1"/>
		<edge from-layer="3136" from-port="0" to-layer="3210" to-port="2"/>
		<edge from-layer="3137" from-port="0" to-layer="3210" to-port="3"/>
		<edge from-layer="3138" from-port="0" to-layer="3210" to-port="4"/>
		<edge from-layer="3212" from-port="0" to-layer="3213" to-port="0"/>
		<edge from-layer="3213" from-port="1" to-layer="3215" to-port="0"/>
		<edge from-layer="3214" from-port="0" to-layer="3215" to-port="1"/>
		<edge from-layer="3215" from-port="2" to-layer="3217" to-port="0"/>
		<edge from-layer="3216" from-port="0" to-layer="3217" to-port="1"/>
		<edge from-layer="3217" from-port="2" to-layer="3218" to-port="0"/>
		<edge from-layer="3211" from-port="0" to-layer="3218" to-port="1"/>
		<edge from-layer="3210" from-port="5" to-layer="3219" to-port="0"/>
		<edge from-layer="3218" from-port="2" to-layer="3219" to-port="1"/>
		<edge from-layer="3219" from-port="2" to-layer="3221" to-port="0"/>
		<edge from-layer="3220" from-port="0" to-layer="3221" to-port="1"/>
		<edge from-layer="3221" from-port="2" to-layer="3222" to-port="0"/>
		<edge from-layer="3222" from-port="1" to-layer="3223" to-port="0"/>
		<edge from-layer="3131" from-port="0" to-layer="3223" to-port="1"/>
		<edge from-layer="3132" from-port="0" to-layer="3223" to-port="2"/>
		<edge from-layer="3133" from-port="0" to-layer="3223" to-port="3"/>
		<edge from-layer="3134" from-port="0" to-layer="3223" to-port="4"/>
		<edge from-layer="3224" from-port="0" to-layer="3225" to-port="0"/>
		<edge from-layer="3225" from-port="1" to-layer="3227" to-port="0"/>
		<edge from-layer="3226" from-port="0" to-layer="3227" to-port="1"/>
		<edge from-layer="3227" from-port="2" to-layer="3229" to-port="0"/>
		<edge from-layer="3228" from-port="0" to-layer="3229" to-port="1"/>
		<edge from-layer="3223" from-port="5" to-layer="3230" to-port="0"/>
		<edge from-layer="3229" from-port="2" to-layer="3230" to-port="1"/>
		<edge from-layer="3230" from-port="2" to-layer="3231" to-port="0"/>
		<edge from-layer="3130" from-port="0" to-layer="3231" to-port="1"/>
		<edge from-layer="3231" from-port="2" to-layer="3232" to-port="0"/>
		<edge from-layer="3126" from-port="0" to-layer="3232" to-port="1"/>
		<edge from-layer="3127" from-port="0" to-layer="3232" to-port="2"/>
		<edge from-layer="3128" from-port="0" to-layer="3232" to-port="3"/>
		<edge from-layer="3129" from-port="0" to-layer="3232" to-port="4"/>
		<edge from-layer="3234" from-port="0" to-layer="3235" to-port="0"/>
		<edge from-layer="3235" from-port="1" to-layer="3237" to-port="0"/>
		<edge from-layer="3236" from-port="0" to-layer="3237" to-port="1"/>
		<edge from-layer="3237" from-port="2" to-layer="3239" to-port="0"/>
		<edge from-layer="3238" from-port="0" to-layer="3239" to-port="1"/>
		<edge from-layer="3239" from-port="2" to-layer="3240" to-port="0"/>
		<edge from-layer="3233" from-port="0" to-layer="3240" to-port="1"/>
		<edge from-layer="3232" from-port="5" to-layer="3241" to-port="0"/>
		<edge from-layer="3240" from-port="2" to-layer="3241" to-port="1"/>
		<edge from-layer="3241" from-port="2" to-layer="3243" to-port="0"/>
		<edge from-layer="3242" from-port="0" to-layer="3243" to-port="1"/>
		<edge from-layer="3243" from-port="2" to-layer="3244" to-port="0"/>
		<edge from-layer="3244" from-port="1" to-layer="3245" to-port="0"/>
		<edge from-layer="3122" from-port="0" to-layer="3245" to-port="1"/>
		<edge from-layer="3123" from-port="0" to-layer="3245" to-port="2"/>
		<edge from-layer="3124" from-port="0" to-layer="3245" to-port="3"/>
		<edge from-layer="3125" from-port="0" to-layer="3245" to-port="4"/>
		<edge from-layer="3244" from-port="1" to-layer="3247" to-port="0"/>
		<edge from-layer="3247" from-port="1" to-layer="3248" to-port="0"/>
		<edge from-layer="3248" from-port="1" to-layer="3250" to-port="0"/>
		<edge from-layer="3249" from-port="0" to-layer="3250" to-port="1"/>
		<edge from-layer="3246" from-port="0" to-layer="3252" to-port="0"/>
		<edge from-layer="3250" from-port="2" to-layer="3252" to-port="1"/>
		<edge from-layer="3251" from-port="0" to-layer="3252" to-port="2"/>
		<edge from-layer="3245" from-port="5" to-layer="3253" to-port="0"/>
		<edge from-layer="3252" from-port="3" to-layer="3253" to-port="1"/>
		<edge from-layer="3253" from-port="2" to-layer="3254" to-port="0"/>
		<edge from-layer="3118" from-port="0" to-layer="3254" to-port="1"/>
		<edge from-layer="3119" from-port="0" to-layer="3254" to-port="2"/>
		<edge from-layer="3120" from-port="0" to-layer="3254" to-port="3"/>
		<edge from-layer="3121" from-port="0" to-layer="3254" to-port="4"/>
		<edge from-layer="3254" from-port="5" to-layer="3255" to-port="0"/>
		<edge from-layer="3117" from-port="0" to-layer="3255" to-port="1"/>
		<edge from-layer="3255" from-port="2" to-layer="3256" to-port="0"/>
		<edge from-layer="3256" from-port="1" to-layer="3257" to-port="0"/>
		<edge from-layer="3257" from-port="1" to-layer="3259" to-port="0"/>
		<edge from-layer="3258" from-port="0" to-layer="3259" to-port="1"/>
		<edge from-layer="3116" from-port="0" to-layer="3261" to-port="0"/>
		<edge from-layer="3259" from-port="2" to-layer="3261" to-port="1"/>
		<edge from-layer="3260" from-port="0" to-layer="3261" to-port="2"/>
		<edge from-layer="3255" from-port="2" to-layer="3262" to-port="0"/>
		<edge from-layer="3261" from-port="3" to-layer="3262" to-port="1"/>
		<edge from-layer="3262" from-port="2" to-layer="3264" to-port="0"/>
		<edge from-layer="3263" from-port="0" to-layer="3264" to-port="1"/>
		<edge from-layer="3264" from-port="2" to-layer="3266" to-port="0"/>
		<edge from-layer="3265" from-port="0" to-layer="3266" to-port="1"/>
		<edge from-layer="3266" from-port="2" to-layer="3267" to-port="0"/>
		<edge from-layer="3112" from-port="0" to-layer="3267" to-port="1"/>
		<edge from-layer="3113" from-port="0" to-layer="3267" to-port="2"/>
		<edge from-layer="3114" from-port="0" to-layer="3267" to-port="3"/>
		<edge from-layer="3115" from-port="0" to-layer="3267" to-port="4"/>
		<edge from-layer="3253" from-port="2" to-layer="3268" to-port="0"/>
		<edge from-layer="3267" from-port="5" to-layer="3269" to-port="0"/>
		<edge from-layer="3268" from-port="1" to-layer="3269" to-port="1"/>
		<edge from-layer="3269" from-port="2" to-layer="3270" to-port="0"/>
		<edge from-layer="3111" from-port="0" to-layer="3270" to-port="1"/>
		<edge from-layer="3270" from-port="2" to-layer="3272" to-port="0"/>
		<edge from-layer="3271" from-port="0" to-layer="3272" to-port="1"/>
		<edge from-layer="3272" from-port="2" to-layer="3273" to-port="0"/>
		<edge from-layer="3273" from-port="1" to-layer="3274" to-port="0"/>
		<edge from-layer="3107" from-port="0" to-layer="3274" to-port="1"/>
		<edge from-layer="3108" from-port="0" to-layer="3274" to-port="2"/>
		<edge from-layer="3109" from-port="0" to-layer="3274" to-port="3"/>
		<edge from-layer="3110" from-port="0" to-layer="3274" to-port="4"/>
		<edge from-layer="3245" from-port="5" to-layer="3275" to-port="0"/>
		<edge from-layer="3274" from-port="5" to-layer="3275" to-port="1"/>
		<edge from-layer="3275" from-port="2" to-layer="3276" to-port="0"/>
		<edge from-layer="3103" from-port="0" to-layer="3276" to-port="1"/>
		<edge from-layer="3104" from-port="0" to-layer="3276" to-port="2"/>
		<edge from-layer="3105" from-port="0" to-layer="3276" to-port="3"/>
		<edge from-layer="3106" from-port="0" to-layer="3276" to-port="4"/>
		<edge from-layer="3102" from-port="5" to-layer="3277" to-port="0"/>
		<edge from-layer="3276" from-port="5" to-layer="3277" to-port="1"/>
		<edge from-layer="3277" from-port="2" to-layer="3278" to-port="0"/>
		<edge from-layer="21" from-port="0" to-layer="3278" to-port="1"/>
		<edge from-layer="22" from-port="0" to-layer="3278" to-port="2"/>
		<edge from-layer="23" from-port="0" to-layer="3278" to-port="3"/>
		<edge from-layer="24" from-port="0" to-layer="3278" to-port="4"/>
		<edge from-layer="3279" from-port="0" to-layer="3280" to-port="0"/>
		<edge from-layer="3280" from-port="1" to-layer="3282" to-port="0"/>
		<edge from-layer="3281" from-port="0" to-layer="3282" to-port="1"/>
		<edge from-layer="3282" from-port="2" to-layer="3284" to-port="0"/>
		<edge from-layer="3283" from-port="0" to-layer="3284" to-port="1"/>
		<edge from-layer="3278" from-port="5" to-layer="3285" to-port="0"/>
		<edge from-layer="3284" from-port="2" to-layer="3285" to-port="1"/>
		<edge from-layer="3285" from-port="2" to-layer="3287" to-port="0"/>
		<edge from-layer="3286" from-port="0" to-layer="3287" to-port="1"/>
		<edge from-layer="3287" from-port="2" to-layer="3288" to-port="0"/>
		<edge from-layer="17" from-port="0" to-layer="3288" to-port="1"/>
		<edge from-layer="18" from-port="0" to-layer="3288" to-port="2"/>
		<edge from-layer="19" from-port="0" to-layer="3288" to-port="3"/>
		<edge from-layer="20" from-port="0" to-layer="3288" to-port="4"/>
		<edge from-layer="3288" from-port="5" to-layer="3289" to-port="0"/>
		<edge from-layer="2779" from-port="5" to-layer="3289" to-port="1"/>
		<edge from-layer="3289" from-port="2" to-layer="3290" to-port="0"/>
		<edge from-layer="3290" from-port="1" to-layer="3291" to-port="0"/>
		<edge from-layer="13" from-port="0" to-layer="3291" to-port="1"/>
		<edge from-layer="14" from-port="0" to-layer="3291" to-port="2"/>
		<edge from-layer="15" from-port="0" to-layer="3291" to-port="3"/>
		<edge from-layer="16" from-port="0" to-layer="3291" to-port="4"/>
		<edge from-layer="3292" from-port="0" to-layer="3293" to-port="0"/>
		<edge from-layer="3293" from-port="1" to-layer="3295" to-port="0"/>
		<edge from-layer="3294" from-port="0" to-layer="3295" to-port="1"/>
		<edge from-layer="3295" from-port="2" to-layer="3297" to-port="0"/>
		<edge from-layer="3296" from-port="0" to-layer="3297" to-port="1"/>
		<edge from-layer="3291" from-port="5" to-layer="3298" to-port="0"/>
		<edge from-layer="3297" from-port="2" to-layer="3298" to-port="1"/>
		<edge from-layer="3298" from-port="2" to-layer="3300" to-port="0"/>
		<edge from-layer="3299" from-port="0" to-layer="3300" to-port="1"/>
		<edge from-layer="3300" from-port="2" to-layer="3301" to-port="0"/>
		<edge from-layer="3301" from-port="1" to-layer="3302" to-port="0"/>
		<edge from-layer="9" from-port="0" to-layer="3302" to-port="1"/>
		<edge from-layer="10" from-port="0" to-layer="3302" to-port="2"/>
		<edge from-layer="11" from-port="0" to-layer="3302" to-port="3"/>
		<edge from-layer="12" from-port="0" to-layer="3302" to-port="4"/>
		<edge from-layer="3304" from-port="0" to-layer="3305" to-port="0"/>
		<edge from-layer="3305" from-port="1" to-layer="3307" to-port="0"/>
		<edge from-layer="3306" from-port="0" to-layer="3307" to-port="1"/>
		<edge from-layer="3307" from-port="2" to-layer="3309" to-port="0"/>
		<edge from-layer="3308" from-port="0" to-layer="3309" to-port="1"/>
		<edge from-layer="3309" from-port="2" to-layer="3310" to-port="0"/>
		<edge from-layer="3303" from-port="0" to-layer="3310" to-port="1"/>
		<edge from-layer="3302" from-port="5" to-layer="3311" to-port="0"/>
		<edge from-layer="3310" from-port="2" to-layer="3311" to-port="1"/>
		<edge from-layer="3311" from-port="2" to-layer="3313" to-port="0"/>
		<edge from-layer="3312" from-port="0" to-layer="3313" to-port="1"/>
		<edge from-layer="3313" from-port="2" to-layer="3314" to-port="0"/>
		<edge from-layer="5" from-port="0" to-layer="3314" to-port="1"/>
		<edge from-layer="6" from-port="0" to-layer="3314" to-port="2"/>
		<edge from-layer="7" from-port="0" to-layer="3314" to-port="3"/>
		<edge from-layer="8" from-port="0" to-layer="3314" to-port="4"/>
		<edge from-layer="3313" from-port="2" to-layer="3315" to-port="0"/>
		<edge from-layer="3315" from-port="1" to-layer="3318" to-port="0"/>
		<edge from-layer="3316" from-port="0" to-layer="3318" to-port="1"/>
		<edge from-layer="3317" from-port="0" to-layer="3318" to-port="2"/>
		<edge from-layer="3318" from-port="3" to-layer="3320" to-port="0"/>
		<edge from-layer="3319" from-port="0" to-layer="3320" to-port="1"/>
		<edge from-layer="3320" from-port="2" to-layer="3322" to-port="0"/>
		<edge from-layer="3321" from-port="0" to-layer="3322" to-port="1"/>
		<edge from-layer="3314" from-port="5" to-layer="3323" to-port="0"/>
		<edge from-layer="3322" from-port="2" to-layer="3323" to-port="1"/>
		<edge from-layer="3324" from-port="0" to-layer="3325" to-port="0"/>
		<edge from-layer="3325" from-port="1" to-layer="3327" to-port="0"/>
		<edge from-layer="3326" from-port="0" to-layer="3327" to-port="1"/>
		<edge from-layer="3327" from-port="2" to-layer="3329" to-port="0"/>
		<edge from-layer="3328" from-port="0" to-layer="3329" to-port="1"/>
		<edge from-layer="3323" from-port="2" to-layer="3330" to-port="0"/>
		<edge from-layer="3329" from-port="2" to-layer="3330" to-port="1"/>
		<edge from-layer="3330" from-port="2" to-layer="3332" to-port="0"/>
		<edge from-layer="3331" from-port="0" to-layer="3332" to-port="1"/>
		<edge from-layer="3332" from-port="2" to-layer="3333" to-port="0"/>
		<edge from-layer="1" from-port="0" to-layer="3333" to-port="1"/>
		<edge from-layer="2" from-port="0" to-layer="3333" to-port="2"/>
		<edge from-layer="3" from-port="0" to-layer="3333" to-port="3"/>
		<edge from-layer="4" from-port="0" to-layer="3333" to-port="4"/>
		<edge from-layer="3323" from-port="2" to-layer="3334" to-port="0"/>
		<edge from-layer="3334" from-port="1" to-layer="3337" to-port="0"/>
		<edge from-layer="3335" from-port="0" to-layer="3337" to-port="1"/>
		<edge from-layer="3336" from-port="0" to-layer="3337" to-port="2"/>
		<edge from-layer="3337" from-port="3" to-layer="3339" to-port="0"/>
		<edge from-layer="3338" from-port="0" to-layer="3339" to-port="1"/>
		<edge from-layer="3339" from-port="2" to-layer="3342" to-port="0"/>
		<edge from-layer="3340" from-port="0" to-layer="3342" to-port="1"/>
		<edge from-layer="3341" from-port="0" to-layer="3342" to-port="2"/>
		<edge from-layer="3333" from-port="5" to-layer="3343" to-port="0"/>
		<edge from-layer="3342" from-port="3" to-layer="3343" to-port="1"/>
		<edge from-layer="3343" from-port="2" to-layer="3344" to-port="0"/>
		<edge from-layer="0" from-port="0" to-layer="3344" to-port="1"/>
		<edge from-layer="3344" from-port="2" to-layer="3346" to-port="0"/>
		<edge from-layer="3345" from-port="0" to-layer="3346" to-port="1"/>
		<edge from-layer="3346" from-port="2" to-layer="3348" to-port="0"/>
		<edge from-layer="3347" from-port="0" to-layer="3348" to-port="1"/>
		<edge from-layer="3348" from-port="2" to-layer="3349" to-port="0"/>
		<edge from-layer="3349" from-port="1" to-layer="3352" to-port="0"/>
		<edge from-layer="3350" from-port="0" to-layer="3352" to-port="1"/>
		<edge from-layer="3351" from-port="0" to-layer="3352" to-port="2"/>
		<edge from-layer="3352" from-port="3" to-layer="3354" to-port="0"/>
		<edge from-layer="3353" from-port="0" to-layer="3354" to-port="1"/>
		<edge from-layer="3354" from-port="2" to-layer="3356" to-port="0"/>
		<edge from-layer="3355" from-port="0" to-layer="3356" to-port="1"/>
		<edge from-layer="3348" from-port="2" to-layer="3357" to-port="0"/>
		<edge from-layer="3356" from-port="2" to-layer="3357" to-port="1"/>
		<edge from-layer="3357" from-port="2" to-layer="3358" to-port="0"/>
	</edges>
	<meta_data>
		<MO_version value="custom_HEAD_149c43044cb1e8ed8cd4f3f196b23f7b3f129a36"/>
		<cli_parameters>
			<caffe_parser_path value="DIR"/>
			<data_type value="FP16"/>
			<disable_nhwc_to_nchw value="False"/>
			<disable_omitting_optional value="False"/>
			<disable_resnet_optimization value="False"/>
			<disable_weights_compression value="False"/>
			<enable_concat_optimization value="False"/>
			<enable_flattening_nested_params value="False"/>
			<enable_ssd_gluoncv value="False"/>
			<extensions value="DIR"/>
			<framework value="onnx"/>
			<freeze_placeholder_with_value value="{}"/>
			<generate_deprecated_IR_V7 value="False"/>
			<input value="data"/>
			<input_model value="DIR/person-reidentification-retail-0287.onnx"/>
			<input_model_is_text value="False"/>
			<input_shape value="[1,3,256,128]"/>
			<k value="DIR/CustomLayersMapping.xml"/>
			<keep_shape_ops value="True"/>
			<legacy_ir_generation value="False"/>
			<legacy_mxnet_model value="False"/>
			<log_level value="ERROR"/>
			<mean_scale_values value="{'data': {'mean': array([123.675, 116.28 , 103.53 ]), 'scale': array([58.395, 57.12 , 57.375])}}"/>
			<mean_values value="data[123.675,116.28,103.53]"/>
			<model_name value="person-reidentification-retail-0287"/>
			<output value="['reid_embedding']"/>
			<output_dir value="DIR"/>
			<placeholder_data_types value="{}"/>
			<placeholder_shapes value="{'data': array([  1,   3, 256, 128])}"/>
			<progress value="False"/>
			<remove_memory value="False"/>
			<remove_output_softmax value="False"/>
			<reverse_input_channels value="True"/>
			<save_params_from_nd value="False"/>
			<scale_values value="data[58.395,57.12,57.375]"/>
			<silent value="False"/>
			<static_shape value="False"/>
			<stream_output value="False"/>
			<transform value=""/>
			<unset unset_cli_parameters="batch, counts, disable_fusing, disable_gfusing, finegrain_fusing, input_checkpoint, input_meta_graph, input_proto, input_symbol, mean_file, mean_file_offsets, move_to_preprocess, nd_prefix_name, pretrained_model_name, saved_model_dir, saved_model_tags, scale, tensorboard_logdir, tensorflow_custom_layer_libraries, tensorflow_custom_operations_config_update, tensorflow_object_detection_api_pipeline_config, tensorflow_use_custom_operations_config, transformations_config"/>
		</cli_parameters>
	</meta_data>
	<quantization_parameters>
		<config>{
		'compression': {
			'algorithms': [
				{
					'name': 'DefaultQuantization',
					'params': {
						'num_samples_for_tuning': 2000,
						'preset': 'performance',
						'stat_subset_size': 300,
						'use_layerwise_tuning': false
					}
				}
			],
			'dump_intermediate_model': true,
			'target_device': 'ANY'
		},
		'engine': {
			'models': [
				{
					'name': 'person-reidentification-retail-0287',
					'launchers': [
						{
							'framework': 'dlsdk',
							'adapter': 'reid',
							'device': 'CPU'
						}
					],
					'datasets': [
						{
							'name': 'market1501',
							'data_source': 'PATH',
							'annotation_conversion': {
								'converter': 'market1501_reid',
								'data_dir': 'PATH'
							},
							'annotation': 'PATH',
							'preprocessing': [
								{
									'type': 'resize',
									'dst_width': 128,
									'dst_height': 256,
									'use_pillow': true,
									'interpolation': 'BILINEAR'
								}
							],
							'metrics': [
								{
									'name': 'rank@1',
									'type': 'cmc',
									'top_k': 1
								},
								{
									'type': 'reid_map'
								}
							],
							'_command_line_mapping': {
								'data_dir': 'PATH'
							}
						}
					]
				}
			],
			'stat_requests_number': null,
			'eval_requests_number': null,
			'type': 'accuracy_checker'
		}
	}</config>
		<version value="1.0"/>
		<cli_params value="{'quantize': None, 'preset': None, 'model': None, 'weights': None, 'name': None, 'ac_config': None, 'max_drop': None, 'evaluate': False, 'output_dir': 'PATH', 'direct_dump': True, 'log_level': 'INFO', 'pbar': False, 'stream_output': False, 'keep_uncompressed_weights': False}"/>
	</quantization_parameters>
</net>
